csv_and_models/vanilla_dqn/vanilla_lunar_500.pth (torch, 279212 bytes, 6 tensors)

fc1.weight f4 [256, 8]
00000000: 3bad b33d 36ae 593e d5ac d73c 72c9 92be
00000010: 993f 303e 849a e53e 54b6 40bf 9317 a4be
00000020: 3da8 4abf 483f 2bbf 0396 053e c1dd 57be
00000030: 412e 5e3d 8379 003e fd68 c6bd eab2 993e
00000040: 786d 243f 65d6 5f3e 46f3 56bd 04a1 e2be
00000050: 71a1 62be ce29 ce3e 389f 2dbf a992 743e
00000060: 5b56 72be a1cb d13e db64 263f 684d 1d3e
00000070: 093d 46bf 277b cb3c 2955 42bd 2585 bdbe
00000080: 3451 8abb 9a57 e5bb dbac 1fbc f6c8 603b
00000090: 1a41 2240 3907 143d c5d6 b5bc 664e 383b
000000a0: 89d9 6cbd 512a 26bf e8f4 5abd 3b07 463d
000000b0: d95d a3be 4b57 cd3d 2316 94be 2188 603d
000000c0: a871 923f 7216 2c3e ac4d 793d 3992 2d3e
000000d0: 8f1e 6cbf 8eac 32be 6a40 833a 27e8 2ebe
000000e0: e60d 9b3f 7fd2 bbbe 612c 953d 1a0e abbd
000000f0: 28f6 0bbf afdc a73d 4f5a 043e 0bfd 823e
00000100: d69c cb3f 804b 833d c1b0 a03e 7430 57bc
00000110: 0e75 07bf 036b 23be 679a e83d 3c34 503e
00000120: 22bc b13d f8a4 2cbe 3fb9 d3bd 5c8d 69be
00000130: e129 9a3f c4a2 a7be 52eb 0b3f 4bc5 79bd
00000140: 76c5 c23e 4c62 dc3e 1ad3 5a3f 4786 8ebe
00000150: 9df3 543f aebe 01bf bfb7 0cbe be5d bfbd
00000160: 57db 8f3e ada1 02be 7165 143f b94a e8bb
00000170: 1ba2 84be 27bf 21bf a66e d9be 3650 83be
00000180: f11f 2fbc c69c 143f 076b 783c 0f92 21bf
00000190: aaf1 213f 782c 13be 2ef1 973d cd45 55bd
000001a0: 8da2 44bf 28b7 353f dbdc a5be 76cf 9c3e
000001b0: b182 813e 1d01 2f3e b394 0abf 431e 15bd
000001c0: 00e4 2e3f 8773 2dbe b523 a2bc e4de 213f
000001d0: 7c68 07bf 4880 713e 467f 3e3e 6c4f 52be
000001e0: 337b cebe 76a5 f7bd 1d5c 483d edba f43e
000001f0: 795b 5cbf 0d15 b0bb d575 bb3d 02d2 623e
00000200: e4f5 c5be 950c 93bd 38c7 83be 20e3 713e
00000210: 1637 ffbe 6900 203e f922 69bd f2db 8ebd
00000220: 19d2 903e da06 5b3e 8726 8cbd 9ecf b23e
00000230: 6e20 f23e 8744 2f3f 1f9c 99bd 63b6 a1bd
00000240: ecc6 ac3b ea21 883b 98f6 56bc 64ca 18bb
00000250: 2229 c53f b3e2 ca3c 25d5 1fbf d509 b6be
00000260: 3144 59bf afaa 75bf 3984 0abf 6a56 d3be
00000270: cd65 173e 9b7c 563d 27a9 5a3e 4c90 8b3d
00000280: a103 9abe 6480 293e de40 f63f c7bc d4be
00000290: fadf bd3d b22e c33c 5a47 f7bc 90e0 46bf
000002a0: 3715 2fbf 8811 6ebf 4f91 be3d cff4 6d3e
000002b0: ed2f 3dbe 1d22 1d3f 5293 1abf d95e a8be
000002c0: 3e80 103e 37bd 9c3d 7f07 cdbd 2c17 9b3e
000002d0: acce b8be 7baf 06bf 03b4 953e 8444 af3c
000002e0: 51fd bbbe f91f 713e d330 56bf b6f3 d1be
000002f0: b70d d33e 5cfc fbbe 5488 973d f62e bdbd
00000300: 2cc2 48bf 5505 d5bf e6b7 9dbe 14f5 363e
00000310: 3bcc 0f3e a6b9 02be 3b86 34be 2d00 91bd
00000320: e49a 67bf d483 e9bd 7f7c 013e f225 bdbe
00000330: c6de 83bd d3f4 af3e a35a 8bbd f6c6 9c3e
00000340: 6562 103f 646c 213e 73a2 e8bd 1ece 193f
00000350: ce81 23bf 2d75 2d3e e7a2 aabe 9c6a 2cbe
00000360: e8c3 8e3f 04db 03bf 73bb 3f3e 1d23 a0bc
00000370: fc58 1a3f 4611 abbe 46ad 38be b8e8 bd3e
00000380: 88a7 aabe 46f8 a4bf a075 babe be5d bdbc
00000390: dab8 b5be 6c3c 90be c5c3 02bf bb57 fabe
000003a0: b434 7b3e 98d8 64c0 a8a3 993e 7531 efbe
000003b0: 1f44 093f e4ef ad3e e421 da3c c89f 8bbe
000003c0: 46ca 113e e71e 7dbf d9b2 6fbf 8d66 133f
000003d0: 6280 c33d aab3 213e a650 85be 5b4d 0bbe
000003e0: 50d3 79be b9f7 a7be f7f4 e63e 40b4 b9bd
000003f0: e9f0 82be d784 8b3e fda6 133e 6b91 223e
0.087732755 0.21257862 0.02632753 -0.28669316 0.1721176 0.4484445 -0.7527821 -0.32049236
-0.7916296 -0.66893435 0.13045506 -0.21080686 0.05424333 0.12546353 -0.09687994 0.30019313
0.64229536 0.21859129 -0.052478097 -0.4426347 -0.22131898 0.4026627 -0.67821074 0.23884071
-0.23665754 0.4097567 0.64997643 0.1536156 -0.7743688 0.024838997 -0.047444496 -0.37015644
-0.004221106 -0.0069989683 -0.009745802 0.003429947 2.5352235 0.0361397 -0.022197137 0.00281229
-0.057824645 -0.6490832 -0.053456217 0.04834674 -0.31907538 0.100264154 -0.2892314 0.054817323
1.1440935 0.16805437 0.06086509 0.16950311 -0.9223413 -0.17448637 0.0010013704 -0.17080747
1.2113616 -0.36684033 0.07283855 -0.08352299 -0.5467248 0.08196389 0.12925075 0.2558368
1.5907238 0.06410885 0.31384853 -0.013134111 -0.52912986 -0.1595879 0.11357575 0.20332426
0.086784616 -0.16859806 -0.10338067 -0.2280783 1.204403 -0.32741368 0.54655945 -0.06097917
0.38041276 0.43043745 0.85478365 -0.2783682 0.83184224 -0.5068158 -0.13741969 -0.09344052
0.2809703 -0.12756987 0.5796729 -0.0070889858 -0.25904927 -0.631823 -0.4246723 -0.25647134
-0.010688768 0.5805172 0.015162236 -0.6311349 0.63259375 -0.14372432 0.07419048 -0.05206852
-0.7681053 0.709826 -0.32395062 0.3062703 0.25295022 0.17090268 -0.54133147 -0.036405813
0.6831665 -0.16938601 -0.019792417 0.6323073 -0.52893806 0.23584092 0.18603238 -0.2053811
-0.4032837 -0.12092106 0.04891597 0.47798863 -0.86077076 -0.005373603 0.09153334 0.22150424
-0.38664162 -0.07180134 -0.2573793 0.23621798 -0.49846715 0.15625156 -0.05691812 -0.06975545
0.28285292 0.21389332 -0.06843286 0.34924024 0.47290367 0.6846394 -0.07500481 -0.07896116
0.005272737 0.0041544335 -0.013120316 -0.0023313994 1.5403178 0.024766302 -0.6243461 -0.35554376
-0.84869677 -0.9596357 -0.54108006 -0.41276866 0.14784928 0.052364927 0.21353589 0.06814632
-0.30080894 0.16552883 1.9238546 -0.41550276 0.09271236 0.023825977 -0.03018539 -0.77686405
-0.68391746 -0.929955 0.09305059 0.23237918 -0.18475313 0.6138018 -0.6038104 -0.32884863
0.1411142 0.07653277 -0.100111954 0.30291116 -0.36095178 -0.5261151 0.292389 0.021394975
-0.36716703 0.23547353 -0.8366825 -0.4100625 0.412214 -0.49215972 0.073990494 -0.09237473
-0.7842128 -1.6642252 -0.30804366 0.17866927 0.14042751 -0.12766132 -0.1762933 -0.07080112
-0.9047072 -0.11402097 0.12645148 -0.36943012 -0.06438975 0.34366474 -0.06804397 0.30620545
0.5640014 0.15764004 -0.1135911 0.60080135 -0.6386994 0.1693923 -0.3332741 -0.16837543
1.1153536 -0.51506066 0.1872385 -0.019547993 0.6029203 -0.33411616 -0.18034849 0.37091613
-0.3333094 -1.2888267 -0.36417866 -0.023115989 -0.35492593 -0.28171098 -0.5107997 -0.48895058
0.24531823 -3.5757198 0.30007672 -0.4671742 0.5361957 0.33972085 0.026627488 -0.2727034
0.14237317 -0.9887528 -0.93632275 0.57578355 0.095459715 0.15791193 -0.26038092 -0.13603728
-0.24397016 -0.32806185 0.45108768 -0.09067583 -0.25574425 0.27249786 0.1441917 0.15875785

fc1.bias f4 [256]
00000000: c8a0 4dbe 6cf0 3c3e 16cb 78be d0f2 963e
00000010: ee06 033c 795c 513f 647a 573e a559 e63e
00000020: e957 b2bd 11f2 b0bd b73f 713c 76cc 033f
00000030: 7082 b3be 9687 a6be aa01 783f 58ca e33e
00000040: 3f41 ae3e 4f1a e73e 9466 1fbb 2d4e 7cbe
00000050: 2227 6bbe c0cf 77be 49c4 e53e aa70 33be
00000060: f470 11be 61c1 b23d d1b4 523f c358 033f
00000070: 5493 adbe 43c9 803d 4473 09bf 4531 d63e
00000080: 302a 0d3f 2d70 cfbd 5e46 8f3b 85a9 8abc
00000090: 99cb 5cbd 966e 64bf d722 f03e d042 9a3b
000000a0: dacf b3bd 721b a8bd b2f9 72be 7230 fcbe
000000b0: d646 a23e f4b3 483e 6340 03bf a9b9 f1be
000000c0: 62a7 13bc 0f7e 153d 87b8 e9bd 1ba5 e83e
000000d0: 17b7 a63e 5989 253f 7ae2 ca3e 8f57 823e
000000e0: f65e c73e cbce 053e a265 13bf bc8c b2be
000000f0: 93e1 ba3e 0d1e 163f 890e 183f ee78 c2be
00000100: 9cbf 343f 5734 803e bab6 41be 6eb6 ec3d
00000110: dec6 00be 93fe 07bd dad1 19bb c814 603f
00000120: ec61 f1be 7b20 e93e 281a 47be 1f86 6c3e
00000130: ec46 cd3d d704 073f 65ae fd3e 4a24 173f
00000140: cd8a ccbd 2e39 1b3f 0658 1b3e b78c 583d
00000150: 2fc2 7bbe 24c7 1d3e fb6a 833e 4bf5 6b3f
00000160: 4afc 053d d84a c43e d07d 1c3f f359 d4be
00000170: d267 f6be 7f32 063e d284 4c3b 145b 05be
00000180: c6be 2c3f 8f67 d4be 5d3a 84be 93f8 eebe
00000190: 744f 123f e478 5abe 2778 7fbe 59a8 a8be
000001a0: 505d f23e 7219 ef3e 021d 97be 64ec 8b3e
000001b0: acf7 0b3e 85dc 86be 6c57 4fbe 583a c1be
000001c0: ad39 233f 8c6b f7be fc97 22be 585c 433f
000001d0: 05b5 ddbd 811a b3bd eb07 4a3f 300d f0be
000001e0: 4b70 32bf 7b84 16bd 3dec bc3e 6dbb 63be
000001f0: 5a01 4abd 0d5c 8ebe 97d0 70bb a402 1f3e
00000200: 5f46 033f 90f8 023f d217 003c ddce 19be
00000210: 1263 67be a17e 3c3d 2004 ae3d bd10 8c3d
00000220: 2c24 dabd e940 c83e d559 bebd a235 093f
00000230: 6128 52bd af99 a93e e0a2 94bd 7b8a 033f
00000240: 4934 8fbe 1787 2cbf d354 d33d 0fe8 423f
00000250: 3562 213f 2e9a ce3d d358 173f ddff 053f
00000260: 81b5 8f3e ba0a 5dbe 4275 173f 5b19 573f
00000270: 0c64 27bf 908a 043f 9925 1f3f 29b1 b83e
00000280: 9ccc 8b3e 1d61 3b3e cae4 27bf 495f 50be
00000290: d42c 33bd ed2e 6f3b 424c 0d3e bb17 023e
000002a0: 8b2e f73e 5af1 a13e 98e7 c9be 0232 153f
000002b0: e36c 54be 4ed4 043d 2323 4dbd 2064 163f
000002c0: a930 0a3f a625 98be f072 03bd 031a b2be
000002d0: 9b97 a6be 2fc7 0c3f 66c4 a83a 30e0 113f
000002e0: b0db 89be 30d1 363e b872 6f3e 1c3d 203f
000002f0: 6852 e4be 961f 9abc 14d9 623e 8750 823e
00000300: 5c26 573e 44f9 2e3e 3d99 f13e b17b ea3e
00000310: b0b6 33be 81e7 efbd 7a39 f8bd 332d 02be
00000320: 8bda 4bbe 9194 9abe 00d6 adbe 234f 913e
00000330: fb73 97be c566 9cbd b2b4 333f e375 8d3c
00000340: f70c 0a3f 7387 ebbd 948d 773e 73d4 20be
00000350: 4b9a 2a3e e8cb d73e f479 513f 9e12 c0be
00000360: c90b 4cbe b090 bd3e 5146 3b3e 724e 273f
00000370: c80b 143f 0e7a b73e 178c cbba 6b5a a33e
00000380: 3285 9abe 321f e83d b315 abbe cf46 783e
00000390: 4771 9a3e 0c40 ff3e 09af 973d 0deb 733d
000003a0: bbd3 dcbd 3f46 183d 9a39 a0be 0641 38bc
000003b0: 90fe 223f 19e6 05bf 8a03 e43b b224 beba
000003c0: cc2f 193f f0c2 303f 2441 1e3d a1ae 72be
000003d0: 4060 e13e 29be aebd f5ea d4be a1e0 62be
000003e0: 6c37 17bd 4ac9 2a3e 938e 4fbc 85e2 be3e
000003f0: 4406 56bd db68 30be 8567 9bbe 2ef0 47bd
-0.20080864 0.18451089 -0.24296221 0.29482126 0.007997258 0.8178173 0.21042782 0.44990268
-0.08708174 -0.086399205 0.014724663 0.5148386 -0.35060453 -0.3252532 0.9687754 0.44490314
0.34034154 0.4513726 -0.0024322616 -0.24639197 -0.22964147 -0.24200344 0.44876316 -0.17523447
-0.14203244 0.0872829 0.82307154 0.51307315 -0.33901465 0.062883876 -0.53691506 0.41834465
0.551425 -0.10128818 0.004372402 -0.016926536 -0.053905103 -0.8923124 0.4690158 0.0047076717
-0.08779879 -0.0820836 -0.23728064 -0.4925571 0.3169467 0.19599897 -0.5127012 -0.4721196
-0.009012075 0.036497172 -0.11412149 0.45438465 0.3256156 0.646627 0.39625913 0.25457427
0.38939637 0.13067167 -0.57576954 -0.34872997 0.36500224 0.58639604 0.5939718 -0.37982887
0.7060487 0.25039932 -0.18917361 0.11558233 -0.12575862 -0.033201765 -0.0023471029 0.8753171
-0.4714502 0.45532593 -0.19443572 0.23098038 0.10023293 0.5274176 0.49547115 0.5903975
-0.09987412 0.60634124 0.15170297 0.05286857 -0.24585794 0.15407997 0.25667557 0.9217116
0.032711305 0.3833835 0.61129475 -0.41474876 -0.48126084 0.131052 0.0031207097 -0.13023025
0.674786 -0.4148526 -0.25825778 -0.46674022 0.57152486 -0.21335179 -0.24948178 -0.3294094
0.47336817 0.466991 -0.2951432 0.2732879 0.13668698 -0.26340118 -0.20248193 -0.37739825
0.6375988 -0.4832424 -0.1587829 0.7631278 -0.10825542 -0.087452896 0.7891833 -0.4688506
-0.69702595 -0.036747437 0.36898986 -0.22239466 -0.049317695 -0.27804604 -0.0036745423 0.15528351
0.5127925 0.51160526 0.007818179 -0.15020318 -0.22596386 0.0460192 0.084968805 0.0683913
-0.106514305 0.39112023 -0.09294478 0.5359746 -0.05130804 0.33125064 -0.072576284 0.5138318
-0.27969578 -0.6739363 0.10318913 0.76135343 0.6304048 0.10088001 0.5911991 0.5234354
0.28068164 -0.21586123 0.59163296 0.84023064 -0.65387034 0.5177393 0.62166744 0.36072662
0.27304542 0.18298765 -0.6558348 -0.20348848 -0.043743923 0.0036496476 0.13798621 0.12704365
0.48277697 0.3162945 -0.39434505 0.5827943 -0.20744662 0.032429032 -0.050082337 0.5874653
0.539805 -0.29716223 -0.032092035 -0.3478547 -0.3253754 0.5499143 0.0012875914 0.5698271
-0.2692542 0.17853236 0.23383605 0.62593246 -0.4459412 -0.01881389 0.22153121 0.25452062
0.21010727 0.17087275 0.47187224 0.45797494 -0.17550159 -0.11714078 -0.12120338 -0.12712555
-0.19907586 -0.30191472 -0.33952332 0.2838069 -0.29580674 -0.07636789 0.70197594 0.017268127
0.5392603 -0.11500444 0.24175102 -0.15706043 0.1666042 0.42147756 0.8182671 -0.37514204
-0.1992637 0.3702445 0.18288542 0.65354073 0.57830477 0.35835308 -0.0015529421 0.3190492
-0.30179745 0.11334075 -0.33414993 0.24245761 0.3016455 0.4985355 0.07406432 0.059550334
-0.10782572 0.037176367 -0.31293947 -0.011245972 0.6366968 -0.52304226 0.0069584297 -0.0014506786
0.5983856 0.6904745 0.03863634 -0.23699428 0.44018745 -0.08532364 -0.41585508 -0.22156002
-0.03691809 0.16678348 -0.01266827 0.37282196 -0.05225207 -0.17227499 -0.30352417 -0.048813038

fc2.weight f4 [256, 256]
00000000: c9c8 9bbd f20a c73d 76f2 e3bc 4897 76bd
00000010: c2ec 9bbd 4a9f e63c a0ca 81bd 7096 45bd
00000020: c62e 46bd beda 92bc 9633 8fbd 60cb d8bd
00000030: 2b63 debd 55ea debd ea3d 9bbc 4938 fbbd
00000040: 5258 21bd e2d8 21bd a19b 03be 2a81 ea3a
00000050: d488 2abd 087f b1bc bc72 96bc 15bf ecbd
00000060: c348 88bc 48a9 b03d 71bb afbd b001 2dbd
00000070: 3865 793d 7c40 363b af23 17be e123 c13c
00000080: dfc2 b9bd 668f 34bc 3c94 61bd 3377 66bc
00000090: 1cb7 1b3d 12dd 95bd 216b 073d 49a7 1c3d
000000a0: 7db5 70bd f566 2abc 210b 35bc 6397 e2bc
000000b0: 0ea2 14bd 9fb9 65bd e349 50bd 0c66 a23c
000000c0: 756b b0bd aaa1 9ebd 8ff5 30bd a5f6 ec3b
000000d0: 34f9 0ebd b75a 79bd 8767 96bd d26b 94bd
000000e0: 3cf9 a23c 5216 c1bd f93f 9b3b 6308 54bd
000000f0: 13c0 3bbd ab98 52bd 50a0 373b 2116 293d
00000100: f32a a1bd 5648 30bd 607e d33b b4dc 7d3b
00000110: 48fb 4dbd cce4 57bd 12cd 16bd 4031 08bd
00000120: 4887 723c 1529 c2bc e2fa 37bd 2a0a d3bc
00000130: 57fd a5bd 526a 09be 40c7 02be 082c c1bd
00000140: 68fc 81bd d685 b7bd b99f 033d 20c0 b5bb
00000150: c54a 95bd 8082 e7bd 6dea 6cbc e198 05be
00000160: 3b20 2d3b d8e1 95bd 385d bfbd ddba e7bd
00000170: 3ce2 113d c4fa 3cbd 49a5 e8bc 40e4 b7bc
00000180: 14cf 32be bb75 d63c 575b 7abd 40bb 3dbd
00000190: 7072 173b 2238 4bbd b8f4 9abd 0ee3 4a3e
000001a0: 5a7d 40bd 2bba 0a3a f3df 553b 452c 50bd
000001b0: f1c0 1c3d c054 d0bd 3714 a3bc e492 39bc
000001c0: 762d 8f3c d3ad 283d de20 5a3d da64 55bd
000001d0: 0f4b 12bc d2b5 68bd 4bba e6bd f4a8 44bd
000001e0: 1f89 0d3b 1363 ffbb ca84 39bd 7361 aabd
000001f0: 860a a83b 8094 27bb 1031 20bd 28c0 58bd
00000200: 29be aebd efae 87bd cc8c 5abd a83e 8ebd
00000210: 56e3 8bbd df3e e7bc 6ada 65bc e9e4 b2bd
00000220: 903a d0bd bf12 0bbc c916 08bd af2e 45bd
00000230: 6e4b 68bc 8e35 43bd 7bef b4bd 2c5f 52bd
00000240: 1dc1 323d 58d9 863c f903 8cbd 15ff 89bc
00000250: 4902 4bbd 4d79 1abc 4e9a 9ebd b00b 493c
00000260: d55f a2bd e35c 253d 36e0 3ebd be0d b0bb
00000270: 8c30 063d 9b0a 44bc cea6 2b3d 1974 493d
00000280: e25c 06be 6c5a 0fbd 4d12 863d f5ee 64bc
00000290: 399f 03bc b9ba d23c 7ac5 cabd a1a9 cbbd
000002a0: d4e5 23bd eb64 c9bd 2ba6 053b a5ed 2dbe
000002b0: 285e 873d 1f12 ec3d f83d 42bb 90ab 3bbd
000002c0: 8c1d a0bb 7518 a5bd d232 1ebd 02f9 b13c
000002d0: 29cc 3abd 96f6 74bc 87be 41bd 1a5e ecbd
000002e0: 1205 c1bd 007d 6ebd b302 343d 274b 27bd
000002f0: 7e88 79bd 3cfc 803c 2582 b2bd 9082 5abc
00000300: 7b2e 1cbd b5e1 23bc e73f 6a39 a912 99bc
00000310: ed6b 1cbd ca68 98bc 4a56 b6bd 4fcf 96bd
00000320: 3f69 3abe 7628 c83c 58a5 30bd fa8a a5bd
00000330: 9219 34bc 0374 66bc b59f 5dbd 76d5 303c
00000340: 3e5d b8bd a7e5 35bd 40a8 a9bd 2ce4 423c
00000350: 629a 43bd 2f1b ff3c b31e c1bc a5e7 03bd
00000360: 3386 34bd e1b4 d9bd 0520 7bbd eb03 253d
00000370: 7934 babb 3de3 2dbd 2818 c53d 7cb6 b8bd
00000380: beb3 7ebd abff 83bd 60c2 f7bc dd67 a2bd
00000390: 9350 23bd 6ef7 8abd 5d58 09bc ff1f 9bbc
000003a0: 675f 42bb d639 45bd 7811 04bc 0ec4 9e3d
000003b0: 7803 b1bd 5da2 d5bd e808 c5bd 9b3b b93c
000003c0: 1df9 b3bd cb8f 65bd eea8 0cbd 636e 043c
000003d0: 1c66 6abd 32df 1bbc da19 663d f726 0a3d
000003e0: 9473 4ebd 7fa8 ecbd cd3f d73c db0e 04bd
000003f0: 9823 c6bc acbf 4b3d 6730 eb3c 980d 93bd
-0.07606656 0.097188845 -0.027825575 -0.060202867 -0.07613517 0.028152127 -0.06337476 -0.04823917
-0.04838445 -0.01792657 -0.06992261 -0.10585666 -0.108587585 -0.10884539 -0.018950421 -0.12266595
-0.03939087 -0.039513476 -0.12852336 0.0017891277 -0.041634396 -0.021667019 -0.018365256 -0.115598835
-0.016636258 0.08626038 -0.085806735 -0.042237937 0.060887545 0.0027809432 -0.14759706 0.023576679
-0.09070372 -0.011020517 -0.055073008 -0.014066505 0.038016424 -0.073175564 0.03306115 0.038245473
-0.05876683 -0.010400523 -0.011050017 -0.027660077 -0.03628736 -0.056085225 -0.050851714 0.01982405
-0.08614246 -0.07745679 -0.043202933 0.0072315508 -0.034905627 -0.060877528 -0.07343965 -0.072471276
0.019894235 -0.094280854 0.0047378507 -0.05176581 -0.045837473 -0.051415127 0.0028019138 0.04128087
-0.0786952 -0.043037735 0.006454274 0.0038736286 -0.05028847 -0.052708432 -0.036816664 -0.033250093
0.014802761 -0.02370123 -0.044916995 -0.025761683 -0.08104961 -0.13419464 -0.1277132 -0.094322264
-0.06346971 -0.08961074 0.032134745 -0.0055465847 -0.07289652 -0.11304188 -0.014460188 -0.130466
0.0026416916 -0.07318467 -0.09343952 -0.11314938 0.035616145 -0.046137586 -0.028399127 -0.022447705
-0.17461807 0.026179185 -0.061122265 -0.046321154 0.0023108982 -0.04961408 -0.07566208 0.19813177
-0.046994545 0.00052920234 0.0032634705 -0.05082347 0.03826994 -0.10172415 -0.0199071 -0.011326525
0.017477732 0.041181397 0.053254 -0.052098133 -0.008929028 -0.056814022 -0.11266001 -0.04801269
0.0021596623 -0.007793793 -0.045292653 -0.08319368 0.0051282076 -0.002557069 -0.03910929 -0.05291763
-0.08532364 -0.06625163 -0.05335693 -0.069455445 -0.0683047 -0.028228221 -0.014029125 -0.087350674
-0.1016742 -0.008488356 -0.033224855 -0.048140224 -0.01417814 -0.047658496 -0.0883474 -0.051360294
0.0436412 0.01646106 -0.06836695 -0.016845265 -0.049562726 -0.009428334 -0.07744275 0.012270853
-0.07928435 0.040371787 -0.046600543 -0.005372732 0.03276114 -0.011965419 0.041907124 0.049182985
-0.1312137 -0.034998342 0.06546459 -0.013972987 -0.008033567 0.025723802 -0.09900947 -0.099444635
-0.040014103 -0.09833702 0.0020393233 -0.16985185 0.06609756 0.11526894 -0.0029638987 -0.04581791
-0.0048863348 -0.080613054 -0.038622685 0.021725181 -0.04560486 -0.014951369 -0.04730084 -0.11541386
-0.09424795 -0.058224678 0.043947887 -0.040843155 -0.060921185 0.015745275 -0.08716229 -0.013336793
-0.038130265 -0.010002543 0.00022339784 -0.018685656 -0.038188864 -0.018604655 -0.08903177 -0.0736376
-0.1820421 0.024433356 -0.043126434 -0.08083148 -0.010992425 -0.014065745 -0.054107387 0.010793081
-0.090021595 -0.044408467 -0.08284044 0.011895221 -0.047754653 0.031140892 -0.023574209 -0.032203335
-0.044073295 -0.10630203 -0.061309833 0.04028694 -0.0056825248 -0.04245304 0.09623748 -0.09019181
-0.062183134 -0.06445249 -0.030244052 -0.079299666 -0.039871763 -0.06785475 -0.008382884 -0.018936155
-0.0029658915 -0.04815086 -0.0080608055 0.07752238 -0.0864324 -0.10431359 -0.09620839 0.02261143
-0.08787749 -0.056045335 -0.03434079 0.008082959 -0.057226285 -0.009513663 0.056176998 0.033728566
-0.050403193 -0.115555756 0.02627554 -0.03224073 -0.024186894 0.04974334 0.028709603 -0.07180327

fc2.bias f4 [256]
00000000: 8438 2fbb a312 dd3c 1942 59be ba4c a2bd
00000010: 0592 3e3d 5283 c83c 5531 0bbe dcf8 0b3f
00000020: cd24 bfbd defa 12bd 5605 04be fb3d 50bc
00000030: 945d 073d 1bc0 96bd b363 5f3c 8e87 aabd
00000040: 7878 d9bc 2655 3a3d 0e2e 7cbc 41af 97bc
00000050: 585d 4e3d 8b9e 59bd a61b aebd eb71 e73c
00000060: 3d70 493d a207 853e 2d90 66bd 529d 123e
00000070: c426 393c e285 46bd 10c6 133c 18b9 e13d
00000080: 7f56 50bc b108 6abd fdec 84bb b2ce f03c
00000090: 1df3 69bc edb2 91bd 19b9 aabd e8b8 5bbd
000000a0: 1204 0dbd 920a 66bd 5794 57be eedf 0ebd
000000b0: 80d2 25bc 878c 8abe 3559 2fbe c742 2a3d
000000c0: a915 d8bd 18eb 063e eea6 9cbe d89c ab3e
000000d0: 0065 cf3c 6fd9 52bd 9f0c 43bc afed 923e
000000e0: 9650 17bc d821 2dbc 352a 30bd a178 30bd
000000f0: 2490 b7bd 024e 8fbc b06e 83bc 5815 913c
00000100: 2fc0 1a3e 336e a9bc 5937 abbc 888b 303e
00000110: f503 51bc 4247 2c3e de54 a4bd 95fd 65bd
00000120: d8dc 0ebc 9e73 cbbd 0e45 44bc 7635 7ebd
00000130: 4fc7 87bd 31a5 0abe 0604 a43d 8bcc b9bd
00000140: 581d 6dbd 9735 8abe e7e0 b8bc 56a0 0fbe
00000150: 6761 fdbd e713 e2bc f471 9c3e a1c8 b4bd
00000160: 0767 62bd dd38 1cbd 9404 093f b965 a2be
00000170: 3bad 0bbe dae8 8dbb 49c1 94bd 30bf cabb
00000180: 0be3 c43c c680 ccbc 8335 263c 73a5 433b
00000190: 68d0 00be bb31 23bd 7962 ccbd 9297 4b3d
000001a0: 1a04 5cbd 2e12 06bc 69e8 123e 8728 d83d
000001b0: 7855 28be a292 a4bd 2ce8 b93d 67f3 0cba
000001c0: 9046 5a3e 0264 8bbd b457 10be fbf1 2e3e
000001d0: c15f 3dbe 36f3 bdbc 1374 063c 649c 6c3d
000001e0: 92ee 223c ca06 10bd b4fb 79bd b01a f6bd
000001f0: 1611 7bbd 3d6c 393e 84d6 2dbc b49f bbbb
00000200: 121a 88bc 22e1 4c3c 2acb 3a3c 30c2 7e3e
00000210: b21d 1c3e 7293 9cbd 0c21 c7bb 2310 febc
00000220: e587 fcbd 4d42 51bd 569b 00bd 9be2 a8bb
00000230: 3e69 2c3e 9593 a2bc a8ce a0bd ae03 433d
00000240: 92ad a33d baaf 5cbc 67f9 27be 5a8e 053c
00000250: 36cf ac3d 6488 a9bc 6161 873c 712c 80bb
00000260: 80bc 16be bd2b 10be 4425 c73e cc51 ccbd
00000270: c137 11bd 4aa1 973d 1c2d 10be e481 ddb7
00000280: b8d6 40bc bf5d 4ebd fa5d d13c d02a 643e
00000290: 976f a23e c571 07bd dd38 33bd 70c4 89bd
000002a0: aa52 fabc 091d 113d f41c b1bd 90fb b1be
000002b0: 47bd 27bd 8f05 18be 042b b63d a10e fb3c
000002c0: 6c2d 123e f24e b23e 51c2 1c3d 20d0 0ebe
000002d0: af3f 5dbe f152 dfbd d976 d13e 1230 46bc
000002e0: 4b75 3dbc 68aa 15bd 51f3 73bd 0888 9ebd
000002f0: 7289 5bbd 8892 d1bc b3d1 3fbd 10c7 2d3f
00000300: fc04 b9bc d3f7 91bc 880d 57bd 5e40 dfbc
00000310: 2bac 44bd ae0d 433d 7d1c aa3e 5627 a73c
00000320: 056c 1ebd 4975 e5bc c3d2 203e 423c d3bd
00000330: 42b6 e93e 2350 0c3e f5ed 8abd d3ce c63d
00000340: 5fb3 833d 00f4 8e3e df94 2fbc 2bbb 8a3c
00000350: 79de 7fbd 9d88 b5bd 08c7 2bbe 5c61 0d3d
00000360: 5a8d 57be 468d 793b 19f6 54bd 264f 303e
00000370: 8b86 dcbc 083b 453e 3248 2fbd d386 853c
00000380: 4ca2 6d3e 0eef 143e 7d47 c43e 86f2 aa3e
00000390: 3f96 5fbd 39ba 943c 3552 18be 50dd c33d
000003a0: 273c 94be 9dd3 623e 9467 913d 6980 af3c
000003b0: 0262 01bd 728f 483e b883 ae3e b607 7cbc
000003c0: bd85 8838 85e5 0ebe bc6e da3d 6d92 403e
000003d0: 94f6 223d e311 153d dbe1 85bd d622 c5bc
000003e0: 672c 14bd 7334 c7bc 4f8f 8d3e 40f2 0e3e
000003f0: e367 783d 61a3 d73d 9e9d 4fbd 318a f8bd
-0.0026736567 0.026986426 -0.2121662 -0.07924791 0.046525974 0.02447668 -0.13593037 0.54676604
-0.09333191 -0.035883777 -0.1289266 -0.01271009 0.033048227 -0.0736086 0.01363461 -0.08326636
-0.026546702 0.04549136 -0.01539184 -0.018516185 0.05038199 -0.053129714 -0.08501367 0.028252563
0.049179304 0.25982386 -0.05628984 0.14317825 0.011300746 -0.048467524 0.00901939 0.11021632
-0.012715935 -0.057137195 -0.0040565715 0.029395435 -0.014279154 -0.071142055 -0.08336086 -0.053643137
-0.03442771 -0.056162424 -0.21052681 -0.034881525 -0.010120988 -0.2706034 -0.17123874 0.04156759
-0.10551006 0.13175619 -0.30596107 0.335181 0.025316715 -0.051476892 -0.011904865 0.28696963
-0.009235522 -0.010567151 -0.043009 -0.04308379 -0.089630395 -0.017493252 -0.01604399 0.017710373
0.15112375 -0.02068243 -0.020900415 0.17240727 -0.012757291 0.16824058 -0.08024 -0.056150038
-0.008719645 -0.099341616 -0.011979355 -0.062062703 -0.06629812 -0.13539578 0.0800858 -0.090722166
-0.057889313 -0.2699401 -0.02256818 -0.14026007 -0.12372094 -0.02759738 0.3055569 -0.088273294
-0.055274036 -0.038140167 0.5352261 -0.31718233 -0.13640301 -0.0043307366 -0.07263429 -0.006187342
0.024034044 -0.024963748 0.010144594 0.0029853254 -0.125795 -0.03984235 -0.0997972 0.049705096
-0.05371485 -0.008183045 0.1434647 0.10554605 -0.16438854 -0.080357805 0.090774864 -0.0005376846
0.2131598 -0.06806184 -0.14095956 0.17084496 -0.18493558 -0.023187261 0.008206385 0.057766333
0.009944575 -0.035162725 -0.06103106 -0.12016809 -0.06129559 0.18107696 -0.010610227 -0.005725825
-0.016613994 0.012504848 0.011400977 0.24878764 0.15245703 -0.076453105 -0.0060769375 -0.031013554
-0.12330607 -0.05108862 -0.03139814 -0.0051539666 0.16837022 -0.019845763 -0.078519166 0.04761093
0.0799209 -0.013469631 -0.16403733 0.008151615 0.0843796 -0.020694919 0.016525926 -0.003911548
-0.14720345 -0.14079185 0.3889562 -0.09976539 -0.03545356 0.0740381 -0.14079708 -2.6405738e-05
-0.011769943 -0.050382372 0.025557507 0.22281957 0.3172576 -0.033067483 -0.0437554 -0.067269206
-0.030556995 0.03542808 -0.086481005 -0.3476224 -0.040951993 -0.1484587 0.08894923 0.030646624
0.1427514 0.34825855 0.038271252 -0.13946581 -0.21606325 -0.10904492 0.40910986 -0.012096422
-0.011563609 -0.036539465 -0.059558216 -0.0774079 -0.053597875 -0.025582567 -0.046830844 0.6788187
-0.022585385 -0.017818367 -0.05250314 -0.027252372 -0.048015755 0.047620468 0.3322486 0.020404499
-0.038677234 -0.028010027 0.15705399 -0.10314228 0.45646864 0.13702445 -0.06783668 0.09707417
0.06430697 0.27920532 -0.010716646 0.016934952 -0.062468026 -0.088639475 -0.16775143 0.034516677
-0.21050015 0.003807859 -0.05199251 0.17217693 -0.026919624 0.192608 -0.04279346 0.01629964
0.23206443 0.14544317 0.3833579 0.33388156 -0.054586645 0.018155204 -0.1487511 0.095636964
-0.28952143 0.22151037 0.07099834 0.021423535 -0.03158761 0.1958597 0.34084868 -0.015382698
6.509896e-05 -0.13954742 0.10665652 0.18805857 0.039785936 0.03639401 -0.06537219 -0.024064463
-0.036175158 -0.024317002 0.27648398 0.13959599 0.06064595 0.10529209 -0.050687425 -0.12135733

fc3.weight f4 [4, 256]
00000000: f6de e7bb 32cb 3cbe 626e d33e ac66 8c3e
00000010: 233b aebe 80c1 4b3d 0ebb 753e 781b 8bbe
00000020: 8128 b63e 0e88 0d3b 99ea e03d e65f 5fbd
00000030: 2d43 173d ff46 18bd 4c0e 12bd 324d 4bbc
00000040: 1872 bebc 0a94 32bd e193 6abd 1e98 dcbe
00000050: d706 3d3d 72ea 09bc 20b0 2abc f5ca 47bd
00000060: e9dd 93bc 41a2 ba3e ccbb 60bd 6022 d73e
00000070: e004 2f3d 93e7 babc 8cfa fdbd 53bd 47be
00000080: 0f05 5bbd 89f2 383c ece7 44be 48ad febe
00000090: 6993 c7be 7537 81bd 95ae 303d eac8 16bd
000000a0: d0a6 2fbd a738 febe 5db0 e7be 1a2c 31bd
000000b0: e79a 203d 5151 db3e cd69 733e f831 7abe
000000c0: 84ba 91bf faf6 b53e a269 c43e 40b7 de3e
000000d0: ae47 923c 74e5 79bd cccc b43c f39c 0c3f
000000e0: f4b2 36be 5694 b83c 7e75 eb3b 3fe2 db3b
000000f0: e585 d83d c706 aabe 2319 d73c 8e8d 093d
00000100: d8cf c33e 92ba b7bc 206e 38bd 1a3f 44be
00000110: b43d 32bc e1e9 2dbe 401b 3bbd bd3c 11bd
00000120: 66b0 f23c cfbb f8bc e32d d33c e75b f7bd
00000130: 91f6 a73e abee 903e f54c a13e cb4c f3bd
00000140: d0cc 5b3c c1f9 0e3f 968e 25bd 55a6 fe3e
00000150: 51f5 0e3f 71cb 9f3e 740e 6ebe 780f da3c
00000160: 4a01 80bd f8b8 19be e10e 84be 1df5 ba3e
00000170: 06ce 663d 40e8 25bc 987f afbc 45ee 6cbd
00000180: 6ac4 bc3c 81b1 dfbd 698f 5fbc 6e5b 52be
00000190: 2f54 723e c868 f93e 5be9 433c ba05 2dbc
000001a0: 28bc 863d 37c9 a13e 46b0 f03e 3bc5 47be
000001b0: 3f25 c63e 6650 633d 98a0 27be 5c4d e9bd
000001c0: 4070 4ebe b0e1 b83e 7833 703d 3b17 c6be
000001d0: 79f0 9ebd 74b3 78bc 26f8 a93b 4fb9 92be
000001e0: 0dab 25bc 98d9 fd3b 1785 1ebc f601 ebbc
000001f0: 1363 44bd 7142 c3be efa0 c9bc 1f4d 40bd
00000200: f02c 32bd b76e 7cbe 7c8f 8e3d a5b9 30be
00000210: 4964 49be 9bd4 b1b9 79de 7ebd 0840 e6bc
00000220: b07e bc3e 1aa7 e63e 9620 8a3c 36bd 16bc
00000230: c6a7 26be c642 c43c adf6 113e 54b2 24bb
00000240: 71b8 ad3e f7da 09bc 47fe 6a3e f7dd 09bd
00000250: 2282 23be a736 123d d772 3fbe b90d bdbe
00000260: a8ea af3d 013a a23e 5acd 62be 1cc0 a33e
00000270: 5c06 463c 8363 bc3e 7d55 d23e c584 3d3c
00000280: f76f ca3e f234 2fbc 0ef2 06be 747c 73be
00000290: caff a3be 402f 1fbc 7658 213d a967 db3c
000002a0: 98c1 8fb9 7ca5 b7bc d157 65bb 9bd8 023f
000002b0: 12ed b83c 369f 27be b47c b63e 9652 583c
000002c0: 6f55 33be 7ea0 5abe 0714 053d f745 753d
000002d0: 69f4 913e 7738 8a3c f33d 8bbe 5bf6 4e3d
000002e0: f8ef 633d 10a1 d03c 3612 58bd 55f1 b5bf
000002f0: 66a5 ea3b 5065 d83c 6412 d3bc 379e 6fbe
00000300: 5eda 113d fc80 463c 1a85 773c c67d 5d3d
00000310: 0ebc ae3c 64ba fcbd 1289 95be 684c 9cbc
00000320: 7296 283d 62ac 9cbe a098 5ebe f252 a93e
00000330: 101e 3cbe 1e57 36be cc11 113f 6ac3 32be
00000340: 5f19 2ebe e951 4cbe 6cb7 c5bb 6312 8f3c
00000350: 5e19 2dbd 067a 5cbb 4904 45bb 78f7 d33c
00000360: 1e2b 1f3d 004c e93c 5725 1c3d 6c8a a0be
00000370: 9962 933b 00f1 55be 50a0 06bc 80de 8b3c
00000380: 5982 4abe 15e2 49be fea6 4fbe f8d3 6fbe
00000390: 393e 903c b8c4 7e3c 4933 6c3b f298 a43e
000003a0: 9240 0a3f b7ad b23e 1fb4 8bbe 1fd6 443e
000003b0: 0f34 6dbc 2f3c 56be 6d96 c73e 4c5a 413d
000003c0: 4232 14bd 0f81 60be 30b2 2fbe 4556 81be
000003d0: 792d b5bc da49 c0bb 182d cdbe 6021 f9bc
000003e0: 17f5 793d da59 1b3d 53aa 54be b40f b73e
000003f0: 26c5 4bbe a245 80be 0840 80bb afa0 c93d
-0.0070761396 -0.18436888 0.41295153 0.27422082 -0.34029493 0.049745083 0.23997137 -0.27169394
0.35577777 0.0021595987 0.10982246 -0.054534815 0.0369293 -0.037177082 -0.035658166 -0.0124085415
-0.023247764 -0.043598212 -0.057269935 -0.43084806 0.0461491 -0.0084177125 -0.010417968 -0.04877754
-0.018050151 0.36451915 -0.054866597 0.42018414 0.04272926 -0.022815501 -0.12401304 -0.19505815
-0.05347162 0.011288294 -0.19229096 -0.49741578 -0.38979653 -0.06309406 0.043135244 -0.0368127
-0.042883694 -0.49652597 -0.45251742 -0.04325495 0.039210226 0.42835477 0.23770829 -0.24433124
-1.1385045 0.3553999 0.3836184 0.43499184 0.017856445 -0.06100984 0.022070311 0.54926986
-0.17841703 0.02253167 0.007185637 0.0067103202 0.10572413 -0.33208296 0.026257103 0.033582263
0.3824451 -0.02242783 -0.0450269 -0.19164696 -0.010878969 -0.16983749 -0.045680285 -0.035458315
0.029625129 -0.030362992 0.025778716 -0.12078076 0.32805303 0.2830709 0.31504026 -0.118798815
0.01341553 0.55849844 -0.040419184 0.49736276 0.55843073 0.312099 -0.23247701 0.026618704
-0.06250246 -0.15011966 -0.25792602 0.36515132 0.056348823 -0.0101261735 -0.021423146 -0.05784442
0.023042876 -0.10922528 -0.0136450315 -0.2054269 0.23664926 0.48712754 0.011957492 -0.010560447
0.06578857 0.31598827 0.47009486 -0.19508831 0.38700292 0.055496596 -0.16369855 -0.11391708
-0.20160007 0.36109686 0.058642834 -0.38689598 -0.0776071 -0.015179504 0.0051870523 -0.28657004
-0.010111582 0.0077468865 -0.009675286 -0.028687458 -0.047946047 -0.38136628 -0.024612872 -0.04694855
-0.043499887 -0.2465161 0.06960961 -0.17258318 -0.19667162 -0.00033918474 -0.062223885 -0.028106704
0.36815405 0.45049363 0.016861241 -0.009200385 -0.16274938 0.023957621 0.14254256 -0.0025130706
0.3392978 -0.008414022 0.22948562 -0.033658948 -0.1596761 0.03569665 -0.18696152 -0.36924532
0.08589679 0.31684878 -0.22148648 0.31982505 0.012086477 0.3679467 0.41080847 0.011567299
0.39538547 -0.0106937755 -0.13178274 -0.23777944 -0.3203109 -0.009715855 0.039391004 0.026782827
-0.00027419324 -0.022417776 -0.003499497 0.51111764 0.022573981 -0.16369328 0.35642016 0.013203284
-0.17513059 -0.21350285 0.032489803 0.059881177 0.28506783 0.016872628 -0.271957 0.05052791
0.055648774 0.025467426 -0.052751742 -1.4214274 0.0071608303 0.026415497 -0.025765605 -0.23400198
0.03560864 0.012115713 0.0151074175 0.054075025 0.021329906 -0.12340239 -0.2920614 -0.019079402
0.0411591 -0.30600268 -0.2173791 0.33071095 -0.18370843 -0.1780667 0.5666778 -0.17457357
-0.17001866 -0.19953121 -0.0060338285 0.017464822 -0.04226052 -0.0033642068 -0.0030062369 0.025874838
0.03885948 0.028478622 0.038121548 -0.31355608 0.0044978377 -0.20892715 -0.008216932 0.01707387
-0.19776286 -0.1971515 -0.20278546 -0.23420703 0.017607795 0.015549831 0.003604131 0.32147938
0.54004776 0.3489816 -0.2728586 0.19222306 -0.014477744 -0.20921396 0.38981953 0.047205254
-0.036180742 -0.21924232 -0.17157817 -0.2526113 -0.02211641 -0.005868179 -0.40073466 -0.030411422
0.06102475 0.037927486 -0.20768099 0.35754168 -0.19899425 -0.25053126 -0.003913883 0.09845101

fc3.bias f4 [4]
00000000: 50a9 4cbd 9739 d83b 28c5 3fbc dfd7 92bd
-0.049966156 0.006598662 -0.011704721 -0.071700804
