csv_and_models/vanilla_dqn/vanilla_lunar_1000.pth (torch, 279222 bytes, 6 tensors)

fc1.weight f4 [256, 8]
000000 6e 1a 50 bd a5 24 8c bf 90 0a a1 be b0 0c 6e bf
       -0.050806455 -1.0948683 -0.3145337 -0.9298811
000010 cb 12 3e bf ad ca 80 3f b6 d3 dc be 15 c9 ae bf
       -0.74247426 1.0061852 -0.43130273 -1.3655115
000020 ce b9 c8 bf 43 7b e9 bf 15 9a b7 3e 25 2d 15 be
       -1.5681703 -1.8240741 0.35859743 -0.14568003
000030 17 61 5d bf 63 01 90 3e 7f b0 dc be c4 c7 ed 3e
       -0.8647627 0.28126058 -0.43103406 0.46441472
000040 ad 00 df 3e 82 58 bd bf a9 d3 b6 3b 50 53 37 3d
       0.43555203 -1.4792635 0.005579431 0.044757187
000050 30 9b 40 be 7d 45 82 3f 2c 85 be be 61 3d e3 3e
       -0.188092 1.0177456 -0.37210977 0.44382766
000060 2c f8 8a bf 08 05 db 3f 27 9b 21 3f 5e 9e 0f 3e
       -1.0856986 1.711091 0.6312737 0.14025256
000070 2a 4b d5 bf 90 7a d7 3d 82 38 a0 bd dc df 94 bd
       -1.6663563 0.10521424 -0.07823278 -0.0726926
000080 5a a8 51 3d b5 45 33 3b 2a 86 af bb 49 f7 a7 ba
       0.051185943 0.002735478 -0.00535657 -0.0012814786
000090 da ef 56 40 82 63 16 bc 7d e5 26 be 84 18 18 bd
       3.3583894 -0.009178998 -0.1629848 -0.037132755
0000a0 55 1b 05 bf 29 1a 11 c0 c6 51 0f be 8e a9 31 3f
       -0.5199483 -2.2672217 -0.13996038 0.69399345
0000b0 51 77 05 be 03 9a c2 3c c9 f9 a0 bd 49 7f 07 bc
       -0.13033797 0.02375508 -0.07860143 -0.008270093
0000c0 fc f9 3a 40 f6 ec 68 3e 2b 2d d1 3e 00 41 80 3e
       2.9215078 0.22746643 0.40854773 0.2504959
0000d0 96 b8 8b bf e2 48 b7 3d 55 23 fb 3d 2d a3 c7 bc
       -1.0915706 0.08949448 0.122625984 -0.0243698
0000e0 25 c0 06 40 9a 7f 33 c0 35 b6 9d be 61 b8 42 3e
       2.1054776 -2.8046632 -0.30803075 0.19015647
0000f0 31 6b 44 be 2a b1 7c 3e 57 6c 00 3d 3c 8f 80 bb
       -0.19181515 0.24676958 0.03135332 -0.003923325
000100 cc 88 8f 40 98 5d 28 bc fc d4 23 3f 14 09 7c 3e
       4.485449 -0.010276221 0.63996863 0.24612838
000110 70 f4 55 bf fd 1e 98 3d 70 ef c1 bd 47 cc 8b 3e
       -0.8357611 0.074277855 -0.09469497 0.2730429
000120 c9 d6 c2 bd 4e 4e 87 bf d0 68 8b bd c5 bb 0a 3e
       -0.09513623 -1.0570772 -0.06807101 0.13548191
000130 59 ec a6 3f 3a 73 14 bf 79 04 44 3f a6 9f eb bc
       1.3040878 -0.5798832 0.76569325 -0.02876265
000140 c4 77 3d bf 55 2a 6f be f5 ef 96 3f cc 89 53 bf
       -0.7401087 -0.23355992 1.1791979 -0.82632136
000150 42 d7 17 be c8 f2 b0 be b5 3b 2a 3d e6 9e e5 be
       -0.14828208 -0.34560227 0.041560847 -0.44847792
000160 bc be 8d be 3d 81 be be 3b 4a 33 3f dd 34 33 bf
       -0.2768458 -0.37207976 0.7003514 -0.7000254
000170 25 c1 f0 3d 75 33 3e bf aa a0 84 be a7 36 a3 bb
       0.117555894 -0.7429727 -0.25903827 -0.0049808803
000180 41 9f 20 be b6 c2 08 40 6f f5 f0 3d df 3c 82 bf
       -0.1568575 2.1368842 0.11765563 -1.0174826
000190 fb 8c 1b 3f 86 22 12 bf 87 d3 9a 3d 19 0d 83 3e
       0.60761994 -0.5708393 0.07559877 0.2559593
0001a0 b6 b5 55 bf a7 3e a4 3f 37 9d a7 be f0 1e ab 3e
       -0.83480394 1.283162 -0.32737133 0.3342204
0001b0 7d eb 30 3f a2 cb 49 3f 2a 7d b8 be 21 19 25 bb
       0.69109327 0.78826344 -0.36032993 -0.002519198
0001c0 90 b8 cb 3f 9d 59 c7 3e 17 42 80 be 18 bc ae 3f
       1.5915699 0.38935557 -0.25050423 1.3651152
0001d0 da 57 11 bc c7 94 7e 3d 02 8e 53 bd 9d 79 8b be
       -0.008871043 0.062153604 -0.0516491 -0.2724122
0001e0 17 b8 8c be 0e cd aa bf d4 8f c4 be a3 fb 9c 3f
       -0.274842 -1.3343828 -0.38390982 1.2264293
0001f0 bd 30 d0 bf 84 2e 87 be d0 37 d7 bc 8f 94 d0 3d
       -1.6264874 -0.26402676 -0.02627173 0.10184585
000200 18 6d 3a 3e 02 f9 4d bf 20 6a e1 be c9 fd 55 be
       0.18205678 -0.8045808 -0.4402628 -0.20897593
000210 be 85 9a bf 5c d0 86 3f f4 f4 17 be e4 29 92 bf
       -1.2072065 1.0532336 -0.14839536 -1.1419034
000220 c4 55 2b be e6 ec 89 3f bc f9 1c bf 63 ce a8 3e
       -0.16731936 1.0775421 -0.61318564 0.3296996
000230 d9 b7 5d 3f fa 25 c7 bd 61 42 90 be cb eb 55 be
       0.86608654 -0.0972404 -0.28175643 -0.20890729
000240 c0 a1 c8 bd c2 a7 b6 3e cb e9 93 be cf 45 b2 3d
       -0.09796476 0.35674864 -0.28889307 0.08704721
000250 25 0d e9 3f 31 6e ff 3e 2f 12 96 bf 11 4b 39 be
       1.8207136 0.49888757 -1.1724299 -0.18095042
000260 e6 09 12 bf 87 93 86 c0 ad be b8 3d f2 56 9d bf
       -0.57046354 -4.2055087 0.090207435 -1.2292159
000270 65 04 63 3e 4c 73 c3 3c d4 9e 97 3d 9b b0 65 3d
       0.22169645 0.023858689 0.07403341 0.056076627
000280 7a 19 0d 3e ee 5a f0 3d 01 38 fa 3f 5e b2 24 be
       0.1377925 0.117360935 1.9548341 -0.16083667
000290 da e9 5b 3e a2 54 20 be 33 54 a0 bd d5 f0 90 bf
       0.21475926 -0.15657285 -0.0782856 -1.1323496
0002a0 5c 2b 13 3c 79 af 3f bf cb a0 97 3f 8b 16 56 3d
       0.008982506 -0.74877125 1.1845945 0.052267592
0002b0 95 8b 9e be b7 4b 81 3f c5 c1 7c bf ef 63 a5 bd
       -0.30965868 1.0101231 -0.9873317 -0.080757014
0002c0 d9 18 27 3f b4 6c 36 3e d3 40 8d be 52 f5 f3 3e
       0.6527229 0.17814904 -0.2758852 0.47648102
0002d0 03 a5 22 bf f4 2f 41 bf ca 5d 39 3e 67 8d 40 bd
       -0.6353304 -0.75463796 0.18102184 -0.04700985
0002e0 75 63 6f 3f fd 6e 82 bf 3b fc 8d bf d7 dc 5a bf
       0.93511134 -1.0190121 -1.10926 -0.85493225
0002f0 08 f6 0c 3e 67 bf c7 bd d5 5a 66 3e 51 b2 01 be
       0.13765728 -0.09753304 0.22495587 -0.12665679
000300 11 bd 8a bf 23 32 e9 bf 9f f1 c3 bd 35 48 ae be
       -1.0838948 -1.8218426 -0.0956757 -0.34039465
000310 62 29 2f bf 0f 7c 08 bf 1c 7a 34 be 14 5e 04 bf
       -0.6842252 -0.533143 -0.17624706 -0.5170605
000320 fd 61 88 bf 89 a4 f6 bf 97 b3 95 3f 0d 0d 46 bf
       -1.0654904 -1.9268962 1.1695431 -0.77363664
000330 f6 58 40 3d 51 0d 73 3b ce 41 b7 bb 69 0a 3d 3e
       0.04695984 0.0037086795 -0.0055925613 0.18461002
000340 1f 77 ce 3e b8 9d b6 3f 4f 22 bf bf 53 9e 8e 3e
       0.40325257 1.4266882 -1.4932345 0.27855167
000350 b5 5b 24 bf 21 14 4e 3d 90 fc 20 bf a8 ac 74 bd
       -0.64202434 0.050312165 -0.6288538 -0.05973497
000360 8c 73 b1 3e ba 96 01 c0 b0 db 92 3f f6 42 79 3e
       0.34658468 -2.0248246 1.1473293 0.2434195
000370 dd 1a 85 3f 96 44 f3 be 71 c7 87 3e 4c 9c b8 3c
       1.0398823 -0.47513264 0.2651935 0.022535466
000380 3c 3b f3 3d b8 d4 ef bf 4a 57 3f bf d9 a5 d9 3d
       0.118765324 -1.8736792 -0.7474257 0.10627336
000390 c1 d7 08 3f c7 5d 45 be 76 a5 37 bf 6e f7 3c be
       0.53454214 -0.19274054 -0.7173685 -0.18453762
0003a0 09 5d 21 3f 5b 02 bf c0 97 96 4d be 23 53 78 be
       0.63032585 -5.9690375 -0.20076977 -0.24250464
0003b0 e8 d1 8f 3f 0f c4 89 be a3 d0 d1 3e 0f 12 32 be
       1.1235933 -0.26907393 0.4097949 -0.17389701
0003c0 cf 5a 9a 3e 67 4e c5 bf 9d 60 52 bf 96 21 50 3f
       0.30147406 -1.5414551 -0.8217867 0.8130125
0003d0 e9 97 17 be 45 31 b6 be 5e c9 dc be 2b 0f 59 be
       -0.14804043 -0.35584465 -0.4312238 -0.21197192
0003e0 bc 4c 30 bf 4a 5f 2d c0 60 69 b5 3f 3d 4f 87 3e
       -0.6886709 -2.708941 1.4172783 0.26427642
0003f0 60 6d cd be 07 ee 72 3e 18 46 13 3e a5 0a ab 3d
       -0.4012251 0.23723613 0.14382207 0.0835164

fc1.bias f4 [256]
000000 48 3a 41 bf a1 ac 02 bf 7d c4 ea be e4 46 cc 3b
       -0.75479555 -0.5104466 -0.45853034 0.0062340368
000010 eb 75 3c 3b 1f 4c 75 3f a6 d3 1f 3e 2b e3 08 be
       0.0028756808 0.95819277 0.15608081 -0.13367908
000020 9f 8b 5d bd 08 92 ae be 04 73 45 3e fa ed 20 3f
       -0.05408823 -0.34095788 0.19282156 0.62863123
000030 d9 3c 9e be 09 f0 56 bf 09 0b af 3e 1d c7 72 3e
       -0.30905798 -0.83960015 0.34188107 0.23708768
000040 97 53 85 be 4d 13 30 3f 40 a8 59 be a6 ef 0a be
       -0.26040336 0.6877945 -0.21255589 -0.13567981
000050 65 ce 76 be 94 3e a4 be 64 ea a4 be 9b 28 c0 be
       -0.24102171 -0.32078993 -0.32210076 -0.3753098
000060 f4 8f 06 bf 90 8b e1 be 2f 9d 17 3f a8 40 1c 3d
       -0.52563405 -0.4405179 0.5922422 0.0381476
000070 61 40 d1 be 0e 64 35 be ff b5 90 bf 9d 06 bc be
       -0.4086943 -0.17713949 -1.1305541 -0.36723796
000080 24 61 6a 3f 8d b6 02 3d b0 1c b4 bc f5 2d 8e bd
       0.91554475 0.031912375 -0.021986336 -0.06942359
000090 62 50 1f bd b9 a4 90 bf 41 e8 90 be db b2 8b 3e
       -0.03889502 -1.1300269 -0.28302196 0.27284893
0000a0 c9 02 a6 bd 11 eb 2c be c2 f3 2f be eb c7 3a bf
       -0.08106 -0.16886546 -0.1718283 -0.729613
0000b0 64 96 6f 3f e4 a9 c7 3e 5d 8a a2 be d3 20 85 bf
       0.9358885 0.38996804 -0.31746188 -1.0400642
0000c0 4f 0f dd be 92 62 f6 3c f2 11 01 be 4a 38 a4 3e
       -0.43175742 0.030076299 -0.12604502 0.32074195
0000d0 88 45 96 be 4e 20 4d 3e a3 0a f0 3d 3b f7 9b bd
       -0.29349923 0.20031855 0.11720779 -0.07615515
0000e0 25 25 06 3f cc 82 0a 3f d1 1d 9a be a4 c3 0a bf
       0.5240043 0.5410583 -0.30100873 -0.54204774
0000f0 ed 44 04 3f 8b f3 8a 3e b7 bc e7 3e d3 23 38 3d
       0.5166767 0.27138934 0.45261165 0.04495604
000100 0c ca b4 3e 28 05 df bd a5 b2 3d bf f7 6b 7d bd
       0.353104 -0.10889655 -0.74100715 -0.06187054
000110 51 82 89 be f7 0d 3b be 0f bf 33 be 52 50 20 3f
       -0.26857236 -0.18267046 -0.17553352 0.6262256
000120 8c 1b e0 be 06 c8 69 3f 95 ab 16 bd cf ab 1c 3f
       -0.43771017 0.91320837 -0.036784727 0.6119966
000130 e5 18 71 bd 05 c2 c2 be 00 c8 8a 3e c8 de 0d 3f
       -0.058861632 -0.3803865 0.27105713 0.5541806
000140 a1 3f 74 3d 61 10 04 3f 0a 4d b5 bd 55 d1 c6 be
       0.059630994 0.5158749 -0.08852585 -0.38831583
000150 de 2c 77 3d 26 d9 b4 3e 97 c6 a6 3e 3d 17 bd 3e
       0.060345523 0.3532192 0.32573387 0.36931792
000160 51 52 ae 3d 12 2b 6f 3f 20 06 1e 3f 01 f7 85 be
       0.08511794 0.93425095 0.61728096 -0.26165012
000170 ff aa 99 bf b3 84 b0 be d5 3c 0e 3d d7 d7 1a 3d
       -1.2005309 -0.3447624 0.034725983 0.037803497
000180 9b d6 89 3e 0c e7 19 bf ef f2 5b bf 88 ed 34 bf
       0.26921543 -0.60118175 -0.8591756 -0.70674944
000190 93 c5 89 3f d9 62 8b bc 36 18 a5 be c9 b3 8b be
       1.076342 -0.017014908 -0.32245034 -0.27285603
0001a0 e8 d8 12 bf dd de 83 be 55 48 8a bf 80 a7 23 3f
       -0.5736222 -0.2575597 -1.0803324 0.6392746
0001b0 78 f6 59 bf 92 04 03 3c 4d 18 0f bf 8a 04 f0 be
       -0.85141706 0.007996695 -0.55896455 -0.46878463
0001c0 ff 99 0c 3f ae 3f ab be cc 50 bf be dd 9c 46 3f
       0.5492248 -0.3344702 -0.3736633 0.77583104
0001d0 40 6e b7 be 15 93 fe bd 25 86 55 3f e6 3f 5f bf
       -0.35826302 -0.124303974 0.83407813 -0.87206876
0001e0 a7 4d 81 bf eb 07 f8 3e 7d 28 07 3f 78 67 f1 be
       -1.0101823 0.4844354 0.52796155 -0.47149253
0001f0 5b 2f 2b 3d bd 25 01 bf 03 d6 cf be d6 b4 b8 be
       0.04179321 -0.5044821 -0.40592965 -0.36075467
000200 96 fd 0a 3e 38 9c 90 3e eb 96 8d 3d ab b5 4e bf
       0.13573298 0.28244185 0.06913551 -0.80745953
000210 e6 97 de 3d 5d 89 08 be a0 c4 e4 3e 5f 3e 03 3f
       0.10868816 -0.1333365 0.44681263 0.51267046
000220 46 7b e0 bd 05 eb bb 3e c5 5a d6 be 11 4f 26 3f
       -0.109610125 0.36702743 -0.41866127 0.64964396
000230 54 75 50 3f 1e 16 ef bc 4e 66 3b 3e 7a 53 50 3e
       0.8142903 -0.029185351 0.18300745 0.20344344
000240 e3 c5 2f bf 7f bf 51 bf c9 72 33 bf 4e cb df 3e
       -0.68661326 -0.81932825 -0.70097023 0.43709797
000250 31 f3 65 3f e0 c1 c9 3e a5 90 84 3e 29 8e 3e 3e
       0.89824206 0.39405727 0.25891605 0.18608917
000260 06 39 98 be 6f 27 21 bf e9 76 05 3f 3d 5f ef 3e
       -0.29731005 -0.62950796 0.5213457 0.4675235
000270 a2 49 3b bf 57 15 8b be 19 c4 ad 3d b3 d3 0a 3e
       -0.7315923 -0.27164719 0.08484668 0.1355732
000280 20 ad a5 3d 97 fc bf 3d 61 98 3d bf 57 67 96 3d
       0.080896616 0.093743496 -0.74060637 0.07343929
000290 e9 39 46 3b 05 4b 86 3e 10 ec da bd 41 c3 b0 3e
       0.003024692 0.2622911 -0.106895566 0.34523967
0002a0 03 35 d2 3e bd b8 31 be e2 b5 14 bf 4c d3 06 3f
       0.4105607 -0.17355628 -0.5809003 0.52666163
0002b0 91 f9 2d bd 57 c3 15 be 4a aa e9 be 04 02 63 3f
       -0.042474333 -0.14625297 -0.45637733 0.8867495
0002c0 fa 3d c3 3e 01 de bc be 80 03 a9 3f c0 ac 84 bf
       0.38133222 -0.36888126 1.3204193 -1.0365219
0002d0 5a df f3 be f2 ff a2 3e 20 d2 94 be 69 c8 57 3e
       -0.4763134 0.31835896 -0.29066563 0.21072544
0002e0 bc 08 89 be 4b 8f b0 3e 51 43 06 bf b0 d2 21 be
       -0.26764476 0.34484324 -0.52446467 -0.15803027
0002f0 3f c9 91 bf 2b df a8 be 7b 12 7d 3f c7 60 de be
       -1.138954 -0.32982764 0.98856324 -0.4343321
000300 a4 2a 2b 3f 6b 0e 93 bd 8f 5f 75 3f 5f f9 5a be
       0.6686194 -0.071804844 0.95848936 -0.2138419
000310 a7 0d bf 3d 5f 9a 0b be 06 6c eb 3c 4c c3 3c bf
       0.09328776 -0.13633107 0.028738033 -0.737355
000320 c8 7c 34 bf cd fb ee be 8c 46 97 be 26 a7 98 bc
       -0.705029 -0.46676484 -0.2954601 -0.01863439
000330 c2 c9 e9 3e 54 95 1a 3f 38 03 9c 3e e0 3a 64 bc
       0.45661741 0.60384107 0.30471206 -0.0139300525
000340 31 37 35 3f a3 a3 d5 be 3b b7 13 3e 2e 47 eb be
       0.7078734 -0.41726407 0.14425366 -0.45952743
000350 a0 20 aa 3c b4 99 17 bc 3a 63 19 3f d1 50 3f bf
       0.02076751 -0.009252954 0.5991703 -0.7473269
000360 70 9c e3 be 4e 1a 0c bf 15 8d 88 3e 28 45 0e 3f
       -0.4445529 -0.5472764 0.26670137 0.55574274
000370 98 82 6a 3f 55 a7 16 3f 31 ab a1 be c3 ce 6c be
       0.9160552 0.5884908 -0.3157592 -0.23125748
000380 80 f1 df be 00 0e 1f 3e 4e f2 e1 be 3c 5c 13 3e
       -0.43738937 0.15532684 -0.44130176 0.14390653
000390 db b5 a2 be c3 aa 5d be f1 d8 8a 3b e2 75 cd 3c
       -0.3177937 -0.21647172 0.004237287 0.025080625
0003a0 8a 2a 44 bf 4d 11 f3 be 42 50 5d bf 49 44 ea be
       -0.7662741 -0.47474137 -0.8645059 -0.45755222
0003b0 0c b9 3c bf d9 d0 0e bf a8 d7 e3 be 80 78 a3 3b
       -0.7371986 -0.55787426 -0.4450047 0.00498873
0003c0 94 a0 3d 3f 72 88 72 3f 2b 88 ca bd 70 b8 f0 be
       0.7407315 0.9473945 -0.09889253 -0.47015715
0003d0 1c 56 d8 3e 49 8a ae be b7 62 9d bc 1b 10 f2 be
       0.42253196 -0.34089878 -0.01921211 -0.47277912
0003e0 ee 6f 6a be f0 6d a5 3e b7 ca 4a 3c 67 e3 a1 bd
       -0.2289426 0.32310438 0.012377433 -0.07904702
0003f0 e2 75 d4 be 6e 66 4a 3e ab 77 5b be 79 df 71 3e
       -0.41496187 0.19765636 -0.21432368 0.23620404

fc2.weight f4 [256, 256]
000000 c9 c8 9b bd f2 0a c7 3d 76 f2 e3 bc 48 97 76 bd
       -0.07606656 0.097188845 -0.027825575 -0.060202867
000010 c2 ec 9b bd 4a 9f e6 3c a0 ca 81 bd 70 96 45 bd
       -0.07613517 0.028152127 -0.06337476 -0.04823917
000020 c6 2e 46 bd be da 92 bc 96 33 8f bd 60 cb d8 bd
       -0.04838445 -0.01792657 -0.06992261 -0.10585666
000030 2b 63 de bd 55 ea de bd ea 3d 9b bc 49 38 fb bd
       -0.108587585 -0.10884539 -0.018950421 -0.12266595
000040 52 58 21 bd e2 d8 21 bd a1 9b 03 be 2a 81 ea 3a
       -0.03939087 -0.039513476 -0.12852336 0.0017891277
000050 d4 88 2a bd 08 7f b1 bc bc 72 96 bc 15 bf ec bd
       -0.041634396 -0.021667019 -0.018365256 -0.115598835
000060 c3 48 88 bc 48 a9 b0 3d 71 bb af bd b0 01 2d bd
       -0.016636258 0.08626038 -0.085806735 -0.042237937
000070 38 65 79 3d 7c 40 36 3b af 23 17 be e1 23 c1 3c
       0.060887545 0.0027809432 -0.14759706 0.023576679
000080 df c2 b9 bd 66 8f 34 bc 3c 94 61 bd 33 77 66 bc
       -0.09070372 -0.011020517 -0.055073008 -0.014066505
000090 1c b7 1b 3d 12 dd 95 bd 21 6b 07 3d 49 a7 1c 3d
       0.038016424 -0.073175564 0.03306115 0.038245473
0000a0 7d b5 70 bd f5 66 2a bc 21 0b 35 bc 63 97 e2 bc
       -0.05876683 -0.010400523 -0.011050017 -0.027660077
0000b0 0e a2 14 bd 9f b9 65 bd e3 49 50 bd 0c 66 a2 3c
       -0.03628736 -0.056085225 -0.050851714 0.01982405
0000c0 75 6b b0 bd aa a1 9e bd 8f f5 30 bd a5 f6 ec 3b
       -0.08614246 -0.07745679 -0.043202933 0.0072315508
0000d0 34 f9 0e bd b7 5a 79 bd 87 67 96 bd d2 6b 94 bd
       -0.034905627 -0.060877528 -0.07343965 -0.072471276
0000e0 3c f9 a2 3c 52 16 c1 bd f9 3f 9b 3b 63 08 54 bd
       0.019894235 -0.094280854 0.0047378507 -0.05176581
0000f0 13 c0 3b bd ab 98 52 bd 50 a0 37 3b 21 16 29 3d
       -0.045837473 -0.051415127 0.0028019138 0.04128087
000100 f3 2a a1 bd 56 48 30 bd 60 7e d3 3b b4 dc 7d 3b
       -0.0786952 -0.043037735 0.006454274 0.0038736286
000110 48 fb 4d bd cc e4 57 bd 12 cd 16 bd 40 31 08 bd
       -0.05028847 -0.052708432 -0.036816664 -0.033250093
000120 48 87 72 3c 15 29 c2 bc e2 fa 37 bd 2a 0a d3 bc
       0.014802761 -0.02370123 -0.044916995 -0.025761683
000130 57 fd a5 bd 52 6a 09 be 40 c7 02 be 08 2c c1 bd
       -0.08104961 -0.13419464 -0.1277132 -0.094322264
000140 68 fc 81 bd d6 85 b7 bd b9 9f 03 3d 20 c0 b5 bb
       -0.06346971 -0.08961074 0.032134745 -0.0055465847
000150 c5 4a 95 bd 80 82 e7 bd 6d ea 6c bc e1 98 05 be
       -0.07289652 -0.11304188 -0.014460188 -0.130466
000160 3b 20 2d 3b d8 e1 95 bd 38 5d bf bd dd ba e7 bd
       0.0026416916 -0.07318467 -0.09343952 -0.11314938
000170 3c e2 11 3d c4 fa 3c bd 49 a5 e8 bc 40 e4 b7 bc
       0.035616145 -0.046137586 -0.028399127 -0.022447705
000180 14 cf 32 be bb 75 d6 3c 57 5b 7a bd 40 bb 3d bd
       -0.17461807 0.026179185 -0.061122265 -0.046321154
000190 70 72 17 3b 22 38 4b bd b8 f4 9a bd 0e e3 4a 3e
       0.0023108982 -0.04961408 -0.07566208 0.19813177
0001a0 5a 7d 40 bd 2b ba 0a 3a f3 df 55 3b 45 2c 50 bd
       -0.046994545 0.00052920234 0.0032634705 -0.05082347
0001b0 f1 c0 1c 3d c0 54 d0 bd 37 14 a3 bc e4 92 39 bc
       0.03826994 -0.10172415 -0.0199071 -0.011326525
0001c0 76 2d 8f 3c d3 ad 28 3d de 20 5a 3d da 64 55 bd
       0.017477732 0.041181397 0.053254 -0.052098133
0001d0 0f 4b 12 bc d2 b5 68 bd 4b ba e6 bd f4 a8 44 bd
       -0.008929028 -0.056814022 -0.11266001 -0.04801269
0001e0 1f 89 0d 3b 13 63 ff bb ca 84 39 bd 73 61 aa bd
       0.0021596623 -0.007793793 -0.045292653 -0.08319368
0001f0 86 0a a8 3b 80 94 27 bb 10 31 20 bd 28 c0 58 bd
       0.0051282076 -0.002557069 -0.03910929 -0.05291763
000200 29 be ae bd ef ae 87 bd cc 8c 5a bd a8 3e 8e bd
       -0.08532364 -0.06625163 -0.05335693 -0.069455445
000210 56 e3 8b bd df 3e e7 bc 6a da 65 bc e9 e4 b2 bd
       -0.0683047 -0.028228221 -0.014029125 -0.087350674
000220 90 3a d0 bd bf 12 0b bc c9 16 08 bd af 2e 45 bd
       -0.1016742 -0.008488356 -0.033224855 -0.048140224
000230 6e 4b 68 bc 8e 35 43 bd 7b ef b4 bd 2c 5f 52 bd
       -0.01417814 -0.047658496 -0.0883474 -0.051360294
000240 1d c1 32 3d 58 d9 86 3c f9 03 8c bd 15 ff 89 bc
       0.0436412 0.01646106 -0.06836695 -0.016845265
000250 49 02 4b bd 4d 79 1a bc 4e 9a 9e bd b0 0b 49 3c
       -0.049562726 -0.009428334 -0.07744275 0.012270853
000260 d5 5f a2 bd e3 5c 25 3d 36 e0 3e bd be 0d b0 bb
       -0.07928435 0.040371787 -0.046600543 -0.005372732
000270 8c 30 06 3d 9b 0a 44 bc ce a6 2b 3d 19 74 49 3d
       0.03276114 -0.011965419 0.041907124 0.049182985
000280 e2 5c 06 be 6c 5a 0f bd 4d 12 86 3d f5 ee 64 bc
       -0.1312137 -0.034998342 0.06546459 -0.013972987
000290 39 9f 03 bc b9 ba d2 3c 7a c5 ca bd a1 a9 cb bd
       -0.008033567 0.025723802 -0.09900947 -0.099444635
0002a0 d4 e5 23 bd eb 64 c9 bd 2b a6 05 3b a5 ed 2d be
       -0.040014103 -0.09833702 0.0020393233 -0.16985185
0002b0 28 5e 87 3d 1f 12 ec 3d f8 3d 42 bb 90 ab 3b bd
       0.06609756 0.11526894 -0.0029638987 -0.04581791
0002c0 8c 1d a0 bb 75 18 a5 bd d2 32 1e bd 02 f9 b1 3c
       -0.0048863348 -0.080613054 -0.038622685 0.021725181
0002d0 29 cc 3a bd 96 f6 74 bc 87 be 41 bd 1a 5e ec bd
       -0.04560486 -0.014951369 -0.04730084 -0.11541386
0002e0 12 05 c1 bd 00 7d 6e bd b3 02 34 3d 27 4b 27 bd
       -0.09424795 -0.058224678 0.043947887 -0.040843155
0002f0 7e 88 79 bd 3c fc 80 3c 25 82 b2 bd 90 82 5a bc
       -0.060921185 0.015745275 -0.08716229 -0.013336793
000300 7b 2e 1c bd b5 e1 23 bc e7 3f 6a 39 a9 12 99 bc
       -0.038130265 -0.010002543 0.00022339784 -0.018685656
000310 ed 6b 1c bd ca 68 98 bc 4a 56 b6 bd 4f cf 96 bd
       -0.038188864 -0.018604655 -0.08903177 -0.0736376
000320 3f 69 3a be 76 28 c8 3c 58 a5 30 bd fa 8a a5 bd
       -0.1820421 0.024433356 -0.043126434 -0.08083148
000330 92 19 34 bc 03 74 66 bc b5 9f 5d bd 76 d5 30 3c
       -0.010992425 -0.014065745 -0.054107387 0.010793081
000340 3e 5d b8 bd a7 e5 35 bd 40 a8 a9 bd 2c e4 42 3c
       -0.090021595 -0.044408467 -0.08284044 0.011895221
000350 62 9a 43 bd 2f 1b ff 3c b3 1e c1 bc a5 e7 03 bd
       -0.047754653 0.031140892 -0.023574209 -0.032203335
000360 33 86 34 bd e1 b4 d9 bd 05 20 7b bd eb 03 25 3d
       -0.044073295 -0.10630203 -0.061309833 0.04028694
000370 79 34 ba bb 3d e3 2d bd 28 18 c5 3d 7c b6 b8 bd
       -0.0056825248 -0.04245304 0.09623748 -0.09019181
000380 be b3 7e bd ab ff 83 bd 60 c2 f7 bc dd 67 a2 bd
       -0.062183134 -0.06445249 -0.030244052 -0.079299666
000390 93 50 23 bd 6e f7 8a bd 5d 58 09 bc ff 1f 9b bc
       -0.039871763 -0.06785475 -0.008382884 -0.018936155
0003a0 67 5f 42 bb d6 39 45 bd 78 11 04 bc 0e c4 9e 3d
       -0.0029658915 -0.04815086 -0.0080608055 0.07752238
0003b0 78 03 b1 bd 5d a2 d5 bd e8 08 c5 bd 9b 3b b9 3c
       -0.0864324 -0.10431359 -0.09620839 0.02261143
0003c0 1d f9 b3 bd cb 8f 65 bd ee a8 0c bd 63 6e 04 3c
       -0.08787749 -0.056045335 -0.03434079 0.008082959
0003d0 1c 66 6a bd 32 df 1b bc da 19 66 3d f7 26 0a 3d
       -0.057226285 -0.009513663 0.056176998 0.033728566
0003e0 94 73 4e bd 7f a8 ec bd cd 3f d7 3c db 0e 04 bd
       -0.050403193 -0.115555756 0.02627554 -0.03224073
0003f0 98 23 c6 bc ac bf 4b 3d 67 30 eb 3c 98 0d 93 bd
       -0.024186894 0.04974334 0.028709603 -0.07180327

fc2.bias f4 [256]
000000 84 38 2f bb b1 b1 40 be 38 32 93 be d3 db 10 3f
       -0.0026736567 -0.18817784 -0.2874925 0.56585425
000010 35 77 a8 bd e5 13 ee bb 55 31 0b be e1 1c 91 3d
       -0.08225862 -0.007265555 -0.13593037 0.07085586
000020 3a 54 04 3e de fa 12 bd a6 8b 24 be 3c 3c 24 bd
       0.12922755 -0.035883777 -0.16068897 -0.040096506
000030 94 5d 07 3d 1b c0 96 bd b3 63 5f 3c 8e 87 aa bd
       0.033048227 -0.0736086 0.01363461 -0.08326636
000040 ac c9 6e bd a7 f1 a1 bb 54 f6 bd bd 59 18 4d be
       -0.058297798 -0.0049421373 -0.09275499 -0.20028819
000050 58 5d 4e 3d ce 30 69 be a6 1b ae bd eb 71 e7 3c
       0.05038199 -0.22772524 -0.08501367 0.028252563
000060 57 20 61 3e 86 11 6f 3f 2d 90 66 bd 6d c1 7b 3f
       0.21984993 0.93386114 -0.05628984 0.9834202
000070 c4 26 39 3c 7d 2a a4 bd 59 1d e2 bd 1c 58 d4 be
       0.011300746 -0.080159165 -0.11040754 -0.41473472
000080 dc 88 65 bd 45 84 cc bd 2e 6f ca be bd cc 6d 3d
       -0.056038722 -0.09986166 -0.39537948 0.05805658
000090 8a 91 85 3d dc ad 24 be 19 b9 aa bd e8 b8 5b bd
       0.065219 -0.16081947 -0.08336086 -0.053643137
0000a0 4f 83 87 bd cf 92 a5 be 4c 6c da bd 28 27 88 bd
       -0.06616842 -0.3233857 -0.10665187 -0.066480935
0000b0 68 80 2b bd 42 9e 54 bf b5 f4 47 bd db 33 e2 bd
       -0.041870505 -0.8305398 -0.048817355 -0.11045047
0000c0 4d fd 91 3e f8 43 9e 3d 05 34 a6 bd 64 94 a7 3f
       0.28513566 0.07727808 -0.08115391 1.309216
0000d0 00 65 cf 3c c3 77 aa bd d3 af 46 be 55 e7 ce 3e
       0.025316715 -0.08323624 -0.19403009 0.40410867
0000e0 76 7d dd 3c 86 ab 09 bd 35 2a 30 bd a1 78 30 bd
       0.027037363 -0.033610843 -0.043009 -0.04308379
0000f0 24 90 b7 bd 40 ff 8d bb b0 6e 83 bc 58 15 91 3c
       -0.089630395 -0.0043334067 -0.01604399 0.017710373
000100 26 b8 a8 3f 7f b5 56 bd 59 37 ab bc 60 0a 74 be
       1.3181198 -0.052419182 -0.020900415 -0.23832083
000110 f5 03 51 bc 95 86 30 3c de 54 a4 bd 95 fd 65 bd
       -0.012757291 0.010774274 -0.08024 -0.056150038
000120 43 c2 25 bd 9e 73 cb bd 0e 45 44 bc 76 35 7e bd
       -0.040468466 -0.099341616 -0.011979355 -0.062062703
000130 15 46 8d bd 2b e0 aa be 23 34 6e be cf 97 3b be
       -0.06898133 -0.33374152 -0.23262076 -0.18319629
000140 58 1d 6d bd 14 cf 07 bf e7 e0 b8 bc bf d6 84 3e
       -0.057889313 -0.5305035 -0.02256818 0.25945088
000150 6b 5f b4 be 4d 23 a0 be c7 8c 51 be a1 c8 b4 bd
       -0.35229048 -0.31276932 -0.20463859 -0.088273294
000160 85 38 b2 bd dd 38 1c bd 48 be 67 3e 93 ff c4 be
       -0.087021865 -0.038140167 0.2263118 -0.38476238
000170 87 df 51 be da e8 8d bb 49 c1 94 bd 30 bf ca bb
       -0.20495425 -0.0043307366 -0.07263429 -0.006187342
000180 35 74 58 3d 26 40 5a 3e b5 98 92 be fe 0e de bc
       0.0528452 0.21313533 -0.2863213 -0.027106758
000190 0c f6 a0 be 67 0f 54 3f 79 62 cc bd 92 97 4b 3d
       -0.3143772 0.82836 -0.0997972 0.049705096
0001a0 60 b6 bc be 95 8c 0f 3e f5 35 41 3f 34 da f9 be
       -0.3685789 0.14018472 0.75472957 -0.48799288
0001b0 c1 32 10 bf a2 92 a4 bd 46 5b c1 3c 30 b8 a4 bd
       -0.56327444 -0.080357805 0.023603093 -0.080429435
0001c0 a3 4d 34 3e db 57 4a be 83 db 30 be 7e 60 fb bc
       0.17607741 -0.19760077 -0.17271237 -0.03068566
0001d0 c8 e0 5d be f5 ae 45 bd 1b a8 c0 bc 2c d2 b3 bd
       -0.21667778 -0.048262555 -0.023517659 -0.087803215
0001e0 92 ee 22 3c ca 06 10 bd 5e 05 be bd b0 1a f6 bd
       0.009944575 -0.035162725 -0.092783675 -0.12016809
0001f0 16 11 7b bd 9e de f2 3d b3 81 2d bd b4 9f bb bb
       -0.06129559 0.11858867 -0.04236002 -0.005725825
000200 12 1a 88 bc b1 0e a9 bd d4 49 30 bc 08 26 ab be
       -0.016613994 -0.08254755 -0.0107597895 -0.33427453
000210 ac 5a 4b be 99 5a c8 bd 0c 21 c7 bb 23 10 fe bc
       -0.19858807 -0.09782905 -0.0060769375 -0.031013554
000220 31 9e 90 be 10 f7 19 3f fd 90 52 bd 9b e2 a8 bb
       -0.2824569 0.6014261 -0.051407803 -0.0051539666
000230 ff 70 01 3e 95 93 a2 bc 06 6e 1e be 01 1b 6a bc
       0.12640761 -0.019845763 -0.15471658 -0.014288665
000240 b6 bd 50 3f ba af 5c bc 49 b2 85 be a4 50 c1 bc
       0.81539476 -0.013469631 -0.26112583 -0.023598023
000250 41 bb 24 be 64 88 a9 bc 62 d5 b8 be c0 b1 dd bd
       -0.16087057 -0.020694919 -0.36100298 -0.10824919
000260 85 ba 57 be ce c8 0d be 78 ed 08 3d 67 0c b6 be
       -0.21067245 -0.13846132 0.033429593 -0.35556337
000270 56 a4 89 bd bb 24 eb 3d 5e 91 cd be e4 81 dd b7
       -0.06720798 0.11481615 -0.4014997 -2.6405738e-05
000280 20 3a e5 bd bf 5d 4e bd e4 b5 30 3e 56 c7 e8 be
       -0.11192727 -0.050382372 0.17256886 -0.4546458
000290 c7 1f ec 3e c5 71 07 bd 30 a2 9a bd ad ba ca bd
       0.46117994 -0.033067483 -0.07550466 -0.09898887
0002a0 f1 4a 76 bd 21 d3 b6 bd f4 1c b1 bd 3a 32 2e bf
       -0.060130063 -0.089269884 -0.086481005 -0.6804539
0002b0 47 bd 27 bd 8f 05 18 be 58 8b 33 3e a1 0e fb 3c
       -0.040951993 -0.1484587 0.17533624 0.030646624
0002c0 1b 63 38 3f 0f be 16 be 0a 34 77 3d 89 47 8c be
       0.7202622 -0.14720939 0.060352363 -0.27398327
0002d0 81 c4 7d be 1e 1c 10 be 65 1a 91 3d 12 30 46 bc
       -0.24781992 -0.14073226 0.070851125 -0.012096422
0002e0 4b 75 3d bc 68 aa 15 bd 51 f3 73 bd c1 ed 9d bd
       -0.011563609 -0.036539465 -0.059558216 -0.077113636
0002f0 72 89 5b bd 0f ca 8e bd b3 d1 3f bd a7 73 b4 bc
       -0.053597875 -0.06972133 -0.046830844 -0.022027804
000300 fc 04 b9 bc d3 f7 91 bc 4a 27 28 3d 5e 40 df bc
       -0.022585385 -0.017818367 0.041053094 -0.027252372
000310 2b ac 44 bd 47 57 f7 bc d7 00 7c bd 93 30 3c bc
       -0.048015755 -0.030192984 -0.06152424 -0.01148619
000320 05 6c 1e bd 68 c8 fa bd d4 3f e8 bc 6a 6d bf bd
       -0.038677234 -0.12245256 -0.028350748 -0.09347041
000330 ba db b3 be e2 53 4c be 04 86 42 be f6 65 80 bd
       -0.35128576 -0.19953874 -0.18996435 -0.062694475
000340 a3 d4 e5 bc 9f f3 12 be df 94 2f bc 53 c4 d6 3c
       -0.028055495 -0.14350747 -0.010716646 0.026216662
000350 79 de 7f bd 9d 88 b5 bd ec 28 80 be 5c 61 0d 3d
       -0.062468026 -0.088639475 -0.2503122 0.034516677
000360 69 0b ff be 46 8d 79 3b ed 65 bf bd cd a5 29 3e
       -0.49813393 0.003807859 -0.09345613 0.16567154
000370 8b 86 dc bc 89 cf eb be 32 48 2f bd 44 f2 7c bc
       -0.026919624 -0.46056774 -0.04279346 -0.01543862
000380 8a d2 5a bd cd 58 19 be 4f 99 f5 be 6c 53 bb be
       -0.053423442 -0.14975281 -0.47968528 -0.36587083
000390 3f 96 5f bd 39 ba 94 3c 35 52 18 be 7d 27 a8 3c
       -0.054586645 0.018155204 -0.1487511 0.020526642
0003a0 54 60 bd be 3a f6 6d 3e 6a ff 54 be 54 d9 06 bd
       -0.36987555 0.23238459 -0.20800558 -0.032922104
0003b0 02 62 01 bd 66 7c 80 be 40 6b 58 3f 6a 6c a5 bc
       -0.03158761 -0.25094908 0.8453865 -0.020193297
0003c0 bd 85 88 38 85 e5 0e be 94 75 5c 3e 55 fe 87 bd
       6.509896e-05 -0.13954742 0.21529227 -0.06640307
0003d0 ce 0b cb bc a0 57 32 bc 9a 86 6b be 2c ca 61 bd
       -0.024785902 -0.010885149 -0.23000565 -0.055124447
0003e0 89 8e 1b be 73 34 c7 bc 43 2a 83 be af 36 0d 3f
       -0.15191092 -0.024317002 -0.2561818 0.55161566
0003f0 c5 aa c2 3d 4b ff c4 bd 9e 9d 4f bd 12 1b cd bd
       0.09505228 -0.09619006 -0.050687425 -0.10014929

fc3.weight f4 [4, 256]
000000 f6 de e7 bb 8c 52 85 be 30 63 8e 3f bf a7 6d 3f
       -0.0070761396 -0.2603954 1.112402 0.92834085
000010 60 6f 16 bf 80 c1 4b 3d 0e bb 75 3e a6 d2 08 bf
       -0.58763695 0.049745083 0.23997137 -0.53446424
000020 ae ec 04 3f 0e 88 0d 3b 99 ea e0 3d 1f ec ba bc
       0.51923645 0.0021595987 0.10982246 -0.02281767
000030 2d 43 17 3d ff 46 18 bd 4c 0e 12 bd 32 4d 4b bc
       0.0369293 -0.037177082 -0.035658166 -0.0124085415
000040 18 72 be bc e6 3c d9 3c 06 e4 d3 bc f7 9a 76 bf
       -0.023247764 0.026518296 -0.025865566 -0.9633021
000050 d7 06 3d 3d 81 0f ae 3d 20 b0 2a bc f5 ca 47 bd
       0.0461491 0.08499051 -0.010417968 -0.04877754
000060 46 6f e8 3e 4a 69 f2 3e cc bb 60 bd 16 b2 0f 3f
       0.45397395 0.47345954 -0.054866597 0.5613111
000070 e0 04 2f 3d 93 e7 ba bc e4 e5 93 be 81 88 f0 be
       0.04272926 -0.022815501 -0.2888633 -0.46979144
000080 0f 05 5b bd 6f af 92 3b 73 77 ba 3e 27 a0 4e bf
       -0.05347162 0.0044764797 0.36419258 -0.80713123
000090 7b bc 06 bf dd 29 d8 bd 95 ae 30 3d ea c8 16 bd
       -0.5263135 -0.1055486 0.043135244 -0.0368127
0000a0 d0 a6 2f bd 63 b2 4a bf 9e 96 c8 bd 1a 2c 31 bd
       -0.042883694 -0.79178447 -0.09794353 -0.04325495
0000b0 e7 9a 20 3d 9b 70 13 3f 2a 57 5d 3f 50 3b 13 bf
       0.039210226 0.575937 0.86461127 -0.5751238
0000c0 ba e1 a0 bf fd 45 06 3f 04 1b 9f 3e d0 31 25 3f
       -1.2568886 0.52450544 0.310753 0.6452913
0000d0 ae 47 92 3c 74 e5 79 bd be 81 88 3c d6 2c 21 3f
       0.017856445 -0.06100984 0.016663428 0.6295904
0000e0 01 75 1d bf 56 94 b8 3c 7e 75 eb 3b 3f e2 db 3b
       -0.6150666 0.02253167 0.007185637 0.0067103202
0000f0 e5 85 d8 3d 0c 3b 17 bf 23 19 d7 3c 8e 8d 09 3d
       0.10572413 -0.59074473 0.026257103 0.033582263
000100 d7 51 15 3f cb 3d 18 3c 20 6e 38 bd a1 03 2c bf
       0.58328 0.009292076 -0.0450269 -0.6719304
000110 b4 3d 32 bc ac c6 af be 40 1b 3b bd bd 3c 11 bd
       -0.010878969 -0.34331262 -0.045680285 -0.035458315
000120 66 b0 f2 3c cf bb f8 bc e3 2d d3 3c e7 5b f7 bd
       0.029625129 -0.030362992 0.025778716 -0.12078076
000130 ef f8 7f 3f 07 d6 29 3f 65 7b da 3e 62 30 07 be
       0.9998922 0.66342205 0.42672268 -0.1320205
000140 d0 cc 5b 3c f8 68 bf 3e 96 8e 25 bd 29 65 1e 3f
       0.01341553 0.37384772 -0.040419184 0.6187311
000150 c1 c4 6a 3f 78 d6 db 3e b2 32 b2 be 78 0f da 3c
       0.9170647 0.42937064 -0.34804302 0.026618704
000160 4a 01 80 bd f8 b8 19 be b3 3b d4 be e3 b1 aa 3e
       -0.06250246 -0.15011966 -0.41451797 0.33338842
000170 e7 3d 50 3e 40 e8 25 bc 98 7f af bc 45 ee 6c bd
       0.20336114 -0.0101261735 -0.021423146 -0.05784442
000180 fd f3 be 3c 9b 24 03 3f c1 81 4e 3e 72 55 1d bf
       0.023309702 0.5122773 0.20166685 -0.61458504
000190 dd 7b d6 3e c2 ef 2e 3f 5b e9 43 3c ba 05 2d bc
       0.41891375 0.6833459 0.011957492 -0.010560447
0001a0 58 39 ed bb 43 a3 e9 3e 89 5b 19 3f 1d 8e 84 be
       -0.007239502 0.4563237 0.59905297 -0.25889674
0001b0 7d a9 29 3f 66 50 63 3d 12 7a 06 bf 5c b5 3d be
       0.66274244 0.055496596 -0.52530015 -0.18526214
0001c0 02 f8 84 be b1 b2 fa 3e 78 33 70 3d 89 46 25 bf
       -0.25970465 0.48964456 0.058642834 -0.64560753
0001d0 79 f0 9e bd 2e 35 21 bd 26 f8 a9 3b ef 83 1d bf
       -0.0776071 -0.039357357 0.0051870523 -0.6152944
0001e0 0d ab 25 bc 98 d9 fd 3b 17 85 1e bc f6 01 eb bc
       -0.010111582 0.0077468865 -0.009675286 -0.028687458
0001f0 13 63 44 bd c1 9e 24 bf ef a0 c9 bc 1f 4d 40 bd
       -0.047946047 -0.6430474 -0.024612872 -0.04694855
000200 f0 2c 32 bd 53 6e c2 bd 9c 46 cf 3d 17 d4 06 bf
       -0.043499887 -0.09493699 0.101208895 -0.52667373
000210 e3 1d 0e bf cf 7a 03 bd 79 de 7e bd 08 40 e6 bc
       -0.55514354 -0.03209954 -0.062223885 -0.028106704
000220 aa 14 9c 3f 44 91 19 3f c0 5f a3 3c 36 bd 16 bc
       1.2193806 0.5998728 0.019943118 -0.009200385
000230 35 ad 35 bf c6 42 c4 3c 40 95 2c 3e 54 b2 24 bb
       -0.7096742 0.023957621 0.1685381 -0.0025130706
000240 d5 5f 0f 3f f7 da 09 bc 47 fe 6a 3e f7 dd 09 bd
       0.56005603 -0.008414022 0.22948562 -0.033658948
000250 46 06 29 bf a7 36 12 3d 2a 94 c2 bd 96 cf 13 be
       -0.660252 0.03569665 -0.09500916 -0.14434657
000260 3f 1d 53 3e 98 ae 20 3f 94 e7 dc be b8 6d ac 3e
       0.20616625 0.6276641 -0.4314543 0.3367746
000270 5c 06 46 3c 48 cd d7 3e 09 98 cc 3e c5 84 3d 3c
       0.012086477 0.42148805 0.39959744 0.011567299
000280 47 f1 01 3f f2 34 2f bc ca 2b f8 3c 2e 58 82 be
       0.50758785 -0.0106937755 0.030294318 -0.254579
000290 83 d4 20 bf 40 2f 1f bc df 1c fb 3b a9 67 db 3c
       -0.6282427 -0.009715855 0.007663354 0.026782827
0002a0 1a a2 fb 3c 8d ac cd bd d1 57 65 bb cb 37 1d 3f
       0.030716944 -0.10042677 -0.003499497 0.6141326
0002b0 12 ed b8 3c 36 9f 27 be 4c a3 19 3f 96 52 58 3c
       0.022573981 -0.16369328 0.60014796 0.013203284
0002c0 4e c3 b9 bf 9a 42 cb be 07 14 05 3d 2b df 5a be
       -1.4512727 -0.3969925 0.032489803 -0.21374194
0002d0 69 f4 91 3e 77 38 8a 3c 94 8b 0b bf 5b f6 4e 3d
       0.28506783 0.016872628 -0.54509854 0.05052791
0002e0 f8 ef 63 3d 10 a1 d0 3c 36 12 58 bd b8 a3 bf bf
       0.055648774 0.025467426 -0.052751742 -1.4971838
0002f0 66 a5 ea 3b 3b 6e 20 3b 64 12 d3 bc 38 33 fb be
       0.0071608303 0.0024479765 -0.025765605 -0.49062514
000300 5e da 11 3d fc 80 46 3c 83 41 a0 3f c6 7d 5d 3d
       0.03560864 0.012115713 1.2519993 0.054075025
000310 0e bc ae 3c 44 f3 8a be 59 fb f9 be 26 3f 1b 3c
       0.021329906 -0.27138722 -0.48824576 0.009475505
000320 72 96 28 3d 85 79 b4 bd 9c 5e e9 be 71 bd 1a 3f
       0.0411591 -0.088122405 -0.45579994 0.60445315
000330 11 1d f3 be 34 45 f8 be 81 9b 48 3f 9d 87 11 bf
       -0.47483113 -0.48490298 0.7836228 -0.56847554
000340 56 f0 fa be 8e ac de be 6c b7 c5 bb 63 12 8f 3c
       -0.49011487 -0.43491024 -0.0060338285 0.017464822
000350 5e 19 2d bd 06 7a 5c bb a7 12 09 bd 78 f7 d3 3c
       -0.04226052 -0.0033642068 -0.033465054 0.025874838
000360 30 62 e5 3e 00 4c e9 3c 57 25 1c 3d c6 d3 48 bf
       0.44801474 0.028478622 0.038121548 -0.7844814
000370 99 62 93 3b b7 12 83 be 50 a0 06 bc 80 de 8b 3c
       0.0044978377 -0.25600216 -0.008216932 0.01707387
000380 97 3a c1 be ef c6 73 bf 5a 11 1a be ba 32 96 be
       -0.37740013 -0.95225424 -0.15045682 -0.29335576
000390 39 3e 90 3c b8 c4 7e 3c 49 33 6c 3b cc 69 00 3f
       0.017607795 0.015549831 0.003604131 0.50161433
0003a0 77 c9 9a 3f 4f 1f 00 3f ce 11 8c bf c9 49 34 3e
       1.2092732 0.50047773 -1.0942934 0.17606272
0003b0 0f 34 6d bc a3 3f 30 bf 4b 9f 02 3f 6f 20 23 3d
       -0.014477744 -0.688471 0.5102431 0.039825853
0003c0 42 32 14 bd 0f 81 60 be 67 e5 99 bf dc a9 44 bf
       -0.036180742 -0.21924232 -1.2023133 -0.76821685
0003d0 47 f9 60 3d b3 56 bc 3c 1e 2d 41 bf 60 21 f9 bc
       0.05492523 0.02299056 -0.7545947 -0.030411422
0003e0 d3 bb e6 3c da 59 1b 3d d0 c1 ed be 0d f4 f2 3e
       0.028165733 0.037927486 -0.4643693 0.4745182
0003f0 19 9d 42 bf 2d 80 d8 be 08 40 80 bb 2d 6b a4 3e
       -0.7602096 -0.4228529 -0.003913883 0.3211302

fc3.bias f4 [4]
000000 cb c7 e1 bd ac bb 04 3d b1 82 9d 3e df 4e 13 be
       -0.110244356 0.03240554 0.30763772 -0.14385556
