csv_and_models/vanilla_dqn/vanilla_lunarlander_final.pth (torch, 279356 bytes, 6 tensors)

fc1.weight f4 [256, 8]
000000 cc c4 8f 3d bd f8 16 c0 e6 16 42 bf 31 c9 28 bf
       0.07019958 -2.3589318 -0.7581619 -0.65931994
000010 b3 a3 a0 bf 06 f0 20 3f 48 07 2c bd 30 31 e9 bf
       -1.2549957 0.62866247 -0.04199913 -1.8218136
000020 52 cc 88 bf 5a 8c 0a c0 7a 06 b6 3e e6 4c ec 3e
       -1.0687354 -2.1648164 0.35551816 0.4615242
000030 f7 72 22 bf fe 61 ad 3e 82 0e 1f bf d0 32 7b be
       -0.6345667 0.33863825 -0.6213151 -0.24531102
000040 c8 c0 d1 be eb a0 08 c0 d9 4b 1d bf 96 4d 21 bd
       -0.40967393 -2.1348217 -0.6144386 -0.039380632
000050 e4 9c 20 bf 65 f9 c9 3e d2 04 d5 be 45 76 f4 3d
       -0.62739396 0.39448085 -0.4160524 0.119366206
000060 85 c0 00 3f 4b 6d bb 3f 7e 6e 85 3f f5 70 2a 3f
       0.5029376 1.4642729 1.0424345 0.6657861
000070 cd 67 e2 bf 71 cc 9f bd c7 73 0b 3e 1b c1 b1 3c
       -1.7687927 -0.07802666 0.13618384 0.021698525
000080 6c c2 10 3d 46 70 4f bc eb bd 8b bc 44 c0 9d 38
       0.035341665 -0.012661045 -0.017058333 7.522156e-05
000090 4a a1 64 40 d9 ff 14 3c 02 15 0f bf d4 d4 16 bd
       3.5723443 0.009094202 -0.5589143 -0.036824062
0000a0 42 92 36 bc 82 02 30 c0 3d ce 89 3d bb df 57 3f
       -0.011143269 -2.750153 0.0672879 0.8432576
0000b0 b0 73 fd 3d ed 99 a6 bd a8 3b 6f bd 6f af 8d 3c
       0.12375581 -0.08134828 -0.058406502 0.017295567
0000c0 eb d3 8a 40 14 03 67 3e 4d 07 7b 3f ff 6b 44 3e
       4.338369 0.22559768 0.98058015 0.19181822
0000d0 37 cf 0f bf 0b b1 b2 3d 1b 02 18 3c a0 cc 04 be
       -0.5617556 0.087251745 0.009277846 -0.12968683
0000e0 df 78 1c 40 cb 33 28 c0 9f 77 8a 3c 6a 59 4a 3d
       2.4448774 -2.6281612 0.016902743 0.04940168
0000f0 54 88 20 3f 99 4d a8 bd f1 bc d9 bd c4 45 1c 3d
       0.6270802 -0.082179256 -0.10631741 0.03815247
000100 b8 31 c5 40 26 36 6f 3d c5 a7 cf 3e d1 62 4c be
       6.162319 0.05840125 0.40557685 -0.1995957
000110 12 30 da be e7 26 58 3d 6e 4b e0 3c 39 be 05 3f
       -0.426148 0.052771475 0.027379718 0.5224338
000120 2a 0c 5b be 33 63 26 c0 71 f5 45 be f2 f1 c9 3e
       -0.21391359 -2.5998046 -0.1933191 0.39442402
000130 ab c0 da 3f bc 8f 12 bf 83 41 1b 3f 4c 02 32 be
       1.7090048 -0.5725057 0.6064684 -0.17383689
000140 bd c5 d0 be 37 53 f8 bd 29 76 f1 3e e3 44 52 bf
       -0.40775862 -0.12125247 0.47160462 -0.8213636
000150 ea 1e 69 be 33 3a df be 8c 5e 0a bd 08 f2 b0 be
       -0.22765699 -0.4359909 -0.033781573 -0.34559655
000160 db 8c 48 bd f5 b1 9a be 0e 1d 82 3d c9 b4 69 bf
       -0.048962455 -0.30213895 0.06353198 -0.9129148
000170 e1 31 26 3f 1a b6 80 be cf 86 54 bd a3 15 d8 3d
       0.6491986 -0.25138932 -0.051886376 0.10551002
000180 35 04 59 be 78 82 38 40 af 53 e7 3e bf cf 79 bf
       -0.21193011 2.8829632 0.45181033 -0.9758262
000190 83 9f f8 3e 93 7a 3f bf 1e cf 3d bd 01 37 90 3e
       0.48559198 -0.7479641 -0.0463401 0.28166965
0001a0 61 d9 37 3e c4 0a eb 3f 41 cc 34 bf 89 0f 07 be
       0.17954017 1.836266 -0.70624167 -0.1318952
0001b0 f1 98 8e 3f 3c ea e2 3e 42 08 c4 be 54 40 3b bd
       1.1140424 0.44319332 -0.3828755 -0.045715645
0001c0 aa f8 1a 40 25 c7 9f 3f 75 9e 7d bf 2a e7 16 3f
       2.4214272 1.2482649 -0.9906991 0.5894648
0001d0 9a f3 03 bf c0 90 9b be b7 c2 07 3e 85 4f f5 be
       -0.5154358 -0.30383873 0.13257872 -0.4791223
0001e0 bd 0c b3 be fb 46 33 c0 87 7f f4 be 4e 62 81 3f
       -0.34970656 -2.8012073 -0.47753546 1.0108125
0001f0 a8 7a 0c c0 53 b9 04 bf 9c 68 58 3e c3 ae b1 3a
       -2.1949863 -0.5184528 0.21133655 0.0013556111
000200 b5 0b da 3e 50 ba 8a bf ea 53 3e bf f6 8a 16 3e
       0.42587057 -1.0838108 -0.7434679 0.14701447
000210 90 15 b9 bf d6 cb 86 3f 8d 53 de be 6b 19 85 bf
       -1.4459705 1.0530956 -0.4342312 -1.0398382
000220 7c f5 2b bf 87 a7 c6 3f 30 8b 47 bf 09 be 6d 3d
       -0.67171454 1.5519875 -0.7794676 0.05804256
000230 3e 0a af 3f cc af 61 3d 6b 8e 8b bf 20 27 8a be
       1.3675001 0.055099294 -1.0902838 -0.26982975
000240 ea a7 a8 bd f5 0e db 3e 8a 99 76 be 69 01 e2 be
       -0.08235152 0.4278485 -0.24082008 -0.441417
000250 0c 26 06 40 16 88 90 3e d6 18 af bf 14 63 17 bf
       2.0960722 0.28228825 -1.3679454 -0.59135556
000260 4d 24 1f bf 01 ca bd c0 2c b2 9e 3e 56 a6 92 bf
       -0.62164766 -5.9309087 0.3099531 -1.1457012
000270 f2 16 4e 3d d2 43 5d be 84 ba f0 3d ee da 20 3d
       0.05031485 -0.21607903 0.11754325 0.039271288
000280 98 31 4a bf 6d 1b b6 be 52 b4 05 40 66 48 ce be
       -0.78981924 -0.355678 2.0891309 -0.4028961
000290 e1 ee c2 3c dd 43 9d bd b4 ed a7 be 04 0e c1 bf
       0.023795547 -0.076789595 -0.3279854 -1.5082402
0002a0 a3 5e 5d bf 9b 2c 86 3c b5 dd bb 3f e2 3b 53 3e
       -0.8647253 0.016378691 1.4677035 0.20628312
0002b0 2a 6d ca be 48 13 6c 3f 03 f1 38 bf 0a 6e 5c 3e
       -0.3953641 0.9221692 -0.72242755 0.21526352
0002c0 ed 61 95 3f 10 4c 21 3d 4d 23 b4 be 58 44 c9 bd
       1.167051 0.03937918 -0.35183182 -0.09827489
0002d0 e1 c3 13 bf 6b b8 84 bf 62 d6 0a 3d f6 3a b0 3e
       -0.5772076 -1.036878 0.033895858 0.34419984
0002e0 1c e6 85 3f 3c 49 e8 bf 62 4a 92 bf 6a c7 84 bf
       1.0460849 -1.8147349 -1.142895 -1.0373356
0002f0 78 fa d4 3d e5 ef bb 3e b1 04 17 3e df c3 65 be
       0.103993356 0.36706463 0.14747883 -0.22438
000300 7a 0e 9e bf 92 8e 0f c0 3f df f1 3e b4 bf 0c bf
       -1.2348168 -2.2430768 0.47240636 -0.54980016
000310 42 70 a1 bf e7 a4 79 be 37 c9 3f be ae 7d bc be
       -1.2612383 -0.24379312 -0.18729101 -0.36814636
000320 76 08 29 bf 8c 20 28 c0 cd 6e ed 3e 40 f7 9d bf
       -0.66028535 -2.6269865 0.46373597 -1.234108
000330 3e 74 90 bd 33 32 12 bf f4 96 ac 3d 4c a1 f7 bd
       -0.070534214 -0.5710785 0.084272295 -0.12091312
000340 ae d8 c9 3c 17 23 8d 3f b5 66 84 bf 12 2f ab 3b
       0.024639454 1.1026334 -1.0343844 0.005224117
000350 ec 09 00 bf e7 52 4a 3d 2a 47 e5 be 81 cd 6b bd
       -0.5001514 0.049395468 -0.44780856 -0.05756903
000360 8f c3 25 3d 50 44 68 c0 62 d1 8d 3e e4 94 f1 3e
       0.040469702 -3.6291695 0.2769881 0.47183907
000370 18 ae 88 3f da c1 a9 bd 2d 08 9e 3c 60 66 9c bd
       1.0678129 -0.082889274 0.019291008 -0.07636714
000380 23 63 e1 3e ff 6b ed bf e5 a0 12 bf 55 1b c4 3e
       0.44020948 -1.8548583 -0.57276756 0.38302103
000390 7e b4 8e 3e c3 61 3c be 76 a5 37 bf 2b c5 b0 be
       0.2787208 -0.18396668 -0.7173685 -0.34525427
0003a0 5a f4 49 3f d9 3b 09 c1 17 ff 0f be 6a 01 64 be
       0.78888476 -8.577111 -0.14062153 -0.22266164
0003b0 45 6d 11 3f 83 3a 07 be 7d 38 d5 3e 88 fa 8b 3d
       0.5680736 -0.13205914 0.4164466 0.068348944
0003c0 44 5b 9a 3e 4d 4e c5 bf 6f 60 52 bf 5d 21 50 3f
       0.30147755 -1.541452 -0.82178396 0.8130091
0003d0 4e 97 17 be d3 30 b6 be 5e c9 dc be 2b 0f 59 be
       -0.14803812 -0.35584125 -0.4312238 -0.21197192
0003e0 56 25 06 bf c5 24 3d c0 e2 5f ba 3f f2 f2 e2 3b
       -0.5240072 -2.9553692 1.4560511 0.006925934
0003f0 db 4b 24 be eb 2f c7 3e 78 57 34 3e df fd 7f 3e
       -0.16044562 0.38903746 0.17611492 0.24999188

fc1.bias f4 [256]
000000 d3 b4 93 bf 50 fb 84 bf 40 03 43 bf 7c 5b 19 3e
       -1.1539558 -1.0389194 -0.76176834 0.14976305
000010 8b 4e a9 3c cd 3b 61 3f 93 82 f4 be 2c ff 71 be
       0.020667335 0.87981874 -0.4775587 -0.23632497
000020 1c a2 91 be 20 4c 5d be 8b f9 96 3c 26 f0 13 3f
       -0.28443992 -0.2161107 0.018429538 0.5778831
000030 72 82 05 bf f6 3e 63 bf 86 81 05 3f e4 5b ac 3c
       -0.5215217 -0.88767946 0.5215076 0.02103991
000040 a4 b8 29 bf 94 41 62 3e ba 12 95 3e 57 42 79 be
       -0.66297364 0.22095329 0.2911585 -0.24341713
000050 47 bb 63 bd 29 b1 33 bf f7 9e fa bd 87 9f ec be
       -0.055598523 -0.701922 -0.122373514 -0.4621546
000060 d4 00 62 bf ec 9f 6b be 05 1b 47 3f cc ad 5c 3e
       -0.88282514 -0.23010224 0.77775604 0.21550673
000070 a8 de 3b bf 3b 6a a4 be 19 b6 90 bf 51 60 03 bf
       -0.7338662 -0.32112297 -1.1305572 -0.5131884
000080 c9 a3 ac 3f 2c a8 99 3d 89 3c e0 bd 28 57 db bc
       1.3487483 0.07502779 -0.10949046 -0.026774958
000090 84 0f 73 3b b9 a4 90 bf 2a c7 f7 be f0 61 c7 3e
       0.0037088105 -1.1300269 -0.48394138 0.38941908
0000a0 34 be 14 bf 1a 12 9a be bd 50 99 bd 1f 47 41 bf
       -0.58102727 -0.30091935 -0.07486103 -0.7549915
0000b0 34 d3 57 3f 29 c5 0a 3e c5 00 2a bf 0b 6c 37 bf
       0.84306645 0.13551773 -0.66407424 -0.71649235
0000c0 3e 6b d0 be 6c a0 ac bd f3 7d bc bc f7 fc 48 3e
       -0.4070682 -0.084290355 -0.023009276 0.19627748
0000d0 39 7d 86 be f9 b3 6c 3e 20 b1 50 3e a1 8e 23 3e
       -0.26267412 0.23115529 0.20380068 0.15972377
0000e0 28 c0 22 3f 25 6e b5 3e 54 85 ff be dc 54 7b bf
       0.6357446 0.35435596 -0.4990641 -0.9817636
0000f0 11 79 4f 3e d1 88 92 3d 2a 89 3b 3f c3 55 af bb
       0.20261027 0.07155002 0.7325617 -0.0053507998
000100 9e 8e ee 3e fd fc 10 bf a7 ce 11 bf 63 f9 96 3e
       0.46593183 -0.5663603 -0.5695595 0.29487142
000110 02 51 17 bf 85 b2 e5 be 74 1e f4 be 01 9e fd 3e
       -0.59107983 -0.44862762 -0.47679484 0.4953461
000120 d0 e9 12 bf 11 5c 72 3f 55 6f 2b bb 96 89 7f 3e
       -0.5738802 0.9467173 -0.0026158888 0.24954829
000130 16 05 b7 be f2 0c 28 be 20 fd 13 bd 4d 2d e4 3e
       -0.35746068 -0.16411188 -0.03613007 0.44565812
000140 c4 56 42 3e 4f d2 b3 3e 3b 47 35 3d 7c 66 55 be
       0.18978411 0.3512139 0.044257384 -0.20839876
000150 87 3b 32 3f aa d4 b4 3e 6e 7c db bd 95 8a af 3e
       0.6962208 0.353185 -0.107170925 0.34285417
000160 02 30 4b 3e 60 b7 86 3f ad 6e de 3e 12 00 48 be
       0.19842532 1.0524712 0.43443814 -0.19531277
000170 71 8a a0 bf 5a 5f 8f be 07 55 a5 ba 2d ac e5 be
       -1.2542249 -0.28002435 -0.0012613841 -0.44857922
000180 6c 47 23 bd 07 e2 75 bf e0 27 3e bf 96 49 9a bf
       -0.039863035 -0.96048015 -0.74279594 -1.2053707
000190 0b 68 b0 3f 05 51 51 3d 54 ee 05 bf 28 be 92 bd
       1.3781751 0.051102657 -0.52316785 -0.07165176
0001a0 60 7c 09 bf 65 7a 78 bf 8a fb 8e bf af 11 0f 3f
       -0.53705406 -0.9706176 -1.1170514 0.5588636
0001b0 8a 67 80 bf a2 02 f3 bd 85 0d 5f bf 06 f2 48 bf
       -1.0031598 -0.118657365 -0.87130004 -0.784943
0001c0 e3 9e f3 3e 1c 7f 86 be 44 b1 a8 be 09 cd 4b 3f
       0.47582158 -0.26268852 -0.32947743 0.79609734
0001d0 9e 34 7a be 6c 7a 91 3d 5d 6a 3d 3f e0 ca 50 bf
       -0.24434134 0.07103428 0.7399042 -0.8155956
0001e0 30 b7 82 bf 38 96 2d 3f 08 e8 c2 3e 2d c0 52 bf
       -1.0212154 0.6780734 0.3806765 -0.82324487
0001f0 a5 e0 41 3b ae c8 7e bf ce 13 69 bf 6b 05 3d bb
       0.0029583361 -0.9952496 -0.91045845 -0.002884234
000200 ee 41 76 3e 31 95 90 3e a0 51 db 3d c0 96 6d bf
       0.24048588 0.28238824 0.10708928 -0.9280815
000210 f1 13 98 3e b4 11 80 3e 0a 52 92 3e 77 28 fe 3e
       0.29702714 0.25013506 0.28578216 0.49640247
000220 97 36 a7 bc 76 2a 42 bd ba ae 9e bf 32 d3 80 3e
       -0.020411773 -0.047403775 -1.2397072 0.2516113
000230 6c d2 82 3f a6 20 81 be 5e d5 66 3e 77 e0 1c be
       1.0220466 -0.2522022 0.2254233 -0.15320002
000240 4c f2 58 bf 77 c5 87 bf e1 65 37 bf 37 60 20 3e
       -0.84744716 -1.0607136 -0.7163983 0.15661703
000250 00 a1 6c 3f ba 1c c3 3e 35 ab d7 3e 59 3f 19 3f
       0.92433167 0.38107854 0.42122808 0.59862286
000260 fc 76 61 be 3c 4a 7b bf 0a 67 7a 3e ac 9e 70 3f
       -0.22018045 -0.9816015 0.24453369 0.93992114
000270 d4 d4 26 bf 45 d7 e5 bd d3 8b a4 3d 01 67 59 3e
       -0.651685 -0.112227 0.08034482 0.21230699
000280 1b 83 8f 3e 12 15 02 3e 63 18 0e bf 0a 18 08 3e
       0.28029713 0.1270335 -0.5550596 0.1329042
000290 6d 00 f6 bd f6 50 67 3e e3 49 b4 be a2 40 93 3e
       -0.120118 0.22589478 -0.3521262 0.28760248
0002a0 66 d0 22 3f 69 8d d2 bd a8 b2 61 be 24 9c ee 3e
       0.6359924 -0.10280878 -0.22040808 0.466035
0002b0 12 88 09 bc 0c 25 af bd ef 53 79 be f4 61 44 3f
       -0.008394258 -0.08551988 -0.24348424 0.76711965
0002c0 96 99 b2 3e ed 12 2c bf 2f 8e d3 3f 23 1e b9 bf
       0.34882802 -0.6721638 1.6527766 -1.4462322
0002d0 15 e3 18 bf 87 09 b8 bd 4b 37 ec be 56 25 2f 3d
       -0.597215 -0.08986192 -0.46135935 0.042760216
0002e0 77 54 03 be 67 73 a1 3e e7 56 10 bf a1 cc 48 3e
       -0.1282519 0.31533358 -0.563826 0.1960931
0002f0 b7 d0 3d bf 46 5f 12 bf 3c ed 6f 3f df 72 0c bf
       -0.741466 -0.57176626 0.93721366 -0.5486278
000300 a1 30 af 3e c9 c2 dd be 65 70 98 3f b0 ac 03 be
       0.34216788 -0.43312672 1.19093 -0.12858844
000310 30 4d fa 3d 9d 7f 80 3d 08 65 10 bc dd e1 8e bf
       0.122217536 0.0627434 -0.00881315 -1.1162678
000320 20 fd 67 bf c7 f8 38 bf d5 c8 19 bf 36 a6 d4 be
       -0.90620613 -0.72254604 -0.6007207 -0.4153306
000330 e9 68 95 3e e0 55 3a 3f 95 65 40 3f e5 59 92 3d
       0.29181603 0.72787285 0.75155 0.07146052
000340 70 60 cb 3e 50 28 09 bf 55 73 cf 3c 71 71 c4 be
       0.39722013 -0.53577137 0.02532355 -0.383678
000350 a0 3c e5 bd 58 2d b0 3d ea e1 56 3f 31 2d 62 bf
       -0.11193204 0.08602399 0.8393847 -0.88350207
000360 4b bf 43 bf 81 19 04 bf 13 54 40 3d c1 4b 55 3e
       -0.76463765 -0.51601416 0.04695518 0.20829679
000370 9d d4 75 3f 90 a9 50 3f 80 ec f6 be 18 c3 9b be
       0.9602755 0.8150873 -0.4822731 -0.30422282
000380 73 01 4a bf 32 10 b7 bb 16 0e 46 bf 84 4c 51 3e
       -0.7890846 -0.0055866474 -0.77365243 0.20439345
000390 5f f5 8a be 3d 6e 9b bc 5d c9 62 bd a6 f9 88 3e
       -0.27140328 -0.018973464 -0.055367816 0.26752967
0003a0 e4 8b 3c bf ff ce 0e bf a4 3f 4b bf 3e 2e 8a bf
       -0.73650956 -0.557846 -0.7939398 -1.0795362
0003b0 8a d5 64 bf dc 82 4d bf d6 ab 0c bf a0 b4 07 3b
       -0.89388335 -0.802778 -0.549497 0.0020707026
0003c0 9f c7 a2 3e 99 be 46 3f 5a 50 43 bb 40 89 be be
       0.31792924 0.7763458 -0.0029802532 -0.37214088
0003d0 c0 2d 80 3d cd 64 05 bf b7 07 8a be 95 3b 09 bf
       0.06258726 -0.52106935 -0.2695901 -0.5360654
0003e0 90 aa 86 be b2 6b d3 3e bc 64 a6 3b 65 bd 9e 3e
       -0.26302004 0.41293103 0.0050779264 0.31003872
0003f0 b9 60 09 bf 9f e4 43 be b6 d2 0e bf 01 36 c9 3c
       -0.5366321 -0.19130181 -0.5579027 0.024561884

fc2.weight f4 [256, 256]
000000 c9 c8 9b bd f2 0a c7 3d 76 f2 e3 bc 48 97 76 bd
       -0.07606656 0.097188845 -0.027825575 -0.060202867
000010 c2 ec 9b bd 4a 9f e6 3c a0 ca 81 bd 70 96 45 bd
       -0.07613517 0.028152127 -0.06337476 -0.04823917
000020 c6 2e 46 bd be da 92 bc 96 33 8f bd 60 cb d8 bd
       -0.04838445 -0.01792657 -0.06992261 -0.10585666
000030 2b 63 de bd 55 ea de bd ea 3d 9b bc 49 38 fb bd
       -0.108587585 -0.10884539 -0.018950421 -0.12266595
000040 52 58 21 bd e2 d8 21 bd a1 9b 03 be 2a 81 ea 3a
       -0.03939087 -0.039513476 -0.12852336 0.0017891277
000050 d4 88 2a bd 08 7f b1 bc bc 72 96 bc 15 bf ec bd
       -0.041634396 -0.021667019 -0.018365256 -0.115598835
000060 c3 48 88 bc 48 a9 b0 3d 71 bb af bd b0 01 2d bd
       -0.016636258 0.08626038 -0.085806735 -0.042237937
000070 38 65 79 3d 7c 40 36 3b af 23 17 be e1 23 c1 3c
       0.060887545 0.0027809432 -0.14759706 0.023576679
000080 df c2 b9 bd 66 8f 34 bc 3c 94 61 bd 33 77 66 bc
       -0.09070372 -0.011020517 -0.055073008 -0.014066505
000090 1c b7 1b 3d 12 dd 95 bd 21 6b 07 3d 49 a7 1c 3d
       0.038016424 -0.073175564 0.03306115 0.038245473
0000a0 7d b5 70 bd f5 66 2a bc 21 0b 35 bc 63 97 e2 bc
       -0.05876683 -0.010400523 -0.011050017 -0.027660077
0000b0 0e a2 14 bd 9f b9 65 bd e3 49 50 bd 0c 66 a2 3c
       -0.03628736 -0.056085225 -0.050851714 0.01982405
0000c0 75 6b b0 bd aa a1 9e bd 8f f5 30 bd a5 f6 ec 3b
       -0.08614246 -0.07745679 -0.043202933 0.0072315508
0000d0 34 f9 0e bd b7 5a 79 bd 87 67 96 bd d2 6b 94 bd
       -0.034905627 -0.060877528 -0.07343965 -0.072471276
0000e0 3c f9 a2 3c 52 16 c1 bd f9 3f 9b 3b 63 08 54 bd
       0.019894235 -0.094280854 0.0047378507 -0.05176581
0000f0 13 c0 3b bd ab 98 52 bd 50 a0 37 3b 21 16 29 3d
       -0.045837473 -0.051415127 0.0028019138 0.04128087
000100 f3 2a a1 bd 56 48 30 bd 60 7e d3 3b b4 dc 7d 3b
       -0.0786952 -0.043037735 0.006454274 0.0038736286
000110 48 fb 4d bd cc e4 57 bd 12 cd 16 bd 40 31 08 bd
       -0.05028847 -0.052708432 -0.036816664 -0.033250093
000120 48 87 72 3c 15 29 c2 bc e2 fa 37 bd 2a 0a d3 bc
       0.014802761 -0.02370123 -0.044916995 -0.025761683
000130 57 fd a5 bd 52 6a 09 be 40 c7 02 be 08 2c c1 bd
       -0.08104961 -0.13419464 -0.1277132 -0.094322264
000140 68 fc 81 bd d6 85 b7 bd b9 9f 03 3d 20 c0 b5 bb
       -0.06346971 -0.08961074 0.032134745 -0.0055465847
000150 c5 4a 95 bd 80 82 e7 bd 6d ea 6c bc e1 98 05 be
       -0.07289652 -0.11304188 -0.014460188 -0.130466
000160 3b 20 2d 3b d8 e1 95 bd 38 5d bf bd dd ba e7 bd
       0.0026416916 -0.07318467 -0.09343952 -0.11314938
000170 3c e2 11 3d c4 fa 3c bd 49 a5 e8 bc 40 e4 b7 bc
       0.035616145 -0.046137586 -0.028399127 -0.022447705
000180 14 cf 32 be bb 75 d6 3c 57 5b 7a bd 40 bb 3d bd
       -0.17461807 0.026179185 -0.061122265 -0.046321154
000190 70 72 17 3b 22 38 4b bd b8 f4 9a bd 0e e3 4a 3e
       0.0023108982 -0.04961408 -0.07566208 0.19813177
0001a0 5a 7d 40 bd 2b ba 0a 3a f3 df 55 3b 45 2c 50 bd
       -0.046994545 0.00052920234 0.0032634705 -0.05082347
0001b0 f1 c0 1c 3d c0 54 d0 bd 37 14 a3 bc e4 92 39 bc
       0.03826994 -0.10172415 -0.0199071 -0.011326525
0001c0 76 2d 8f 3c d3 ad 28 3d de 20 5a 3d da 64 55 bd
       0.017477732 0.041181397 0.053254 -0.052098133
0001d0 0f 4b 12 bc d2 b5 68 bd 4b ba e6 bd f4 a8 44 bd
       -0.008929028 -0.056814022 -0.11266001 -0.04801269
0001e0 1f 89 0d 3b 13 63 ff bb ca 84 39 bd 73 61 aa bd
       0.0021596623 -0.007793793 -0.045292653 -0.08319368
0001f0 86 0a a8 3b 80 94 27 bb 10 31 20 bd 28 c0 58 bd
       0.0051282076 -0.002557069 -0.03910929 -0.05291763
000200 29 be ae bd ef ae 87 bd cc 8c 5a bd a8 3e 8e bd
       -0.08532364 -0.06625163 -0.05335693 -0.069455445
000210 56 e3 8b bd df 3e e7 bc 6a da 65 bc e9 e4 b2 bd
       -0.0683047 -0.028228221 -0.014029125 -0.087350674
000220 90 3a d0 bd bf 12 0b bc c9 16 08 bd af 2e 45 bd
       -0.1016742 -0.008488356 -0.033224855 -0.048140224
000230 6e 4b 68 bc 8e 35 43 bd 7b ef b4 bd 2c 5f 52 bd
       -0.01417814 -0.047658496 -0.0883474 -0.051360294
000240 1d c1 32 3d 58 d9 86 3c f9 03 8c bd 15 ff 89 bc
       0.0436412 0.01646106 -0.06836695 -0.016845265
000250 49 02 4b bd 4d 79 1a bc 4e 9a 9e bd b0 0b 49 3c
       -0.049562726 -0.009428334 -0.07744275 0.012270853
000260 d5 5f a2 bd e3 5c 25 3d 36 e0 3e bd be 0d b0 bb
       -0.07928435 0.040371787 -0.046600543 -0.005372732
000270 8c 30 06 3d 9b 0a 44 bc ce a6 2b 3d 19 74 49 3d
       0.03276114 -0.011965419 0.041907124 0.049182985
000280 e2 5c 06 be 6c 5a 0f bd 4d 12 86 3d f5 ee 64 bc
       -0.1312137 -0.034998342 0.06546459 -0.013972987
000290 39 9f 03 bc b9 ba d2 3c 7a c5 ca bd a1 a9 cb bd
       -0.008033567 0.025723802 -0.09900947 -0.099444635
0002a0 d4 e5 23 bd eb 64 c9 bd 2b a6 05 3b a5 ed 2d be
       -0.040014103 -0.09833702 0.0020393233 -0.16985185
0002b0 28 5e 87 3d 1f 12 ec 3d f8 3d 42 bb 90 ab 3b bd
       0.06609756 0.11526894 -0.0029638987 -0.04581791
0002c0 8c 1d a0 bb 75 18 a5 bd d2 32 1e bd 02 f9 b1 3c
       -0.0048863348 -0.080613054 -0.038622685 0.021725181
0002d0 29 cc 3a bd 96 f6 74 bc 87 be 41 bd 1a 5e ec bd
       -0.04560486 -0.014951369 -0.04730084 -0.11541386
0002e0 12 05 c1 bd 00 7d 6e bd b3 02 34 3d 27 4b 27 bd
       -0.09424795 -0.058224678 0.043947887 -0.040843155
0002f0 7e 88 79 bd 3c fc 80 3c 25 82 b2 bd 90 82 5a bc
       -0.060921185 0.015745275 -0.08716229 -0.013336793
000300 7b 2e 1c bd b5 e1 23 bc e7 3f 6a 39 a9 12 99 bc
       -0.038130265 -0.010002543 0.00022339784 -0.018685656
000310 ed 6b 1c bd ca 68 98 bc 4a 56 b6 bd 4f cf 96 bd
       -0.038188864 -0.018604655 -0.08903177 -0.0736376
000320 3f 69 3a be 76 28 c8 3c 58 a5 30 bd fa 8a a5 bd
       -0.1820421 0.024433356 -0.043126434 -0.08083148
000330 92 19 34 bc 03 74 66 bc b5 9f 5d bd 76 d5 30 3c
       -0.010992425 -0.014065745 -0.054107387 0.010793081
000340 3e 5d b8 bd a7 e5 35 bd 40 a8 a9 bd 2c e4 42 3c
       -0.090021595 -0.044408467 -0.08284044 0.011895221
000350 62 9a 43 bd 2f 1b ff 3c b3 1e c1 bc a5 e7 03 bd
       -0.047754653 0.031140892 -0.023574209 -0.032203335
000360 33 86 34 bd e1 b4 d9 bd 05 20 7b bd eb 03 25 3d
       -0.044073295 -0.10630203 -0.061309833 0.04028694
000370 79 34 ba bb 3d e3 2d bd 28 18 c5 3d 7c b6 b8 bd
       -0.0056825248 -0.04245304 0.09623748 -0.09019181
000380 be b3 7e bd ab ff 83 bd 60 c2 f7 bc dd 67 a2 bd
       -0.062183134 -0.06445249 -0.030244052 -0.079299666
000390 93 50 23 bd 6e f7 8a bd 5d 58 09 bc ff 1f 9b bc
       -0.039871763 -0.06785475 -0.008382884 -0.018936155
0003a0 67 5f 42 bb d6 39 45 bd 78 11 04 bc 0e c4 9e 3d
       -0.0029658915 -0.04815086 -0.0080608055 0.07752238
0003b0 78 03 b1 bd 5d a2 d5 bd e8 08 c5 bd 9b 3b b9 3c
       -0.0864324 -0.10431359 -0.09620839 0.02261143
0003c0 1d f9 b3 bd cb 8f 65 bd ee a8 0c bd 63 6e 04 3c
       -0.08787749 -0.056045335 -0.03434079 0.008082959
0003d0 1c 66 6a bd 32 df 1b bc da 19 66 3d f7 26 0a 3d
       -0.057226285 -0.009513663 0.056176998 0.033728566
0003e0 94 73 4e bd 7f a8 ec bd cd 3f d7 3c db 0e 04 bd
       -0.050403193 -0.115555756 0.02627554 -0.03224073
0003f0 98 23 c6 bc ac bf 4b 3d 67 30 eb 3c 98 0d 93 bd
       -0.024186894 0.04974334 0.028709603 -0.07180327

fc2.bias f4 [256]
000000 84 38 2f bb b1 b1 40 be 0c d3 3a be c5 0e 36 3f
       -0.0026736567 -0.18817784 -0.1824457 0.71116287
000010 0c 08 54 be e5 13 ee bb 55 31 0b be a0 ad b0 3e
       -0.20706195 -0.007265555 -0.13593037 0.34507465
000020 d1 15 21 3d de fa 12 bd a6 8b 24 be 3c 3c 24 bd
       0.039327446 -0.035883777 -0.16068897 -0.040096506
000030 94 5d 07 3d 1b c0 96 bd b3 63 5f 3c 8e 87 aa bd
       0.033048227 -0.0736086 0.01363461 -0.08326636
000040 ac c9 6e bd a7 f1 a1 bb 54 f6 bd bd 73 8f b7 be
       -0.058297798 -0.0049421373 -0.09275499 -0.3585163
000050 58 5d 4e 3d ce 30 69 be a6 1b ae bd 2c 8c 5c bc
       0.05038199 -0.22772524 -0.08501367 -0.013461154
000060 4f 54 33 bd 43 ff 96 3f 2d 90 66 bd f4 b1 9f 3f
       -0.043781575 1.179665 -0.05628984 1.2476182
000070 c4 26 39 3c 7d 2a a4 bd 32 c8 59 be 0a f8 c8 be
       0.011300746 -0.080159165 -0.21267775 -0.3925174
000080 dc 88 65 bd 45 84 cc bd 1a 79 26 bf 6c d1 36 3e
       -0.056038722 -0.09986166 -0.65028536 0.17853326
000090 8b 5d 14 3e 05 d5 25 be ee 01 70 bd e8 b8 5b bd
       0.14488809 -0.16194542 -0.05859559 -0.053643137
0000a0 4f 83 87 bd 72 4b ee be 4c 6c da bd 28 27 88 bd
       -0.06616842 -0.46541935 -0.10665187 -0.066480935
0000b0 68 80 2b bd bb 55 4d bf 8b 7f f5 3d 8f f5 20 be
       -0.041870505 -0.8020894 0.119872175 -0.15718673
0000c0 8d f9 36 3d 62 c7 47 be c2 e9 ac bd 66 76 b0 3f
       0.044671584 -0.19509652 -0.08443023 1.3786132
0000d0 00 65 cf 3c c3 77 aa bd d3 af 46 be fe e5 0b 3f
       0.025316715 -0.08323624 -0.19403009 0.54647815
0000e0 41 de cc 3b 86 ab 09 bd 35 2a 30 bd a1 78 30 bd
       0.0062520807 -0.033610843 -0.043009 -0.04308379
0000f0 24 90 b7 bd db a4 93 3d b0 6e 83 bc 58 15 91 3c
       -0.089630395 0.07209178 -0.01604399 0.017710373
000100 b6 f2 b8 3f 7f b5 56 bd 59 37 ab bc 0b 8a ad bd
       1.444907 -0.052419182 -0.020900415 -0.08473595
000110 f5 03 51 bc 6d 63 0f 3d de 54 a4 bd 95 fd 65 bd
       -0.012757291 0.03500693 -0.08024 -0.056150038
000120 43 c2 25 bd 9e 73 cb bd 0e 45 44 bc 76 35 7e bd
       -0.040468466 -0.099341616 -0.011979355 -0.062062703
000130 0a 24 d0 be 77 20 bb be 48 1e ca be cf 97 3b be
       -0.40652496 -0.36548206 -0.39476228 -0.18319629
000140 58 1d 6d bd e1 b5 0e bf e7 e0 b8 bc 43 76 ee 3e
       -0.057889313 -0.55746275 -0.02256818 0.46574602
000150 2b 56 42 bf 1a 00 f4 be b8 cc 3b bf a1 c8 b4 bd
       -0.7591273 -0.47656327 -0.7335925 -0.088273294
000160 85 38 b2 bd dd 38 1c bd 91 65 a3 3e 93 ff c4 be
       -0.087021865 -0.038140167 0.31913427 -0.38476238
000170 87 df 51 be da e8 8d bb 49 c1 94 bd 30 bf ca bb
       -0.20495425 -0.0043307366 -0.07263429 -0.006187342
000180 35 74 58 3d 77 e7 81 3d 2b ae 85 be fe 0e de bc
       0.0528452 0.063429765 -0.26109442 -0.027106758
000190 0c f6 a0 be d1 f2 5f 3f 79 62 cc bd 92 97 4b 3d
       -0.3143772 0.87479883 -0.0997972 0.049705096
0001a0 7a 8f 37 bf 7a d6 dd 3d c9 87 47 3f 34 da f9 be
       -0.717033 0.10831924 0.77941567 -0.48799288
0001b0 d3 69 27 bf a2 92 a4 bd 46 5b c1 3c 30 b8 a4 bd
       -0.6539585 -0.080357805 0.023603093 -0.080429435
0001c0 ca 72 91 3c db 57 4a be 83 db 30 be 7e 60 fb bc
       0.017754931 -0.19760077 -0.17271237 -0.03068566
0001d0 c8 e0 5d be f5 ae 45 bd 1b a8 c0 bc fb 7a 6b be
       -0.21667778 -0.048262555 -0.023517659 -0.22996132
0001e0 92 ee 22 3c ca 06 10 bd 5e 05 be bd b0 1a f6 bd
       0.009944575 -0.035162725 -0.092783675 -0.12016809
0001f0 16 11 7b bd e1 9d 4f 3e b3 81 2d bd b4 9f bb bb
       -0.06129559 0.2027507 -0.04236002 -0.005725825
000200 12 1a 88 bc b1 0e a9 bd d4 49 30 bc 08 26 ab be
       -0.016613994 -0.08254755 -0.0107597895 -0.33427453
000210 ac fb 1f bf 99 5a c8 bd 0c 21 c7 bb 23 10 fe bc
       -0.62493396 -0.09782905 -0.0060769375 -0.031013554
000220 a4 34 38 bf 43 1c 50 3f fd 90 52 bd 9b e2 a8 bb
       -0.71955323 0.81293124 -0.051407803 -0.0051539666
000230 14 53 69 3e 95 93 a2 bc 06 6e 1e be 01 1b 6a bc
       0.22785598 -0.019845763 -0.15471658 -0.014288665
000240 e5 98 66 3f ba af 5c bc 49 b2 85 be a4 50 c1 bc
       0.9007705 -0.013469631 -0.26112583 -0.023598023
000250 38 42 45 be 64 88 a9 bc 62 d5 b8 be c0 b1 dd bd
       -0.19263542 -0.020694919 -0.36100298 -0.10824919
000260 85 ba 57 be 04 75 9b be ae 90 16 be d4 5d e6 be
       -0.21067245 -0.30362713 -0.14703628 -0.4499346
000270 56 a4 89 bd 27 36 9e be 5e 91 cd be e4 81 dd b7
       -0.06720798 -0.3090069 -0.4014997 -2.6405738e-05
000280 20 3a e5 bd fb 64 b8 bd d4 a7 c1 3d 1c 07 41 bf
       -0.11192727 -0.090036355 0.09455839 -0.75401473
000290 35 59 ad 3e c5 71 07 bd 30 a2 9a bd ad ba ca bd
       0.33857122 -0.033067483 -0.07550466 -0.09898887
0002a0 f1 4a 76 bd be fb 7e be f4 1c b1 bd b0 e8 3a bf
       -0.060130063 -0.2490072 -0.086481005 -0.730113
0002b0 47 bd 27 bd 8f 05 18 be a9 90 9f 3e c6 dd d3 3b
       -0.040951993 -0.1484587 0.31165054 0.0064656464
0002c0 70 c1 3e 3f 52 a7 ba be 0a 34 77 3d 2d 9b 85 be
       0.7451391 -0.3645578 0.060352363 -0.26094952
0002d0 81 c4 7d be 1e 1c 10 be 71 7c d3 bd 12 30 46 bc
       -0.24781992 -0.14073226 -0.1032647 -0.012096422
0002e0 4b 75 3d bc 68 aa 15 bd 51 f3 73 bd 56 ec ac bd
       -0.011563609 -0.036539465 -0.059558216 -0.08443515
0002f0 72 89 5b bd 0f ca 8e bd b3 d1 3f bd ae 55 4a 3e
       -0.053597875 -0.06972133 -0.046830844 0.19759247
000300 fc 04 b9 bc d3 f7 91 bc e1 ea 03 be 5e 40 df bc
       -0.022585385 -0.017818367 -0.12882568 -0.027252372
000310 2b ac 44 bd 47 57 f7 bc 38 8c c3 be 93 30 3c bc
       -0.048015755 -0.030192984 -0.38192916 -0.01148619
000320 05 6c 1e bd 68 c8 fa bd f3 f9 9b bd 57 aa 01 be
       -0.038677234 -0.12245256 -0.076160334 -0.12662636
000330 0f 04 b1 be e2 53 4c be 06 0d 63 be c7 d6 04 be
       -0.3457341 -0.19953874 -0.22172937 -0.12972556
000340 7d ff 44 be 15 35 c8 3d df 94 2f bc 53 c4 d6 3c
       -0.19238086 0.097757496 -0.010716646 0.026216662
000350 79 de 7f bd 9d 88 b5 bd ec 28 80 be 5c 61 0d 3d
       -0.062468026 -0.088639475 -0.2503122 0.034516677
000360 69 0b ff be 46 8d 79 3b ed 65 bf bd 14 7e 2e 3d
       -0.49813393 0.003807859 -0.09345613 0.042600706
000370 8b 86 dc bc 03 82 d7 be 32 48 2f bd 44 f2 7c bc
       -0.026919624 -0.4209138 -0.04279346 -0.01543862
000380 d9 bf 6f be 2a 0d 36 be 6f c0 16 bf 1f d3 47 be
       -0.23413028 -0.17778459 -0.5888738 -0.1951413
000390 3f 96 5f bd 39 ba 94 3c 35 52 18 be cd a5 d2 bd
       -0.054586645 0.018155204 -0.1487511 -0.1028553
0003a0 54 60 bd be ef ac c3 3e c1 73 b6 be 54 d9 06 bd
       -0.36987555 0.38217875 -0.35635188 -0.032922104
0003b0 02 62 01 bd 95 c0 e6 be 8b 8e 83 3f 6a 6c a5 bc
       -0.03158761 -0.45068803 1.0277876 -0.020193297
0003c0 bd 85 88 38 85 e5 0e be 22 e9 0a 3f 50 b7 7d bd
       6.509896e-05 -0.13954742 0.5426198 -0.0619424
0003d0 ce 0b cb bc a0 57 32 bc 9a 86 6b be 2c ca 61 bd
       -0.024785902 -0.010885149 -0.23000565 -0.055124447
0003e0 89 8e 1b be 73 34 c7 bc 4e 4a 81 bd 48 a0 c5 3e
       -0.15191092 -0.024317002 -0.063130006 0.38598847
0003f0 7f de a4 3d 2c d2 2d be 9e 9d 4f bd 12 1b cd bd
       0.0805025 -0.16974705 -0.050687425 -0.10014929

fc3.weight f4 [4, 256]
000000 f6 de e7 bb 8c 52 85 be cb 24 ae 3f 25 1f 59 3f
       -0.0070761396 -0.2603954 1.3604978 0.8481315
000010 0d e0 da be 80 c1 4b 3d 0e bb 75 3e 22 83 82 3b
       -0.42749062 0.049745083 0.23997137 0.0039829174
000020 74 91 e7 3e 0e 88 0d 3b 99 ea e0 3d 1f ec ba bc
       0.4522816 0.0021595987 0.10982246 -0.02281767
000030 2d 43 17 3d ff 46 18 bd 4c 0e 12 bd 32 4d 4b bc
       0.0369293 -0.037177082 -0.035658166 -0.0124085415
000040 18 72 be bc e6 3c d9 3c 06 e4 d3 bc 02 45 29 bf
       -0.023247764 0.026518296 -0.025865566 -0.6612092
000050 d7 06 3d 3d 81 0f ae 3d 20 b0 2a bc d2 c4 12 3a
       0.0461491 0.08499051 -0.010417968 0.00055987865
000060 50 0d 6e 3f 2b dc 2e 3f cc bb 60 bd 2d 22 2c 3f
       0.92989063 0.683047 -0.054866597 0.6723965
000070 e0 04 2f 3d 93 e7 ba bc d9 68 c8 be f9 ec 11 bf
       0.04272926 -0.022815501 -0.39142492 -0.57002217
000080 0f 05 5b bd 6f af 92 3b 23 13 9d 3f 25 dd 84 bf
       -0.05347162 0.0044764797 1.2271465 -1.0379988
000090 cf 45 27 bf 5e 9b 2a be e9 0b 82 be ea c8 16 bd
       -0.65340894 -0.1666083 -0.25399712 -0.0368127
0000a0 d0 a6 2f bd 0d 84 96 bf 9e 96 c8 bd 1a 2c 31 bd
       -0.042883694 -1.1759049 -0.09794353 -0.04325495
0000b0 e7 9a 20 3d 91 44 14 3f 94 f2 cf 3e fc 5c 9c bf
       0.039210226 0.57917124 0.4061476 -1.2215877
0000c0 20 8d 2a bf 2c 12 ee 3e 74 3f 12 3f f0 ba 2a 3f
       -0.6662159 0.4649824 0.5712807 0.66691494
0000d0 ae 47 92 3c 74 e5 79 bd be 81 88 3c 29 a9 28 3f
       0.017856445 -0.06100984 0.016663428 0.6588312
0000e0 13 73 07 bf 56 94 b8 3c 7e 75 eb 3b 3f e2 db 3b
       -0.52909964 0.02253167 0.007185637 0.0067103202
0000f0 e5 85 d8 3d 8a aa 8f bf 23 19 d7 3c 8e 8d 09 3d
       0.10572413 -1.1223919 0.026257103 0.033582263
000100 71 f9 2a 3f cb 3d 18 3c 20 6e 38 bd 82 f3 fb be
       0.6678687 0.009292076 -0.0450269 -0.4920922
000110 b4 3d 32 bc f2 3b 09 bf 40 1b 3b bd bd 3c 11 bd
       -0.010878969 -0.53607094 -0.045680285 -0.035458315
000120 66 b0 f2 3c cf bb f8 bc e3 2d d3 3c e7 5b f7 bd
       0.029625129 -0.030362992 0.025778716 -0.12078076
000130 71 cc b5 3f 07 d6 29 3f 85 f5 6b 3f 62 30 07 be
       1.4203016 0.66342205 0.9217151 -0.1320205
000140 d0 cc 5b 3c d8 8f a6 3e 96 8e 25 bd 19 be 2c 3f
       0.01341553 0.3253162 -0.040419184 0.67477566
000150 b4 43 96 3f 0b 6e a2 3f b0 e3 cc bd 78 0f da 3c
       1.1739411 1.2689832 -0.100043654 0.026618704
000160 4a 01 80 bd f8 b8 19 be 52 8e 35 bf e3 b1 aa 3e
       -0.06250246 -0.15011966 -0.7092029 0.33338842
000170 e7 3d 50 3e 40 e8 25 bc 98 7f af bc 45 ee 6c bd
       0.20336114 -0.0101261735 -0.021423146 -0.05784442
000180 fd f3 be 3c 51 73 bb 3e e6 ef 6c 3f 72 55 1d bf
       0.023309702 0.36611417 0.92553556 -0.61458504
000190 dd 7b d6 3e 27 de 44 3f 5b e9 43 3c ba 05 2d bc
       0.41891375 0.7690148 0.011957492 -0.010560447
0001a0 55 7b 4a be ec 14 49 3f d6 8c 20 3f 1d 8e 84 be
       -0.1977361 0.7854755 0.627149 -0.25889674
0001b0 37 ea 38 3f 66 50 63 3d 12 7a 06 bf 5c b5 3d be
       0.72232383 0.055496596 -0.52530015 -0.18526214
0001c0 60 08 9d bc b1 b2 fa 3e 78 33 70 3d 89 46 25 bf
       -0.019169033 0.48964456 0.058642834 -0.64560753
0001d0 79 f0 9e bd 2e 35 21 bd 26 f8 a9 3b 72 c0 68 bf
       -0.0776071 -0.039357357 0.0051870523 -0.9091865
0001e0 0d ab 25 bc 98 d9 fd 3b 17 85 1e bc f6 01 eb bc
       -0.010111582 0.0077468865 -0.009675286 -0.028687458
0001f0 13 63 44 bd d2 a0 68 bf ef a0 c9 bc 1f 4d 40 bd
       -0.047946047 -0.9087039 -0.024612872 -0.04694855
000200 f0 2c 32 bd 53 6e c2 bd 9c 46 cf 3d 17 d4 06 bf
       -0.043499887 -0.09493699 0.101208895 -0.52667373
000210 d8 ca 02 bf cf 7a 03 bd 79 de 7e bd 08 40 e6 bc
       -0.51090765 -0.03209954 -0.062223885 -0.028106704
000220 1c f1 9e 3f 9d e4 24 3f c0 5f a3 3c 36 bd 16 bc
       1.2417331 0.64411336 0.019943118 -0.009200385
000230 d4 22 5b bf c6 42 c4 3c 40 95 2c 3e 54 b2 24 bb
       -0.8560002 0.023957621 0.1685381 -0.0025130706
000240 e7 09 29 3f f7 da 09 bc 47 fe 6a 3e f7 dd 09 bd
       0.66030735 -0.008414022 0.22948562 -0.033658948
000250 bc e4 20 bf a7 36 12 3d 2a 94 c2 bd 96 cf 13 be
       -0.6284902 0.03569665 -0.09500916 -0.14434657
000260 3f 1d 53 3e bb 04 c8 3f 7b a4 f8 be b8 6d ac 3e
       0.20616625 1.5626444 -0.4856299 0.3367746
000270 5c 06 46 3c 45 be ab 3f 09 98 cc 3e c5 84 3d 3c
       0.012086477 1.3417441 0.39959744 0.011567299
000280 47 f1 01 3f 23 8a 63 3c b1 f8 6c 3f 83 96 31 be
       0.50758785 0.013887915 0.9256697 -0.17342572
000290 f8 81 5e bf 40 2f 1f bc df 1c fb 3b a9 67 db 3c
       -0.86917067 -0.009715855 0.007663354 0.026782827
0002a0 1a a2 fb 3c 1f 23 40 bd d1 57 65 bb 4e 9e 97 3f
       0.030716944 -0.046908494 -0.003499497 1.1845186
0002b0 12 ed b8 3c 36 9f 27 be cd 5d 03 3f ad b1 85 3d
       0.022573981 -0.16369328 0.51315004 0.065280296
0002c0 ee 49 e1 bf a8 f8 10 bf 07 14 05 3d 9a cb ac be
       -1.7600687 -0.5662942 0.032489803 -0.33749086
0002d0 69 f4 91 3e 77 38 8a 3c 4b 94 96 3d 5b f6 4e 3d
       0.28506783 0.016872628 0.073525034 0.05052791
0002e0 f8 ef 63 3d 10 a1 d0 3c 36 12 58 bd b8 a3 bf bf
       0.055648774 0.025467426 -0.052751742 -1.4971838
0002f0 66 a5 ea 3b 3b 6e 20 3b 64 12 d3 bc 19 48 04 bf
       0.0071608303 0.0024479765 -0.025765605 -0.5167251
000300 5e da 11 3d fc 80 46 3c 37 16 97 3f c6 7d 5d 3d
       0.03560864 0.012115713 1.1803654 0.054075025
000310 0e bc ae 3c 44 f3 8a be 99 93 08 bf 26 3f 1b 3c
       0.021329906 -0.27138722 -0.53350216 0.009475505
000320 72 96 28 3d 85 79 b4 bd d6 52 c8 be 5a 5b 0e 3f
       0.0411591 -0.088122405 -0.391257 0.5560814
000330 09 b6 0c bf 34 45 f8 be 81 9b 48 3f 35 ca 13 bf
       -0.54965264 -0.48490298 0.7836228 -0.5773042
000340 c1 bf f0 be a5 45 3a bf 6c b7 c5 bb 63 12 8f 3c
       -0.47021297 -0.7276252 -0.0060338285 0.017464822
000350 5e 19 2d bd 06 7a 5c bb a7 12 09 bd 78 f7 d3 3c
       -0.04226052 -0.0033642068 -0.033465054 0.025874838
000360 30 62 e5 3e 00 4c e9 3c 57 25 1c 3d 57 4c 46 bf
       0.44801474 0.028478622 0.038121548 -0.77460235
000370 99 62 93 3b 8f bc 31 be 50 a0 06 bc 80 de 8b 3c
       0.0044978377 -0.17357086 -0.008216932 0.01707387
000380 82 a1 93 be 04 08 66 bf ef 4d a4 3e a6 b9 61 3e
       -0.28834158 -0.8985598 0.3209071 0.22043476
000390 39 3e 90 3c b8 c4 7e 3c 49 33 6c 3b 64 42 17 3f
       0.017607795 0.015549831 0.003604131 0.5908568
0003a0 77 c9 9a 3f 47 74 25 3f 43 d0 4b bf c9 49 34 3e
       1.2092732 0.6463055 -0.7961466 0.17606272
0003b0 0f 34 6d bc c1 05 db be 54 78 22 3f 6f 20 23 3d
       -0.014477744 -0.42777827 0.63464856 0.039825853
0003c0 42 32 14 bd 0f 81 60 be 59 9f 52 bf ed 4c 66 bf
       -0.036180742 -0.21924232 -0.82274395 -0.8996113
0003d0 47 f9 60 3d b3 56 bc 3c 1e 2d 41 bf 60 21 f9 bc
       0.05492523 0.02299056 -0.7545947 -0.030411422
0003e0 d3 bb e6 3c da 59 1b 3d cb 41 08 bf b8 d0 20 3f
       0.028165733 0.037927486 -0.5322539 0.6281848
0003f0 60 35 2d 3e 32 b6 ef be 08 40 80 bb 2d 6b a4 3e
       0.16914892 -0.46818691 -0.003913883 0.3211302

fc3.bias f4 [4]
000000 2a d2 2a be 75 c0 24 3d ad 61 a3 3e b6 4e 25 be
       -0.16681734 0.040222604 0.31910458 -0.16143307
