csv_and_models/vanilla_dqn/vanilla_lunar_400.pth (torch, 279212 bytes, 6 tensors)

fc1.weight f4 [256, 8]
00000000: 711b 873d e93d 623e 1474 9fbd d0be 66be
00000010: 8c19 2c3e 35c8 043f 5dda 11bf d5f0 b0be
00000020: bdce 54bf 0274 1cbf 4f67 af3c 6eda 32be
00000030: fd54 00bd 7102 263e cedc c8bd ce1a ae3e
00000040: f174 113f 6d28 353e 559a 5abe 5e81 b1be
00000050: 9862 84bd e016 f53e bf9f 0fbf c440 a73e
00000060: cf7b 59be e14d 3a3e 886b 003f 70ba 613e
00000070: f074 29bf 75bd 0e3e c705 85bb da1c cbbe
00000080: 2f16 ff3c 3070 f93a 8696 99bb 07f3 adbb
00000090: c1e5 0240 9fc7 c53c 9b46 4cbc b318 aa3c
000000a0: 44e8 d93c 1239 22bf 8648 913d 65d7 cfbc
000000b0: 4304 7dbe 6343 113e 5953 8fbe d648 873d
000000c0: 1f6e a73f 60db 22bd 940d d73c 4ffc 7a3e
000000d0: cc35 63bf 9ca7 9fbd d95d b43c b4ee 0fbe
000000e0: 6b71 a53f f1d3 a9be dc2c cc3d 6277 3bbd
000000f0: 1256 07bf 6a1b c73d 97bd 003e d69a 863e
00000100: eb4b c23f 2d68 083e 8735 9a3d d517 15bd
00000110: bcb4 3abf 46fc 78be c7d6 193e 4097 333e
00000120: 7f50 ef3d dc73 cbbd afd6 acbd e83f 76be
00000130: 6204 933f 155a 80be 64a2 173f b218 68be
00000140: 6cff 943e 83f8 a03d 73f5 763f cde4 21be
00000150: c760 d73e 442c e7be b326 3bbe a4e6 303c
00000160: 1247 213e d08d 22be b3fa e13e 3d33 803c
00000170: af55 45be bb36 43bf 65a1 e9be d095 71be
00000180: 6b8e 0fbd cf7b da3e 4e72 1f3d e561 17bf
00000190: 7dd0 003f 4fab 02be 567c ff3d 1b44 85bd
000001a0: dd19 50bf 64f0 063f b95f 62be b286 333e
000001b0: 298f 753e 8f09 923e c8bd 03bf 7e33 ff3c
000001c0: 4cb5 553f 11b8 39be f05e ee3d fe3c 233f
000001d0: 43e9 f6be 5132 b13e 88d9 203e 8515 8abe
000001e0: b834 b7bd f198 8bbd 5e89 d8bd c647 ef3e
000001f0: 8436 34bf 5fee bbbd 9fdc da3d 9f74 7a3e
00000200: ecf8 4abe af68 95bd 7ea4 86be 402e 8a3e
00000210: a4a9 b8be de4d a83d 0619 f3bd 6df1 313d
00000220: 293f 003f fdc6 eb3c cebf e2bd e2e4 c43e
00000230: 58b7 043f 5d50 303f 7d07 283d a9db 8fbc
00000240: 12aa 3bbc b625 d23b 7835 f7bb df18 813c
00000250: 7913 c33f 70f3 fb3a b307 0dbf 54fd bfbe
00000260: 41c3 81bf 9e72 0fbf ce33 9cbe 6369 d2be
00000270: e948 0e3e 6de4 b6bb 2175 8f3e fa01 703d
00000280: 2184 71be 3fce 823e d4cf ea3f 8aad c6be
00000290: 81fc 863d c548 0e3d e3b7 8d3d f7d2 59bf
000002a0: 584e 1cbf 436d 46bf 7c72 3a3d ad16 e33e
000002b0: 713c 7fbb 003f f63e 3408 39bf 11dd 8abe
000002c0: df8f 523e a1c2 c4bc 18ab a2bd b839 6b3e
000002d0: ac87 e3be 0923 0abf a150 a73e 95f9 023e
000002e0: 467b 9bbd ce55 873e 81ea 3fbf d5b0 d5be
000002f0: 5bcf 153f 8e80 0ebf 1be5 173e 8efb 90be
00000300: 6fa7 3abf 5c4f bcbf d65e cbbe 1044 193e
00000310: ac1b 043e 4309 33be 2d8c abbd 7c0c 153e
00000320: 6dad 4abf 7a2d 8abd 85f3 7e3e 3e0a a7be
00000330: 0d89 9dbc 1030 e53e f248 a9bd 4a33 a63e
00000340: f3e9 2f3f d196 52bd 3d74 02be e062 183f
00000350: eaaf 55bf 65fa 7a3e 1ee2 8ebe a533 49be
00000360: eee5 9d3f c060 dabe e2ad 923d 4c67 f03c
00000370: 8b50 e93e 10b6 b9be 575c 33be 6e8a ae3e
00000380: 3f3d 08be ffc9 6dbf ad28 eebd 8fd7 bdbd
00000390: 3e5b fdbe 2b6c 07be 5f50 f9be 9f96 ecbe
000003a0: 567b 02bd 1100 46c0 bea7 203e e8cf d6be
000003b0: 761a 133f 7f1c 8c3e a691 3ebe 5e68 c9be
000003c0: b5ff db3c 192b 00bf 08bd 85bf 7041 3c3f
000003d0: 36c3 3ebd 1cd2 c83e 06bc 84be 300c 4fbe
000003e0: c67d c1be 81d1 19be 0061 a43e 39fb 17be
000003f0: c180 84be 2981 873e 22a0 3e3e feb3 533e
0.06597031 0.2209393 -0.07785812 -0.22533727 0.1680662 0.5186799 -0.5697382 -0.3455874
-0.8312796 -0.61114514 0.021411566 -0.17466137 -0.03133105 0.16211869 -0.0980774 0.34004825
0.56819063 0.17691202 -0.21347935 -0.34669012 -0.06464118 0.47869015 -0.5610313 0.326666
-0.21238635 0.18193771 0.5016408 0.22043777 -0.6619406 0.1393946 -0.0040595266 -0.3967045
0.031138508 0.0019030627 -0.0046871332 -0.005308512 2.045273 0.024143038 -0.0124680055 0.02076373
0.02660001 -0.6336833 0.07093911 -0.025371263 -0.24708657 0.14185862 -0.27993277 0.06605689
1.3080481 -0.039759994 0.026251592 0.2451031 -0.8875396 -0.07795641 0.022017406 -0.14055902
1.2925237 -0.3316951 0.09969494 -0.04576815 -0.5286571 0.09722026 0.12572323 0.26290005
1.5179418 0.1332099 0.07529741 -0.03639968 -0.7293203 -0.24314985 0.15023337 0.17538166
0.11685275 -0.09934208 -0.08439385 -0.24047816 1.1485713 -0.25068727 0.59232163 -0.2266567
0.2910112 0.078599 0.96468276 -0.15809937 0.42066023 -0.4515096 -0.18276481 0.0107971765
0.15749767 -0.1587441 0.4413658 0.015649432 -0.19270967 -0.7625539 -0.45630947 -0.23592305
-0.03504793 0.42672583 0.03892737 -0.5913375 0.5031813 -0.12760662 0.12474887 -0.06507131
-0.81289464 0.52710557 -0.22106828 0.17531851 0.23980393 0.28522918 -0.5146146 0.031152483
0.8347976 -0.18136622 0.11639202 0.6376494 -0.4822484 0.346087 0.15707982 -0.26969543
-0.08945602 -0.06816281 -0.10573076 0.46734446 -0.70395684 -0.09176325 0.106866114 0.2445855
-0.19821519 -0.072953574 -0.26297373 0.2698841 -0.36066926 0.08217977 -0.11870007 0.043443132
0.50096375 0.028781408 -0.1107174 0.38455874 0.5184226 0.68872625 0.041022766 -0.017560797
-0.011454122 0.006413187 -0.007544216 0.01575893 1.5240318 0.001922233 -0.55089873 -0.37497962
-1.0137712 -0.56034267 -0.30508274 -0.4109603 0.13895 -0.0055814297 0.2801905 0.058595635
-0.2358556 0.25547978 1.8344674 -0.38804275 0.0659113 0.034737367 0.06919839 -0.8508753
-0.61057043 -0.7751047 0.045519337 0.44353238 -0.0038945938 0.4809494 -0.7227814 -0.27121785
0.20562695 -0.024018588 -0.0794279 0.22971237 -0.44439447 -0.5395971 0.32678702 0.1279052
-0.07591872 0.2643265 -0.749672 -0.41736475 0.58519524 -0.5566491 0.1483349 -0.2831692
-0.72911733 -1.4711719 -0.39720792 0.1496737 0.12901181 -0.17484002 -0.08376346 0.14555544
-0.79170877 -0.06746955 0.24897583 -0.32625002 -0.01923039 0.4476323 -0.08265866 0.32461005
0.68716353 -0.05141336 -0.12739654 0.5952587 -0.8347155 0.2450958 -0.2790689 -0.19648607
1.2335794 -0.4265194 0.07162072 0.02934613 0.45569262 -0.36271715 -0.17515694 0.34089988
-0.13304614 -0.92886347 -0.11628852 -0.0926963 -0.49483675 -0.13224857 -0.4869413 -0.46208665
-0.031855904 -3.093754 0.15688989 -0.41955495 0.5746225 0.2736549 -0.18610248 -0.39337438
0.026855329 -0.5006576 -1.0448313 0.7353735 -0.046572886 0.392228 -0.259247 -0.20219493
-0.3779127 -0.15021326 0.32105255 -0.14841928 -0.2587948 0.2646573 0.18615773 0.2067413

fc1.bias f4 [256]
00000000: 7084 fdbd 1256 0a3e 24fc 50be e39d a53e
00000010: 3875 3cbc dff0 5b3f 9b3b 713e 591f d23e
00000020: b290 72bd a970 48bd fd09 babd 8e30 0c3f
00000030: f902 99be 8247 7cbe 7bd1 6a3f 5425 013f
00000040: 564b d13e 91ee c63e 52ec 0dbb e1f1 91be
00000050: 4c73 c1be cd59 7dbe 6f04 f43e 54aa 16be
00000060: e374 f0bc a88a 253d 699c 523f b97e e63e
00000070: 5c69 03bf af8b 443d 0288 00bf d2fa 0c3f
00000080: 23ff 1c3f 9ab3 bbbd e99e af3b 54fc c8bd
00000090: d285 b8bc 89b3 4cbf 7bee 063f 0350 43bc
000000a0: 9857 56bd 6a6b 2ebe 777a 4bbe 6fde 15bf
000000b0: ad28 af3e 3825 963e 29b5 ecbe 8c6e edbe
000000c0: c013 953d 2884 933d 96ad bbbd 60a8 043f
000000d0: 0519 e23e fd83 213f 506b c03e 11bc 4c3e
000000e0: 736a d83e 412b 3a3e 7b20 19bf a7e6 a9be
000000f0: af11 963e bb13 173f fd5e 293f 0695 8bbe
00000100: 09d3 3b3f 0b6e 933e 7835 89bd f819 253e
00000110: 576c 09be cfa0 67ba ee58 9e3d aa51 6a3f
00000120: 26ca d7be 71fd ec3e 4944 34be bf9a a53e
00000130: 2f5d a73d 6e76 073f ecbf 113f 981e 213f
00000140: 132a 553d aee2 383f 7848 2e3e 0344 b03d
00000150: d948 6bbe 5ed7 023e d248 ab3e f5e0 593f
00000160: 2955 003e 1758 953e 663f 2a3f 804b babe
00000170: 9db9 f3be 6429 9e3c 9e78 b53b 8968 20be
00000180: 6932 2f3f c11b a1be 507f 96be 66ad c8be
00000190: e204 223f dc73 67be 4b7a 2abe 4e4c 66be
000001a0: 7c64 1b3f 2d75 033f fb9a a0be 772b ba3e
000001b0: 6665 cb3d 44e3 3abe f669 48be 3487 a7be
000001c0: 0553 2d3f 91c8 bebe 655d 26be 81e6 493f
000001d0: 281a 01be 7136 d3bd 3805 4e3f d51b f1be
000001e0: 442e 26bf 1fa9 033c 3589 d03e 53c2 50be
000001f0: e56e 8cbd 898e a4be 2170 cb3d bba2 443e
00000200: d179 0a3f a234 013f 1111 f2bc 994c 45be
00000210: 9e0e 53be 2649 313c 9667 943b bea0 233d
00000220: 3d82 33bb 280a ef3e c2c4 01be ce16 123f
00000230: 6921 c63c 3807 b13e c296 ddbc dde8 0b3f
00000240: 535e 8cbe 0a45 20bf 1b86 e03d 3c5c 3b3f
00000250: aae3 183f 0dc4 343e 97f7 1d3f 2eb3 143f
00000260: 278b 9d3e 0353 49be 81d9 293f 67fe 533f
00000270: 1b13 2bbf 0229 003f d894 1e3f 5a48 ce3e
00000280: 10ac 803e a0d7 743e b922 27bf 4740 8cbd
00000290: 330b b8bd d7d6 a33d 2bbc 483e 4647 62bd
000002a0: f3b4 063f 0ec5 e13e a3c5 00bf 4b08 1e3f
000002b0: 1da9 45be 27bd 483c 8d8a b33b b15e 323f
000002c0: d09f 0f3f 74b3 c4be 3062 90bd 2388 85be
000002d0: e869 92be 0627 143f 385e 313d 5700 1d3f
000002e0: dc09 aabe ae8b 613e cd30 683e e7d1 263f
000002f0: 00b1 bfbe 8b4d 0fbc e491 683e 5c86 933e
00000300: 6b79 703e 6244 403e 4ce3 db3e 5544 f33e
00000310: 1c13 8cbd af02 c1bd 1099 adbd fb1e 32be
00000320: 26ea 80be 40a4 95be 4098 a8be f1f0 783e
00000330: bd33 c4bd 72d8 e5bd 5f46 383f 7c14 f83c
00000340: 81d8 293f 3092 53be ea2b 503e 9a6b 95bb
00000350: 913b 8e3e 9744 c13e 7f6d 513f 6ebb ddbe
00000360: 8b29 22be 2a29 e33e a2b7 853e 70b1 2f3f
00000370: ef8c 2b3f 2d26 043f 0f21 c83c 62a9 ab3e
00000380: 3474 40be b4f0 cf3d 3170 bbbe 7742 2f3e
00000390: 3024 d03e 4ed3 103f 1984 9e3d 2e49 c63d
000003a0: 3c8b 94bc 5085 9a3d 9b63 a8be 5e5a 3f3d
000003b0: 7518 163f 4c5d 0bbf 9f83 8d3d 0d9a ce3d
000003c0: 160a 153f 1c77 383f 9abe 903d a50b c7be
000003d0: 9b14 e13e 696a 00be e8a8 dabe b9b7 62be
000003e0: 022e eabd 6a3a 5e3e 5d9c 163c 24ab b43e
000003f0: 2123 92bd 3dfb d2bd bb4d 8abe 674b c73d
-0.12378776 0.13509396 -0.20408684 0.3234702 -0.0115025565 0.85914415 0.23557894 0.4103954
-0.059220023 -0.048935566 -0.09083936 0.5476159 -0.2988508 -0.24636653 0.9172589 0.50447583
0.4087779 0.38853887 -0.002165575 -0.2850485 -0.37783277 -0.24741288 0.47659633 -0.14713413
-0.02935261 0.040415436 0.8226991 0.45018557 -0.5133264 0.047984775 -0.5020753 0.5507022
0.6132681 -0.09165116 0.0053595197 -0.09813753 -0.022524748 -0.7996145 0.5270764 -0.011920932
-0.05232963 -0.17033163 -0.19870935 -0.5854253 0.3421072 0.2932527 -0.46231964 -0.46373403
0.07279158 0.07202941 -0.09163968 0.5181942 0.44159713 0.63092023 0.37581873 0.19993617
0.42268714 0.18180563 -0.59815186 -0.33183786 0.29310367 0.5901448 0.66160566 -0.27262133
0.7336889 0.28794894 -0.066996515 0.16123188 -0.13420235 -0.0008835913 0.07731806 0.9153086
-0.42146415 0.4628711 -0.17604174 0.32344624 0.0817207 0.52915084 0.56933475 0.6293731
0.05204208 0.72220886 0.17019832 0.08606722 -0.22977008 0.12777469 0.33453995 0.8510888
0.12532486 0.2916877 0.6650299 -0.36385727 -0.4760255 0.019306846 0.0055380603 -0.15664877
0.68436295 -0.31466487 -0.29394007 -0.39194793 0.632887 -0.2260279 -0.16648214 -0.22490045
0.607002 0.5135067 -0.3136824 0.36361286 0.099314496 -0.18250757 -0.19571671 -0.3272034
0.677048 -0.37262395 -0.16246565 0.78867346 -0.12607634 -0.10313118 0.80476713 -0.47091547
-0.64914346 0.008035927 0.4072968 -0.20386629 -0.06857089 -0.32139996 0.09933496 0.19202702
0.5409213 0.50470936 -0.029549154 -0.19267501 -0.20611045 0.010820663 0.00452895 0.039948218
-0.002739086 0.46687436 -0.12672713 0.5706605 0.024185853 0.3457582 -0.027049426 0.54652196
-0.27415714 -0.62605345 0.109630786 0.73187613 0.5972239 0.17652912 0.6170592 0.58085907
0.30770227 -0.19660573 0.6634751 0.8281006 -0.6682603 0.5006257 0.6194587 0.40289575
0.25131273 0.2391038 -0.6528736 -0.068481974 -0.08986511 0.07999962 0.1960303 -0.055243753
0.52619857 0.44095653 -0.5030157 0.61731404 -0.19302793 0.012252129 0.005479163 0.6967574
0.5610323 -0.38418162 -0.07049978 -0.26080427 -0.28596425 0.57872045 0.043302745 0.61328644
-0.33210647 0.2202594 0.22674866 0.65164036 -0.37439728 -0.008746515 0.22711903 0.28813446
0.23483817 0.18776086 0.4294685 0.4751307 -0.06839582 -0.0942434 -0.0847646 -0.1739463
-0.2517864 -0.29226875 -0.32928658 0.24310662 -0.09580181 -0.11222924 0.7198238 0.030283205
0.66345984 -0.20661235 0.20329252 -0.0045599462 0.2777982 0.37747642 0.818077 -0.4330706
-0.1583616 0.44367343 0.26116663 0.68630123 0.6701192 0.5162075 0.024429826 0.33527666
-0.18794328 0.10153332 -0.36609033 0.17115198 0.4065261 0.56572425 0.077400394 0.09681927
-0.018132798 0.075449586 -0.32888493 0.04671704 0.5863107 -0.54439235 0.0690987 0.100879766
0.58218515 0.72056746 0.07067604 -0.38876072 0.43961033 -0.12540592 -0.4270699 -0.22140397
-0.114345565 0.2170197 0.009192553 0.3528682 -0.071356066 -0.10301826 -0.2701243 0.09731179

fc2.weight f4 [256, 256]
00000000: c9c8 9bbd f20a c73d 76f2 e3bc 4897 76bd
00000010: c2ec 9bbd 4a9f e63c a0ca 81bd 7096 45bd
00000020: c62e 46bd beda 92bc 9633 8fbd 60cb d8bd
00000030: 2b63 debd 55ea debd ea3d 9bbc 4938 fbbd
00000040: 5258 21bd e2d8 21bd a19b 03be 2a81 ea3a
00000050: d488 2abd 087f b1bc bc72 96bc 15bf ecbd
00000060: c348 88bc 48a9 b03d 71bb afbd b001 2dbd
00000070: 3865 793d 7c40 363b af23 17be e123 c13c
00000080: dfc2 b9bd 668f 34bc 3c94 61bd 3377 66bc
00000090: 1cb7 1b3d 12dd 95bd 216b 073d 49a7 1c3d
000000a0: 7db5 70bd f566 2abc 210b 35bc 6397 e2bc
000000b0: 0ea2 14bd 9fb9 65bd e349 50bd 0c66 a23c
000000c0: 756b b0bd aaa1 9ebd 8ff5 30bd a5f6 ec3b
000000d0: 34f9 0ebd b75a 79bd 8767 96bd d26b 94bd
000000e0: 3cf9 a23c 5216 c1bd f93f 9b3b 6308 54bd
000000f0: 13c0 3bbd ab98 52bd 50a0 373b 2116 293d
00000100: f32a a1bd 5648 30bd 607e d33b b4dc 7d3b
00000110: 48fb 4dbd cce4 57bd 12cd 16bd 4031 08bd
00000120: 4887 723c 1529 c2bc e2fa 37bd 2a0a d3bc
00000130: 57fd a5bd 526a 09be 40c7 02be 082c c1bd
00000140: 68fc 81bd d685 b7bd b99f 033d 20c0 b5bb
00000150: c54a 95bd 8082 e7bd 6dea 6cbc e198 05be
00000160: 3b20 2d3b d8e1 95bd 385d bfbd ddba e7bd
00000170: 3ce2 113d c4fa 3cbd 49a5 e8bc 40e4 b7bc
00000180: 14cf 32be bb75 d63c 575b 7abd 40bb 3dbd
00000190: 7072 173b 2238 4bbd b8f4 9abd 0ee3 4a3e
000001a0: 5a7d 40bd 2bba 0a3a f3df 553b 452c 50bd
000001b0: f1c0 1c3d c054 d0bd 3714 a3bc e492 39bc
000001c0: 762d 8f3c d3ad 283d de20 5a3d da64 55bd
000001d0: 0f4b 12bc d2b5 68bd 4bba e6bd f4a8 44bd
000001e0: 1f89 0d3b 1363 ffbb ca84 39bd 7361 aabd
000001f0: 860a a83b 8094 27bb 1031 20bd 28c0 58bd
00000200: 29be aebd efae 87bd cc8c 5abd a83e 8ebd
00000210: 56e3 8bbd df3e e7bc 6ada 65bc e9e4 b2bd
00000220: 903a d0bd bf12 0bbc c916 08bd af2e 45bd
00000230: 6e4b 68bc 8e35 43bd 7bef b4bd 2c5f 52bd
00000240: 1dc1 323d 58d9 863c f903 8cbd 15ff 89bc
00000250: 4902 4bbd 4d79 1abc 4e9a 9ebd b00b 493c
00000260: d55f a2bd e35c 253d 36e0 3ebd be0d b0bb
00000270: 8c30 063d 9b0a 44bc cea6 2b3d 1974 493d
00000280: e25c 06be 6c5a 0fbd 4d12 863d f5ee 64bc
00000290: 399f 03bc b9ba d23c 7ac5 cabd a1a9 cbbd
000002a0: d4e5 23bd eb64 c9bd 2ba6 053b a5ed 2dbe
000002b0: 285e 873d 1f12 ec3d f83d 42bb 90ab 3bbd
000002c0: 8c1d a0bb 7518 a5bd d232 1ebd 02f9 b13c
000002d0: 29cc 3abd 96f6 74bc 87be 41bd 1a5e ecbd
000002e0: 1205 c1bd 007d 6ebd b302 343d 274b 27bd
000002f0: 7e88 79bd 3cfc 803c 2582 b2bd 9082 5abc
00000300: 7b2e 1cbd b5e1 23bc e73f 6a39 a912 99bc
00000310: ed6b 1cbd ca68 98bc 4a56 b6bd 4fcf 96bd
00000320: 3f69 3abe 7628 c83c 58a5 30bd fa8a a5bd
00000330: 9219 34bc 0374 66bc b59f 5dbd 76d5 303c
00000340: 3e5d b8bd a7e5 35bd 40a8 a9bd 2ce4 423c
00000350: 629a 43bd 2f1b ff3c b31e c1bc a5e7 03bd
00000360: 3386 34bd e1b4 d9bd 0520 7bbd eb03 253d
00000370: 7934 babb 3de3 2dbd 2818 c53d 7cb6 b8bd
00000380: beb3 7ebd abff 83bd 60c2 f7bc dd67 a2bd
00000390: 9350 23bd 6ef7 8abd 5d58 09bc ff1f 9bbc
000003a0: 675f 42bb d639 45bd 7811 04bc 0ec4 9e3d
000003b0: 7803 b1bd 5da2 d5bd e808 c5bd 9b3b b93c
000003c0: 1df9 b3bd cb8f 65bd eea8 0cbd 636e 043c
000003d0: 1c66 6abd 32df 1bbc da19 663d f726 0a3d
000003e0: 9473 4ebd 7fa8 ecbd cd3f d73c db0e 04bd
000003f0: 9823 c6bc acbf 4b3d 6730 eb3c 980d 93bd
-0.07606656 0.097188845 -0.027825575 -0.060202867 -0.07613517 0.028152127 -0.06337476 -0.04823917
-0.04838445 -0.01792657 -0.06992261 -0.10585666 -0.108587585 -0.10884539 -0.018950421 -0.12266595
-0.03939087 -0.039513476 -0.12852336 0.0017891277 -0.041634396 -0.021667019 -0.018365256 -0.115598835
-0.016636258 0.08626038 -0.085806735 -0.042237937 0.060887545 0.0027809432 -0.14759706 0.023576679
-0.09070372 -0.011020517 -0.055073008 -0.014066505 0.038016424 -0.073175564 0.03306115 0.038245473
-0.05876683 -0.010400523 -0.011050017 -0.027660077 -0.03628736 -0.056085225 -0.050851714 0.01982405
-0.08614246 -0.07745679 -0.043202933 0.0072315508 -0.034905627 -0.060877528 -0.07343965 -0.072471276
0.019894235 -0.094280854 0.0047378507 -0.05176581 -0.045837473 -0.051415127 0.0028019138 0.04128087
-0.0786952 -0.043037735 0.006454274 0.0038736286 -0.05028847 -0.052708432 -0.036816664 -0.033250093
0.014802761 -0.02370123 -0.044916995 -0.025761683 -0.08104961 -0.13419464 -0.1277132 -0.094322264
-0.06346971 -0.08961074 0.032134745 -0.0055465847 -0.07289652 -0.11304188 -0.014460188 -0.130466
0.0026416916 -0.07318467 -0.09343952 -0.11314938 0.035616145 -0.046137586 -0.028399127 -0.022447705
-0.17461807 0.026179185 -0.061122265 -0.046321154 0.0023108982 -0.04961408 -0.07566208 0.19813177
-0.046994545 0.00052920234 0.0032634705 -0.05082347 0.03826994 -0.10172415 -0.0199071 -0.011326525
0.017477732 0.041181397 0.053254 -0.052098133 -0.008929028 -0.056814022 -0.11266001 -0.04801269
0.0021596623 -0.007793793 -0.045292653 -0.08319368 0.0051282076 -0.002557069 -0.03910929 -0.05291763
-0.08532364 -0.06625163 -0.05335693 -0.069455445 -0.0683047 -0.028228221 -0.014029125 -0.087350674
-0.1016742 -0.008488356 -0.033224855 -0.048140224 -0.01417814 -0.047658496 -0.0883474 -0.051360294
0.0436412 0.01646106 -0.06836695 -0.016845265 -0.049562726 -0.009428334 -0.07744275 0.012270853
-0.07928435 0.040371787 -0.046600543 -0.005372732 0.03276114 -0.011965419 0.041907124 0.049182985
-0.1312137 -0.034998342 0.06546459 -0.013972987 -0.008033567 0.025723802 -0.09900947 -0.099444635
-0.040014103 -0.09833702 0.0020393233 -0.16985185 0.06609756 0.11526894 -0.0029638987 -0.04581791
-0.0048863348 -0.080613054 -0.038622685 0.021725181 -0.04560486 -0.014951369 -0.04730084 -0.11541386
-0.09424795 -0.058224678 0.043947887 -0.040843155 -0.060921185 0.015745275 -0.08716229 -0.013336793
-0.038130265 -0.010002543 0.00022339784 -0.018685656 -0.038188864 -0.018604655 -0.08903177 -0.0736376
-0.1820421 0.024433356 -0.043126434 -0.08083148 -0.010992425 -0.014065745 -0.054107387 0.010793081
-0.090021595 -0.044408467 -0.08284044 0.011895221 -0.047754653 0.031140892 -0.023574209 -0.032203335
-0.044073295 -0.10630203 -0.061309833 0.04028694 -0.0056825248 -0.04245304 0.09623748 -0.09019181
-0.062183134 -0.06445249 -0.030244052 -0.079299666 -0.039871763 -0.06785475 -0.008382884 -0.018936155
-0.0029658915 -0.04815086 -0.0080608055 0.07752238 -0.0864324 -0.10431359 -0.09620839 0.02261143
-0.08787749 -0.056045335 -0.03434079 0.008082959 -0.057226285 -0.009513663 0.056176998 0.033728566
-0.050403193 -0.115555756 0.02627554 -0.03224073 -0.024186894 0.04974334 0.028709603 -0.07180327

fc2.bias f4 [256]
00000000: 8438 2fbb 8c26 a33d 90d6 76be 663a 8dbd
00000010: 6694 693d 5283 c83c 0138 9fbd 350e 0c3f
00000020: b41f 11be defa 12bd 5605 04be fb3d 50bc
00000030: 945d 073d 1bc0 96bd b363 5f3c 8e87 aabd
00000040: 7878 d9bc 2655 3a3d 0e2e 7cbc 2a96 ba3c
00000050: 585d 4e3d 8b9e 59bd a61b aebd eb71 e73c
00000060: 3d70 493d 8bc9 5c3e 2d90 66bd 8b3b fb3d
00000070: c426 393c e285 46bd afe8 f93d 0a51 fc3d
00000080: 7f56 50bc b108 6abd ae68 933d acc9 ea3c
00000090: 324f c539 470a a2bd 19b9 aabd e8b8 5bbd
000000a0: 1204 0dbd 63b7 b5bb 53d3 0cbe eedf 0ebd
000000b0: ecca ba3b ffb5 86be e649 fabd e6bf ab3d
000000c0: 8ae1 1ebe d0db 043e cb92 97be 6788 803e
000000d0: 0065 cf3c 6fd9 52bd c163 8bbc 159e 6d3e
000000e0: 0b11 293d 4ef1 d1ba 352a 30bd a178 30bd
000000f0: 2490 b7bd d7d7 023d b06e 83bc 5815 913c
00000100: 17d8 323e 336e a9bc 5937 abbc 298a 1b3e
00000110: f503 51bc 0c68 7b3e de54 a4bd 95fd 65bd
00000120: d8dc 0ebc 9e73 cbbd 0e45 44bc 7635 7ebd
00000130: ffaf afbd 42da 06be 20e4 1e3d df20 48bd
00000140: 581d 6dbd a509 24be e7e0 b8bc ccb7 1cbe
00000150: 3928 b3bd 0566 ceba 3efe 9e3e 0198 67bd
00000160: 0767 62bd dd38 1cbd 8010 093f b965 a2be
00000170: 2756 9ebd dae8 8dbb 49c1 94bd 30bf cabb
00000180: c34a 833d 7a78 94ba 8049 be3c fd58 d33c
00000190: 0103 02be d004 51bd 7962 ccbd 9297 4b3d
000001a0: 56f5 e7bc a336 4c3c 589f f03d 5e4c 2d3e
000001b0: f28f eabd a292 a4bd 7381 8a3d 1b00 543c
000001c0: 3cd4 783e 179d 55bb dc4e cbbd 5546 ec3d
000001d0: c15f 3dbe 36f3 bdbc 1374 063c 710e c23c
000001e0: 92ee 223c ca06 10bd b4fb 79bd b01a f6bd
000001f0: 1611 7bbd 0e28 0e3e 84d6 2dbc b49f bbbb
00000200: 121a 88bc 5d43 773d 2acb 3a3c 2967 9a3e
00000210: c62f 383e 7293 9cbd ea32 fd3c 2310 febc
00000220: 74bf b7bd 6bd8 e7bc 569b 00bd 9be2 a8bb
00000230: 4856 413e 9593 a2bc 029a 82bd ae03 433d
00000240: 8016 d03d baaf 5cbc 4cea 23be 5a8e 053c
00000250: c840 f83d 6488 a9bc e4ef 5f3d 40c1 4d3d
00000260: 0c7c dfbd 2553 a7bd c338 dd3e 51e6 6cbd
00000270: c137 11bd 2518 ad3d 746f 05be e481 ddb7
00000280: fb1d 733d bf5d 4ebd fa5d d13c fe64 803e
00000290: 31d0 813e c571 07bd dd38 33bd 70c4 89bd
000002a0: aa52 fabc 091d 113d f41c b1bd 29d6 6ebe
000002b0: 47bd 27bd 52ff eebd f37a e33d a10e fb3c
000002c0: 1be7 163e 4d33 b83e 51c2 1c3d 01e2 e5bd
000002d0: eb37 2bbe 8037 7ebd 49cc d13e 1230 46bc
000002e0: 4b75 3dbc 68aa 15bd 51f3 73bd 0888 9ebd
000002f0: 7289 5bbd 8892 d1bc b3d1 3fbd 924a 2e3f
00000300: fc04 b9bc d3f7 91bc 791d a2bd 5e40 dfbc
00000310: 2bac 44bd 2f7e 9e3d a208 b03e 5627 a73c
00000320: 056c 1ebd 7a08 7d3c 0ba5 2e3e fe3c 05be
00000330: 9971 f93e 4ec8 0c3e a086 c5bd e895 063e
00000340: 9bdc b53d 8894 9c3e df94 2fbc 2bbb 8a3c
00000350: 79de 7fbd 9d88 b5bd 08c7 2bbe 5c61 0d3d
00000360: 89d5 24be 468d 793b 19f6 54bd 8af9 183e
00000370: 8b86 dcbc fd19 543e 3248 2fbd d386 853c
00000380: 6108 8c3e 27f3 413e d8d0 c43e d793 bc3e
00000390: 3f96 5fbd 39ba 943c 3552 18be 9593 a93d
000003a0: fd4c 93be 30ba 083e b52e 9a3d 773a 213d
000003b0: 0262 01bd 4734 743e a49e 903e b607 7cbc
000003c0: bd85 8838 85e5 0ebe 244c 0e3e 08f6 453e
000003d0: 1ec7 313d e311 153d 1679 90bd d622 c5bc
000003e0: af00 bcbb 2134 ec3b e6c0 9b3e 179d 1a3e
000003f0: e1be 183e 2e32 023e 9e9d 4fbd c941 b8bd
-0.0026736567 0.079663366 -0.24105287 -0.06895904 0.05702629 0.02447668 -0.07774354 0.5470918
-0.1417225 -0.035883777 -0.1289266 -0.01271009 0.033048227 -0.0736086 0.01363461 -0.08326636
-0.026546702 0.04549136 -0.01539184 0.022776682 0.05038199 -0.053129714 -0.08501367 0.028252563
0.049179304 0.21561258 -0.05628984 0.12267216 0.011300746 -0.048467524 0.12202584 0.123201445
-0.012715935 -0.057137195 0.071977004 0.028660618 0.00037633773 -0.079121165 -0.08336086 -0.053643137
-0.03442771 -0.005545543 -0.13752489 -0.034881525 0.0057004597 -0.26310727 -0.12221126 0.08386211
-0.15515724 0.12974477 -0.29604182 0.25104067 0.025316715 -0.051476892 -0.01701534 0.23204835
0.04127602 -0.0016017349 -0.043009 -0.04308379 -0.089630395 0.031944122 -0.01604399 0.017710373
0.17465244 -0.02068243 -0.020900415 0.15189423 -0.012757291 0.2455141 -0.08024 -0.056150038
-0.008719645 -0.099341616 -0.011979355 -0.062062703 -0.085784905 -0.13169196 0.038791776 -0.048859473
-0.057889313 -0.16019304 -0.02256818 -0.15304488 -0.08747906 -0.0015746957 0.31053346 -0.056541447
-0.055274036 -0.038140167 0.535408 -0.31718233 -0.07731276 -0.0043307366 -0.07263429 -0.006187342
0.06410744 -0.0011327409 0.023228407 0.025799269 -0.12696458 -0.05102998 -0.0997972 0.049705096
-0.028315227 0.012464198 0.117491424 0.16923663 -0.11453237 -0.080357805 0.06762972 0.012939478
0.24299711 -0.0032594854 -0.099271506 0.11536852 -0.18493558 -0.023187261 0.008206385 0.023688527
0.009944575 -0.035162725 -0.06103106 -0.12016809 -0.06129559 0.13882467 -0.010610227 -0.005725825
-0.016613994 0.060366977 0.011400977 0.3015683 0.17986974 -0.076453105 0.030908067 -0.031013554
-0.08972064 -0.028301438 -0.03139814 -0.0051539666 0.1888057 -0.019845763 -0.06377031 0.04761093
0.101605415 -0.013469631 -0.16007346 0.008151615 0.12121731 -0.020694919 0.054672137 0.050233126
-0.10912332 -0.081701554 0.43207368 -0.057836834 -0.03545356 0.08451871 -0.13030797 -2.6405738e-05
0.059354763 -0.050382372 0.025557507 0.2507705 0.2535415 -0.033067483 -0.0437554 -0.067269206
-0.030556995 0.03542808 -0.086481005 -0.23323883 -0.040951993 -0.11669792 0.11107435 0.030646624
0.14736597 0.3597664 0.038271252 -0.112247474 -0.1672055 -0.062064648 0.4097617 -0.012096422
-0.011563609 -0.036539465 -0.059558216 -0.0774079 -0.053597875 -0.025582567 -0.046830844 0.68082535
-0.022585385 -0.017818367 -0.07915778 -0.027252372 -0.048015755 0.07738911 0.34381586 0.020404499
-0.038677234 0.0154439155 0.17055146 -0.13011548 0.4871948 0.13748285 -0.09644818 0.13143122
0.08879968 0.3058207 -0.010716646 0.016934952 -0.062468026 -0.088639475 -0.16775143 0.034516677
-0.16097082 0.003807859 -0.05199251 0.14938942 -0.026919624 0.20713039 -0.04279346 0.01629964
0.27350143 0.18940412 0.38440585 0.36831543 -0.054586645 0.018155204 -0.1487511 0.08280102
-0.28769675 0.13352275 0.0752844 0.039362397 -0.03158761 0.23848067 0.28246033 -0.015382698
6.509896e-05 -0.13954742 0.13896233 0.19332135 0.043402784 0.03639401 -0.07054345 -0.024064463
-0.005737386 0.0072083627 0.30420607 0.15098988 0.14916565 0.12714455 -0.050687425 -0.089969225

fc3.weight f4 [4, 256]
00000000: f6de e7bb 6983 40be 89f0 db3e 33f0 a13e
00000010: bd77 92be 80c1 4b3d 6d43 8c3e 6fe5 89be
00000020: e959 e13e 0e88 0d3b 99ea e03d e65f 5fbd
00000030: 2d43 173d ff46 18bd 4c0e 12bd 324d 4bbc
00000040: 1872 bebc 0a94 32bd e193 6abd b843 d5be
00000050: d706 3d3d 72ea 09bc 20b0 2abc f5ca 47bd
00000060: e9dd 93bc 5f03 b53e ccbb 60bd 1687 d23e
00000070: e004 2f3d 93e7 babc ed56 0ebe 8eb0 44be
00000080: 0f05 5bbd 89f2 383c 11f3 32be 6546 05bf
00000090: 3b20 dbbe b0e5 80bd 95ae 303d eac8 16bd
000000a0: d0a6 2fbd f66c f5be d5d9 8fbd 1a2c 31bd
000000b0: e79a 203d f3e5 d13e ac47 823e 748f 17be
000000c0: 31a8 42bf 7924 a83e a5bf c93e 6e88 d43e
000000d0: ae47 923c 74e5 79bd e629 133d de85 023f
000000e0: 028b 28be 5694 b83c 7e75 eb3b 3fe2 db3b
000000f0: e585 d83d 201b 69be 2319 d73c 8e8d 093d
00000100: 5168 bd3e 92ba b7bc 206e 38bd 70ea 3fbe
00000110: b43d 32bc eded 27be 401b 3bbd bd3c 11bd
00000120: 66b0 f23c cfbb f8bc e32d d33c e75b f7bd
00000130: ffe6 5b3e e2ea 4f3e 193d 853e a0b5 29be
00000140: d0cc 5b3c ac16 173f 968e 25bd 729a de3e
00000150: 3d5a e33e db02 8f3e 3d24 6cbe 780f da3c
00000160: 4a01 80bd f8b8 19be 15b1 7cbe 1df5 ba3e
00000170: 06ce 663d 40e8 25bc 987f afbc 45ee 6cbd
00000180: 32a8 503d f60a e0bd 8204 b6bd 9421 50be
00000190: 6e47 943e 32e2 e33e 5be9 433c ba05 2dbc
000001a0: 411c 05bc 169e 8b3e 3d93 f43e 75b0 3fbe
000001b0: 12fa e43e 6650 633d 2318 1abe 5ca6 6abd
000001c0: dbae 4ebe c3e1 823e c1f3 5f3d 1489 abbe
000001d0: 79f0 9ebd 74b3 78bc 26f8 a93b a62b 21be
000001e0: 0dab 25bc 98d9 fd3b 1785 1ebc f601 ebbc
000001f0: 1363 44bd c82a acbe efa0 c9bc 1f4d 40bd
00000200: f02c 32bd 3cd0 17bd 7c8f 8e3d 7efa 34be
00000210: 3dc6 40be 9bd4 b1b9 e6b7 e5bc 0840 e6bc
00000220: 0c03 8b3e 1d35 da3e 9620 8a3c 36bd 16bc
00000230: 21ec 29be c642 c43c 267d 323e 54b2 24bb
00000240: aa18 a63e f7da 09bc cf77 823e f7dd 09bd
00000250: 64d0 13be a736 123d a00a 4fbe ac02 b6be
00000260: 9623 30bd 5a06 993e c106 61be ed00 973e
00000270: 5c06 463c 56cd aa3e c017 a83e c584 3d3c
00000280: 9e23 e83e f234 2fbc 0ef2 06be cafe 75be
00000290: 9bd0 b1be 402f 1fbc 7658 213d a967 db3c
000002a0: 98c1 8fb9 7ca5 b7bc d157 65bb a7d5 0a3f
000002b0: 12ed b83c 369f 27be 2d8b af3e 9652 583c
000002c0: 02bd 46be 217f 59be 0714 053d 6832 373d
000002d0: 1890 893e 1b3b b5bc 6b5a 88be 5bf6 4e3d
000002e0: f8ef 633d 10a1 d03c 3612 58bd 55f1 b5bf
000002f0: 66a5 ea3b 5065 d83c 6412 d3bc 08d1 69be
00000300: 5eda 113d fc80 463c 0d7b 283e c67d 5d3d
00000310: 0ebc ae3c 1bbe 02be 3d10 94be 684c 9cbc
00000320: 7296 283d 2540 36be 7236 54be d989 693e
00000330: 5949 32be 06ae 25be cee0 643e f4ac 1fbe
00000340: cab2 e4bd 790e 49be 6cb7 c5bb 6312 8f3c
00000350: 5e19 2dbd 067a 5cbb 4904 45bb 78f7 d33c
00000360: 8049 d4bc 004c e93c 5725 1c3d 6b1a 98be
00000370: 9962 933b 18c1 54be 50a0 06bc 80de 8b3c
00000380: 2e2e 48be 34e4 46be 3ee1 45be 87d4 70be
00000390: 393e 903c b8c4 7e3c 4933 6c3b e982 933e
000003a0: 3d4b 153f 3068 9f3e 5911 6bbe 9a70 273e
000003b0: 0f34 6dbc 1582 55be 95d7 ca3e 4c5a 413d
000003c0: 4232 14bd 0f81 60be 7f90 29be 03eb 7dbe
000003d0: db7c 36bd da49 c0bb 79b5 6cbe 6021 f9bc
000003e0: f688 263c da59 1b3d 9d2d 51be 6824 b93e
000003f0: f0bd 36be f5aa 75be 0840 80bb afa0 c93d
-0.0070761396 -0.18800129 0.4295695 0.3162857 -0.28606978 0.049745083 0.27395192 -0.26932856
0.44013909 0.0021595987 0.10982246 -0.054534815 0.0369293 -0.037177082 -0.035658166 -0.0124085415
-0.023247764 -0.043598212 -0.057269935 -0.41653228 0.0461491 -0.0084177125 -0.010417968 -0.04877754
-0.018050151 0.35354134 -0.054866597 0.41118687 0.04272926 -0.022815501 -0.13900347 -0.19207975
-0.05347162 0.011288294 -0.17475535 -0.5206054 -0.42798027 -0.062938094 0.043135244 -0.0368127
-0.042883694 -0.47934693 -0.0702397 -0.04325495 0.039210226 0.4099575 0.25445306 -0.14800817
-0.7603789 0.32840326 0.39404026 0.41510338 0.017856445 -0.06100984 0.03592863 0.50985515
-0.16459277 0.02253167 0.007185637 0.0067103202 0.10572413 -0.22764254 0.026257103 0.033582263
0.3699365 -0.02242783 -0.0450269 -0.18741775 -0.010878969 -0.16399355 -0.045680285 -0.035458315
0.029625129 -0.030362992 0.025778716 -0.12078076 0.21474837 0.20304444 0.26023176 -0.1657319
0.01341553 0.5901897 -0.040419184 0.43477207 0.44404784 0.27931866 -0.23060699 0.026618704
-0.06250246 -0.15011966 -0.24676926 0.36515132 0.056348823 -0.0101261735 -0.021423146 -0.05784442
0.050941654 -0.10939591 -0.088875785 -0.20325309 0.28960747 0.4450851 0.011957492 -0.010560447
-0.008124412 0.27269047 0.47768584 -0.18719657 0.44722039 0.055496596 -0.1504827 -0.05728756
-0.2018389 0.25562868 0.05467582 -0.3350302 -0.0776071 -0.015179504 0.0051870523 -0.15739307
-0.010111582 0.0077468865 -0.009675286 -0.028687458 -0.047946047 -0.3362639 -0.024612872 -0.04694855
-0.043499887 -0.037063822 0.06960961 -0.1767368 -0.18825622 -0.00033918474 -0.028041791 -0.028106704
0.27150762 0.42618647 0.016861241 -0.009200385 -0.16593982 0.023957621 0.17430553 -0.0025130706
0.32440692 -0.008414022 0.25482032 -0.033658948 -0.14434963 0.03569665 -0.20218897 -0.35548913
-0.043002687 0.29887658 -0.21975233 0.29492894 0.012086477 0.33359784 0.3283062 0.011567299
0.45339674 -0.0106937755 -0.13178274 -0.24022976 -0.34729466 -0.009715855 0.039391004 0.026782827
-0.00027419324 -0.022417776 -0.003499497 0.5423226 0.022573981 -0.16369328 0.3428587 0.013203284
-0.19408038 -0.21239902 0.032489803 0.044725806 0.26867747 -0.02212291 -0.26631483 0.05052791
0.055648774 0.025467426 -0.052751742 -1.4214274 0.0071608303 0.026415497 -0.025765605 -0.22833645
0.03560864 0.012115713 0.1645319 0.054075025 0.021329906 -0.12767832 -0.2891864 -0.019079402
0.0411591 -0.17797907 -0.20723894 0.22806491 -0.17410792 -0.16179666 0.22351381 -0.1559332
-0.11166914 -0.19634427 -0.0060338285 0.017464822 -0.04226052 -0.0033642068 -0.0030062369 0.025874838
-0.025913954 0.028478622 0.038121548 -0.29707655 0.0044978377 -0.20776784 -0.008216932 0.01707387
-0.19548866 -0.1942299 -0.19324204 -0.23518573 0.017607795 0.015549831 0.003604131 0.28810814
0.5831793 0.31134176 -0.22955836 0.16351548 -0.014477744 -0.20850404 0.396176 0.047205254
-0.036180742 -0.21924232 -0.16559027 -0.24796681 -0.044552665 -0.005868179 -0.23116101 -0.030411422
0.01016449 0.037927486 -0.20427556 0.36160588 -0.17845893 -0.23990996 -0.003913883 0.09845101

fc3.bias f4 [4]
00000000: 54bc 76bd 25e0 5cba 3f27 0fbd aba0 47bd
-0.060238197 -0.0008425734 -0.034949537 -0.04873721
