csv_and_models/vanilla_dqn/vanilla_lunar_900.pth (torch, 279212 bytes, 6 tensors)

fc1.weight f4 [256, 8]
00000000: 1972 23bd 6dc4 3abf df70 8dbe 210e 5abf
00000010: be53 efbe 34e9 363f 3953 2cbf 15c9 aebf
00000020: 3941 b9bf 1f48 0dc0 eebb 963e 085f 3cbe
00000030: de51 72bf 0b29 593e f6dc 4fbe 1743 8c3e
00000040: fa8c 1b3f 868a a4bf 8128 353e 8d28 c4be
00000050: 8717 a5bd 659b 8c3f 91bf c8be c920 b23e
00000060: eafb 73bf e944 db3f f816 4c3f 0cc4 6cbc
00000070: 83f3 d1bf 9802 de3c ecba 51be d416 c0be
00000080: b56e 03bc d033 b83c b15a e4bb 1fb9 003c
00000090: 9cb8 3b40 4cef a73c c34b 79bc 3400 693d
000000a0: bb56 3fbf 5da6 13c0 9274 c5be 51e0 063f
000000b0: ffdc 99be 2b17 7bbc 79bb b3bd 36c0 4e3c
000000c0: 4841 1140 e3a6 b83e 0464 3a3f aa4f b33e
000000d0: 8c7b 71bf 7a5c 25be 1aa8 283e b1e3 d03d
000000e0: 54fd 0240 4ba5 0fc0 65ac d0bd f554 07be
000000f0: bbd8 19be 9356 3d3e 536e fe3d b085 adbc
00000100: e0aa 6040 4a1b fdbd e6b0 453f c841 b73c
00000110: d709 6cbf 4baa 63be e546 fc3b 869a 7f3e
00000120: a2e7 efbd c8fe 4abf ebf6 cbbd d721 5ebc
00000130: cc2c 6d3f 50c4 05bf 32f4 503f cd18 47be
00000140: 6947 4abf 92ac 6ebe d393 9f3f c3a6 5cbf
00000150: 452d 4dbe 41c7 f5be 577c e9bd 3534 d8be
00000160: 0e17 37be 5d51 11bf 3d87 843f 9100 f6be
00000170: c68e fb3d 8634 23bf 2648 86be 2e16 c2bc
00000180: b0a4 f2bd 78c4 1040 4444 403d e718 7cbf
00000190: 3f43 1b3f c36d 9fbe 383b 283d fd35 993e
000001a0: e2ee 27bf 8295 aa3f 8187 48be f6f4 eb3e
000001b0: 9345 1c3f 9f22 243f b394 0abf bf0b b13d
000001c0: a77a 6e3f cfc5 a43e d3b6 a8be 9ffd b83f
000001d0: 41df 0bbe 4c78 67bb b39f acbc 097a 93be
000001e0: faeb e3be 51e8 88bf 073d fcbe e9e0 4f3f
000001f0: 39be cfbf 9de2 d8bc f10d 52bc 72d3 5b3e
00000200: 79c4 aa3e 1e27 50bf d616 8cbe b2ef 09be
00000210: 63b3 c4bf e7ca 453f 9f71 84be b6e2 87bf
00000220: 594f 5d3d 694c 6d3f b8e3 d6be 009f cf3e
00000230: ea78 dc3e e53e 3c3d 5c67 a3be 9589 5ebe
00000240: e279 82be 4ca9 b03e 6866 7ebe 6c2c a63e
00000250: 93c5 e13f 3daf bb3e 3fd8 5ebf b81d 2dbe
00000260: 2a50 bdbe 81d9 7bc0 e8c5 443e 517f a9bf
00000270: bd28 d33d 0178 bebd a201 c83c e042 783d
00000280: 7713 3e3d 2973 8ebd 2837 fe3f 3df5 84be
00000290: 80bd 84be 989c 953b 568e 123e b45b 9bbf
000002a0: 4d52 45be 1be5 3ebf 4133 a93f 6e48 3ebd
000002b0: d8f4 8cbe 4953 793f 4e70 44bf e1d7 ebbd
000002c0: 3f34 e33e 9633 80be e25a cb3c 0e8d 0e3f
000002d0: 2838 16bf 72c4 24bf d551 803e cb8c 4f3e
000002e0: 66bb 3d3f 3f0c ccbe 031b 82bf d04c 8cbf
000002f0: de39 8a3e 0901 69be d4bc 623d 5486 82be
00000300: 4bf9 87bf 6f7e ddbf d772 d9bd b04b e3bd
00000310: 803f 16bf b41f 1dbf 3a22 88be 1c0f 22bf
00000320: 8c3c 6abf 86f8 96bf 6b19 7e3f e7e3 82bf
00000330: eabb bfbd 692e 10bd c407 a23d 3386 0c3e
00000340: adff 78bc 0007 a33f d142 a2bf bf25 693e
00000350: 91b4 81bf d80c 8c3d 519e 00bf caad 26be
00000360: f0c6 3b3e f483 d1bf 3c81 803f 0a26 f23e
00000370: f6f3 633f d7c6 27bf 6156 463e f155 62be
00000380: 8953 cbba ca22 e1bf f8d2 23bf afe7 6bbc
00000390: f5f8 ef3e 8c44 98bd 8184 4bbf 761d 9dbe
000003a0: 361a 273f 3947 aec0 860f 13be 4867 a4be
000003b0: 5ede 973f c465 58be 056f c53e cab4 39be
000003c0: f2dc 023d 0f35 d7bf 655d 6bbf 7cd6 4c3f
000003d0: 5203 cabd bc8f a8be 838e d8be 5fbc 87be
000003e0: b436 5bbe ba52 24c0 a87d aa3f 448e 6fbd
000003f0: 62c9 b7be 2b82 e13d 04e5 333e c427 393e
-0.039903734 -0.7295597 -0.27625176 -0.8517781 -0.46743578 0.7144959 -0.6731449 -1.3655115
-1.4473029 -2.207527 0.29440254 -0.18395627 -0.9465617 0.21207063 -0.20299134 0.27394935
0.6076199 -1.2854774 0.17691232 -0.38312188 -0.08061128 1.0984923 -0.39208654 0.34790638
-0.95306265 1.7130405 0.7972255 -0.014451038 -1.6402439 0.027100846 -0.20481461 -0.37517416
-0.008022 0.022485644 -0.006968819 0.007856636 2.9331427 0.020499848 -0.015215817 0.05688496
-0.74741715 -2.307029 -0.385655 0.5268603 -0.3005142 -0.015325348 -0.08775992 0.012619069
2.2696095 0.36064824 0.7280886 0.35021716 -0.9432914 -0.16148558 0.16470376 0.10199679
2.046712 -2.2444637 -0.10189132 -0.13216002 -0.15024082 0.18490057 0.124233864 -0.021181911
3.5104294 -0.123587206 0.7722305 0.022370234 -0.92202514 -0.2223293 0.007698881 0.2496129
-0.11714102 -0.79295015 -0.09959205 -0.013557873 0.9264648 -0.52252674 0.8162261 -0.19443054
-0.79015213 -0.23308018 1.2466987 -0.8619196 -0.200368 -0.4800358 -0.11400669 -0.4222733
-0.17879888 -0.56764776 1.0353771 -0.48047307 0.12283091 -0.6375202 -0.2622692 -0.023692217
-0.11847818 2.2619915 0.046940103 -0.984755 0.60649484 -0.3113843 0.0410721 0.29924002
-0.6559888 1.3326876 -0.1958294 0.46085328 0.6104366 0.6411533 -0.54133147 0.086448185
0.931559 0.32182166 -0.32951984 1.4452399 -0.13659383 -0.0035319505 -0.021072244 -0.28804043
-0.44515973 -1.0695897 -0.4926531 0.8120256 -1.6229926 -0.026475245 -0.012820707 0.21467379
0.33353022 -0.8130969 -0.27361172 -0.13470343 -1.5367244 0.7726273 -0.25867936 -1.0616062
0.05403075 0.9269472 -0.4197061 0.40550995 0.43061 0.04595842 -0.31914794 -0.21732171
-0.25483614 0.34504163 -0.24843752 0.32455766 1.763842 0.36657134 -0.87048715 -0.16905868
-0.36975223 -3.9351504 0.1921612 -1.3241979 0.103105046 -0.09300233 0.024414841 0.060610652
0.046405282 -0.06955559 1.9860582 -0.25968352 -0.25925827 0.0045657866 0.1431211 -1.213736
-0.19269677 -0.7456834 1.3218766 -0.046455793 -0.2753055 0.9739271 -0.76733863 -0.11515785
0.44375798 -0.25039357 0.02482361 0.5568398 -0.5867944 -0.6436225 0.25062433 0.20268552
0.7411407 -0.39853093 -1.0164493 -1.0960941 0.26997274 -0.22754301 0.05535586 -0.2549311
-1.0622953 -1.730421 -0.10617607 -0.110984206 -0.58690643 -0.613765 -0.26588613 -0.63304305
-0.9149864 -1.1794593 0.99257535 -1.02258 -0.09362014 -0.03520051 0.079116374 0.13723068
-0.015197677 1.2736511 -1.2676641 0.22768305 -1.013323 0.06838387 -0.5024157 -0.16277233
0.18337607 -1.6368394 1.0039439 0.47294647 0.8904413 -0.6553778 0.19368888 -0.22103097
-0.0015512566 -1.7588742 -0.6399379 -0.014398499 0.46869627 -0.07434949 -0.7949906 -0.3068654
0.6527437 -5.446194 -0.1436139 -0.32110047 1.1864736 -0.2113257 0.38561264 -0.18135372
0.03194899 -1.6813067 -0.91939384 0.8001478 -0.098639145 -0.3292216 -0.42296228 -0.26510903
-0.21407586 -2.5675492 1.3319597 -0.058485284 -0.3589583 0.11011156 0.17567831 0.18081576

fc1.bias f4 [256]
00000000: 6c39 4dbf 6db7 1bbf 4ab2 81be f9f7 833d
00000010: 6c0a 13bd f892 6a3f f845 2c3e 2e1f 1ebe
00000020: 0570 84bd dc8a a3be e33f 483e f5a2 1e3f
00000030: 0308 6dbe a8ce 1dbf b7ca c83e 0f32 bd3e
00000040: d1f8 81be ef91 283f 1b64 15be e97d 48be
00000050: 19ee bdbd 4d99 7fbe 450f 413d e051 4bbe
00000060: bbb1 0abf b219 8bbe 3487 393f 1a23 f23c
00000070: d3c6 ddbe b166 e2bc 3ee2 4fbf a1d4 9ebe
00000080: f7ec 203f 63d8 953d 2384 febc 2bb0 59be
00000090: eb1c 0fba b9a4 90bf a80e 8cbe 1565 aa3e
000000a0: 7098 e5bd 54d8 35be 3c8e 2ebe c6e0 0ebf
000000b0: 8e58 583f a597 973e 35e2 e2be f8c2 6cbf
000000c0: cc74 05bf 0f1d 443a 6c2b 64be 69b0 c53e
000000d0: b27e abbe 5359 1b3e bb3a c63d e9b6 e1bc
000000e0: acdb 033f 622c ba3e f6f9 c9be 80e3 17bf
000000f0: ee56 143f 4b84 483e f5d9 bc3e 3e8d 60b9
00000100: 249b ab3e ddc1 0dbe 144f 2fbf e061 96bc
00000110: 9537 95be b3fa 22be be4f 53be 3f95 ef3e
00000120: f8ba 2bbf e3c7 6e3f 35cc 82bc 61da ff3e
00000130: e8fc 7dbd d773 a4be 0761 a73e 6271 ef3e
00000140: a098 89bd 2465 0c3f ff0e e9bd 56d4 b0be
00000150: 4457 f63b ff77 a83e b2d0 8a3e 739e cc3e
00000160: c968 d2bd 3f01 663f 1070 303f f9ff 9bbe
00000170: 209a 95bf 7b30 7ebe 3e3d c73b 7a0c 893c
00000180: aa81 393e 4520 06bf d7e6 54bf f7fa 2dbf
00000190: 5711 663f f542 013e 2648 36be 10fa 41be
000001a0: 7c9e dcbe 893a 81be ccb2 80bf ce90 2c3f
000001b0: 17d0 17bf a61c 81ba 68ac ebbe 77aa ddbe
000001c0: d0fe 233f a98c 84be fd44 3abe ac74 163f
000001d0: 948e f4be 7641 7bbe 2deb 423f be0c 2bbf
000001e0: c894 6dbf e6e5 053f 4d31 113f 1810 82be
000001f0: 454f 7e3c a3f3 dbbe 0c0c f3be 134f b9be
00000200: d902 a03e c470 613e 5f2b b93b a479 2ebf
00000210: 49f4 253c f6d6 9abd 19ce 043f 0fe3 043f
00000220: bb92 18be b1f3 ce3e 8120 10bf a3df 3a3f
00000230: ff5f 393f 45f3 87bc 228e 7b3e a427 583e
00000240: 2aa1 0abf 354c 58bf e3fe 2bbf b1c6 da3e
00000250: c687 573f c39a a23e 2a88 8c3e d695 383e
00000260: accd 72be 9ef9 f7be 9abb f83e 50cd f93e
00000270: 8cc2 07bf 5e1d 9ebe 8de8 3e3e bf22 613e
00000280: df8f 443e adc4 2c3e ba76 35bf a093 a6bd
00000290: 8441 90bd 68df 993e 1453 abbd b499 7d3e
000002a0: 01b2 863e 9149 e53c 343a e6be 47bd ca3e
000002b0: 535f b1bd 3cd5 47be ebc5 f7be 629c 4f3f
000002c0: 14c9 683e f215 b0be 68a9 993f 883c 5bbf
000002d0: 79b8 c2be 868e 9f3e 605c 4ebe a5c4 353e
000002e0: 1774 cbbe 6f13 6b3e ed7b f5be ef67 303d
000002f0: 4538 83bf fc67 adbe 96ad 743f 4b33 c0be
00000300: 8aeb 0e3f f4e0 66be 9e32 473f 9ad6 74bd
00000310: 110b 52bd eaaa febd b3d8 e43c 537f 09bf
00000320: 217a 37bf ad11 b2be c2ff 74be 1a51 37bc
00000330: 2204 043f 5754 1d3f a9ac ab3e 9ba9 a93c
00000340: 330c 0f3f 24a0 66be 135b a33e 516a cabe
00000350: 3480 5bbd b7e3 293d 969f 0d3f ca06 12bf
00000360: 4ef1 12bf 3b90 efbe a62d bb3e 85d0 133f
00000370: b464 563f 476e 293f 94c2 f8bd d4af 4bbe
00000380: 6b56 e3be 3494 833d 68fa e1be 7a7b 593d
00000390: ee9e bfbe f339 61be e37d 15bd a240 81be
000003a0: f117 37bf 4285 c3be e3a0 40bf c5f4 cebe
000003b0: 67c5 b2be 77fe 0bbf f31e ddbe c09f 2a3c
000003c0: 5c50 543f c167 553f c9f0 b4bd dbca 05bf
000003d0: c8eb ac3e fbbf a4be b246 b5bd f477 b1be
000003e0: 773b aabe 2da9 a03e 3c6d 74bc f123 083e
000003f0: c1aa 05bf 648e d23d 93c0 80be 5425 483d
-0.80165744 -0.6082676 -0.25331336 0.064437814 -0.03589861 0.91630507 0.16823566 -0.15441582
-0.064666785 -0.3194188 0.19555621 0.619674 -0.23147587 -0.6164346 0.3921716 0.36952254
-0.25385144 0.65847677 -0.14588968 -0.19579281 -0.09273929 -0.24960823 0.047133703 -0.19855452
-0.54177445 -0.2716804 0.7247193 0.029557753 -0.43315753 -0.027636858 -0.81204593 -0.31021598
0.6286158 0.07316663 -0.031068867 -0.21258609 -0.0005459326 -1.1300269 -0.27354932 0.33280244
-0.11210716 -0.17758304 -0.17046446 -0.5581173 0.84510124 0.29607883 -0.44313207 -0.92485
-0.5213134 0.00074811367 -0.22282189 0.38611153 -0.33495098 0.15170793 0.09679171 -0.027553039
0.5150707 0.36361986 -0.39448518 -0.5933151 0.57945144 0.19581716 0.36885038 -0.00021414922
0.335168 -0.13843484 -0.6848004 -0.018357217 -0.29143968 -0.15915947 -0.20635888 0.46793553
-0.67082167 0.9327375 -0.015966514 0.49971297 -0.06200877 -0.3211963 0.32691213 0.46766192
-0.06718564 0.5484183 -0.113798134 -0.34537 0.007517727 0.3290405 0.27112347 0.39964637
-0.102738924 0.8984565 0.68920994 -0.3046873 -1.168766 -0.24823181 0.0060802987 0.016729582
0.18115869 -0.5239299 -0.83164734 -0.67961067 0.8987021 0.12623198 -0.1780096 -0.18943048
-0.43089664 -0.2523997 -1.0054564 0.67408454 -0.59301895 -0.0009850457 -0.46029973 -0.43294117
0.6406069 -0.25888565 -0.1819038 0.5877178 -0.47765028 -0.2453669 0.761401 -0.6681632
-0.9280515 0.5230392 0.5671585 -0.25402904 0.015521829 -0.42959318 -0.4747013 -0.3619314
0.31252173 0.22015673 0.005650922 -0.6815436 0.010129043 -0.07560532 0.5187698 0.51908964
-0.14899723 0.40420297 -0.562996 0.7299749 0.72412103 -0.016595492 0.24565938 0.21108872
-0.54152167 -0.8449128 -0.671858 0.42729715 0.8419155 0.317587 0.27447635 0.18025908
-0.2371127 -0.4843263 0.4858063 0.48789454 -0.5303123 -0.3088178 0.18643399 0.21985911
0.19195507 0.16871901 -0.7088429 -0.08133626 -0.07043746 0.30053258 -0.08365455 0.24765664
0.2630768 0.02798918 -0.4496628 0.39597532 -0.0866076 -0.19514936 -0.48393187 0.81097996
0.22732955 -0.34391743 1.2004824 -0.8563924 -0.38031366 0.31163424 -0.20152426 0.17750795
-0.39737007 0.22956632 -0.4794611 0.04306787 -1.0251547 -0.33868396 0.9557737 -0.37539133
0.55828154 -0.2254675 0.7781161 -0.059774972 -0.051280085 -0.12434943 0.027935361 -0.53709906
-0.7167073 -0.3477911 -0.23925689 -0.01118877 0.51568806 0.6145682 0.33530167 0.020710757
0.5587799 -0.22522026 0.31905422 -0.39534238 -0.05358906 0.04147693 0.55321634 -0.5704161
-0.5739945 -0.46789727 0.36558264 0.5774005 0.8374741 0.66183895 -0.12146488 -0.19891292
-0.4440187 0.06424752 -0.44136357 0.053096272 -0.3742594 -0.21994762 -0.036497008 -0.25244623
-0.71520907 -0.38187605 -0.75245494 -0.4042112 -0.3491623 -0.5468516 -0.43187675 0.010414064
0.8293512 0.8336144 -0.088349886 -0.5226266 0.33773637 -0.3217772 -0.08851375 -0.3466183
-0.33248493 0.3137907 -0.014918622 0.1329496 -0.52213675 0.10281065 -0.25146922 0.048863724

fc2.weight f4 [256, 256]
00000000: c9c8 9bbd f20a c73d 76f2 e3bc 4897 76bd
00000010: c2ec 9bbd 4a9f e63c a0ca 81bd 7096 45bd
00000020: c62e 46bd beda 92bc 9633 8fbd 60cb d8bd
00000030: 2b63 debd 55ea debd ea3d 9bbc 4938 fbbd
00000040: 5258 21bd e2d8 21bd a19b 03be 2a81 ea3a
00000050: d488 2abd 087f b1bc bc72 96bc 15bf ecbd
00000060: c348 88bc 48a9 b03d 71bb afbd b001 2dbd
00000070: 3865 793d 7c40 363b af23 17be e123 c13c
00000080: dfc2 b9bd 668f 34bc 3c94 61bd 3377 66bc
00000090: 1cb7 1b3d 12dd 95bd 216b 073d 49a7 1c3d
000000a0: 7db5 70bd f566 2abc 210b 35bc 6397 e2bc
000000b0: 0ea2 14bd 9fb9 65bd e349 50bd 0c66 a23c
000000c0: 756b b0bd aaa1 9ebd 8ff5 30bd a5f6 ec3b
000000d0: 34f9 0ebd b75a 79bd 8767 96bd d26b 94bd
000000e0: 3cf9 a23c 5216 c1bd f93f 9b3b 6308 54bd
000000f0: 13c0 3bbd ab98 52bd 50a0 373b 2116 293d
00000100: f32a a1bd 5648 30bd 607e d33b b4dc 7d3b
00000110: 48fb 4dbd cce4 57bd 12cd 16bd 4031 08bd
00000120: 4887 723c 1529 c2bc e2fa 37bd 2a0a d3bc
00000130: 57fd a5bd 526a 09be 40c7 02be 082c c1bd
00000140: 68fc 81bd d685 b7bd b99f 033d 20c0 b5bb
00000150: c54a 95bd 8082 e7bd 6dea 6cbc e198 05be
00000160: 3b20 2d3b d8e1 95bd 385d bfbd ddba e7bd
00000170: 3ce2 113d c4fa 3cbd 49a5 e8bc 40e4 b7bc
00000180: 14cf 32be bb75 d63c 575b 7abd 40bb 3dbd
00000190: 7072 173b 2238 4bbd b8f4 9abd 0ee3 4a3e
000001a0: 5a7d 40bd 2bba 0a3a f3df 553b 452c 50bd
000001b0: f1c0 1c3d c054 d0bd 3714 a3bc e492 39bc
000001c0: 762d 8f3c d3ad 283d de20 5a3d da64 55bd
000001d0: 0f4b 12bc d2b5 68bd 4bba e6bd f4a8 44bd
000001e0: 1f89 0d3b 1363 ffbb ca84 39bd 7361 aabd
000001f0: 860a a83b 8094 27bb 1031 20bd 28c0 58bd
00000200: 29be aebd efae 87bd cc8c 5abd a83e 8ebd
00000210: 56e3 8bbd df3e e7bc 6ada 65bc e9e4 b2bd
00000220: 903a d0bd bf12 0bbc c916 08bd af2e 45bd
00000230: 6e4b 68bc 8e35 43bd 7bef b4bd 2c5f 52bd
00000240: 1dc1 323d 58d9 863c f903 8cbd 15ff 89bc
00000250: 4902 4bbd 4d79 1abc 4e9a 9ebd b00b 493c
00000260: d55f a2bd e35c 253d 36e0 3ebd be0d b0bb
00000270: 8c30 063d 9b0a 44bc cea6 2b3d 1974 493d
00000280: e25c 06be 6c5a 0fbd 4d12 863d f5ee 64bc
00000290: 399f 03bc b9ba d23c 7ac5 cabd a1a9 cbbd
000002a0: d4e5 23bd eb64 c9bd 2ba6 053b a5ed 2dbe
000002b0: 285e 873d 1f12 ec3d f83d 42bb 90ab 3bbd
000002c0: 8c1d a0bb 7518 a5bd d232 1ebd 02f9 b13c
000002d0: 29cc 3abd 96f6 74bc 87be 41bd 1a5e ecbd
000002e0: 1205 c1bd 007d 6ebd b302 343d 274b 27bd
000002f0: 7e88 79bd 3cfc 803c 2582 b2bd 9082 5abc
00000300: 7b2e 1cbd b5e1 23bc e73f 6a39 a912 99bc
00000310: ed6b 1cbd ca68 98bc 4a56 b6bd 4fcf 96bd
00000320: 3f69 3abe 7628 c83c 58a5 30bd fa8a a5bd
00000330: 9219 34bc 0374 66bc b59f 5dbd 76d5 303c
00000340: 3e5d b8bd a7e5 35bd 40a8 a9bd 2ce4 423c
00000350: 629a 43bd 2f1b ff3c b31e c1bc a5e7 03bd
00000360: 3386 34bd e1b4 d9bd 0520 7bbd eb03 253d
00000370: 7934 babb 3de3 2dbd 2818 c53d 7cb6 b8bd
00000380: beb3 7ebd abff 83bd 60c2 f7bc dd67 a2bd
00000390: 9350 23bd 6ef7 8abd 5d58 09bc ff1f 9bbc
000003a0: 675f 42bb d639 45bd 7811 04bc 0ec4 9e3d
000003b0: 7803 b1bd 5da2 d5bd e808 c5bd 9b3b b93c
000003c0: 1df9 b3bd cb8f 65bd eea8 0cbd 636e 043c
000003d0: 1c66 6abd 32df 1bbc da19 663d f726 0a3d
000003e0: 9473 4ebd 7fa8 ecbd cd3f d73c db0e 04bd
000003f0: 9823 c6bc acbf 4b3d 6730 eb3c 980d 93bd
-0.07606656 0.097188845 -0.027825575 -0.060202867 -0.07613517 0.028152127 -0.06337476 -0.04823917
-0.04838445 -0.01792657 -0.06992261 -0.10585666 -0.108587585 -0.10884539 -0.018950421 -0.12266595
-0.03939087 -0.039513476 -0.12852336 0.0017891277 -0.041634396 -0.021667019 -0.018365256 -0.115598835
-0.016636258 0.08626038 -0.085806735 -0.042237937 0.060887545 0.0027809432 -0.14759706 0.023576679
-0.09070372 -0.011020517 -0.055073008 -0.014066505 0.038016424 -0.073175564 0.03306115 0.038245473
-0.05876683 -0.010400523 -0.011050017 -0.027660077 -0.03628736 -0.056085225 -0.050851714 0.01982405
-0.08614246 -0.07745679 -0.043202933 0.0072315508 -0.034905627 -0.060877528 -0.07343965 -0.072471276
0.019894235 -0.094280854 0.0047378507 -0.05176581 -0.045837473 -0.051415127 0.0028019138 0.04128087
-0.0786952 -0.043037735 0.006454274 0.0038736286 -0.05028847 -0.052708432 -0.036816664 -0.033250093
0.014802761 -0.02370123 -0.044916995 -0.025761683 -0.08104961 -0.13419464 -0.1277132 -0.094322264
-0.06346971 -0.08961074 0.032134745 -0.0055465847 -0.07289652 -0.11304188 -0.014460188 -0.130466
0.0026416916 -0.07318467 -0.09343952 -0.11314938 0.035616145 -0.046137586 -0.028399127 -0.022447705
-0.17461807 0.026179185 -0.061122265 -0.046321154 0.0023108982 -0.04961408 -0.07566208 0.19813177
-0.046994545 0.00052920234 0.0032634705 -0.05082347 0.03826994 -0.10172415 -0.0199071 -0.011326525
0.017477732 0.041181397 0.053254 -0.052098133 -0.008929028 -0.056814022 -0.11266001 -0.04801269
0.0021596623 -0.007793793 -0.045292653 -0.08319368 0.0051282076 -0.002557069 -0.03910929 -0.05291763
-0.08532364 -0.06625163 -0.05335693 -0.069455445 -0.0683047 -0.028228221 -0.014029125 -0.087350674
-0.1016742 -0.008488356 -0.033224855 -0.048140224 -0.01417814 -0.047658496 -0.0883474 -0.051360294
0.0436412 0.01646106 -0.06836695 -0.016845265 -0.049562726 -0.009428334 -0.07744275 0.012270853
-0.07928435 0.040371787 -0.046600543 -0.005372732 0.03276114 -0.011965419 0.041907124 0.049182985
-0.1312137 -0.034998342 0.06546459 -0.013972987 -0.008033567 0.025723802 -0.09900947 -0.099444635
-0.040014103 -0.09833702 0.0020393233 -0.16985185 0.06609756 0.11526894 -0.0029638987 -0.04581791
-0.0048863348 -0.080613054 -0.038622685 0.021725181 -0.04560486 -0.014951369 -0.04730084 -0.11541386
-0.09424795 -0.058224678 0.043947887 -0.040843155 -0.060921185 0.015745275 -0.08716229 -0.013336793
-0.038130265 -0.010002543 0.00022339784 -0.018685656 -0.038188864 -0.018604655 -0.08903177 -0.0736376
-0.1820421 0.024433356 -0.043126434 -0.08083148 -0.010992425 -0.014065745 -0.054107387 0.010793081
-0.090021595 -0.044408467 -0.08284044 0.011895221 -0.047754653 0.031140892 -0.023574209 -0.032203335
-0.044073295 -0.10630203 -0.061309833 0.04028694 -0.0056825248 -0.04245304 0.09623748 -0.09019181
-0.062183134 -0.06445249 -0.030244052 -0.079299666 -0.039871763 -0.06785475 -0.008382884 -0.018936155
-0.0029658915 -0.04815086 -0.0080608055 0.07752238 -0.0864324 -0.10431359 -0.09620839 0.02261143
-0.08787749 -0.056045335 -0.03434079 0.008082959 -0.057226285 -0.009513663 0.056176998 0.033728566
-0.050403193 -0.115555756 0.02627554 -0.03224073 -0.024186894 0.04974334 0.028709603 -0.07180327

fc2.bias f4 [256]
00000000: 8438 2fbb b1b1 40be 883d 89be 2891 d43e
00000010: a8d7 62bd e513 eebb 5531 0bbe bcf9 ea3c
00000020: 9283 143d defa 12bd a68b 24be 3c3c 24bd
00000030: 945d 073d 1bc0 96bd b363 5f3c 8e87 aabd
00000040: acc9 6ebd a7f1 a1bb 54f6 bdbd ee14 c8bd
00000050: 585d 4e3d ce30 69be a61b aebd eb71 e73c
00000060: 5851 113e b24b 7e3f 2d90 66bd 0cb0 693f
00000070: c426 393c 7d2a a4bd 4e4c 3bbe e1b9 a6be
00000080: dc88 65bd 4584 ccbd af61 acbe de22 4b3e
00000090: a6b1 8c3d dcad 24be 19b9 aabd e8b8 5bbd
000000a0: 4f83 87bd aff3 60be cb1c fb3c 2827 88bd
000000b0: 6880 2bbd f749 27bf 3a32 31bd 15de 7cbd
000000c0: e216 1a3e 2595 703d 10f6 89bd 4b36 9a3f
000000d0: 0065 cf3c c377 aabd d3af 46be cdd3 a43e
000000e0: 86e0 0b3e 86ab 09bd 352a 30bd a178 30bd
000000f0: 2490 b7bd 68a0 abbd b06e 83bc 5815 913c
00000100: 63df 993f 7fb5 56bd 5937 abbc efc5 5cbe
00000110: f503 51bc fe53 58bd de54 a4bd 95fd 65bd
00000120: 43c2 25bd 9e73 cbbd 0e45 44bc 7635 7ebd
00000130: 572c cf3d a786 92be 22fb 82be cf97 3bbe
00000140: 581d 6dbd c75b ffbe e7e0 b8bc ce52 ce3d
00000150: 757c debe 911c c0be 6ea8 81be a1c8 b4bd
00000160: 8538 b2bd dd38 1cbd da4c 003c 93ff c4be
00000170: 87df 51be dae8 8dbb 49c1 94bd 30bf cabb
00000180: 3574 583d 4574 ae3e 9288 78be fe0e debc
00000190: 0cf6 a0be 53ef 443f 7962 ccbd 9297 4b3d
000001a0: 3458 e6be 5be7 353e f3f8 203f 34da f9be
000001b0: ad97 c9be a292 a4bd 7479 f33d 30b8 a4bd
000001c0: d3a7 2c3e db57 4abe 83db 30be 7e60 fbbc
000001d0: c8e0 5dbe f5ae 45bd 1ba8 c0bc 92d3 87bd
000001e0: 92ee 223c ca06 10bd 5e05 bebd b01a f6bd
000001f0: 1611 7bbd 45b1 1e3e b381 2dbd b49f bbbb
00000200: 121a 88bc b10e a9bd d449 30bc 0826 abbe
00000210: 487a d2bd 995a c8bd 0c21 c7bb 2310 febc
00000220: d673 88be 0670 1e3f fd90 52bd 9be2 a8bb
00000230: 5186 0b3e 9593 a2bc 066e 1ebe 011b 6abc
00000240: a516 263f baaf 5cbc 49b2 85be a450 c1bc
00000250: 3a34 04be 6488 a9bc 62d5 b8be c0b1 ddbd
00000260: 85ba 57be a77a 9cbe 9521 26bd 670c b6be
00000270: 56a4 89bd 97af 173e 5e91 cdbe e481 ddb7
00000280: 203a e5bd bf5d 4ebd 2fb2 c03d bea8 15bf
00000290: b1d2 003f c571 07bd 30a2 9abd adba cabd
000002a0: aa52 fabc 72c1 f0bd f41c b1bd 40bf fbbe
000002b0: 47bd 27bd 8f05 18be e374 2c3e a10e fb3c
000002c0: 510b 123f ce68 efbd 0a34 773d 0bfb 85be
000002d0: 81c4 7dbe 1e1c 10be 6025 9a3d 1230 46bc
000002e0: 4b75 3dbc 68aa 15bd 51f3 73bd c1ed 9dbd
000002f0: 7289 5bbd 0fca 8ebd b3d1 3fbd 48bb 0fbb
00000300: fc04 b9bc d3f7 91bc 711e 9e3c 5e40 dfbc
00000310: 2bac 44bd 4757 f7bc e16e e5bd 9330 3cbc
00000320: 056c 1ebd 68c8 fabd 8e5c f13c d371 ecbd
00000330: 6193 6ebe e253 4cbe 0486 42be 58be 16bd
00000340: 3448 8abb 6775 19be df94 2fbc 53c4 d63c
00000350: 79de 7fbd 9d88 b5bd ec28 80be 5c61 0d3d
00000360: 690b ffbe 468d 793b ed65 bfbd 056b 523e
00000370: 8b86 dcbc 2a32 03bf 3248 2fbd 44f2 7cbc
00000380: 6f7d 38bd aa4b 1e3b 1923 bbbe 59bd 9fbe
00000390: 3f96 5fbd 39ba 943c 3552 18be f1e5 60bc
000003a0: 5460 bdbe 2284 883e da2f 1abe 54d9 06bd
000003b0: 0262 01bd 0163 41be bebf 353f 6a6c a5bc
000003c0: bd85 8838 85e5 0ebe 9abc b93e 84b5 40bd
000003d0: ce0b cbbc a057 32bc 9a86 6bbe 2cca 61bd
000003e0: 898e 1bbe 7334 c7bc d60d b0be 7b18 043f
000003f0: af3f 1c3e 4003 cbbd 9e9d 4fbd 121b cdbd
-0.0026736567 -0.18817784 -0.26804757 0.41516995 -0.055381447 -0.007265555 -0.13593037 0.028683536
0.036258288 -0.035883777 -0.16068897 -0.040096506 0.033048227 -0.0736086 0.01363461 -0.08326636
-0.058297798 -0.0049421373 -0.09275499 -0.09769617 0.05038199 -0.22772524 -0.08501367 0.028252563
0.14191186 0.9933425 -0.05628984 0.9128425 0.011300746 -0.080159165 -0.18290827 -0.3256369
-0.056038722 -0.09986166 -0.33668277 0.1983752 0.06869821 -0.16081947 -0.08336086 -0.053643137
-0.06616842 -0.21967958 0.030653378 -0.066480935 -0.041870505 -0.65347236 -0.04326079 -0.06173523
0.15047792 0.058735985 -0.06736386 1.2047819 0.025316715 -0.08323624 -0.19403009 0.3219284
0.13659868 -0.033610843 -0.043009 -0.04308379 -0.089630395 -0.083802044 -0.01604399 0.017710373
1.2021297 -0.052419182 -0.020900415 -0.2155988 -0.012757291 -0.052814476 -0.08024 -0.056150038
-0.040468466 -0.099341616 -0.011979355 -0.062062703 0.10115879 -0.28618357 -0.25582224 -0.18319629
-0.057889313 -0.49874708 -0.02256818 0.100743875 -0.43454328 -0.37521794 -0.25323814 -0.088273294
-0.087021865 -0.038140167 0.007830823 -0.38476238 -0.20495425 -0.0043307366 -0.07263429 -0.006187342
0.0528452 0.34073082 -0.24270847 -0.027106758 -0.3143772 0.7692768 -0.0997972 0.049705096
-0.4498917 0.17764036 0.62879866 -0.48799288 -0.39373532 -0.080357805 0.118884 -0.080429435
0.16860895 -0.19760077 -0.17271237 -0.03068566 -0.21667778 -0.048262555 -0.023517659 -0.06632151
0.009944575 -0.035162725 -0.092783675 -0.12016809 -0.06129559 0.1549731 -0.04236002 -0.005725825
-0.016613994 -0.08254755 -0.0107597895 -0.33427453 -0.102772295 -0.09782905 -0.0060769375 -0.031013554
-0.26650876 0.61889684 -0.051407803 -0.0051539666 0.13625456 -0.019845763 -0.15471658 -0.014288665
0.648783 -0.013469631 -0.26112583 -0.023598023 -0.12910548 -0.020694919 -0.36100298 -0.10824919
-0.21067245 -0.30562326 -0.04055937 -0.35556337 -0.06720798 0.14813076 -0.4014997 -2.6405738e-05
-0.11192727 -0.050382372 0.09408986 -0.58460605 0.5032149 -0.033067483 -0.07550466 -0.09898887
-0.030556995 -0.11755647 -0.086481005 -0.4916935 -0.040951993 -0.1484587 0.16841464 0.030646624
0.5704852 -0.11689912 0.060352363 -0.26168093 -0.24781992 -0.14073226 0.0752666 -0.012096422
-0.011563609 -0.036539465 -0.059558216 -0.077113636 -0.053597875 -0.06972133 -0.046830844 -0.0021931697
-0.022585385 -0.017818367 0.019301625 -0.027252372 -0.048015755 -0.030192984 -0.11202789 -0.01148619
-0.038677234 -0.12245256 0.029463079 -0.11545148 -0.23298408 -0.19953874 -0.18996435 -0.03680262
-0.004220033 -0.14986192 -0.010716646 0.026216662 -0.062468026 -0.088639475 -0.2503122 0.034516677
-0.49813393 0.003807859 -0.09345613 0.20548637 -0.026919624 -0.5124842 -0.04279346 -0.01543862
-0.045041498 0.0024153986 -0.36550215 -0.31199148 -0.054586645 0.018155204 -0.1487511 -0.013726697
-0.36987555 0.2666331 -0.15057316 -0.032922104 -0.03158761 -0.18885423 0.709957 -0.020193297
6.509896e-05 -0.13954742 0.36276704 -0.047048107 -0.024785902 -0.010885149 -0.23000565 -0.055124447
-0.15191092 -0.024317002 -0.34385556 0.51599854 0.15258668 -0.09912729 -0.050687425 -0.10014929

fc3.weight f4 [4, 256]
00000000: f6de e7bb 8c52 85be d8a9 833f fe6e 613f
00000010: ff45 e1be 80c1 4b3d 0ebb 753e b1d4 09bf
00000020: 7258 113f 0e88 0d3b 99ea e03d 1fec babc
00000030: 2d43 173d ff46 18bd 4c0e 12bd 324d 4bbc
00000040: 1872 bebc e63c d93c 06e4 d3bc 85f5 3bbf
00000050: d706 3d3d 810f ae3d 20b0 2abc f5ca 47bd
00000060: d92a 313f 4c9b f03e ccbb 60bd c2d6 f13e
00000070: e004 2f3d 93e7 babc 36cf d2be 1d9b a1be
00000080: 0f05 5bbd 6faf 923b bd04 d03e 142e 5cbf
00000090: d262 05bf dd29 d8bd 95ae 303d eac8 16bd
000000a0: d0a6 2fbd bcfa 3dbf a8f0 77be 1a2c 31bd
000000b0: e79a 203d 79c1 563f c20d f43e 1b51 ffbe
000000c0: 9a6a a0bf db12 083f 40c9 173f 70b1 213f
000000d0: ae47 923c 74e5 79bd be81 883c 776d 1a3f
000000e0: e3c5 21bf 5694 b83c 7e75 eb3b 3fe2 db3b
000000f0: e585 d83d cebe 9fbe 2319 d73c 8e8d 093d
00000100: 2678 0d3f cb3d 183c 206e 38bd c04f 21bf
00000110: b43d 32bc 8d68 ccbe 401b 3bbd bd3c 11bd
00000120: 66b0 f23c cfbb f8bc e32d d33c e75b f7bd
00000130: 7850 a63f 07d6 293f 657b da3e 6230 07be
00000140: d0cc 5b3c f868 bf3e 968e 25bd 306d 173f
00000150: ccb0 2d3f 2507 ce3e 0316 cebe 780f da3c
00000160: 4a01 80bd f8b8 19be 2284 adbe e3b1 aa3e
00000170: e73d 503e 40e8 25bc 987f afbc 45ee 6cbd
00000180: fdf3 be3c 30f8 3b3e eda8 353e 7255 1dbf
00000190: dd7b d63e c643 3a3f 5be9 433c ba05 2dbc
000001a0: b4d2 f23b 41bc d13e aeb3 1b3f 1d8e 84be
000001b0: 630a 2d3f 6650 633d f933 07bf 5cb5 3dbe
000001c0: 1dac aebe b1b2 fa3e 7833 703d 8946 25bf
000001d0: 79f0 9ebd 2e35 21bd 26f8 a93b 784a 08bf
000001e0: 0dab 25bc 98d9 fd3b 1785 1ebc f601 ebbc
000001f0: 1363 44bd d08b 19bf efa0 c9bc 1f4d 40bd
00000200: f02c 32bd 536e c2bd 9c46 cf3d 17d4 06bf
00000210: a6c9 0bbf cf7a 03bd 79de 7ebd 0840 e6bc
00000220: 1109 923f 9ffe 173f c05f a33c 36bd 16bc
00000230: 5a3e bfbe c642 c43c 4095 2c3e 54b2 24bb
00000240: 23f6 043f f7da 09bc 47fe 6a3e f7dd 09bd
00000250: 4606 29bf a736 123d 2a94 c2bd 96cf 13be
00000260: 3f1d 533e be91 193f 3739 79be b86d ac3e
00000270: 5c06 463c 1aeb 0d3f 0998 cc3e c584 3d3c
00000280: 47f1 013f f234 2fbc 843b 17be ff2d 26be
00000290: c657 19bf 402f 1fbc df1c fb3b a967 db3c
000002a0: 98c1 8fb9 322c 9bbb d157 65bb 8da5 863f
000002b0: 12ed b83c 369f 27be 1e28 0c3f 9652 583c
000002c0: 1638 45bf abd4 c5be 0714 053d 47a8 7ebe
000002d0: 69f4 913e 7738 8a3c 8891 0fbf 5bf6 4e3d
000002e0: f8ef 633d 10a1 d03c 3612 58bd b8a3 bfbf
000002f0: 66a5 ea3b 3b6e 203b 6412 d3bc ab48 10bf
00000300: 5eda 113d fc80 463c 3bd4 933f c67d 5d3d
00000310: 0ebc ae3c 44f3 8abe c4b0 c7be 263f 1b3c
00000320: 7296 283d 8579 b4bd a3e6 bebe fda2 113f
00000330: 11a9 02bf 3445 f8be 819b 483f 8c37 aabe
00000340: cf5b 02bf fc95 a0be 6cb7 c5bb 6312 8f3c
00000350: 5e19 2dbd 067a 5cbb a712 09bd 78f7 d33c
00000360: 3062 e53e 004c e93c 5725 1c3d b53e 3abf
00000370: 9962 933b 6cd8 4cbe 50a0 06bc 80de 8b3c
00000380: 83be b9be 7364 43bf 7db5 65be 16fd 6abe
00000390: 393e 903c b8c4 7e3c 4933 6c3b 5c08 083f
000003a0: 77c9 9a3f e988 003f 2bc0 8bbf c949 343e
000003b0: 0f34 6dbc 1f88 0fbf b962 f63e 6f20 233d
000003c0: 4232 14bd 0f81 60be b2b8 6bbf 07a5 dabe
000003d0: 47f9 603d b356 bc3c 1e2d 41bf 6021 f9bc
000003e0: d3bb e63c da59 1b3d 7ad6 b5be 80a3 023f
000003f0: 4cc9 c2be 7846 cdbe 0840 80bb 2d6b a43e
-0.0070761396 -0.2603954 1.0286207 0.88059986 -0.43998715 0.049745083 0.23997137 -0.53840166
0.5677558 0.0021595987 0.10982246 -0.02281767 0.0369293 -0.037177082 -0.035658166 -0.0124085415
-0.023247764 0.026518296 -0.025865566 -0.7342151 0.0461491 0.08499051 -0.010417968 -0.04877754
0.69206005 0.46993482 -0.054866597 0.4723416 0.04272926 -0.022815501 -0.41173714 -0.31563655
-0.05347162 0.0044764797 0.40628615 -0.8600781 -0.5210391 -0.1055486 0.043135244 -0.0368127
-0.042883694 -0.74210715 -0.24212897 -0.04325495 0.039210226 0.83888966 0.47666746 -0.49866566
-1.2532532 0.5315377 0.5929146 0.63161373 0.017856445 -0.06100984 0.016663428 0.6032328
-0.63192576 0.02253167 0.007185637 0.0067103202 0.10572413 -0.3120026 0.026257103 0.033582263
0.55261457 0.009292076 -0.0450269 -0.63012314 -0.010878969 -0.39923516 -0.045680285 -0.035458315
0.029625129 -0.030362992 0.025778716 -0.12078076 1.2993307 0.66342205 0.42672268 -0.1320205
0.01341553 0.37384772 -0.040419184 0.5915098 0.67847896 0.40239826 -0.4025117 0.026618704
-0.06250246 -0.15011966 -0.33889872 0.33338842 0.20336114 -0.0101261735 -0.021423146 -0.05784442
0.023309702 0.18356395 0.17740221 -0.61458504 0.41891375 0.72759664 0.011957492 -0.010560447
0.0074103717 0.4096394 0.60821044 -0.25889674 0.67593974 0.055496596 -0.5281368 -0.18526214
-0.34115687 0.48964456 0.058642834 -0.64560753 -0.0776071 -0.039357357 0.0051870523 -0.5323863
-0.010111582 0.0077468865 -0.009675286 -0.028687458 -0.047946047 -0.5997896 -0.024612872 -0.04694855
-0.043499887 -0.09493699 0.101208895 -0.52667373 -0.54604566 -0.03209954 -0.062223885 -0.028106704
1.1409017 0.59372896 0.019943118 -0.009200385 -0.37352258 0.023957621 0.1685381 -0.0025130706
0.51938075 -0.008414022 0.22948562 -0.033658948 -0.660252 0.03569665 -0.09500916 -0.14434657
0.20616625 0.5998801 -0.24338232 0.3367746 0.012086477 0.5543686 0.39959744 0.011567299
0.50758785 -0.0106937755 -0.14768797 -0.16228484 -0.59899557 -0.009715855 0.007663354 0.026782827
-0.00027419324 -0.004735493 -0.003499497 1.0519272 0.022573981 -0.16369328 0.54748714 0.013203284
-0.77038705 -0.38638815 0.032489803 -0.2486888 0.28506783 0.016872628 -0.5608144 0.05052791
0.055648774 0.025467426 -0.052751742 -1.4971838 0.0071608303 0.0024479765 -0.025765605 -0.5636088
0.03560864 0.012115713 1.1549143 0.054075025 0.021329906 -0.27138722 -0.3900205 0.009475505
0.0411591 -0.088122405 -0.37285337 0.56889325 -0.51039225 -0.48490298 0.7836228 -0.33245504
-0.5092134 -0.3136443 -0.0060338285 0.017464822 -0.04226052 -0.0033642068 -0.033465054 0.025874838
0.44801474 0.028478622 0.038121548 -0.72751933 0.0044978377 -0.20004433 -0.008216932 0.01707387
-0.3627816 -0.7632515 -0.22432514 -0.22948107 0.017607795 0.015549831 0.003604131 0.53137755
1.2092732 0.5020891 -1.091802 0.17606272 -0.014477744 -0.5606708 0.48122194 0.039825853
-0.036180742 -0.21924232 -0.920787 -0.4270403 0.05492523 0.02299056 -0.7545947 -0.030411422
0.028165733 0.037927486 -0.35515195 0.5103073 -0.38044202 -0.40092826 -0.003913883 0.3211302

fc3.bias f4 [4]
00000000: 90a0 92bd eff2 9b3d 76e8 753e 2fa9 21be
-0.07159531 0.07614695 0.24014458 -0.15787195
