csv_and_models/vanilla_dqn/vanilla_lunar_1200.pth (torch, 279222 bytes, 6 tensors)

fc1.weight f4 [256, 8]
0	0x3edc5667	0.4303467
1	0xbfc5cd2f	-1.5453242
2	0xbeb1a101	-0.3469315
3	0xbf5e5dcc	-0.8686187
4	0xbf2da497	-0.6782927
5	0x3f2cd9c8	0.6751981
6	0xbf1d24b9	-0.6138416
7	0xbfbca0f1	-1.4736615
8	0xbfab7967	-1.3396424
9	0xc0016cb0	-2.0222588
10	0x3e7ca695	0.24672921
11	0x3d984475	0.07434932
12	0xbf366e05	-0.71261626
13	0x3eff3b85	0.49850097
14	0xbef03c05	-0.4692079
15	0x3dc6e7f0	0.09712207
16	0xbc3b7e4a	-0.011443684
17	0xbfce512f	-1.6118525
18	0xbf28cc0b	-0.65936345
19	0xbe7bcbea	-0.24589506
20	0xbe5a91ba	-0.21344653
21	0x3f230f0f	0.6369485
22	0xbe303444	-0.17207438
23	0x3f1686f0	0.5879965
24	0xbf23ead3	-0.6403019
25	0x40064b4b	2.0983455
26	0x3ee551f6	0.44789094
27	0x3e97cb57	0.29647323
28	0xbfc786aa	-1.5587971
29	0xbd52324e	-0.051317506
30	0xbdd34c00	-0.1031723
31	0xbddf3677	-0.1089906
32	0x3dde53f0	0.108558536
33	0xbc0adf50	-0.008476093
34	0xbce2bedf	-0.027678905
35	0x3cd363e9	0.025804477
36	0x405e6c04	3.4753428
37	0x3cc9a4ff	0.02461481
38	0xbe39e3f6	-0.18153366
39	0xbdc8b9e3	-0.0980108
40	0xbf08507b	-0.53247803
41	0xc01793f7	-2.368406
42	0xbd82f8d3	-0.06395116
43	0x3f614447	0.8799481
44	0xbe0eb649	-0.13936724
45	0xbc5591fe	-0.0130352955
46	0xbd8d5c86	-0.06902413
47	0x3d3198ce	0.043358617
48	0x4059b6f7	3.4017923
49	0xbe72124d	-0.23639794
50	0x3ea841f0	0.32862806
51	0x3df72ca7	0.12069064
52	0xbf7dfc42	-0.9921304
53	0x3dbaf66a	0.09129031
54	0x3ddb8eb6	0.10720579
55	0x3defcb91	0.11708749
56	0x401686cb	2.351977
57	0xc0171c81	-2.3611147
58	0x3e87d34c	0.26528394
59	0xbcf5bbd6	-0.029996794
60	0x3e98c1bb	0.29835305
61	0x3da76715	0.08173958
62	0xbe817339	-0.2528322
63	0x3c48fef1	0.012267814
64	0x40936731	4.6063466
65	0xbd76d0f1	-0.060257856
66	0x3e0c7ad8	0.13718736
67	0xbbc42071	-0.0059853126
68	0xbf533dee	-0.8251637
69	0x3e0ebc62	0.1393905
70	0xbd84e6ac	-0.0648931
71	0x3f1d591a	0.61464083
72	0xbd18b35d	-0.03728043
73	0xbff66d47	-1.9252099
74	0xbf0832f5	-0.53202754
75	0x3ea62a87	0.3245432
76	0x3fa574d2	1.2926276
77	0xbeee5947	-0.46552488
78	0x3f3402a3	0.70316523
79	0xbdefede3	-0.11715295
80	0xbe3e2e4f	-0.18572353
81	0xbe09a5b1	-0.13442113
82	0x3f764f60	0.96214867
83	0xbf712ad9	-0.94206005
84	0x3e1f8671	0.15578629
85	0xbeb6b456	-0.3568446
86	0xbde59382	-0.112097755
87	0xbebed05e	-0.37268347
88	0x3d4101a5	0.04712071
89	0xbebb7499	-0.36612394
90	0x3f0db3da	0.55352557
91	0xbf74b8e6	-0.9559463
92	0x3f1c99af	0.61172
93	0xbf1ae4ea	-0.60505545
94	0xbdd07313	-0.10178199
95	0x3c17d5df	0.009267299
96	0x3d1a1833	0.037620734
97	0x40270e6d	2.6102555
98	0xbc3d5bd9	-0.011557543
99	0xbf7c0663	-0.98447245
100	0x3f02f1b2	0.5115005
101	0xbf05f0a1	-0.52320296
102	0xbcdcaa05	-0.02693654
103	0x3e7b532c	0.24543446
104	0xbf8e3fb7	-1.1113194
105	0x3fb18784	1.3869481
106	0xbf9b4257	-1.212962
107	0x3e0b0b30	0.13578486
108	0x3eee4aec	0.46541536
109	0x3f1af9ce	0.6053742
110	0xbeb01914	-0.34394133
111	0x3e8f941c	0.28042686
112	0x400c653b	2.1936786
113	0x3f0ec93c	0.5577581
114	0xbf8bcf20	-1.0922585
115	0x3f4f7886	0.8104328
116	0xbe853d51	-0.26023343
117	0xbe04c88d	-0.12967129
118	0xbe6988bf	-0.2280607
119	0xbf02c670	-0.5108404
120	0xbd8cae69	-0.068692036
121	0xc00805d4	-2.1253557
122	0xbf0803e3	-0.5313093
123	0x3fa01122	1.2505229
124	0xbff491b7	-1.9106969
125	0xbe34c630	-0.17653728
126	0x3e830e8d	0.2559704
127	0x3d50fde7	0.05102339
128	0x3eebf43d	0.46084777
129	0xbfa4a80b	-1.2863783
130	0xbeeddfec	-0.464599
131	0xbdde1066	-0.108429715
132	0xbfa938e6	-1.3220489
133	0x3f8e8aca	1.1136105
134	0xbee5954c	-0.44840467
135	0xbf7cb27d	-0.9870985
136	0xbe23788d	-0.15963955
137	0x3fb8dbc8	1.4442072
138	0xbf30ddbf	-0.6908836
139	0x3ee73675	0.45158735
140	0x3fb3e605	1.4054571
141	0x3cfb15ec	0.030650102
142	0xbef19b96	-0.47189015
143	0xbe0c735b	-0.1371588
144	0xbe4de7a2	-0.20107892
145	0x3f0bb497	0.54572433
146	0xbf09097e	-0.5353011
147	0x3db66914	0.08906761
148	0x3ff002f3	1.87509
149	0x3eb720fc	0.35767353
150	0xbf9fe911	-1.2493001
151	0xbef8bf9b	-0.48583683
152	0xbed96d38	-0.4246614
153	0xc0a59f36	-5.175685
154	0x3e393dba	0.18089953
155	0xbfac0af9	-1.3440849
156	0x3e014c22	0.12626699
157	0x3cfb78fa	0.030697335
158	0x3e2671f8	0.16254413
159	0xbd3a7094	-0.04551752
160	0xbecae92a	-0.39631015
161	0xbbcd29ab	-0.0062610707
162	0x40099937	2.1499765
163	0xbe91d546	-0.28483027
164	0x3e813dbb	0.2524241
165	0xbe070819	-0.13186683
166	0xbe47ad37	-0.1949967
167	0xbfb6a617	-1.4269437
168	0xbe068022	-0.13134816
169	0xbf12c550	-0.57332325
170	0x3f95b56a	1.1695988
171	0x3e533864	0.2062698
172	0xbeeefc7f	-0.46677014
173	0x3f765d83	0.9623644
174	0xbf48f940	-0.78505325
175	0xbe791ae0	-0.24326658
176	0x3f3f9a41	0.7484475
177	0x3e4f051c	0.20216793
178	0xbf10aa66	-0.5651001
179	0x3e7a2e1c	0.24431652
180	0xbedf3a2e	-0.43599075
181	0xbf8a1d28	-1.0790148
182	0xbd3c1480	-0.045917988
183	0x3e46b414	0.19404632
184	0x3f8c98d1	1.0984136
185	0xbf94da11	-1.1629049
186	0xbf86262d	-1.04804
187	0xbf82139f	-1.0162238
188	0x3d90fb05	0.07079128
189	0x3da58dc9	0.08083684
190	0xbe169fee	-0.14709446
191	0xbe7ee3a5	-0.24891527
192	0xbf815d17	-1.0106534
193	0xc01b1524	-2.4231653
194	0x3e444d16	0.19170031
195	0xbde8fd2a	-0.11376412
196	0xbf6a93fa	-0.91632044
197	0xbf0b6ae4	-0.5445998
198	0xbecae687	-0.39629003
199	0xbec4cd99	-0.3843811
200	0xbeb5d340	-0.35512733
201	0xbfd97284	-1.6988072
202	0x3f440cec	0.7658222
203	0xbfb99b44	-1.4500508
204	0x3e80721b	0.25087056
205	0xbe1c9dec	-0.15294617
206	0xbd9e6c69	-0.07735521
207	0x3ceb1009	0.02869417
208	0x3c922fa2	0.017844979
209	0x3fabffd7	1.3437451
210	0xbf9eed67	-1.24162
211	0x3cb64972	0.022251818
212	0xbf2fdd4b	-0.6869704
213	0xbcde5b55	-0.02714316
214	0xbef2dda3	-0.4743472
215	0x3e7d890d	0.24759312
216	0x3e41ecaa	0.18937936
217	0xc03557f7	-2.833494
218	0x3eddfcfe	0.4335708
219	0x3eee0935	0.464914
220	0x3f83be03	1.0292362
221	0xbe87651f	-0.26444337
222	0x3e3521f5	0.17688735
223	0x3d66ced0	0.056349576
224	0x3ee16323	0.44020948
225	0xbfed6bff	-1.8548583
226	0xbf12a0e5	-0.57276756
227	0x3ec41b55	0.38302103
228	0x3e8eb47e	0.2787208
229	0xbe3c61c3	-0.18396668
230	0xbf37a576	-0.7173685
231	0xbeb0c52b	-0.34525427
232	0x3f51c8b3	0.8194687
233	0xc0e36f57	-7.1073413
234	0xbd8bf9a2	-0.06834723
235	0x3a8ebac8	0.0010889405
236	0x3f738095	0.95118076
237	0xbdf3073f	-0.118666165
238	0x3f094c08	0.5363164
239	0xbe02d0ac	-0.12774915
240	0x3e9a5b44	0.30147755
241	0xbfc54e4d	-1.541452
242	0xbf52606f	-0.82178396
243	0x3f50215d	0.8130091
244	0xbe17974e	-0.14803812
245	0xbeb630d3	-0.35584125
246	0xbedcc95e	-0.4312238
247	0xbe590f2b	-0.21197192
248	0xbe8df967	-0.2772934
249	0xc0213800	-2.519043
250	0x3feb7604	1.839539
251	0xbe67c1c6	-0.22632512
252	0xbf00d710	-0.5032816
253	0x3eb5c3dd	0.35500994
254	0x3e5761ff	0.21033476
255	0x3d743bb6	0.059627257

fc1.bias f4 [256]
0	0xbf706223	-0.93899745
1	0xbf3590fa	-0.7092434
2	0xbeecb787	-0.4623377
3	0xbd24403b	-0.040100317
4	0x3caa9e54	0.02082745
5	0x3f6d63aa	0.927302
6	0x3e45583a	0.19271937
7	0xbe71ab2d	-0.23600455
8	0x3d6fdf24	0.058562413
9	0xbefcd47b	-0.4938086
10	0x3e748ea3	0.23882537
11	0x3f1ab118	0.60426474
12	0xbe84390d	-0.25824776
13	0xbf68711a	-0.9079758
14	0x3efe135e	0.4962415
15	0xbc1fa800	-0.009744644
16	0xbefad7a8	-0.48992658
17	0x3ee8b2eb	0.45449004
18	0xbebf9052	-0.37414795
19	0xbe7de219	-0.2479328
20	0xbdece429	-0.115669556
21	0xbf01eecb	-0.50754994
22	0xbe7f28ac	-0.24917859
23	0xbe9eb5b3	-0.30998
24	0xbf3adb0e	-0.729905
25	0xbe4f30eb	-0.20233504
26	0x3f5dd684	0.8665545
27	0x3ea0e9c3	0.31428346
28	0xbf3bdea8	-0.7338662
29	0xbed132bc	-0.4085902
30	0xbf90b619	-1.1305572
31	0xbecf1f73	-0.4045368
32	0x3f86b001	1.0522462
33	0x3d833691	0.06406892
34	0xbd5c3988	-0.053765804
35	0xbbf0a2df	-0.0073436345
36	0xbb1c9ae4	-0.0023896033
37	0xbf90a4b9	-1.1300269
38	0xbe87fe47	-0.26561186
39	0x3e8a908b	0.27063403
40	0xbebdca47	-0.37068388
41	0xbe7a5f63	-0.2445045
42	0xbe2d0897	-0.16897808
43	0xbf47473c	-0.7784307
44	0x3f66e222	0.901888
45	0x3f0062dc	0.5015085
46	0xbf00d377	-0.5032267
47	0xbf69d4b2	-0.9134017
48	0xbedf4178	-0.43604636
49	0x3e8e550d	0.27799264
50	0xbdd76e73	-0.105191134
51	0x3ebcca37	0.36873028
52	0xbe4cce7e	-0.20000646
53	0x3ea9eef4	0.3319012
54	0x3e20e682	0.15712932
55	0xbe1eeeaa	-0.1552073
56	0x3f188175	0.59572536
57	0x3edd120a	0.43177825
58	0xbeda0583	-0.4258233
59	0xbf2b4642	-0.6690408
60	0x3f2d3227	0.6765465
61	0x3e9143a5	0.2837192
62	0x3e9b2bf3	0.30306968
63	0x3d87886b	0.066178165
64	0x3ee03702	0.43791968
65	0xbeaf2b7b	-0.3421286
66	0xbf06ad4a	-0.5260817
67	0x3e323301	0.17402269
68	0xbec837e6	-0.39105147
69	0xbea7177c	-0.32635105
70	0xbea2a957	-0.3176982
71	0x3f1754ae	0.59113586
72	0xbf216720	-0.6304798
73	0x3f706ca6	0.93915784
74	0xbbfe6fd8	-0.0077647977
75	0x3eebccfe	0.46054834
76	0xbac847c9	-0.0015280183
77	0xbef6c96e	-0.48200554
78	0x3db5d42a	0.08878358
79	0x3ef08f55	0.46984354
80	0x3d97b71e	0.07407974
81	0x3ec519c5	0.38496223
82	0xbdd107d3	-0.102065705
83	0xbe7f9943	-0.24960808
84	0x3f0a21fd	0.5395811
85	0x3ebc8d7e	0.368267
86	0x3e904557	0.28177902
87	0x3ea27cd0	0.3173585
88	0x3e01f8bd	0.12692542
89	0x3f83ae88	1.0287638
90	0x3f1e0507	0.6172642
91	0xbe58abbe	-0.21159264
92	0xbf9e679c	-1.2375369
93	0xbed74933	-0.42048034
94	0x3a3aa7e1	0.0007120353
95	0x3d31646a	0.043308653
96	0x3e090b4a	0.13383213
97	0xbf203cb0	-0.625926
98	0xbf6d9bb0	-0.92815685
99	0xbf923d9c	-1.1425052
100	0x3f9577e6	1.1677215
101	0x3c8dc626	0.017306399
102	0xbea8c805	-0.32965103
103	0xbe055bd4	-0.13023311
104	0xbec65d83	-0.3874322
105	0xbeb6924d	-0.35658494
106	0xbf80fec2	-1.0077746
107	0x3f1dd4a3	0.6165258
108	0xbf4de9c4	-0.80434823
109	0xbc83d404	-0.016092308
110	0xbf0f0223	-0.55862635
111	0xbf022035	-0.50830394
112	0x3f21048c	0.62897563
113	0xbe16b320	-0.14716768
114	0xbea40838	-0.3203752
115	0x3f50fc70	0.8163519
116	0xbead8cb0	-0.338964
117	0x3c00cff5	0.007862081
118	0x3f49c538	0.78816557
119	0xbf5bc8c4	-0.8585322
120	0xbf7a8aad	-0.9786785
121	0x3f1dfc7e	0.617134
122	0x3f16afca	0.5886198
123	0xbf3f93d5	-0.7483495
124	0xbd4ce4dc	-0.050022945
125	0xbf5cc5a8	-0.862391
126	0xbece37b8	-0.40276885
127	0xbd9476dc	-0.07249233
128	0x3e50eff3	0.20404033
129	0x3e914878	0.28375602
130	0x3e63798a	0.22214332
131	0xbf7d95e4	-0.9905684
132	0x3e9bcee3	0.3043128
133	0xbddd91cd	-0.10818825
134	0x3eea8169	0.45801857
135	0x3ed40631	0.41410974
136	0xbdb77ce1	-0.08959366
137	0x3e533bfe	0.20628354
138	0xbf42fd43	-0.76167697
139	0x3eb90916	0.36139745
140	0x3f8cd7ab	1.1003317
141	0x3d846ee0	0.0646646
142	0x3e27bc6e	0.16380474
143	0x3df86f0f	0.12130558
144	0xbf47d8c9	-0.7806516
145	0xbf834636	-1.0255802
146	0xbf0dc824	-0.55383515
147	0x3e2a96d8	0.16659105
148	0x3f85f3d4	1.0465035
149	0x3f016ceb	0.5055682
150	0x3ebd47b9	0.36968783
151	0x3ee9b462	0.45645434
152	0xbe30ce1c	-0.17266124
153	0xbf31d6a8	-0.69468164
154	0x3f1c0750	0.6094866
155	0x3f2ee4c4	0.6831782
156	0xbf63aafd	-0.8893278
157	0xbe860741	-0.2617741
158	0xbc439193	-0.011936563
159	0x3e7156a9	0.23568214
160	0x3e834baf	0.2564368
161	0x3e11dfe0	0.14245558
162	0xbf1195bd	-0.5686911
163	0x3e625f22	0.22106603
164	0xbc8f363f	-0.017481921
165	0x3eaa7add	0.33296862
166	0xbe977840	-0.2958393
167	0x3e392fa8	0.18084586
168	0x3ef4efc9	0.47839192
169	0xbe3e7a07	-0.18601237
170	0xbede4599	-0.43412474
171	0x3f1089c9	0.56460243
172	0xbcf8509f	-0.03031188
173	0xbe4af262	-0.19819024
174	0xbed1605a	-0.40893823
175	0x3f6749a8	0.90346766
176	0x3ef9a722	0.48760325
177	0xbed889e7	-0.4229271
178	0x3fd662c3	1.674889
179	0xbf8ee17f	-1.1162566
180	0xbef216e6	-0.47283095
181	0x3ec0dea5	0.37669864
182	0xbee7fb7d	-0.45309058
183	0x3e31bd02	0.17357257
184	0xbe53b4e6	-0.20674476
185	0x3e9ac932	0.30231625
186	0xbf314e6f	-0.69260305
187	0xbe48dfd6	-0.19616637
188	0xbf77bf55	-0.96776325
189	0xbebde255	-0.3708674
190	0x3f81535d	1.0103565
191	0xbef81acb	-0.4845794
192	0x3ed67406	0.41885394
193	0xbec6d5aa	-0.38834888
194	0x3f800980	1.0002899
195	0xbe84ee3c	-0.25963008
196	0x3eaf0c24	0.3418895
197	0x3db544b6	0.08850996
198	0xbbbd7a7a	-0.0057824226
199	0xbf640411	-0.89068705
200	0xbf7dd4e6	-0.9915298
201	0xbf1e77d1	-0.61901575
202	0xbefa33e2	-0.48867708
203	0xbe4c8124	-0.19971138
204	0x3f17c26a	0.5928103
205	0x3f51877e	0.8184737
206	0x3ef61f0b	0.4807056
207	0xbc474dec	-0.012164574
208	0x3ee946d8	0.45561862
209	0xbe2b5969	-0.16733326
210	0x3e056d97	0.13030086
211	0xbef405bb	-0.47660622
212	0xbe0c525d	-0.13703294
213	0x3b852859	0.0040636477
214	0x3f03f236	0.5154146
215	0xbf5773b5	-0.8416093
216	0xbef66aa4	-0.48128235
217	0xbf055a49	-0.5209089
218	0x3e32294d	0.17398567
219	0x3e8549f4	0.26032984
220	0x3f665119	0.89967495
221	0x3ef6949c	0.48160255
222	0xbed551a4	-0.4166385
223	0xbefd8391	-0.4951444
224	0xbf023622	-0.5086385
225	0x3d86f5f1	0.06589878
226	0xbf33bf0f	-0.7021341
227	0x3e2b362e	0.16719887
228	0xbe8eff02	-0.2792893
229	0xbd04527a	-0.03230522
230	0x3cf07f4a	0.029357571
231	0x3e3e2424	0.18568474
232	0xbf6e6f9d	-0.9313906
233	0xbefd11bd	-0.49427596
234	0xbf853a3a	-1.0408394
235	0xbf3c07b5	-0.7344926
236	0xbf3cd812	-0.737672
237	0xbf380d73	-0.7189552
238	0xbf03d484	-0.5149615
239	0x3a9be30e	0.0011893229
240	0x3f4177b8	0.755733
241	0x3f7e1626	0.99252546
242	0xbc53144f	-0.01288326
243	0xbefa377c	-0.48870456
244	0x3e8ab2b3	0.27089462
245	0xbf0bb9b6	-0.5458025
246	0xbebf5f51	-0.37377408
247	0xbf016c2e	-0.50555694
248	0xbe9ffa98	-0.31245875
249	0x3ec8a404	0.39187634
250	0x3affce19	0.0019516378
251	0x3c7b2908	0.015329607
252	0xbea0226d	-0.31276265
253	0xbe779fdd	-0.24182077
254	0xbec8d4f9	-0.39224985
255	0x3eac093e	0.336008

fc2.weight f4 [256, 256]
0	0xbd9bc8c9	-0.07606656
1	0x3dc70af2	0.097188845
2	0xbce3f276	-0.027825575
3	0xbd769748	-0.060202867
4	0xbd9becc2	-0.07613517
5	0x3ce69f4a	0.028152127
6	0xbd81caa0	-0.06337476
7	0xbd459670	-0.04823917
8	0xbd462ec6	-0.04838445
9	0xbc92dabe	-0.01792657
10	0xbd8f3396	-0.06992261
11	0xbdd8cb60	-0.10585666
12	0xbdde632b	-0.108587585
13	0xbddeea55	-0.10884539
14	0xbc9b3dea	-0.018950421
15	0xbdfb3849	-0.12266595
16	0xbd215852	-0.03939087
17	0xbd21d8e2	-0.039513476
18	0xbe039ba1	-0.12852336
19	0x3aea812a	0.0017891277
20	0xbd2a88d4	-0.041634396
21	0xbcb17f08	-0.021667019
22	0xbc9672bc	-0.018365256
23	0xbdecbf15	-0.115598835
24	0xbc8848c3	-0.016636258
25	0x3db0a948	0.08626038
26	0xbdafbb71	-0.085806735
27	0xbd2d01b0	-0.042237937
28	0x3d796538	0.060887545
29	0x3b36407c	0.0027809432
30	0xbe1723af	-0.14759706
31	0x3cc123e1	0.023576679
32	0xbdb9c2df	-0.09070372
33	0xbc348f66	-0.011020517
34	0xbd61943c	-0.055073008
35	0xbc667733	-0.014066505
36	0x3d1bb71c	0.038016424
37	0xbd95dd12	-0.073175564
38	0x3d076b21	0.03306115
39	0x3d1ca749	0.038245473
40	0xbd70b57d	-0.05876683
41	0xbc2a66f5	-0.010400523
42	0xbc350b21	-0.011050017
43	0xbce29763	-0.027660077
44	0xbd14a20e	-0.03628736
45	0xbd65b99f	-0.056085225
46	0xbd5049e3	-0.050851714
47	0x3ca2660c	0.01982405
48	0xbdb06b75	-0.08614246
49	0xbd9ea1aa	-0.07745679
50	0xbd30f58f	-0.043202933
51	0x3becf6a5	0.0072315508
52	0xbd0ef934	-0.034905627
53	0xbd795ab7	-0.060877528
54	0xbd966787	-0.07343965
55	0xbd946bd2	-0.072471276
56	0x3ca2f93c	0.019894235
57	0xbdc11652	-0.094280854
58	0x3b9b3ff9	0.0047378507
59	0xbd540863	-0.05176581
60	0xbd3bc013	-0.045837473
61	0xbd5298ab	-0.051415127
62	0x3b37a050	0.0028019138
63	0x3d291621	0.04128087
64	0xbda12af3	-0.0786952
65	0xbd304856	-0.043037735
66	0x3bd37e60	0.006454274
67	0x3b7ddcb4	0.0038736286
68	0xbd4dfb48	-0.05028847
69	0xbd57e4cc	-0.052708432
70	0xbd16cd12	-0.036816664
71	0xbd083140	-0.033250093
72	0x3c728748	0.014802761
73	0xbcc22915	-0.02370123
74	0xbd37fae2	-0.044916995
75	0xbcd30a2a	-0.025761683
76	0xbda5fd57	-0.08104961
77	0xbe096a52	-0.13419464
78	0xbe02c740	-0.1277132
79	0xbdc12c08	-0.094322264
80	0xbd81fc68	-0.06346971
81	0xbdb785d6	-0.08961074
82	0x3d039fb9	0.032134745
83	0xbbb5c020	-0.0055465847
84	0xbd954ac5	-0.07289652
85	0xbde78280	-0.11304188
86	0xbc6cea6d	-0.014460188
87	0xbe0598e1	-0.130466
88	0x3b2d203b	0.0026416916
89	0xbd95e1d8	-0.07318467
90	0xbdbf5d38	-0.09343952
91	0xbde7badd	-0.11314938
92	0x3d11e23c	0.035616145
93	0xbd3cfac4	-0.046137586
94	0xbce8a549	-0.028399127
95	0xbcb7e440	-0.022447705
96	0xbe32cf14	-0.17461807
97	0x3cd675bb	0.026179185
98	0xbd7a5b57	-0.061122265
99	0xbd3dbb40	-0.046321154
100	0x3b177270	0.0023108982
101	0xbd4b3822	-0.04961408
102	0xbd9af4b8	-0.07566208
103	0x3e4ae30e	0.19813177
104	0xbd407d5a	-0.046994545
105	0x3a0aba2b	0.00052920234
106	0x3b55dff3	0.0032634705
107	0xbd502c45	-0.05082347
108	0x3d1cc0f1	0.03826994
109	0xbdd054c0	-0.10172415
110	0xbca31437	-0.0199071
111	0xbc3992e4	-0.011326525
112	0x3c8f2d76	0.017477732
113	0x3d28add3	0.041181397
114	0x3d5a20de	0.053254
115	0xbd5564da	-0.052098133
116	0xbc124b0f	-0.008929028
117	0xbd68b5d2	-0.056814022
118	0xbde6ba4b	-0.11266001
119	0xbd44a8f4	-0.04801269
120	0x3b0d891f	0.0021596623
121	0xbbff6313	-0.007793793
122	0xbd3984ca	-0.045292653
123	0xbdaa6173	-0.08319368
124	0x3ba80a86	0.0051282076
125	0xbb279480	-0.002557069
126	0xbd203110	-0.03910929
127	0xbd58c028	-0.05291763
128	0xbdaebe29	-0.08532364
129	0xbd87aeef	-0.06625163
130	0xbd5a8ccc	-0.05335693
131	0xbd8e3ea8	-0.069455445
132	0xbd8be356	-0.0683047
133	0xbce73edf	-0.028228221
134	0xbc65da6a	-0.014029125
135	0xbdb2e4e9	-0.087350674
136	0xbdd03a90	-0.1016742
137	0xbc0b12bf	-0.008488356
138	0xbd0816c9	-0.033224855
139	0xbd452eaf	-0.048140224
140	0xbc684b6e	-0.01417814
141	0xbd43358e	-0.047658496
142	0xbdb4ef7b	-0.0883474
143	0xbd525f2c	-0.051360294
144	0x3d32c11d	0.0436412
145	0x3c86d958	0.01646106
146	0xbd8c03f9	-0.06836695
147	0xbc89ff15	-0.016845265
148	0xbd4b0249	-0.049562726
149	0xbc1a794d	-0.009428334
150	0xbd9e9a4e	-0.07744275
151	0x3c490bb0	0.012270853
152	0xbda25fd5	-0.07928435
153	0x3d255ce3	0.040371787
154	0xbd3ee036	-0.046600543
155	0xbbb00dbe	-0.005372732
156	0x3d06308c	0.03276114
157	0xbc440a9b	-0.011965419
158	0x3d2ba6ce	0.041907124
159	0x3d497419	0.049182985
160	0xbe065ce2	-0.1312137
161	0xbd0f5a6c	-0.034998342
162	0x3d86124d	0.06546459
163	0xbc64eef5	-0.013972987
164	0xbc039f39	-0.008033567
165	0x3cd2bab9	0.025723802
166	0xbdcac57a	-0.09900947
167	0xbdcba9a1	-0.099444635
168	0xbd23e5d4	-0.040014103
169	0xbdc964eb	-0.09833702
170	0x3b05a62b	0.0020393233
171	0xbe2deda5	-0.16985185
172	0x3d875e28	0.06609756
173	0x3dec121f	0.11526894
174	0xbb423df8	-0.0029638987
175	0xbd3bab90	-0.04581791
176	0xbba01d8c	-0.0048863348
177	0xbda51875	-0.080613054
178	0xbd1e32d2	-0.038622685
179	0x3cb1f902	0.021725181
180	0xbd3acc29	-0.04560486
181	0xbc74f696	-0.014951369
182	0xbd41be87	-0.04730084
183	0xbdec5e1a	-0.11541386
184	0xbdc10512	-0.09424795
185	0xbd6e7d00	-0.058224678
186	0x3d3402b3	0.043947887
187	0xbd274b27	-0.040843155
188	0xbd79887e	-0.060921185
189	0x3c80fc3c	0.015745275
190	0xbdb28225	-0.08716229
191	0xbc5a8290	-0.013336793
192	0xbd1c2e7b	-0.038130265
193	0xbc23e1b5	-0.010002543
194	0x396a3fe7	0.00022339784
195	0xbc9912a9	-0.018685656
196	0xbd1c6bed	-0.038188864
197	0xbc9868ca	-0.018604655
198	0xbdb6564a	-0.08903177
199	0xbd96cf4f	-0.0736376
200	0xbe3a693f	-0.1820421
201	0x3cc82876	0.024433356
202	0xbd30a558	-0.043126434
203	0xbda58afa	-0.08083148
204	0xbc341992	-0.010992425
205	0xbc667403	-0.014065745
206	0xbd5d9fb5	-0.054107387
207	0x3c30d576	0.010793081
208	0xbdb85d3e	-0.090021595
209	0xbd35e5a7	-0.044408467
210	0xbda9a840	-0.08284044
211	0x3c42e42c	0.011895221
212	0xbd439a62	-0.047754653
213	0x3cff1b2f	0.031140892
214	0xbcc11eb3	-0.023574209
215	0xbd03e7a5	-0.032203335
216	0xbd348633	-0.044073295
217	0xbdd9b4e1	-0.10630203
218	0xbd7b2005	-0.061309833
219	0x3d2503eb	0.04028694
220	0xbbba3479	-0.0056825248
221	0xbd2de33d	-0.04245304
222	0x3dc51828	0.09623748
223	0xbdb8b67c	-0.09019181
224	0xbd7eb3be	-0.062183134
225	0xbd83ffab	-0.06445249
226	0xbcf7c260	-0.030244052
227	0xbda267dd	-0.079299666
228	0xbd235093	-0.039871763
229	0xbd8af76e	-0.06785475
230	0xbc09585d	-0.008382884
231	0xbc9b1fff	-0.018936155
232	0xbb425f67	-0.0029658915
233	0xbd4539d6	-0.04815086
234	0xbc041178	-0.0080608055
235	0x3d9ec40e	0.07752238
236	0xbdb10378	-0.0864324
237	0xbdd5a25d	-0.10431359
238	0xbdc508e8	-0.09620839
239	0x3cb93b9b	0.02261143
240	0xbdb3f91d	-0.08787749
241	0xbd658fcb	-0.056045335
242	0xbd0ca8ee	-0.03434079
243	0x3c046e63	0.008082959
244	0xbd6a661c	-0.057226285
245	0xbc1bdf32	-0.009513663
246	0x3d6619da	0.056176998
247	0x3d0a26f7	0.033728566
248	0xbd4e7394	-0.050403193
249	0xbdeca87f	-0.115555756
250	0x3cd73fcd	0.02627554
251	0xbd040edb	-0.03224073
252	0xbcc62398	-0.024186894
253	0x3d4bbfac	0.04974334
254	0x3ceb3067	0.028709603
255	0xbd930d98	-0.07180327

fc2.bias f4 [256]
0	0xbb2f3884	-0.0026736567
1	0xbe40b1b1	-0.18817784
2	0xbe58c9ca	-0.21170726
3	0x3f40a172	0.75246346
4	0xbdd74b3d	-0.105123974
5	0xbbee13e5	-0.007265555
6	0xbe0b3155	-0.13593037
7	0xbde17351	-0.11008323
8	0x3e38932b	0.1802489
9	0xbd12fade	-0.035883777
10	0xbe248ba6	-0.16068897
11	0xbd243c3c	-0.040096506
12	0x3d075d94	0.033048227
13	0xbd96c01b	-0.0736086
14	0x3c5f63b3	0.01363461
15	0xbdaa878e	-0.08326636
16	0xbd6ec9ac	-0.058297798
17	0xbba1f1a7	-0.0049421373
18	0xbdbdf654	-0.09275499
19	0xbe97e09b	-0.29663548
20	0x3d4e5d58	0.05038199
21	0xbe6930ce	-0.22772524
22	0xbdae1ba6	-0.08501367
23	0x3ce771eb	0.028252563
24	0x3dbfc4b4	0.0936369
25	0x3f880e96	1.0629451
26	0xbd66902d	-0.05628984
27	0x3f813928	1.0095568
28	0x3c3926c4	0.011300746
29	0xbda42a7d	-0.080159165
30	0xbe27dac5	-0.16392048
31	0xbeb423a1	-0.35183433
32	0xbd6588dc	-0.056038722
33	0xbdcc8445	-0.09986166
34	0xbefc4191	-0.49268773
35	0x3e74102c	0.23834294
36	0x3d5516bf	0.052023645
37	0xbe25d505	-0.16194542
38	0xbdaab919	-0.08336086
39	0xbd5bb8e8	-0.053643137
40	0xbd87834f	-0.06616842
41	0xbe9e9f50	-0.3098092
42	0xbdda6c4c	-0.10665187
43	0xbd882728	-0.066480935
44	0xbd2b8068	-0.041870505
45	0xbf35c718	-0.7100692
46	0x3cb75b04	0.022382267
47	0xbe1ef515	-0.15523179
48	0x3db7fc8f	0.089837186
49	0x3e11d2dc	0.14240593
50	0xbdace9c2	-0.08443023
51	0x3fab68ac	1.3391318
52	0x3ccf6500	0.025316715
53	0xbdaa77c3	-0.08323624
54	0xbe46afd3	-0.19403009
55	0x3f0cb579	0.54964405
56	0x3bccde41	0.0062520807
57	0xbd09ab86	-0.033610843
58	0xbd302a35	-0.043009
59	0xbd3078a1	-0.04308379
60	0xbdb79024	-0.089630395
61	0x3d05e428	0.03268829
62	0xbc836eb0	-0.01604399
63	0x3c911558	0.017710373
64	0x3fbe04cd	1.4845215
65	0xbd56b57f	-0.052419182
66	0xbcab3759	-0.020900415
67	0xbe34376b	-0.17599265
68	0xbc5103f5	-0.012757291
69	0xbb815fb7	-0.0039481777
70	0xbda454de	-0.08024
71	0xbd65fd95	-0.056150038
72	0xbd25c243	-0.040468466
73	0xbdcb739e	-0.099341616
74	0xbc44450e	-0.011979355
75	0xbd7e3576	-0.062062703
76	0xbe3bdd19	-0.18346061
77	0xbebb2077	-0.36548206
78	0xbe878943	-0.2647191
79	0xbe3b97cf	-0.18319629
80	0xbd6d1d58	-0.057889313
81	0xbf0eb5e1	-0.55746275
82	0xbcb8e0e7	-0.02256818
83	0x3e86762f	0.26262042
84	0xbf1750b2	-0.59107506
85	0xbe7b8dab	-0.24565761
86	0xbe9dac03	-0.30795297
87	0xbdb4c8a1	-0.088273294
88	0xbdb23885	-0.087021865
89	0xbd1c38dd	-0.038140167
90	0x3f042fa8	0.5163522
91	0xbec4ff93	-0.38476238
92	0xbe51df87	-0.20495425
93	0xbb8de8da	-0.0043307366
94	0xbd94c149	-0.07263429
95	0xbbcabf30	-0.006187342
96	0x3d587435	0.0528452
97	0x3d81e777	0.063429765
98	0xbe71589a	-0.23568955
99	0xbcde0efe	-0.027106758
100	0xbea0f60c	-0.3143772
101	0x3f553713	0.8328716
102	0xbdcc6279	-0.0997972
103	0x3d4b9792	0.049705096
104	0xbec9de3d	-0.39427367
105	0x3e0d5bb6	0.13804516
106	0x3f5e952a	0.86946356
107	0xbef9da34	-0.48799288
108	0xbf18547c	-0.5950391
109	0xbda492a2	-0.080357805
110	0x3cc15b46	0.023603093
111	0xbda4b830	-0.080429435
112	0x3d92c8fa	0.071672395
113	0xbe4a57db	-0.19760077
114	0xbe30db83	-0.17271237
115	0xbcfb607e	-0.03068566
116	0xbe5de0c8	-0.21667778
117	0xbd45aef5	-0.048262555
118	0xbcc0a81b	-0.023517659
119	0xbda824b0	-0.082101226
120	0x3c22ee92	0.009944575
121	0xbd1006ca	-0.035162725
122	0xbdbe055e	-0.092783675
123	0xbdf61ab0	-0.12016809
124	0xbd7b1116	-0.06129559
125	0x3ce44797	0.027866168
126	0xbd2d81b3	-0.04236002
127	0xbbbb9fb4	-0.005725825
128	0xbc881a12	-0.016613994
129	0xbda90eb1	-0.08254755
130	0xbc3049d4	-0.0107597895
131	0xbeab2608	-0.33427453
132	0xbf15e5cd	-0.58553773
133	0xbdc85a99	-0.09782905
134	0xbbc7210c	-0.0060769375
135	0xbcfe1023	-0.031013554
136	0xbf3bdcd7	-0.7338385
137	0x3f4d97cf	0.80309767
138	0xbd5290fd	-0.051407803
139	0xbba8e29b	-0.0051539666
140	0x3e59f829	0.21286072
141	0xbca29395	-0.019845763
142	0xbe1e6e06	-0.15471658
143	0xbc6a1b01	-0.014288665
144	0x3f67943f	0.9046058
145	0xbc5cafba	-0.013469631
146	0xbe85b249	-0.26112583
147	0xbcc150a4	-0.023598023
148	0xbe454238	-0.19263542
149	0xbca98864	-0.020694919
150	0xbeb8d562	-0.36100298
151	0xbdddb1c0	-0.10824919
152	0xbe57ba85	-0.21067245
153	0xbddaec90	-0.10689652
154	0xbcb899c3	-0.022534257
155	0xbee65dd4	-0.4499346
156	0xbd89a456	-0.06720798
157	0xbe426cd9	-0.18986835
158	0xbecd915e	-0.4014997
159	0xb7dd81e4	-2.6405738e-05
160	0xbde53a20	-0.11192727
161	0xbdb864fb	-0.090036355
162	0x3dde2e1b	0.10848638
163	0xbf322db5	-0.69600993
164	0x3ec1ea63	0.37874135
165	0xbd0771c5	-0.033067483
166	0xbd9aa230	-0.07550466
167	0xbdcabaad	-0.09898887
168	0xbd764af1	-0.060130063
169	0xbe5e7619	-0.21724738
170	0xbdb11cf4	-0.086481005
171	0xbf2083e1	-0.6270123
172	0xbd27bd47	-0.040951993
173	0xbe18058f	-0.1484587
174	0x3e1c3bc0	0.15257168
175	0x3cfb0ea1	0.030646624
176	0x3f30ec2d	0.69110376
177	0xbe42b8d4	-0.19015819
178	0x3d77340a	0.060352363
179	0xbeac2fdf	-0.33630273
180	0xbe7dc481	-0.24781992
181	0xbe101c1e	-0.14073226
182	0xbe0c03a3	-0.13673262
183	0xbc463012	-0.012096422
184	0xbc3d754b	-0.011563609
185	0xbd15aa68	-0.036539465
186	0xbd73f351	-0.059558216
187	0xbd9dedc1	-0.077113636
188	0xbd5b8972	-0.053597875
189	0xbd8eca0f	-0.06972133
190	0xbd3fd1b3	-0.046830844
191	0x3dcc916f	0.09988677
192	0xbcb904fc	-0.022585385
193	0xbc91f7d3	-0.017818367
194	0x3c9da93e	0.01924574
195	0xbcdf405e	-0.027252372
196	0xbd44ac2b	-0.048015755
197	0xbcf75747	-0.030192984
198	0xbe433d9e	-0.19066474
199	0xbc3c3093	-0.01148619
200	0xbd1e6c05	-0.038677234
201	0xbdfac868	-0.12245256
202	0xb9d479bd	-0.00040526493
203	0xbe0e93ee	-0.13923618
204	0xbe36d5e9	-0.17855038
205	0xbe4c53e2	-0.19953874
206	0xbe630d06	-0.22172937
207	0xbe4a6237	-0.19764028
208	0xbe44ff7d	-0.19238086
209	0xbd218974	-0.039437726
210	0xbc2f94df	-0.010716646
211	0x3cd6c453	0.026216662
212	0xbd7fde79	-0.062468026
213	0xbdb5889d	-0.088639475
214	0xbe8028ec	-0.2503122
215	0x3d0d615c	0.034516677
216	0xbeff0b69	-0.49813393
217	0x3b798d46	0.003807859
218	0xbdbf65ed	-0.09345613
219	0x3da9441b	0.08264943
220	0xbcdc868b	-0.026919624
221	0xbf0f402b	-0.5595729
222	0xbd2f4832	-0.04279346
223	0xbc7cf244	-0.01543862
224	0xbd4a22ae	-0.04934948
225	0xbe324fe6	-0.17413291
226	0xbeff0fac	-0.49816644
227	0xbe8644a7	-0.26224253
228	0xbd5f963f	-0.054586645
229	0x3c94ba39	0.018155204
230	0xbe185235	-0.1487511
231	0xbd769120	-0.060196996
232	0xbebd6054	-0.36987555
233	0x3e8f7690	0.28020144
234	0xbe604f37	-0.21905218
235	0xbd06d954	-0.032922104
236	0xbd016202	-0.03158761
237	0xbe8bfce2	-0.27341372
238	0x3f8acc91	1.0843679
239	0xbca56c6a	-0.020193297
240	0x388885bd	6.509896e-05
241	0xbe0ee585	-0.13954742
242	0x3ef1b461	0.4720793
243	0xbdcb38e5	-0.09922961
244	0xbccb0bce	-0.024785902
245	0xbc3257a0	-0.010885149
246	0xbe6b869a	-0.23000565
247	0xbd61ca2c	-0.055124447
248	0xbe1b8e89	-0.15191092
249	0xbcc73473	-0.024317002
250	0xbe65bfc8	-0.2243644
251	0x3f0b0a38	0.5431247
252	0x3da93aee	0.08263193
253	0xbe11e10a	-0.14246002
254	0xbd4f9d9e	-0.050687425
255	0xbdcd1b12	-0.10014929

fc3.weight f4 [4, 256]
0	0xbbe7def6	-0.0070761396
1	0xbe85528c	-0.2603954
2	0x3fcd50fc	1.604034
3	0x3f7596be	0.9593314
4	0xbf1b4d92	-0.6066524
5	0x3d4bc180	0.049745083
6	0x3e75bb0e	0.23997137
7	0xbebdc807	-0.3706667
8	0x3f0dc61f	0.55380434
9	0x3b0d880e	0.0021595987
10	0x3de0ea99	0.10982246
11	0xbcbaec1f	-0.02281767
12	0x3d17432d	0.0369293
13	0xbd1846ff	-0.037177082
14	0xbd120e4c	-0.035658166
15	0xbc4b4d32	-0.0124085415
16	0xbcbe7218	-0.023247764
17	0x3cd93ce6	0.026518296
18	0xbcd3e406	-0.025865566
19	0xbf34e5e9	-0.70663315
20	0x3d3d06d7	0.0461491
21	0x3dae0f81	0.08499051
22	0xbc2ab020	-0.010417968
23	0xbd47caf5	-0.04877754
24	0x3f648449	0.8926435
25	0x3f118476	0.56842744
26	0xbd60bbcc	-0.054866597
27	0x3f27d8cf	0.655652
28	0x3d2f04e0	0.04272926
29	0xbcbae793	-0.022815501
30	0xbeb8265d	-0.3596677
31	0xbf1e4b6d	-0.6183384
32	0xbd5b050f	-0.05347162
33	0x3b92af6f	0.0044764797
34	0x3f54d66e	0.83139694
35	0xbf5cf518	-0.86311483
36	0xbf12dea8	-0.57370996
37	0xbe2a9b5e	-0.1666083
38	0x3d30ae95	0.043135244
39	0xbd16c8ea	-0.0368127
40	0xbd2fa6d0	-0.042883694
41	0xbf52265b	-0.82089776
42	0xbdc8969e	-0.09794353
43	0xbd312c1a	-0.04325495
44	0x3d209ae7	0.039210226
45	0x3f061ef2	0.5239097
46	0x3f0aceac	0.54221606
47	0xbf31ef0f	-0.695054
48	0xbf3db482	-0.7410356
49	0x3f05889d	0.5216158
50	0x3f123f74	0.5712807
51	0x3f2c4496	0.67292154
52	0x3c9247ae	0.017856445
53	0xbd79e574	-0.06100984
54	0x3c8881be	0.016663428
55	0x3f2275d8	0.63461065
56	0xbf077313	-0.52909964
57	0x3cb89456	0.02253167
58	0x3beb757e	0.007185637
59	0x3bdbe23f	0.0067103202
60	0x3dd885e5	0.10572413
61	0xbebcc225	-0.3686687
62	0x3cd71923	0.026257103
63	0x3d098d8e	0.033582263
64	0x3f15642f	0.58355993
65	0x3c183dcb	0.009292076
66	0xbd386e20	-0.0450269
67	0xbf07c4c0	-0.5303459
68	0xbc323db4	-0.010878969
69	0xbebad81f	-0.36493012
70	0xbd3b1b40	-0.045680285
71	0xbd113cbd	-0.035458315
72	0x3cf2b066	0.029625129
73	0xbcf8bbcf	-0.030362992
74	0x3cd32de3	0.025778716
75	0xbdf75be7	-0.12078076
76	0x3fa4ef89	1.28856
77	0x3f29d607	0.66342205
78	0x3f6f21c6	0.9341091
79	0xbe073062	-0.1320205
80	0x3c5bccd0	0.01341553
81	0x3ea68fd8	0.3253162
82	0xbd258e96	-0.040419184
83	0x3f164cf6	0.58711183
84	0x3f91a8c0	1.1379623
85	0x3f8ed864	1.1159787
86	0xbeaf2666	-0.34208983
87	0x3cda0f78	0.026618704
88	0xbd80014a	-0.06250246
89	0xbe19b8f8	-0.15011966
90	0xbf481de4	-0.7817061
91	0x3eaab1e3	0.33338842
92	0x3e503de7	0.20336114
93	0xbc25e840	-0.0101261735
94	0xbcaf7f98	-0.021423146
95	0xbd6cee45	-0.05784442
96	0x3cbef3fd	0.023309702
97	0x3ebb7351	0.36611417
98	0x3f2836cd	0.6570862
99	0xbf1d5572	-0.61458504
100	0x3ed67bdd	0.41891375
101	0x3f407483	0.7517778
102	0x3c43e95b	0.011957492
103	0xbc2d05ba	-0.010560447
104	0xbde3d2b5	-0.111241736
105	0x3ebdeaf7	0.37093326
106	0x3f1f1f50	0.62157154
107	0xbe848e1d	-0.25889674
108	0x3f29a97d	0.66274244
109	0x3d635066	0.055496596
110	0xbf067a12	-0.52530015
111	0xbe3db55c	-0.18526214
112	0xbc9d0860	-0.019169033
113	0x3efab2b1	0.48964456
114	0x3d703378	0.058642834
115	0xbf254689	-0.64560753
116	0xbd9ef079	-0.0776071
117	0xbd21352e	-0.039357357
118	0x3ba9f826	0.0051870523
119	0xbf1597b5	-0.5843461
120	0xbc25ab0d	-0.010111582
121	0x3bfdd998	0.0077468865
122	0xbc1e8517	-0.009675286
123	0xbceb01f6	-0.028687458
124	0xbd446313	-0.047946047
125	0xbf3be41e	-0.73394954
126	0xbcc9a0ef	-0.024612872
127	0xbd404d1f	-0.04694855
128	0xbd322cf0	-0.043499887
129	0xbdc26e53	-0.09493699
130	0x3dcf469c	0.101208895
131	0xbf06d417	-0.52667373
132	0xbf076530	-0.52888775
133	0xbd037acf	-0.03209954
134	0xbd7ede79	-0.062223885
135	0xbce64008	-0.028106704
136	0x3fb26496	1.3936946
137	0x3f154728	0.583117
138	0x3ca35fc0	0.019943118
139	0xbc16bd36	-0.009200385
140	0xbf1ec89e	-0.6202487
141	0x3cc442c6	0.023957621
142	0x3e2c9540	0.1685381
143	0xbb24b254	-0.0025130706
144	0x3f24ee67	0.64426273
145	0xbc09daf7	-0.008414022
146	0x3e6afe47	0.22948562
147	0xbd09ddf7	-0.033658948
148	0xbf20e4bc	-0.6284902
149	0x3d1236a7	0.03569665
150	0xbdc2942a	-0.09500916
151	0xbe13cf96	-0.14434657
152	0x3e531d3f	0.20616625
153	0x3f7cae1a	0.9870316
154	0xbf05e0f1	-0.5229636
155	0x3eac6db8	0.3367746
156	0x3c46065c	0.012086477
157	0x3fb43800	1.407959
158	0x3ecc9809	0.39959744
159	0x3c3d84c5	0.011567299
160	0x3f01f147	0.50758785
161	0x3c638a23	0.013887915
162	0x3ea771cc	0.32704008
163	0xbe0a444e	-0.13502619
164	0xbf2dbd7c	-0.67867255
165	0xbc1f2f40	-0.009715855
166	0x3bfb1cdf	0.007663354
167	0x3cdb67a9	0.026782827
168	0x3cfba21a	0.030716944
169	0xbd40231f	-0.046908494
170	0xbb6557d1	-0.003499497
171	0x3f88424f	1.0645236
172	0x3cb8ed12	0.022573981
173	0xbe279f36	-0.16369328
174	0x3f0b73e5	0.54473716
175	0x3c585296	0.013203284
176	0xbfc8b518	-1.5680265
177	0xbeb3f13b	-0.35144982
178	0x3d051407	0.032489803
179	0xbc4a3ea8	-0.01234404
180	0x3e91f469	0.28506783
181	0x3c8a3877	0.016872628
182	0xbbf6f043	-0.0075359656
183	0x3d4ef65b	0.05052791
184	0x3d63eff8	0.055648774
185	0x3cd0a110	0.025467426
186	0xbd581236	-0.052751742
187	0xbfbfa3b8	-1.4971838
188	0x3beaa566	0.0071608303
189	0x3b206e3b	0.0024479765
190	0xbcd31264	-0.025765605
191	0xbef7f553	-0.48429355
192	0x3d11da5e	0.03560864
193	0x3c4680fc	0.012115713
194	0x3f7a13cd	0.97686464
195	0x3d5d7dc6	0.054075025
196	0x3caebc0e	0.021329906
197	0xbe8af344	-0.27138722
198	0xbef86c1c	-0.4851998
199	0x3c1b3f26	0.009475505
200	0x3d289672	0.0411591
201	0xbdb47985	-0.088122405
202	0xbf12bc7c	-0.57318854
203	0x3f110e4e	0.5666245
204	0xbf354d51	-0.708211
205	0xbef84534	-0.48490298
206	0x3f489b81	0.7836228
207	0xbf19f538	-0.601398
208	0xbef0bfc1	-0.47021297
209	0xbf3a791d	-0.72841054
210	0xbbc5b76c	-0.0060338285
211	0x3c8f1263	0.017464822
212	0xbd2d195e	-0.04226052
213	0xbb5c7a06	-0.0033642068
214	0xbd0912a7	-0.033465054
215	0x3cd3f778	0.025874838
216	0x3ee56230	0.44801474
217	0x3ce94c00	0.028478622
218	0x3d1c2557	0.038121548
219	0xbf437231	-0.7634612
220	0x3b936299	0.0044978377
221	0xbd48139a	-0.04884682
222	0xbc06a050	-0.008216932
223	0x3c8bde80	0.01707387
224	0xbed47dfe	-0.41502374
225	0xbf660804	-0.8985598
226	0x3d75468b	0.05988173
227	0xbdbc8eb4	-0.09206906
228	0x3c903e39	0.017607795
229	0x3c7ec4b8	0.015549831
230	0x3b6c3349	0.003604131
231	0x3f47647b	0.77887696
232	0x3f9ac977	1.2092732
233	0x3ef9951a	0.48746568
234	0xbf6665f8	-0.8999934
235	0x3e3449c9	0.17606272
236	0xbc6d340f	-0.014477744
237	0xbebec886	-0.37262362
238	0x3f0a8abc	0.5411794
239	0x3d23206f	0.039825853
240	0xbd143242	-0.036180742
241	0xbe60810f	-0.21924232
242	0xbf40d028	-0.7531762
243	0xbf21cb72	-0.6320106
244	0x3d60f947	0.05492523
245	0x3cbc56b3	0.02299056
246	0xbf412d1e	-0.7545947
247	0xbcf92160	-0.030411422
248	0x3ce6bbd3	0.028165733
249	0x3d1b59da	0.037927486
250	0xbed2dfa4	-0.4118625
251	0x3f105cfa	0.5639187
252	0xbec04086	-0.37549227
253	0xbee2ed0a	-0.4432147
254	0xbb804008	-0.003913883
255	0x3ea46b2d	0.3211302

fc3.bias f4 [4]
0	0xbe371d20	-0.17882204
1	0x3d9e9cef	0.077447765
2	0x3ec7c97a	0.39020902
3	0xbdc0fe76	-0.094235346
