csv_and_models/vanilla_dqn/vanilla_lunar_700.pth (torch, 279212 bytes, 6 tensors)

fc1.weight f4 [256, 8]
0	0xbe1824c7	-0.1485778
1	0x3e1d2116	0.15344653
2	0x3e16e886	0.14737138
3	0xbf5ffeaa	-0.8749796
4	0xbeabdb32	-0.3356567
5	0x3f37701e	0.7165545
6	0xbf22a1dd	-0.63528234
7	0xbf7a3db0	-0.9775038
8	0xbfa1404d	-1.2597748
9	0xbfb3d374	-1.4048905
10	0xbd62ad06	-0.05534079
11	0xbefbde56	-0.49193066
12	0xbf484b88	-0.7824025
13	0x3e15a39f	0.14613198
14	0xbd466956	-0.0484403
15	0x3e99bb02	0.30025488
16	0x3ea0e7d4	0.3142687
17	0xbf189bce	-0.5961274
18	0x3e6c1560	0.23055029
19	0xbeff22a6	-0.49831122
20	0xbe2b816f	-0.16748594
21	0x3f2fe8e1	0.6871472
22	0xbf484ada	-0.78239214
23	0x3f01482d	0.50500757
24	0xbf3744f7	-0.71589607
25	0x3fc6a78e	1.5519884
26	0x3f08ffa9	0.53515106
27	0x3e34be5e	0.17650744
28	0xbfc46aa0	-1.5345039
29	0x3e77394d	0.24142952
30	0xbe04a480	-0.12953377
31	0xbec4748d	-0.3837017
32	0x3bd0aba4	0.0063681174
33	0xbc47e78b	-0.0122012
34	0xbc237ee8	-0.009978987
35	0xbc884033	-0.016632175
36	0x403a665b	2.9124973
37	0x3bdb4413	0.0066914647
38	0xbe20f75c	-0.1571936
39	0xbd310aa2	-0.04322303
40	0xbf351fec	-0.70751834
41	0xc00d092d	-2.203685
42	0xbf1ca1e8	-0.6118455
43	0x3e4d1a47	0.20029555
44	0xbde4f43d	-0.11179397
45	0xbd98ac6f	-0.07454764
46	0xbe5e6bc4	-0.21720797
47	0x3d1c80b6	0.038208686
48	0x4000e50b	2.0139797
49	0x3e95c698	0.29253078
50	0x3e667f83	0.2250958
51	0x3ec56c09	0.38558987
52	0xbf8db9dc	-1.1072345
53	0xbee6c4b3	-0.45071945
54	0x3d83146d	0.0640038
55	0xbe2d8cc9	-0.16948237
56	0x400308c7	2.0474107
57	0xbfab4bc9	-1.3382503
58	0xbc58e799	-0.013238811
59	0xbe675c82	-0.22593883
60	0xbed0b506	-0.4076311
61	0x3d8fa8bd	0.07014606
62	0x3d445817	0.04793557
63	0x3e1ae18b	0.151251
64	0x40542da6	3.3152862
65	0xbe0b6b59	-0.13615169
66	0x3f250698	0.64463186
67	0x3e9b0167	0.30274507
68	0xbf4f72aa	-0.8103434
69	0xbf10abda	-0.56512225
70	0x3d312a46	0.043253206
71	0x3e51b4c4	0.20479113
72	0xbd6d1364	-0.05787982
73	0xbd956f29	-0.07296593
74	0x3e676d26	0.2260023
75	0xbec21dbe	-0.37913316
76	0x3f459672	0.77182686
77	0xbf2d61df	-0.67727464
78	0x3f3789f9	0.71694905
79	0xbe94fab1	-0.29097512
80	0xbe9b6e2a	-0.30357486
81	0x3e857259	0.26063803
82	0x3f8ac6a1	1.0841867
83	0xbf493cc1	-0.7860833
84	0x3eafdd84	0.3434869
85	0xbf01058f	-0.50399107
86	0xbe21eaee	-0.15812275
87	0xbeffe6e1	-0.49980834
88	0xbdfc6bb2	-0.12325229
89	0xbedfbee4	-0.43700325
90	0x3f433b4e	0.76262367
91	0xbf28ef08	-0.6598973
92	0x3e182ba0	0.14860392
93	0xbf0d1dcc	-0.5512359
94	0xbec14d28	-0.37754178
95	0x3c69e41f	0.01427558
96	0xbea7cf0c	-0.32775152
97	0x3fe276c2	1.7692492
98	0x3e96546b	0.2936128
99	0xbf796bbc	-0.97430015
100	0x3f330f21	0.6994496
101	0xbe11f523	-0.14253668
102	0x3dbabe89	0.09118373
103	0x3e1affb4	0.15136606
104	0xbe21c8ab	-0.15799205
105	0x3f507d3f	0.8144111
106	0xbebc5a65	-0.36787716
107	0x3f187d34	0.59566045
108	0x3f0881f9	0.5332332
109	0x3dc32983	0.09529402
110	0xbf0a94b3	-0.54133147
111	0xbdc910ed	-0.098176815
112	0x3fb28cf7	1.3949269
113	0x3e8c46e3	0.27397832
114	0xbe91eb75	-0.28499952
115	0x3f5bb96d	0.8582981
116	0xbee79329	-0.45229462
117	0xbdc4761d	-0.09592841
118	0x3e79c8ad	0.24392958
119	0xbe99a5a6	-0.30009192
120	0xbe7e3b83	-0.2482739
121	0xbf718f63	-0.94359416
122	0x3c206aa9	0.009791055
123	0x3f3e0c64	0.74237657
124	0xbfab1a3a	-1.3367379
125	0xbb779ab8	-0.0037781429
126	0x3d758448	0.059940606
127	0x3d80e2aa	0.06293233
128	0x3f02c615	0.510835
129	0x3db56b5d	0.088583685
130	0x3b83dcf9	0.0040241447
131	0xbeab5e03	-0.33470163
132	0xbfb75674	-1.4323258
133	0x3edb075a	0.42779046
134	0xbe8f0bbc	-0.2793864
135	0xbf6078a2	-0.8768407
136	0x3e04ef82	0.1298199
137	0x3f5e20cd	0.867688
138	0xbf36b74e	-0.7137345
139	0x3f040c60	0.5158138
140	0x3ef23df2	0.47312886
141	0xbdd86fe4	-0.105682164
142	0xbda717ff	-0.08158874
143	0xbe93d2db	-0.28871807
144	0x3eaf2a11	0.34211782
145	0x3d9d4302	0.07678796
146	0x3d053cac	0.032528564
147	0xbd2cedec	-0.042219087
148	0x3ff79790	1.9343128
149	0xbd26eed7	-0.04075512
150	0xbf5b4efe	-0.8566741
151	0x3aa0cf0d	0.0012268737
152	0xbea1786f	-0.31537196
153	0xc03c534e	-2.9425845
154	0xbe75ac2e	-0.23991463
155	0xbfa0ca31	-1.2561704
156	0xbe13e228	-0.1444174
157	0x3d9fd438	0.078041494
158	0x3bdecbfb	0.0067992187
159	0x3ce62f6c	0.028098784
160	0xbd8ffdd7	-0.07030838
161	0xbdb5400e	-0.08850108
162	0x3ff895a2	1.9420664
163	0xbdf420ba	-0.119203046
164	0xbab5f794	-0.0013882988
165	0x3d82ab95	0.06380383
166	0x3dfd904b	0.12381037
167	0xbfd4c3e5	-1.6622282
168	0xbee0c346	-0.43898982
169	0xbecf3d60	-0.40476513
170	0x3f540d08	0.82832384
171	0xbe5d6550	-0.21620679
172	0x3ec48e07	0.38389608
173	0x3f6cd769	0.9251619
174	0xbf562095	-0.83643466
175	0xbe442aea	-0.19156995
176	0x3f4aede7	0.7926926
177	0xbea50168	-0.32227635
178	0x3d16317a	0.03666828
179	0x3ea75f89	0.32690075
180	0xbd7bc58f	-0.061467703
181	0xbf306479	-0.6890331
182	0x3e39c330	0.18140864
183	0x3e655994	0.22397453
184	0x3e925ea1	0.2858782
185	0x3d2686a0	0.040655732
186	0xbfa4ea31	-1.288397
187	0xbf642153	-0.8911335
188	0x3f2c77e5	0.67370445
189	0xbeb1645a	-0.34646875
190	0x3d7819eb	0.060571592
191	0xbe9dd44c	-0.30826032
192	0xbf81d39c	-1.0142703
193	0xbff7a95e	-1.9348562
194	0x3e838e8d	0.25694695
195	0xbeb506c3	-0.3535672
196	0xbf1f2e7c	-0.62180305
197	0xbf004603	-0.5010683
198	0x3c23a868	0.009988882
199	0xbf36bad5	-0.71378833
200	0xbf335ac9	-0.700604
201	0xbea50661	-0.3223143
202	0x3f6afc93	0.9179165
203	0xbf393905	-0.7235263
204	0xbd6a2aa6	-0.05716958
205	0x3edff199	0.43739012
206	0xbd88d788	-0.06681734
207	0x3e9ec08d	0.3100628
208	0x3e3ca4bd	0.18422218
209	0x3f1056c6	0.56382406
210	0xbf83a0ca	-1.0283444
211	0x3efe36dd	0.49651232
212	0xbf865379	-1.0494224
213	0x3e84d026	0.25940055
214	0xbedf9a68	-0.4367249
215	0xbe8e10c7	-0.27747175
216	0x3f81c129	1.0137073
217	0xbfe3118c	-1.773973
218	0x3f480521	0.78132826
219	0x3edd1eb0	0.43187475
220	0x3f50fe64	0.8163817
221	0xbec23147	-0.3792822
222	0xbd803a1c	-0.062610835
223	0x3e193be5	0.14964254
224	0xbea87e85	-0.32909027
225	0xbfd93875	-1.6970354
226	0xbeebd06b	-0.46057448
227	0x3e736a00	0.23770905
228	0xbd5899b0	-0.052880943
229	0xbe8c4be7	-0.2740166
230	0xbf12d83f	-0.57361215
231	0xbeb20ffb	-0.34777817
232	0x3f68b647	0.90903133
233	0xc0877039	-4.232449
234	0x3ec8f039	0.39245775
235	0xbeef51a8	-0.46741986
236	0x3f3d639f	0.73980135
237	0xbdcb674f	-0.09931814
238	0x3ed65529	0.41861847
239	0xbe4de99e	-0.20108649
240	0xbc72f680	-0.014829278
241	0xbf9a6e34	-1.2064881
242	0xbf4e4235	-0.80569774
243	0x3f2f3714	0.6844342
244	0x3c750c67	0.01495657
245	0x3dc54ec3	0.09634163
246	0xbed88e83	-0.42296228
247	0xbe2dfc92	-0.16990879
248	0x3ec4969e	0.38396162
249	0xbfa173a5	-1.2613417
250	0x3f3d76fe	0.7400969
251	0xbd5424ff	-0.051793095
252	0xbe806e46	-0.25084132
253	0x3eebb4c9	0.46036366
254	0x3d10285f	0.03519475
255	0x3d9d9824	0.07695034

fc1.bias f4 [256]
0	0xbec845ab	-0.39115652
1	0xbe8b2b20	-0.2718134
2	0xbd9b7446	-0.07590537
3	0x3e2bba3b	0.1677026
4	0x3c64e73e	0.013971148
5	0x3f7462a1	0.95462996
6	0x3e2c0ac5	0.16800983
7	0x3d3e1e6d	0.046415735
8	0xbe026fd8	-0.12737978
9	0xbde6bbe6	-0.112663075
10	0x3e46e282	0.19422343
11	0x3f2ec0a3	0.6826269
12	0xbe73b3d3	-0.23799066
13	0xbf0a5095	-0.5402921
14	0x3f2757f7	0.653686
15	0x3eae8445	0.3408529
16	0xbdd31a3d	-0.10307739
17	0x3f32db44	0.6986582
18	0xbd7905b8	-0.06079647
19	0xbe31ff00	-0.17382431
20	0xbc26b857	-0.010175786
21	0xbdcab6a1	-0.09898115
22	0x3e83fc7d	0.2577857
23	0xbdd15853	-0.10221925
24	0xbe980af2	-0.2969585
25	0xbe493f70	-0.19653106
26	0x3f2e4e80	0.6808853
27	0x3e450412	0.19239834
28	0xbef038d6	-0.46918362
29	0xbe4e022a	-0.20118013
30	0xbf3a1045	-0.72681075
31	0xbed81c96	-0.4220931
32	0x3ee6de2e	0.45091385
33	0x3e046b20	0.1293149
34	0xbd0a9e60	-0.033842444
35	0xbe66b012	-0.22528103
36	0xbbff5275	-0.007791812
37	0xbf8786ea	-1.0588048
38	0xbda9907f	-0.082795136
39	0x3ebaaec3	0.36461458
40	0xbe76b6ab	-0.2409312
41	0xbd6d9ac8	-0.05800894
42	0xbe0d8bf6	-0.13822922
43	0xbf3384d9	-0.70124584
44	0x3f4e22ae	0.80521667
45	0x3ebf2ffb	0.37341294
46	0xbf0414b4	-0.5159409
47	0xbf68e5bb	-0.9097554
48	0xbea36ac9	-0.31917408
49	0x3da14841	0.078751095
50	0xbe838b8a	-0.25692397
51	0x3ec70b3e	0.38875765
52	0x3d7bfe9a	0.061522104
53	0x3ec29e80	0.3801155
54	0x3e30fef3	0.17284755
55	0x3d3c5af8	0.045985192
56	0x3f0276f8	0.5096278
57	0x3ebe6ccc	0.3719238
58	0xbede087a	-0.43365842
59	0xbec47ed4	-0.38378012
60	0x3eb18edb	0.34679303
61	0x3e99f7db	0.3007191
62	0x3ed17a00	0.4091339
63	0x3b9fcef7	0.004876967
64	0x3efebcec	0.4975351
65	0x3d394c8f	0.045239028
66	0xbebe7e53	-0.37205753
67	0x3cccf959	0.025021242
68	0xbeceddd4	-0.40403616
69	0xbd71dc06	-0.05904772
70	0xbc9b679e	-0.018970307
71	0x3f39f2c9	0.72636086
72	0xbf2bbaf8	-0.67082167
73	0x3f6736c0	0.90317917
74	0xbc5c1ae9	-0.01343415
75	0x3f23e023	0.6401388
76	0xbe0ab624	-0.13546044
77	0x3df425bc	0.1192126
78	0x3ea7f338	0.3280275
79	0x3e59c1ed	0.21265383
80	0xbdb8d622	-0.090252176
81	0x3f0d5913	0.5521404
82	0xbe327dfb	-0.1743087
83	0xbeadc0a3	-0.33936033
84	0xbe72bb82	-0.23704341
85	0x3ead4079	0.3383825
86	0x3da620e3	0.081117414
87	0x3f27a526	0.6548637
88	0xb9ddc592	-0.00042299606
89	0x3f55ee05	0.83566314
90	0x3ec25b06	0.3796007
91	0xbf199a65	-0.6000121
92	0xbf8bfa6f	-1.0935801
93	0xbe6ded20	-0.23234987
94	0x3bc3e3a1	0.005978063
95	0x3d7e3acb	0.062067788
96	0x3e26e3fa	0.16297904
97	0xbec760ec	-0.38941133
98	0xbf43ac0c	-0.764344
99	0xbf4c6985	-0.7984851
100	0x3f3b6ff6	0.73217714
101	0x3d609ad8	0.05483517
102	0xbe0e63b5	-0.13905223
103	0xbe4f1a47	-0.20224868
104	0xbdd8f3e5	-0.10593394
105	0x3cea702c	0.02861794
106	0xbf4810d9	-0.7815071
107	0x3f005781	0.5013352
108	0xbe779b9e	-0.24180457
109	0xbe7d7e45	-0.24755199
110	0xbe90400f	-0.28173873
111	0xbed7b8b0	-0.42133093
112	0x3ec963f7	0.3933408
113	0xbee7822e	-0.45216507
114	0xbe893e6f	-0.26805446
115	0x3ef7850a	0.48343688
116	0xbe787d21	-0.24266483
117	0xbd476e7b	-0.048689347
118	0x3f45637e	0.7710494
119	0xbefc455e	-0.49271673
120	0xbf7f29d0	-0.99673176
121	0x3ef360ee	0.4753489
122	0x3f02ea81	0.51139075
123	0xbefc3252	-0.4925714
124	0x3c5aba56	0.01335009
125	0xbe83b3b1	-0.2572303
126	0xbeb69bc2	-0.3566571
127	0xbec25918	-0.37958598
128	0x3ec6da88	0.388386
129	0x3e9c63b0	0.30544806
130	0xbba18b3f	-0.0049299295
131	0xbe974932	-0.2954803
132	0x3c0acef4	0.008472193
133	0xbeaeeaed	-0.3416361
134	0x3efa1880	0.48846817
135	0x3ee8cbb6	0.4546792
136	0xbd234d96	-0.039868914
137	0x3e4e7382	0.2016125
138	0xbf039999	-0.51406246
139	0x3f47a8fb	0.7799222
140	0x3f13043d	0.5742834
141	0xbd8a2021	-0.06744409
142	0x3eea85a8	0.45805097
143	0x3e8e4474	0.277866
144	0xbf1b195d	-0.60585576
145	0xbf004be8	-0.50115824
146	0xbe3b67a4	-0.18301255
147	0x3f26923c	0.65066886
148	0x3f034eb3	0.5129196
149	0x3f032439	0.51227146
150	0x3e807d52	0.25095612
151	0x3e56097d	0.20902057
152	0xbe207f05	-0.15673454
153	0xbe992860	-0.29913616
154	0x3f13d7e2	0.57751286
155	0x3f15e2dd	0.5854929
156	0xbf028132	-0.50978386
157	0xbe072bf1	-0.13200356
158	0x3ecfca0a	0.4058383
159	0x3df55832	0.119797125
160	0x3ed07bd9	0.40719488
161	0x3dc75a78	0.097340524
162	0xbf1f57bb	-0.6224324
163	0xbe2d90b6	-0.16949734
164	0xbe062190	-0.1309874
165	0x3ee8def9	0.45482615
166	0xbd963bb2	-0.07335605
167	0x3e1fe4fb	0.15614693
168	0x3e5b4d38	0.21416175
169	0xbdb252d5	-0.08707205
170	0xbf09d113	-0.53834647
171	0x3f15d5ca	0.5852934
172	0xbeb0441b	-0.3442696
173	0xbde53bd5	-0.11193053
174	0xbecbd9ca	-0.39814597
175	0x3f4bddca	0.796353
176	0x3eec9831	0.46209863
177	0xbea0d6f9	-0.3141401
178	0x3f71158e	0.94173515
179	0xbf1afe64	-0.6054442
180	0xbed460f2	-0.41480213
181	0x3e540b6c	0.20707482
182	0x3d02d4bc	0.03194116
183	0x3e8ecced	0.2789072
184	0xbec6a9f3	-0.38801536
185	0x3e03e2e0	0.12879515
186	0xbdf4840f	-0.11939251
187	0x3e8bee58	0.2733028
188	0xbf2cc49c	-0.674875
189	0xbe9ffb41	-0.3124638
190	0x3f54ac61	0.8307553
191	0xbe86998f	-0.2628903
192	0x3f232d55	0.63741046
193	0xbd8432d8	-0.0645501
194	0x3f440f1b	0.7658555
195	0x3e280d54	0.16411334
196	0x3d9d05bf	0.076671116
197	0xbe44461d	-0.19167371
198	0xbc1f9f11	-0.009742514
199	0xbed83db7	-0.42234585
200	0xbf161cd1	-0.5863772
201	0xbf09bbd0	-0.53802204
202	0xbe359bf0	-0.17735267
203	0x3e5d6ab0	0.2162273
204	0x3e0513e9	0.12995876
205	0x3ef91aa7	0.48653147
206	0x3ef84c9c	0.48495948
207	0xbe747011	-0.23870875
208	0x3f327e99	0.6972442
209	0xbe9b39f1	-0.30317643
210	0x3eb1af43	0.34704027
211	0xbed1c7ff	-0.40972897
212	0x3e830f14	0.2559744
213	0x3c6794f7	0.014134637
214	0x3f4bd244	0.79617715
215	0xbf317978	-0.6932597
216	0xbe9a8913	-0.30182704
217	0xbe75a18c	-0.23987406
218	0x3e9c8b29	0.3057492
219	0x3f203512	0.6258098
220	0x3f6309be	0.8868674
221	0x3f1b67ef	0.60705465
222	0xbdea9e8a	-0.1145602
223	0xbd3161ef	-0.043306287
224	0xbedcf841	-0.43158153
225	0x3dd1e6a4	0.10249069
226	0xbef257fa	-0.47332746
227	0x3dc774f6	0.097391054
228	0xbd4d7ace	-0.050165944
229	0x3d16c150	0.03680545
230	0xbc5c83d4	-0.013459165
231	0xbdecfe64	-0.11571959
232	0xbef73aec	-0.4828714
233	0xbe89b0d8	-0.26892734
234	0xbf160992	-0.58608353
235	0xbe93e43a	-0.2888506
236	0x3da71ae6	0.08159427
237	0xbeee8637	-0.46586773
238	0xbec42ea4	-0.38316834
239	0x3c93101e	0.017952021
240	0x3f24969e	0.64292324
241	0x3f52bc14	0.82318234
242	0xbce21a91	-0.027600558
243	0xbefb51d5	-0.4908587
244	0x3ea3a24f	0.3195977
245	0xbe431ec5	-0.19054706
246	0xbe94fc6c	-0.29098833
247	0xbeb2204e	-0.34790272
248	0xbe38c37f	-0.18043326
249	0x3ed41da0	0.41428852
250	0x3c884614	0.016634978
251	0x3ecb4263	0.39699087
252	0xbef089c9	-0.46980122
253	0x3cacb202	0.021080974
254	0xbe42f2cf	-0.19037937
255	0xbdf25808	-0.11833197

fc2.weight f4 [256, 256]
0	0xbd9bc8c9	-0.07606656
1	0x3dc70af2	0.097188845
2	0xbce3f276	-0.027825575
3	0xbd769748	-0.060202867
4	0xbd9becc2	-0.07613517
5	0x3ce69f4a	0.028152127
6	0xbd81caa0	-0.06337476
7	0xbd459670	-0.04823917
8	0xbd462ec6	-0.04838445
9	0xbc92dabe	-0.01792657
10	0xbd8f3396	-0.06992261
11	0xbdd8cb60	-0.10585666
12	0xbdde632b	-0.108587585
13	0xbddeea55	-0.10884539
14	0xbc9b3dea	-0.018950421
15	0xbdfb3849	-0.12266595
16	0xbd215852	-0.03939087
17	0xbd21d8e2	-0.039513476
18	0xbe039ba1	-0.12852336
19	0x3aea812a	0.0017891277
20	0xbd2a88d4	-0.041634396
21	0xbcb17f08	-0.021667019
22	0xbc9672bc	-0.018365256
23	0xbdecbf15	-0.115598835
24	0xbc8848c3	-0.016636258
25	0x3db0a948	0.08626038
26	0xbdafbb71	-0.085806735
27	0xbd2d01b0	-0.042237937
28	0x3d796538	0.060887545
29	0x3b36407c	0.0027809432
30	0xbe1723af	-0.14759706
31	0x3cc123e1	0.023576679
32	0xbdb9c2df	-0.09070372
33	0xbc348f66	-0.011020517
34	0xbd61943c	-0.055073008
35	0xbc667733	-0.014066505
36	0x3d1bb71c	0.038016424
37	0xbd95dd12	-0.073175564
38	0x3d076b21	0.03306115
39	0x3d1ca749	0.038245473
40	0xbd70b57d	-0.05876683
41	0xbc2a66f5	-0.010400523
42	0xbc350b21	-0.011050017
43	0xbce29763	-0.027660077
44	0xbd14a20e	-0.03628736
45	0xbd65b99f	-0.056085225
46	0xbd5049e3	-0.050851714
47	0x3ca2660c	0.01982405
48	0xbdb06b75	-0.08614246
49	0xbd9ea1aa	-0.07745679
50	0xbd30f58f	-0.043202933
51	0x3becf6a5	0.0072315508
52	0xbd0ef934	-0.034905627
53	0xbd795ab7	-0.060877528
54	0xbd966787	-0.07343965
55	0xbd946bd2	-0.072471276
56	0x3ca2f93c	0.019894235
57	0xbdc11652	-0.094280854
58	0x3b9b3ff9	0.0047378507
59	0xbd540863	-0.05176581
60	0xbd3bc013	-0.045837473
61	0xbd5298ab	-0.051415127
62	0x3b37a050	0.0028019138
63	0x3d291621	0.04128087
64	0xbda12af3	-0.0786952
65	0xbd304856	-0.043037735
66	0x3bd37e60	0.006454274
67	0x3b7ddcb4	0.0038736286
68	0xbd4dfb48	-0.05028847
69	0xbd57e4cc	-0.052708432
70	0xbd16cd12	-0.036816664
71	0xbd083140	-0.033250093
72	0x3c728748	0.014802761
73	0xbcc22915	-0.02370123
74	0xbd37fae2	-0.044916995
75	0xbcd30a2a	-0.025761683
76	0xbda5fd57	-0.08104961
77	0xbe096a52	-0.13419464
78	0xbe02c740	-0.1277132
79	0xbdc12c08	-0.094322264
80	0xbd81fc68	-0.06346971
81	0xbdb785d6	-0.08961074
82	0x3d039fb9	0.032134745
83	0xbbb5c020	-0.0055465847
84	0xbd954ac5	-0.07289652
85	0xbde78280	-0.11304188
86	0xbc6cea6d	-0.014460188
87	0xbe0598e1	-0.130466
88	0x3b2d203b	0.0026416916
89	0xbd95e1d8	-0.07318467
90	0xbdbf5d38	-0.09343952
91	0xbde7badd	-0.11314938
92	0x3d11e23c	0.035616145
93	0xbd3cfac4	-0.046137586
94	0xbce8a549	-0.028399127
95	0xbcb7e440	-0.022447705
96	0xbe32cf14	-0.17461807
97	0x3cd675bb	0.026179185
98	0xbd7a5b57	-0.061122265
99	0xbd3dbb40	-0.046321154
100	0x3b177270	0.0023108982
101	0xbd4b3822	-0.04961408
102	0xbd9af4b8	-0.07566208
103	0x3e4ae30e	0.19813177
104	0xbd407d5a	-0.046994545
105	0x3a0aba2b	0.00052920234
106	0x3b55dff3	0.0032634705
107	0xbd502c45	-0.05082347
108	0x3d1cc0f1	0.03826994
109	0xbdd054c0	-0.10172415
110	0xbca31437	-0.0199071
111	0xbc3992e4	-0.011326525
112	0x3c8f2d76	0.017477732
113	0x3d28add3	0.041181397
114	0x3d5a20de	0.053254
115	0xbd5564da	-0.052098133
116	0xbc124b0f	-0.008929028
117	0xbd68b5d2	-0.056814022
118	0xbde6ba4b	-0.11266001
119	0xbd44a8f4	-0.04801269
120	0x3b0d891f	0.0021596623
121	0xbbff6313	-0.007793793
122	0xbd3984ca	-0.045292653
123	0xbdaa6173	-0.08319368
124	0x3ba80a86	0.0051282076
125	0xbb279480	-0.002557069
126	0xbd203110	-0.03910929
127	0xbd58c028	-0.05291763
128	0xbdaebe29	-0.08532364
129	0xbd87aeef	-0.06625163
130	0xbd5a8ccc	-0.05335693
131	0xbd8e3ea8	-0.069455445
132	0xbd8be356	-0.0683047
133	0xbce73edf	-0.028228221
134	0xbc65da6a	-0.014029125
135	0xbdb2e4e9	-0.087350674
136	0xbdd03a90	-0.1016742
137	0xbc0b12bf	-0.008488356
138	0xbd0816c9	-0.033224855
139	0xbd452eaf	-0.048140224
140	0xbc684b6e	-0.01417814
141	0xbd43358e	-0.047658496
142	0xbdb4ef7b	-0.0883474
143	0xbd525f2c	-0.051360294
144	0x3d32c11d	0.0436412
145	0x3c86d958	0.01646106
146	0xbd8c03f9	-0.06836695
147	0xbc89ff15	-0.016845265
148	0xbd4b0249	-0.049562726
149	0xbc1a794d	-0.009428334
150	0xbd9e9a4e	-0.07744275
151	0x3c490bb0	0.012270853
152	0xbda25fd5	-0.07928435
153	0x3d255ce3	0.040371787
154	0xbd3ee036	-0.046600543
155	0xbbb00dbe	-0.005372732
156	0x3d06308c	0.03276114
157	0xbc440a9b	-0.011965419
158	0x3d2ba6ce	0.041907124
159	0x3d497419	0.049182985
160	0xbe065ce2	-0.1312137
161	0xbd0f5a6c	-0.034998342
162	0x3d86124d	0.06546459
163	0xbc64eef5	-0.013972987
164	0xbc039f39	-0.008033567
165	0x3cd2bab9	0.025723802
166	0xbdcac57a	-0.09900947
167	0xbdcba9a1	-0.099444635
168	0xbd23e5d4	-0.040014103
169	0xbdc964eb	-0.09833702
170	0x3b05a62b	0.0020393233
171	0xbe2deda5	-0.16985185
172	0x3d875e28	0.06609756
173	0x3dec121f	0.11526894
174	0xbb423df8	-0.0029638987
175	0xbd3bab90	-0.04581791
176	0xbba01d8c	-0.0048863348
177	0xbda51875	-0.080613054
178	0xbd1e32d2	-0.038622685
179	0x3cb1f902	0.021725181
180	0xbd3acc29	-0.04560486
181	0xbc74f696	-0.014951369
182	0xbd41be87	-0.04730084
183	0xbdec5e1a	-0.11541386
184	0xbdc10512	-0.09424795
185	0xbd6e7d00	-0.058224678
186	0x3d3402b3	0.043947887
187	0xbd274b27	-0.040843155
188	0xbd79887e	-0.060921185
189	0x3c80fc3c	0.015745275
190	0xbdb28225	-0.08716229
191	0xbc5a8290	-0.013336793
192	0xbd1c2e7b	-0.038130265
193	0xbc23e1b5	-0.010002543
194	0x396a3fe7	0.00022339784
195	0xbc9912a9	-0.018685656
196	0xbd1c6bed	-0.038188864
197	0xbc9868ca	-0.018604655
198	0xbdb6564a	-0.08903177
199	0xbd96cf4f	-0.0736376
200	0xbe3a693f	-0.1820421
201	0x3cc82876	0.024433356
202	0xbd30a558	-0.043126434
203	0xbda58afa	-0.08083148
204	0xbc341992	-0.010992425
205	0xbc667403	-0.014065745
206	0xbd5d9fb5	-0.054107387
207	0x3c30d576	0.010793081
208	0xbdb85d3e	-0.090021595
209	0xbd35e5a7	-0.044408467
210	0xbda9a840	-0.08284044
211	0x3c42e42c	0.011895221
212	0xbd439a62	-0.047754653
213	0x3cff1b2f	0.031140892
214	0xbcc11eb3	-0.023574209
215	0xbd03e7a5	-0.032203335
216	0xbd348633	-0.044073295
217	0xbdd9b4e1	-0.10630203
218	0xbd7b2005	-0.061309833
219	0x3d2503eb	0.04028694
220	0xbbba3479	-0.0056825248
221	0xbd2de33d	-0.04245304
222	0x3dc51828	0.09623748
223	0xbdb8b67c	-0.09019181
224	0xbd7eb3be	-0.062183134
225	0xbd83ffab	-0.06445249
226	0xbcf7c260	-0.030244052
227	0xbda267dd	-0.079299666
228	0xbd235093	-0.039871763
229	0xbd8af76e	-0.06785475
230	0xbc09585d	-0.008382884
231	0xbc9b1fff	-0.018936155
232	0xbb425f67	-0.0029658915
233	0xbd4539d6	-0.04815086
234	0xbc041178	-0.0080608055
235	0x3d9ec40e	0.07752238
236	0xbdb10378	-0.0864324
237	0xbdd5a25d	-0.10431359
238	0xbdc508e8	-0.09620839
239	0x3cb93b9b	0.02261143
240	0xbdb3f91d	-0.08787749
241	0xbd658fcb	-0.056045335
242	0xbd0ca8ee	-0.03434079
243	0x3c046e63	0.008082959
244	0xbd6a661c	-0.057226285
245	0xbc1bdf32	-0.009513663
246	0x3d6619da	0.056176998
247	0x3d0a26f7	0.033728566
248	0xbd4e7394	-0.050403193
249	0xbdeca87f	-0.115555756
250	0x3cd73fcd	0.02627554
251	0xbd040edb	-0.03224073
252	0xbcc62398	-0.024186894
253	0x3d4bbfac	0.04974334
254	0x3ceb3067	0.028709603
255	0xbd930d98	-0.07180327

fc2.bias f4 [256]
0	0xbb2f3884	-0.0026736567
1	0xbd7129b7	-0.058877673
2	0xbe3017ae	-0.17196533
3	0x3eab21b8	0.33424163
4	0x3d97dbc9	0.074149676
5	0x3cc88352	0.02447668
6	0xbe0b3155	-0.13593037
7	0x3e0d345c	0.13789505
8	0x3e5f9304	0.21833426
9	0xbd12fade	-0.035883777
10	0xbe248ba6	-0.16068897
11	0xbd243c3c	-0.040096506
12	0x3d075d94	0.033048227
13	0xbd96c01b	-0.0736086
14	0x3c5f63b3	0.01363461
15	0xbdaa878e	-0.08326636
16	0xbd6ec9ac	-0.058297798
17	0x3c72b248	0.014813013
18	0xbdbdf654	-0.09275499
19	0xbe11db3b	-0.14243786
20	0x3d4e5d58	0.05038199
21	0xbe6930ce	-0.22772524
22	0xbdae1ba6	-0.08501367
23	0x3ce771eb	0.028252563
24	0xbdda01e1	-0.106448896
25	0x3f89bf09	1.0761424
26	0xbd66902d	-0.05628984
27	0x3f2e03c6	0.6797451
28	0x3c3926c4	0.011300746
29	0xbda42a7d	-0.080159165
30	0xbddacf4b	-0.10684069
31	0xbed1dcb8	-0.40988708
32	0xbc50567f	-0.012715935
33	0xbdcc8445	-0.09986166
34	0xbdf512ac	-0.11966452
35	0x3e046ef6	0.12932953
36	0xbdbfdcf4	-0.09368315
37	0xbc3ffe06	-0.011718279
38	0xbdaab919	-0.08336086
39	0xbd5bb8e8	-0.053643137
40	0xbd87834f	-0.06616842
41	0xbe385c13	-0.18003874
42	0xbd105e40	-0.035246134
43	0xbd882728	-0.066480935
44	0xbd2b8068	-0.041870505
45	0xbf07cf47	-0.53050655
46	0xbdf32eef	-0.11874186
47	0x3d8acee8	0.067777455
48	0x3d9e8f98	0.07742232
49	0x3d598e75	0.053114373
50	0x3ca1b901	0.019741537
51	0x3fa60af4	1.2972093
52	0x3ccf6500	0.025316715
53	0xbdaa77c3	-0.08323624
54	0xbe2628ff	-0.16226576
55	0x3e37b778	0.17941082
56	0x3e1c8547	0.15285216
57	0xbd09ab86	-0.033610843
58	0xbd302a35	-0.043009
59	0xbd3078a1	-0.04308379
60	0xbdb79024	-0.089630395
61	0xbe105933	-0.14096527
62	0xbc836eb0	-0.01604399
63	0x3c911558	0.017710373
64	0x3f85373f	1.0407485
65	0xbd56b57f	-0.052419182
66	0xbcab3759	-0.020900415
67	0xbd138ab9	-0.036020968
68	0xbc5103f5	-0.012757291
69	0xbd8039d0	-0.06261027
70	0xbda454de	-0.08024
71	0xbd65fd95	-0.056150038
72	0xbc0edcd8	-0.008719645
73	0xbdcb739e	-0.099341616
74	0xbc44450e	-0.011979355
75	0xbd7e3576	-0.062062703
76	0x3a9dd4ba	0.0012041547
77	0xbe60c2fb	-0.21949379
78	0xbe415cae	-0.1888301
79	0xbdf51f08	-0.11968809
80	0xbd6d1d58	-0.057889313
81	0xbec5ef46	-0.38659114
82	0xbcb8e0e7	-0.02256818
83	0xbda99ef9	-0.08282275
84	0xbed5edb4	-0.41782916
85	0xbea2985e	-0.31756872
86	0xbe828663	-0.25493154
87	0xbdb4c8a1	-0.088273294
88	0xbd626707	-0.055274036
89	0xbd1c38dd	-0.038140167
90	0x3ebafe3b	0.36522087
91	0xbec4ff93	-0.38476238
92	0xbe51df87	-0.20495425
93	0xbb8de8da	-0.0043307366
94	0xbd94c149	-0.07263429
95	0xbbcabf30	-0.006187342
96	0x3dccb9be	0.09996365
97	0x3d0f98c5	0.0350578
98	0xbe74a076	-0.23889336
99	0xbd0715e7	-0.032979872
100	0xbea0f60c	-0.3143772
101	0x3f01790c	0.5057533
102	0xbdcc6279	-0.0997972
103	0x3d4b9792	0.049705096
104	0xbe9258c5	-0.2858335
105	0x3e25039e	0.16114661
106	0x3e97dbee	0.2965998
107	0xbe9a624f	-0.30153129
108	0xbea4999b	-0.32148442
109	0xbda492a2	-0.080357805
110	0x3e3b808c	0.18310755
111	0xbda4b830	-0.080429435
112	0xbe1ab003	-0.15106206
113	0xbe4a57db	-0.19760077
114	0xbe30db83	-0.17271237
115	0x3d8aa1b3	0.06769123
116	0xbe5de0c8	-0.21667778
117	0xbd45aef5	-0.048262555
118	0xbcc0a81b	-0.023517659
119	0x3d23e7d9	0.04001603
120	0x3c22ee92	0.009944575
121	0xbd1006ca	-0.035162725
122	0xbdbe055e	-0.092783675
123	0xbdf61ab0	-0.12016809
124	0xbd7b1116	-0.06129559
125	0x3df50b61	0.11965061
126	0xbd2d81b3	-0.04236002
127	0xbbbb9fb4	-0.005725825
128	0xbc881a12	-0.016613994
129	0xbda90eb1	-0.08254755
130	0xbc3049d4	-0.0107597895
131	0xbe20d9ae	-0.15708038
132	0xbd91a8a3	-0.07112243
133	0xbdc85a99	-0.09782905
134	0xbbc7210c	-0.0060769375
135	0xbcfe1023	-0.031013554
136	0xbe6e619e	-0.23279426
137	0x3ef3b4a2	0.4759875
138	0xbd5290fd	-0.051407803
139	0xbba8e29b	-0.0051539666
140	0x3d7831be	0.060594313
141	0xbca29395	-0.019845763
142	0xbe1e6e06	-0.15471658
143	0xbc6a1b01	-0.014288665
144	0x3ee17448	0.44034028
145	0xbc5cafba	-0.013469631
146	0xbe85b249	-0.26112583
147	0x3c058e5a	0.008151615
148	0x3e21cd1b	0.15800898
149	0xbca98864	-0.020694919
150	0xbea8b213	-0.3294836
151	0xbdddb1c0	-0.10824919
152	0xbe57ba85	-0.21067245
153	0xbe5e1a47	-0.21689712
154	0x3d46f110	0.04856974
155	0xbe804238	-0.2505052
156	0xbd89a456	-0.06720798
157	0x3d27fcd0	0.041012585
158	0xbe775158	-0.24152124
159	0xb7dd81e4	-2.6405738e-05
160	0xbde53a20	-0.11192727
161	0xbd4e5dbf	-0.050382372
162	0x3e05f940	0.13083363
163	0xbe85c12f	-0.2612395
164	0x3e68705e	0.22699115
165	0xbd0771c5	-0.033067483
166	0xbd3338dd	-0.0437554
167	0xbd89c470	-0.067269206
168	0xbcfa52aa	-0.030556995
169	0x3d111d09	0.03542808
170	0xbdb11cf4	-0.086481005
171	0xbe597d8f	-0.21239303
172	0xbd27bd47	-0.040951993
173	0xbe18058f	-0.1484587
174	0xbdb71fb0	-0.08941591
175	0x3cfb0ea1	0.030646624
176	0x3ee453ec	0.44595277
177	0xbe552132	-0.20813444
178	0x3d77340a	0.060352363
179	0xbe711d9c	-0.23546451
180	0xbe7dc481	-0.24781992
181	0xbe101c1e	-0.14073226
182	0x3e0d4d11	0.1379893
183	0xbc463012	-0.012096422
184	0xbc3d754b	-0.011563609
185	0xbd15aa68	-0.036539465
186	0xbd73f351	-0.059558216
187	0x3db95d55	0.09051005
188	0xbd5b8972	-0.053597875
189	0xbd8eca0f	-0.06972133
190	0xbd3fd1b3	-0.046830844
191	0x3c9d944e	0.019235756
192	0xbcb904fc	-0.022585385
193	0xbc91f7d3	-0.017818367
194	0xbdaa7b2b	-0.08324274
195	0xbcdf405e	-0.027252372
196	0xbd44ac2b	-0.048015755
197	0xbcf75747	-0.030192984
198	0x3db8be8c	0.09020719
199	0xbc3c3093	-0.01148619
200	0xbd1e6c05	-0.038677234
201	0x3dcd7ccd	0.100335695
202	0xbb0bd0a2	-0.0021334072
203	0xbe1720a2	-0.14758542
204	0xbdde43fb	-0.1085281
205	0x3d25a59d	0.040441144
206	0xbe0c884f	-0.13723873
207	0x3dd9624c	0.10614452
208	0xbd048d87	-0.032361533
209	0xbdfd3f1c	-0.12365553
210	0xbc2f94df	-0.010716646
211	0x3cd6c453	0.026216662
212	0xbd7fde79	-0.062468026
213	0xbdb5889d	-0.088639475
214	0xbe8028ec	-0.2503122
215	0x3d0d615c	0.034516677
216	0xbeb5b718	-0.35491252
217	0x3b798d46	0.003807859
218	0xbd54f619	-0.05199251
219	0x3e569ce4	0.20958287
220	0xbcdc868b	-0.026919624
221	0xbe9431b6	-0.28944176
222	0xbd2f4832	-0.04279346
223	0x3c8586d3	0.01629964
224	0x3b1dd915	0.002408569
225	0xbd5b1c2b	-0.05349366
226	0xbe1a7f8c	-0.15087718
227	0xbd9cb701	-0.07652093
228	0xbd5f963f	-0.054586645
229	0x3c94ba39	0.018155204
230	0xbe185235	-0.1487511
231	0x3e5ae1d2	0.21375206
232	0xbe9245c8	-0.28568864
233	0x3e6f5374	0.23371679
234	0xbd5d40e2	-0.054016955
235	0xbd06d954	-0.032922104
236	0xbd016202	-0.03158761
237	0xbe0c4467	-0.13697968
238	0x3f3f1cc6	0.7465328
239	0xbca56c6a	-0.020193297
240	0x388885bd	6.509896e-05
241	0xbe0ee585	-0.13954742
242	0x3e44eb85	0.19230469
243	0xbe00aec9	-0.12566675
244	0xbccb0bce	-0.024785902
245	0xbc3257a0	-0.010885149
246	0xbde18616	-0.11011903
247	0xbd61ca2c	-0.055124447
248	0xbe1b8e89	-0.15191092
249	0xbcc73473	-0.024317002
250	0xbe9bdc95	-0.30441728
251	0x3eb069c2	0.34455687
252	0x3e509939	0.2037095
253	0xbd98087e	-0.07423495
254	0xbd4f9d9e	-0.050687425
255	0xbdfa2738	-0.12214512

fc3.weight f4 [4, 256]
0	0xbbe7def6	-0.0070761396
1	0xbf302cfb	-0.68818635
2	0x3f138c6e	0.57636154
3	0x3f2d1642	0.6761209
4	0xbf7b007f	-0.9804763
5	0x3d4bc180	0.049745083
6	0x3e75bb0e	0.23997137
7	0xbe9ae85a	-0.30255395
8	0x3f018f7e	0.50609577
9	0x3b0d880e	0.0021595987
10	0x3de0ea99	0.10982246
11	0xbcbaec1f	-0.02281767
12	0x3d17432d	0.0369293
13	0xbd1846ff	-0.037177082
14	0xbd120e4c	-0.035658166
15	0xbc4b4d32	-0.0124085415
16	0xbcbe7218	-0.023247764
17	0xbbab561b	-0.0052287704
18	0xbcd3e406	-0.025865566
19	0xbf17c12d	-0.5927914
20	0x3d3d06d7	0.0461491
21	0x3dae0f81	0.08499051
22	0xbc2ab020	-0.010417968
23	0xbd47caf5	-0.04877754
24	0xbe9fb5e0	-0.31193447
25	0x3ee753b0	0.45181036
26	0xbd60bbcc	-0.054866597
27	0x3ee85743	0.45379075
28	0x3d2f04e0	0.04272926
29	0xbcbae793	-0.022815501
30	0xbeaf5518	-0.3424461
31	0xbe83f5cc	-0.25773466
32	0xbd5b050f	-0.05347162
33	0x3b92af6f	0.0044764797
34	0xbe041b13	-0.12900953
35	0xbf4826e2	-0.7818433
36	0xbef1584e	-0.47137684
37	0xbe9cd997	-0.30634758
38	0x3d30ae95	0.043135244
39	0xbd16c8ea	-0.0368127
40	0xbd2fa6d0	-0.042883694
41	0xbf4931bf	-0.7859153
42	0xbf685cee	-0.907668
43	0xbd312c1a	-0.04325495
44	0x3d209ae7	0.039210226
45	0x3f3d0365	0.73833305
46	0x3d852fed	0.06503282
47	0xbf12ea5e	-0.57388866
48	0xbf9e6881	-1.2375642
49	0x3eef0271	0.4668155
50	0x3e76ba7c	0.24094576
51	0x3f15a5fd	0.58456403
52	0x3c9247ae	0.017856445
53	0xbd79e574	-0.06100984
54	0x3c8881be	0.016663428
55	0x3f16d7a4	0.5892279
56	0xbf1e5e02	-0.61862195
57	0x3cb89456	0.02253167
58	0x3beb757e	0.007185637
59	0x3bdbe23f	0.0067103202
60	0x3dd885e5	0.10572413
61	0xbed08481	-0.40726092
62	0x3cd71923	0.026257103
63	0x3d098d8e	0.033582263
64	0x3effcc59	0.49960592
65	0x3c183dcb	0.009292076
66	0xbd386e20	-0.0450269
67	0xbeb17bbc	-0.34664714
68	0xbc323db4	-0.010878969
69	0xbeaff07e	-0.34363168
70	0xbd3b1b40	-0.045680285
71	0xbd113cbd	-0.035458315
72	0x3cf2b066	0.029625129
73	0xbcf8bbcf	-0.030362992
74	0x3cd32de3	0.025778716
75	0xbdf75be7	-0.12078076
76	0x3f7f4084	0.9970782
77	0x3f37aef8	0.71751356
78	0x3ed9c931	0.4253631
79	0xbe073062	-0.1320205
80	0x3c5bccd0	0.01341553
81	0x3eb5e843	0.35528764
82	0xbd258e96	-0.040419184
83	0x3f0fcb10	0.56169224
84	0x3f2db0cc	0.67847896
85	0x3ea063a6	0.31326026
86	0xbee28247	-0.4424002
87	0x3cda0f78	0.026618704
88	0xbd80014a	-0.06250246
89	0xbe19b8f8	-0.15011966
90	0xbe98d1bc	-0.29847515
91	0x3eaab1e3	0.33338842
92	0x3e503de7	0.20336114
93	0xbc25e840	-0.0101261735
94	0xbcaf7f98	-0.021423146
95	0xbd6cee45	-0.05784442
96	0x3e66717c	0.22504228
97	0xbdbb12ed	-0.09134469
98	0x3e79f7f5	0.24410994
99	0xbea31217	-0.3184974
100	0x3ed67bdd	0.41891375
101	0x3f2e50fa	0.6809231
102	0x3c43e95b	0.011957492
103	0xbc2d05ba	-0.010560447
104	0xbcb51ddd	-0.022108966
105	0x3ec43b9e	0.38326734
106	0x3f0b73bc	0.5447347
107	0xbe83893d	-0.25690642
108	0x3f4ffc7f	0.81244653
109	0x3d635066	0.055496596
110	0xbec9e947	-0.3943579
111	0xbe3db55c	-0.18526214
112	0xbe3a7ce9	-0.18211712
113	0x3efab2b1	0.48964456
114	0x3d703378	0.058642834
115	0xbf157826	-0.58386457
116	0xbd9ef079	-0.0776071
117	0xbd21352e	-0.039357357
118	0x3ba9f826	0.0051870523
119	0xbee9dcb7	-0.45676205
120	0xbc25ab0d	-0.010111582
121	0x3bfdd998	0.0077468865
122	0xbc1e8517	-0.009675286
123	0xbceb01f6	-0.028687458
124	0xbd446313	-0.047946047
125	0xbeddee43	-0.43345842
126	0xbcc9a0ef	-0.024612872
127	0xbd404d1f	-0.04694855
128	0xbd322cf0	-0.043499887
129	0xbdc26e53	-0.09493699
130	0x3dcf469c	0.101208895
131	0xbe949bbd	-0.2902507
132	0xbea89750	-0.32927942
133	0xbd037acf	-0.03209954
134	0xbd7ede79	-0.062223885
135	0xbce64008	-0.028106704
136	0x3f552354	0.8325703
137	0x3f0665b7	0.52498955
138	0x3ca35fc0	0.019943118
139	0xbc16bd36	-0.009200385
140	0xbe9e69c5	-0.3094007
141	0x3cc442c6	0.023957621
142	0x3e2c9540	0.1685381
143	0xbb24b254	-0.0025130706
144	0x3ef7f811	0.48431447
145	0xbc09daf7	-0.008414022
146	0x3e6afe47	0.22948562
147	0xbd09ddf7	-0.033658948
148	0xbf01b360	-0.5066433
149	0x3d1236a7	0.03569665
150	0xbdc2942a	-0.09500916
151	0xbe13cf96	-0.14434657
152	0x3e531d3f	0.20616625
153	0x3f1991be	0.5998801
154	0xbe9eb65f	-0.30998513
155	0x3f079b4e	0.5297135
156	0x3c46065c	0.012086477
157	0x3edd9c7d	0.43283454
158	0x3ed2f3b4	0.41201556
159	0x3c3d84c5	0.011567299
160	0x3f01f147	0.50758785
161	0xbc2f34f2	-0.0106937755
162	0xbf07c759	-0.53038555
163	0xbea515e8	-0.32243276
164	0xbef8d6bc	-0.4860133
165	0xbc1f2f40	-0.009715855
166	0x3d215876	0.039391004
167	0x3cdb67a9	0.026782827
168	0xb98fc198	-0.00027419324
169	0xbcb7a57c	-0.022417776
170	0xbb6557d1	-0.003499497
171	0x3f832271	1.0244886
172	0x3cb8ed12	0.022573981
173	0xbe279f36	-0.16369328
174	0x3ed9d9b5	0.4254891
175	0x3c585296	0.013203284
176	0xbf15ae01	-0.58468634
177	0xbebc8109	-0.36817196
178	0x3d051407	0.032489803
179	0xbe297496	-0.1654838
180	0x3e91f469	0.28506783
181	0x3c8a3877	0.016872628
182	0xbeb67af8	-0.35640693
183	0x3d4ef65b	0.05052791
184	0x3d63eff8	0.055648774
185	0x3cd0a110	0.025467426
186	0xbd581236	-0.052751742
187	0xbfb8ecd9	-1.444728
188	0x3beaa566	0.0071608303
189	0x3b206e3b	0.0024479765
190	0xbcd31264	-0.025765605
191	0xbea73001	-0.32653812
192	0x3d11da5e	0.03560864
193	0x3c4680fc	0.012115713
194	0x3f13b00f	0.5769052
195	0x3d5d7dc6	0.054075025
196	0x3caebc0e	0.021329906
197	0xbe8af344	-0.27138722
198	0xbea7dde9	-0.32786492
199	0x3c1b3f26	0.009475505
200	0x3d289672	0.0411591
201	0xbe08ad9d	-0.13347478
202	0xbe944d2e	-0.28965133
203	0x3ef6a893	0.48175487
204	0xbe9443e9	-0.2895806
205	0xbee11466	-0.43960875
206	0x3ec04171	0.37549928
207	0xbed8eb98	-0.42367244
208	0xbec0b1e3	-0.37635717
209	0xbe87e281	-0.26539996
210	0xbbc5b76c	-0.0060338285
211	0x3c8f1263	0.017464822
212	0xbd2d195e	-0.04226052
213	0xbb5c7a06	-0.0033642068
214	0xbd0912a7	-0.033465054
215	0x3cd3f778	0.025874838
216	0x3cd300b8	0.025757179
217	0x3ce94c00	0.028478622
218	0x3d1c2557	0.038121548
219	0xbec5b609	-0.38615444
220	0x3b936299	0.0044978377
221	0xbe845b21	-0.25850776
222	0xbc06a050	-0.008216932
223	0x3c8bde80	0.01707387
224	0xbe97150c	-0.29508245
225	0xbeae81e7	-0.34083483
226	0xbeab7cd7	-0.33493683
227	0xbea2b273	-0.3177677
228	0x3c903e39	0.017607795
229	0x3c7ec4b8	0.015549831
230	0x3b6c3349	0.003604131
231	0x3eb72c7a	0.3577612
232	0x3f9eda50	1.2410374
233	0x3ec12a97	0.37727806
234	0xbf613806	-0.8797611
235	0x3e3449c9	0.17606272
236	0xbc6d340f	-0.014477744
237	0xbe93ea02	-0.2888947
238	0x3ef73744	0.48284352
239	0x3d23206f	0.039825853
240	0xbd143242	-0.036180742
241	0xbe60810f	-0.21924232
242	0xbf07c835	-0.53039867
243	0xbf190a57	-0.597814
244	0x3d60f947	0.05492523
245	0x3cbc56b3	0.02299056
246	0xbf37fba7	-0.71868366
247	0xbcf92160	-0.030411422
248	0x3ce6bbd3	0.028165733
249	0x3d1b59da	0.037927486
250	0xbec3ca14	-0.3824011
251	0x3eedcd7a	0.4644583
252	0xbf123fb1	-0.57128435
253	0xbebf8b1d	-0.37410823
254	0xbb804008	-0.003913883
255	0x3e52c723	0.20583777

fc3.bias f4 [4]
0	0xbc413be8	-0.011794068
1	0xbc8dc80f	-0.01730731
2	0x3e2ca9f0	0.16861701
3	0xbd802ffc	-0.06259152
