csv_and_models/vanilla_dqn/vanilla_lunar_1300.pth (torch, 279222 bytes, 6 tensors)

fc1.weight f4 [256, 8]
0	0xbcad9e5a	-0.021193672
1	0xbfd40230	-1.6563168
2	0xbf27350a	-0.65315306
3	0xbf554c6a	-0.83319724
4	0xbf851ab9	-1.039878
5	0x3f0ced41	0.5504952
6	0xbf0f47a5	-0.55968696
7	0xbfdbc410	-1.7169209
8	0xbfac5b40	-1.3465347
9	0xc002d721	-2.0443804
10	0x3e972140	0.29517555
11	0x3e08245a	0.13295117
12	0xbf68082c	-0.9063747
13	0x3f2462b2	0.642131
14	0xbed5caf5	-0.41756406
15	0xbe25762e	-0.16158363
16	0xbd8604a2	-0.065438524
17	0xbfdf1f70	-1.7431469
18	0xbefc33f6	-0.49258393
19	0xbe157892	-0.14596775
20	0xbea88b3b	-0.32918724
21	0x3f2f75d5	0.6853917
22	0xbeaa39c1	-0.33247188
23	0x3ec1351f	0.3773584
24	0xbed5bb7e	-0.41744608
25	0x4011ef44	2.2802286
26	0x3f106af1	0.5641318
27	0x3e8eea2c	0.27913034
28	0xbfde499e	-1.7366216
29	0xbe38e2cb	-0.18055265
30	0xba76e89a	-0.00094188156
31	0xbcad629a	-0.021165181
32	0x3d8b4fc1	0.06802321
33	0xbb77de42	-0.0037821685
34	0x3bdf46f4	0.006813878
35	0xbb1c8422	-0.0023882468
36	0x406433bb	3.5656574
37	0xba539a45	-0.0008071999
38	0xbe0b59a1	-0.1360841
39	0xbe23a019	-0.15979041
40	0xbe698ca5	-0.22807558
41	0xc027ab83	-2.6198432
42	0x3d27b3fa	0.040943123
43	0x3f52fc31	0.82416064
44	0x3d643b6e	0.05572074
45	0xbb20dc08	-0.0024545211
46	0xbcb5ba09	-0.022183435
47	0x3cf6a560	0.030108154
48	0x4062c191	3.5430644
49	0x3e0c76c5	0.13717182
50	0x3f514df7	0.8175959
51	0x3decb785	0.11558441
52	0xbf8c9d02	-1.0985415
53	0x3e0733c1	0.13203336
54	0x3c41c55d	0.01182684
55	0xbe31bd80	-0.17357445
56	0x4014fb4c	2.327838
57	0xc01fd804	-2.4975595
58	0x3e4bb840	0.19894505
59	0x3d541095	0.051773626
60	0x3e86c235	0.26320043
61	0xbdf217ce	-0.11820947
62	0x3d73b5d0	0.05949956
63	0xbd36056e	-0.044438772
64	0x409beede	4.8729086
65	0x3c70f71c	0.014707353
66	0xbc6ffa23	-0.01464704
67	0x3cbb1c9c	0.02284079
68	0xbf4ef8b8	-0.80848265
69	0x3e5449d3	0.20731287
70	0xbe31c317	-0.17359577
71	0x3f03321d	0.5124834
72	0x3ccf33c2	0.025293235
73	0xc00290fe	-2.0400996
74	0xbf0e2f0e	-0.5554055
75	0x3ef93681	0.48674396
76	0x3fb8a59e	1.4425542
77	0xbedfd461	-0.4371672
78	0x3f30f33e	0.6912116
79	0xbe14f847	-0.14547835
80	0xbebf7f4e	-0.37401813
81	0xbe9fec57	-0.31235
82	0x3f4951c3	0.78640383
83	0xbf6ddab2	-0.9291183
84	0xbe1b4acb	-0.1516525
85	0xbedc6f3f	-0.43053624
86	0xbd2eb945	-0.042657156
87	0xbeaaa3d1	-0.33328107
88	0x3e2a71d5	0.16644986
89	0xbe98e89e	-0.29864973
90	0x3edc0060	0.42969036
91	0xbf74d8dc	-0.956434
92	0x3f3540a1	0.7080174
93	0xbefa39a8	-0.48872113
94	0xbd8d2a2e	-0.06892811
95	0x3d845bec	0.06462845
96	0xbe35729d	-0.17719503
97	0x402c9558	2.6966152
98	0x3d7f2f13	0.062300753
99	0xbf85a945	-1.0442282
100	0x3f2100ee	0.62892044
101	0xbf214251	-0.62991816
102	0x3d7241a4	0.05914463
103	0x3eb5f25d	0.3553647
104	0xbf756aac	-0.95865893
105	0x3fc97211	1.5737935
106	0xbf8d30d7	-1.103053
107	0x3bdfd6c2	0.006831021
108	0x3f0f2ebf	0.55930704
109	0x3f0039f3	0.50088423
110	0xbe9de3e2	-0.30837923
111	0x3e961ce6	0.29318923
112	0x40015dd9	2.021353
113	0x3f6ff384	0.9373095
114	0xbf70a310	-0.93998814
115	0x3f1f60f2	0.622573
116	0xbf1d009a	-0.6132904
117	0xbeef16ee	-0.4669718
118	0xbe59a5a4	-0.21254593
119	0xbf20f7b7	-0.6287798
120	0xbe30a0f3	-0.17248897
121	0xc0256aa4	-2.5846338
122	0xbf0293c9	-0.5100675
123	0x3f97d421	1.1861612
124	0xc00106fb	-2.016051
125	0xbe2b9c44	-0.1675883
126	0x3e572ec3	0.21013932
127	0x3d1ef2ac	0.03880565
128	0x3eb05bc9	0.34445027
129	0xbfb6975f	-1.4264945
130	0xbee5c9ad	-0.4488043
131	0x3d526d61	0.051373843
132	0xbfa3620e	-1.2764299
133	0x3f988717	1.1916226
134	0xbf47c116	-0.78029
135	0xbf83b5dc	-1.0289874
136	0xbea34626	-0.31889457
137	0x3fbcc3c1	1.4747239
138	0xbf0a1031	-0.53930956
139	0x3f073eb5	0.5283006
140	0x3fc1a59f	1.5128669
141	0x3e02c103	0.1276894
142	0xbf16d63b	-0.5892064
143	0xbd8b426f	-0.067997806
144	0xbe976608	-0.2957003
145	0x3efaa4a7	0.48953745
146	0xbf187b49	-0.5956312
147	0xbd8555af	-0.065104835
148	0x40001610	2.0013466
149	0x3eda029e	0.42580122
150	0xbf9fe911	-1.2493001
151	0xbf128fa6	-0.5725044
152	0xbeb8d4e9	-0.36099938
153	0xc0ac322e	-5.3811255
154	0x3e70a5f3	0.23500805
155	0xbf977005	-1.1831061
156	0x3e48aed8	0.19597948
157	0x3c476dd1	0.012172178
158	0x3e9ba113	0.30396327
159	0x3da7c179	0.08191199
160	0xbf060548	-0.5235181
161	0xbdba3878	-0.09092802
162	0x400b0cf3	2.1726654
163	0xbe6d04a0	-0.23146296
164	0x3e723563	0.23653178
165	0xbe320fd2	-0.17388847
166	0xbf02b3e8	-0.51055765
167	0xbfd3eed1	-1.6557256
168	0xbed25b21	-0.4108515
169	0xbefd8678	-0.49516654
170	0x3fa86950	1.3157139
171	0x3ebe8bb5	0.37215963
172	0xbed30f16	-0.41222447
173	0x3f7b09be	0.9806174
174	0xbf08eb6a	-0.53484213
175	0x3d48723b	0.048937064
176	0x3f41b950	0.7567339
177	0x3dfc87b2	0.12330569
178	0xbf116647	-0.5679669
179	0x3eaee9a0	0.34162617
180	0xbf08b0f6	-0.5339502
181	0xbf953981	-1.1658174
182	0x3d284ed5	0.041090805
183	0x3e3c016d	0.18359919
184	0x3fae494c	1.3616118
185	0xbfe1eb7e	-1.7649992
186	0xbf8e091d	-1.1096531
187	0xbf3df768	-0.74205637
188	0x3de8afef	0.11361682
189	0xbda07c41	-0.078361996
190	0xbbf11f52	-0.00735847
191	0xbd9c634c	-0.07636127
192	0xbf8fcd33	-1.1234497
193	0xc00fd325	-2.2472622
194	0x3e5f622d	0.21814795
195	0xbea37891	-0.31927922
196	0xbf8c67f0	-1.0969219
197	0xbf0f9fc8	-0.5610318
198	0xbe72d136	-0.2371262
199	0xbe8cc568	-0.2749436
200	0xbe3692a0	-0.1782937
201	0xbfe9f5a4	-1.8278089
202	0x3f523d49	0.82124764
203	0xbfa05ad3	-1.2527717
204	0x3ea4a68c	0.32158315
205	0xbeb2b8e1	-0.34906676
206	0x3c7ff7fc	0.015623089
207	0xbe1b75bd	-0.15181632
208	0xbd4cbad2	-0.049982853
209	0x3f8fecac	1.1244102
210	0xbf750fd1	-0.9572726
211	0x3e13ff88	0.14452946
212	0xbf3bacce	-0.73310554
213	0x3c88693d	0.016651744
214	0xbe788f6b	-0.2427346
215	0x3e83ba9b	0.25728306
216	0x3e98bf1b	0.29833302
217	0xc03e41da	-2.9727693
218	0x3f22156c	0.6331394
219	0x3f20b55f	0.6277675
220	0x3f882c3f	1.0638503
221	0xbe894128	-0.26807523
222	0x3d9791a1	0.074008234
223	0x3d4d1f3b	0.05007861
224	0x3ee16323	0.44020948
225	0xbfed6bff	-1.8548583
226	0xbf12a0e5	-0.57276756
227	0x3ec41b55	0.38302103
228	0x3e8eb47e	0.2787208
229	0xbe3c61c3	-0.18396668
230	0xbf37a576	-0.7173685
231	0xbeb0c52b	-0.34525427
232	0x3f985a0e	1.1902483
233	0xc0ee3069	-7.4434094
234	0x3d0977c3	0.03356148
235	0xbda0bb0d	-0.07848177
236	0x3f7cf575	0.9881204
237	0xbe29b7de	-0.16574046
238	0x3ef14044	0.47119343
239	0x3c88226a	0.016617972
240	0x3e9a5b44	0.30147755
241	0xbfc54e4d	-1.541452
242	0xbf52606f	-0.82178396
243	0x3f50215d	0.8130091
244	0xbe17974e	-0.14803812
245	0xbeb630d3	-0.35584125
246	0xbedcc95e	-0.4312238
247	0xbe590f2b	-0.21197192
248	0xbe917652	-0.28410584
249	0xc012e182	-2.295014
250	0x3fbd58df	1.4792746
251	0xbebdc614	-0.37065184
252	0xbeac11e3	-0.33607396
253	0x3efacf19	0.48986128
254	0x3e3bd770	0.18343902
255	0x3e630101	0.22168352

fc1.bias f4 [256]
0	0xbf6cb584	-0.9246447
1	0xbf3dc51d	-0.74128896
2	0xbf206d26	-0.6266655
3	0x3cc18279	0.023621785
4	0xba8eac81	-0.001088515
5	0x3f5f1047	0.8713421
6	0xbe4ccb82	-0.19999507
7	0xbeb136b8	-0.3461206
8	0xbae20e2b	-0.0017246654
9	0xbed7bc7f	-0.42136
10	0x3e60709f	0.21917962
11	0x3f19c6cc	0.60068965
12	0xbe9051fb	-0.28187546
13	0xbf6dc622	-0.9288045
14	0x3f1608ef	0.5860738
15	0xbd562794	-0.05228384
16	0xbf2501f4	-0.64456105
17	0x3e80546f	0.25064418
18	0xbe0519a3	-0.12998061
19	0xbea928e3	-0.33039007
20	0xbdf900d4	-0.12158361
21	0xbf230dc2	-0.6369287
22	0xbe73839b	-0.23780672
23	0xbe9c014b	-0.30469736
24	0xbf2d227d	-0.6763075
25	0xbe9a853b	-0.30179772
26	0x3f4705c3	0.77743167
27	0x3e503f20	0.2033658
28	0xbf3bdea8	-0.7338662
29	0xbecaaea3	-0.39586362
30	0xbf90b619	-1.1305572
31	0xbef5a40d	-0.47976723
32	0x3f900c26	1.1253707
33	0x3d9736ed	0.07383523
34	0xbdae9560	-0.08524585
35	0xbe5bb753	-0.21456651
36	0x3cb1b5b1	0.021693083
37	0xbf90a4b9	-1.1300269
38	0xbe3676f9	-0.17818822
39	0x3ee15f8e	0.44018215
40	0xbf1bc8cd	-0.6085327
41	0xbe18f625	-0.14937647
42	0xbe4e2283	-0.20130353
43	0xbf23bb63	-0.63957804
44	0x3f6942dc	0.91117644
45	0x3ea4e717	0.32207558
46	0xbecf16c0	-0.40447044
47	0xbf7a92b3	-0.97880095
48	0xbeda3d64	-0.42624962
49	0x3df1cd82	0.11806776
50	0xbdaeb83e	-0.08531235
51	0x3eb5da4f	0.3551812
52	0xbd59c511	-0.053166453
53	0x3ed1031f	0.40822694
54	0x3e471661	0.1944213
55	0xbde6279a	-0.11238022
56	0x3efe9b03	0.4972764
57	0x3e8f6d61	0.28013137
58	0xbeb7b674	-0.35881388
59	0xbf41daf7	-0.7572474
60	0x3ed8db58	0.42354846
61	0x3e223213	0.15839414
62	0x3ed0b4d7	0.4076297
63	0x3ba7c673	0.0051200925
64	0x3f068719	0.5254989
65	0xbefcc565	-0.4936935
66	0xbee642ee	-0.44972938
67	0x3ccee668	0.02525635
68	0xbef9af7e	-0.48766702
69	0xbeba9659	-0.3644283
70	0xbe9936d0	-0.2992463
71	0x3ef63dc2	0.48093992
72	0xbf1ba25b	-0.6079461
73	0x3f76f59d	0.96468526
74	0xbd1fabed	-0.03898232
75	0x3ead0ccd	0.3379883
76	0xbdf7a8f3	-0.120927714
77	0xbec27eba	-0.3798731
78	0xbc6a58e4	-0.01430342
79	0x3f07b41b	0.53009194
80	0x3df28a3e	0.11842774
81	0x3eefb0a6	0.4681446
82	0xbce147bf	-0.027500032
83	0xbe9ba4d3	-0.30399188
84	0x3f1f67b5	0.6226762
85	0x3ef1182c	0.47088754
86	0x3db2b025	0.08725003
87	0x3ed75db2	0.4206367
88	0x3e30f538	0.17281044
89	0x3f988d31	1.1918088
90	0x3f0608db	0.5235726
91	0xbe7d9a08	-0.2476579
92	0xbf9e679c	-1.2375369
93	0xbe6ca1d3	-0.23108606
94	0x3c2d24e2	0.010567876
95	0xbe2ee036	-0.17077717
96	0x3d3fb531	0.046803657
97	0xbf4ee6bf	-0.8082084
98	0xbf2d6c4a	-0.6774336
99	0xbf9a5b8a	-1.2059186
100	0x3f9b1a0f	1.2117327
101	0x3d275d4e	0.040860467
102	0xbeaeb273	-0.3412052
103	0xbc8bf8b4	-0.017086364
104	0xbec2f099	-0.38074186
105	0xbf24490d	-0.64173967
106	0xbf98774c	-1.1911407
107	0x3f1abee2	0.60447514
108	0xbf608d5a	-0.87715685
109	0xbe25d298	-0.16193616
110	0xbf1fed24	-0.6247122
111	0xbefeb604	-0.49748242
112	0x3f22b0c3	0.63550967
113	0xbd2d42e5	-0.042300124
114	0xbe81a6f3	-0.25322685
115	0x3f37942f	0.71710485
116	0xbe8cbdd4	-0.27488577
117	0xbcd693fe	-0.026193615
118	0x3f39c1b3	0.72561187
119	0xbf6fa67c	-0.9361341
120	0xbf82fd12	-1.0233481
121	0x3f219cf3	0.6313011
122	0x3f296132	0.66163933
123	0xbf77b4f4	-0.9676049
124	0x3ce1e277	0.027573807
125	0xbf618cde	-0.8810557
126	0xbed53768	-0.41643834
127	0xbc96f784	-0.018428572
128	0x3e3a2c6b	0.18181007
129	0x3ead703c	0.3387469
130	0x3e503ed9	0.20336474
131	0xbf768e9b	-0.9631135
132	0x3ea6561d	0.32487574
133	0xbd820fff	-0.06350707
134	0x3ee21dee	0.4416346
135	0x3ee3f69e	0.4452409
136	0xbc6c9a18	-0.014441036
137	0x3e1eb08d	0.15497036
138	0xbf789919	-0.9710861
139	0x3e922b30	0.28548574
140	0x3f7bb747	0.98326534
141	0x3da9ef1c	0.082975596
142	0x3de5307b	0.111908875
143	0x3c9cec8d	0.019155765
144	0xbf1f9395	-0.6233457
145	0xbf84d2cb	-1.0376829
146	0xbf297b01	-0.66203314
147	0x3eb91611	0.36149648
148	0x3f6df2f3	0.92948836
149	0x3ebcac7c	0.36850345
150	0x3f257094	0.64624906
151	0x3ead734e	0.33877033
152	0xbe700313	-0.23438673
153	0xbf2f13a6	-0.68389356
154	0x3e86422a	0.26222354
155	0x3f4b0fc9	0.7932096
156	0xbf564ce3	-0.8371107
157	0xbea9a14e	-0.33130878
158	0x3e40a56d	0.18813105
159	0x3e67048d	0.2256033
160	0x3d9f11d6	0.07767074
161	0x3be05d56	0.006847064
162	0xbf2abbab	-0.6669261
163	0x3ea443e4	0.32083046
164	0xbd085de1	-0.033292655
165	0x3e49e378	0.19715679
166	0xbec6870e	-0.38774914
167	0x3dc591ab	0.096469246
168	0x3f056b51	0.52116877
169	0xbdf4b7e4	-0.11949137
170	0xbea33dc3	-0.31883058
171	0x3efb3ee7	0.49071428
172	0xbd980457	-0.07422703
173	0xbe71d2b8	-0.23615539
174	0xbeee2121	-0.4650965
175	0x3f6cc54d	0.9248856
176	0x3f19d734	0.60094
177	0xbf0305ba	-0.51180613
178	0x3fd776b6	1.6833103
179	0xbfa3480f	-1.2756366
180	0xbf0d2b6b	-0.55144376
181	0x3e3c2a20	0.18375444
182	0xbf014ef0	-0.50511074
183	0x3e3768f5	0.17911132
184	0x3d0736c5	0.033011217
185	0x3e3fb7f4	0.18722516
186	0xbf4aeb98	-0.7926574
187	0xbd2b9b87	-0.04189637
188	0xbf5d1a15	-0.86367923
189	0xbf3b03f2	-0.73052895
190	0x3f7e0bb0	0.99236584
191	0xbefbf12e	-0.49207443
192	0x3f096fc5	0.5368617
193	0xbe8eba12	-0.27876335
194	0x3f4b2160	0.793478
195	0xbea7189b	-0.3263596
196	0x3e71e3bd	0.23622032
197	0x3c2b8cf9	0.010470622
198	0xbc3c7216	-0.01150181
199	0xbf789e59	-0.9711662
200	0xbf8861c7	-1.0654839
201	0xbf3c99e3	-0.7367231
202	0xbf07b71b	-0.5301377
203	0xbe71545d	-0.23567338
204	0x3eb4c8f8	0.35309577
205	0x3f3d871a	0.74034274
206	0x3f0bb903	0.5457918
207	0xbde8a271	-0.11359108
208	0x3ecefb6c	0.40426195
209	0xbe3f3e37	-0.18676077
210	0x3cf0109a	0.029304791
211	0xbef57ade	-0.47945303
212	0xbd8ace56	-0.06777637
213	0x3e15b9f4	0.14621717
214	0x3f34ec2a	0.7067286
215	0xbf60ec79	-0.8786083
216	0xbf40018a	-0.7500235
217	0xbf0037ef	-0.5008535
218	0x3ec66226	0.38746756
219	0x3e384232	0.17994002
220	0x3f479df2	0.7797538
221	0x3f17954f	0.592122
222	0xbed36ad3	-0.41292438
223	0xbeb0b2ab	-0.34511313
224	0xbf1ead36	-0.6198305
225	0x3e8f8ed7	0.28038666
226	0xbf1a2ed0	-0.6022768
227	0x3e02b38a	0.12763801
228	0xbea835b7	-0.3285348
229	0xbda85fd2	-0.08221401
230	0x3babf202	0.0052473554
231	0x3d5b4df3	0.053541135
232	0xbf853deb	-1.0409521
233	0xbeff92e4	-0.49916756
234	0xbf7f0165	-0.996115
235	0xbf803667	-1.0016602
236	0xbf4268e4	-0.759413
237	0xbf34a411	-0.70562845
238	0xbf1ebd9e	-0.6200808
239	0xbd0f77ce	-0.035026364
240	0x3f3f6685	0.7476581
241	0x3f7db83f	0.9910926
242	0x3bd48e79	0.0064867106
243	0xbed054fb	-0.40689835
244	0x3e4a39d8	0.19748628
245	0xbed32dab	-0.4124578
246	0xbeb41d29	-0.35178497
247	0xbea53bc4	-0.3227216
248	0xbec83880	-0.39105606
249	0x3ee24262	0.4419127
250	0xbd14ec30	-0.03635806
251	0x3acea30d	0.0015765146
252	0xbe961b97	-0.29317924
253	0xbe637079	-0.22210874
254	0xbeb46908	-0.35236382
255	0x3e734afd	0.23759075

fc2.weight f4 [256, 256]
0	0xbd9bc8c9	-0.07606656
1	0x3dc70af2	0.097188845
2	0xbce3f276	-0.027825575
3	0xbd769748	-0.060202867
4	0xbd9becc2	-0.07613517
5	0x3ce69f4a	0.028152127
6	0xbd81caa0	-0.06337476
7	0xbd459670	-0.04823917
8	0xbd462ec6	-0.04838445
9	0xbc92dabe	-0.01792657
10	0xbd8f3396	-0.06992261
11	0xbdd8cb60	-0.10585666
12	0xbdde632b	-0.108587585
13	0xbddeea55	-0.10884539
14	0xbc9b3dea	-0.018950421
15	0xbdfb3849	-0.12266595
16	0xbd215852	-0.03939087
17	0xbd21d8e2	-0.039513476
18	0xbe039ba1	-0.12852336
19	0x3aea812a	0.0017891277
20	0xbd2a88d4	-0.041634396
21	0xbcb17f08	-0.021667019
22	0xbc9672bc	-0.018365256
23	0xbdecbf15	-0.115598835
24	0xbc8848c3	-0.016636258
25	0x3db0a948	0.08626038
26	0xbdafbb71	-0.085806735
27	0xbd2d01b0	-0.042237937
28	0x3d796538	0.060887545
29	0x3b36407c	0.0027809432
30	0xbe1723af	-0.14759706
31	0x3cc123e1	0.023576679
32	0xbdb9c2df	-0.09070372
33	0xbc348f66	-0.011020517
34	0xbd61943c	-0.055073008
35	0xbc667733	-0.014066505
36	0x3d1bb71c	0.038016424
37	0xbd95dd12	-0.073175564
38	0x3d076b21	0.03306115
39	0x3d1ca749	0.038245473
40	0xbd70b57d	-0.05876683
41	0xbc2a66f5	-0.010400523
42	0xbc350b21	-0.011050017
43	0xbce29763	-0.027660077
44	0xbd14a20e	-0.03628736
45	0xbd65b99f	-0.056085225
46	0xbd5049e3	-0.050851714
47	0x3ca2660c	0.01982405
48	0xbdb06b75	-0.08614246
49	0xbd9ea1aa	-0.07745679
50	0xbd30f58f	-0.043202933
51	0x3becf6a5	0.0072315508
52	0xbd0ef934	-0.034905627
53	0xbd795ab7	-0.060877528
54	0xbd966787	-0.07343965
55	0xbd946bd2	-0.072471276
56	0x3ca2f93c	0.019894235
57	0xbdc11652	-0.094280854
58	0x3b9b3ff9	0.0047378507
59	0xbd540863	-0.05176581
60	0xbd3bc013	-0.045837473
61	0xbd5298ab	-0.051415127
62	0x3b37a050	0.0028019138
63	0x3d291621	0.04128087
64	0xbda12af3	-0.0786952
65	0xbd304856	-0.043037735
66	0x3bd37e60	0.006454274
67	0x3b7ddcb4	0.0038736286
68	0xbd4dfb48	-0.05028847
69	0xbd57e4cc	-0.052708432
70	0xbd16cd12	-0.036816664
71	0xbd083140	-0.033250093
72	0x3c728748	0.014802761
73	0xbcc22915	-0.02370123
74	0xbd37fae2	-0.044916995
75	0xbcd30a2a	-0.025761683
76	0xbda5fd57	-0.08104961
77	0xbe096a52	-0.13419464
78	0xbe02c740	-0.1277132
79	0xbdc12c08	-0.094322264
80	0xbd81fc68	-0.06346971
81	0xbdb785d6	-0.08961074
82	0x3d039fb9	0.032134745
83	0xbbb5c020	-0.0055465847
84	0xbd954ac5	-0.07289652
85	0xbde78280	-0.11304188
86	0xbc6cea6d	-0.014460188
87	0xbe0598e1	-0.130466
88	0x3b2d203b	0.0026416916
89	0xbd95e1d8	-0.07318467
90	0xbdbf5d38	-0.09343952
91	0xbde7badd	-0.11314938
92	0x3d11e23c	0.035616145
93	0xbd3cfac4	-0.046137586
94	0xbce8a549	-0.028399127
95	0xbcb7e440	-0.022447705
96	0xbe32cf14	-0.17461807
97	0x3cd675bb	0.026179185
98	0xbd7a5b57	-0.061122265
99	0xbd3dbb40	-0.046321154
100	0x3b177270	0.0023108982
101	0xbd4b3822	-0.04961408
102	0xbd9af4b8	-0.07566208
103	0x3e4ae30e	0.19813177
104	0xbd407d5a	-0.046994545
105	0x3a0aba2b	0.00052920234
106	0x3b55dff3	0.0032634705
107	0xbd502c45	-0.05082347
108	0x3d1cc0f1	0.03826994
109	0xbdd054c0	-0.10172415
110	0xbca31437	-0.0199071
111	0xbc3992e4	-0.011326525
112	0x3c8f2d76	0.017477732
113	0x3d28add3	0.041181397
114	0x3d5a20de	0.053254
115	0xbd5564da	-0.052098133
116	0xbc124b0f	-0.008929028
117	0xbd68b5d2	-0.056814022
118	0xbde6ba4b	-0.11266001
119	0xbd44a8f4	-0.04801269
120	0x3b0d891f	0.0021596623
121	0xbbff6313	-0.007793793
122	0xbd3984ca	-0.045292653
123	0xbdaa6173	-0.08319368
124	0x3ba80a86	0.0051282076
125	0xbb279480	-0.002557069
126	0xbd203110	-0.03910929
127	0xbd58c028	-0.05291763
128	0xbdaebe29	-0.08532364
129	0xbd87aeef	-0.06625163
130	0xbd5a8ccc	-0.05335693
131	0xbd8e3ea8	-0.069455445
132	0xbd8be356	-0.0683047
133	0xbce73edf	-0.028228221
134	0xbc65da6a	-0.014029125
135	0xbdb2e4e9	-0.087350674
136	0xbdd03a90	-0.1016742
137	0xbc0b12bf	-0.008488356
138	0xbd0816c9	-0.033224855
139	0xbd452eaf	-0.048140224
140	0xbc684b6e	-0.01417814
141	0xbd43358e	-0.047658496
142	0xbdb4ef7b	-0.0883474
143	0xbd525f2c	-0.051360294
144	0x3d32c11d	0.0436412
145	0x3c86d958	0.01646106
146	0xbd8c03f9	-0.06836695
147	0xbc89ff15	-0.016845265
148	0xbd4b0249	-0.049562726
149	0xbc1a794d	-0.009428334
150	0xbd9e9a4e	-0.07744275
151	0x3c490bb0	0.012270853
152	0xbda25fd5	-0.07928435
153	0x3d255ce3	0.040371787
154	0xbd3ee036	-0.046600543
155	0xbbb00dbe	-0.005372732
156	0x3d06308c	0.03276114
157	0xbc440a9b	-0.011965419
158	0x3d2ba6ce	0.041907124
159	0x3d497419	0.049182985
160	0xbe065ce2	-0.1312137
161	0xbd0f5a6c	-0.034998342
162	0x3d86124d	0.06546459
163	0xbc64eef5	-0.013972987
164	0xbc039f39	-0.008033567
165	0x3cd2bab9	0.025723802
166	0xbdcac57a	-0.09900947
167	0xbdcba9a1	-0.099444635
168	0xbd23e5d4	-0.040014103
169	0xbdc964eb	-0.09833702
170	0x3b05a62b	0.0020393233
171	0xbe2deda5	-0.16985185
172	0x3d875e28	0.06609756
173	0x3dec121f	0.11526894
174	0xbb423df8	-0.0029638987
175	0xbd3bab90	-0.04581791
176	0xbba01d8c	-0.0048863348
177	0xbda51875	-0.080613054
178	0xbd1e32d2	-0.038622685
179	0x3cb1f902	0.021725181
180	0xbd3acc29	-0.04560486
181	0xbc74f696	-0.014951369
182	0xbd41be87	-0.04730084
183	0xbdec5e1a	-0.11541386
184	0xbdc10512	-0.09424795
185	0xbd6e7d00	-0.058224678
186	0x3d3402b3	0.043947887
187	0xbd274b27	-0.040843155
188	0xbd79887e	-0.060921185
189	0x3c80fc3c	0.015745275
190	0xbdb28225	-0.08716229
191	0xbc5a8290	-0.013336793
192	0xbd1c2e7b	-0.038130265
193	0xbc23e1b5	-0.010002543
194	0x396a3fe7	0.00022339784
195	0xbc9912a9	-0.018685656
196	0xbd1c6bed	-0.038188864
197	0xbc9868ca	-0.018604655
198	0xbdb6564a	-0.08903177
199	0xbd96cf4f	-0.0736376
200	0xbe3a693f	-0.1820421
201	0x3cc82876	0.024433356
202	0xbd30a558	-0.043126434
203	0xbda58afa	-0.08083148
204	0xbc341992	-0.010992425
205	0xbc667403	-0.014065745
206	0xbd5d9fb5	-0.054107387
207	0x3c30d576	0.010793081
208	0xbdb85d3e	-0.090021595
209	0xbd35e5a7	-0.044408467
210	0xbda9a840	-0.08284044
211	0x3c42e42c	0.011895221
212	0xbd439a62	-0.047754653
213	0x3cff1b2f	0.031140892
214	0xbcc11eb3	-0.023574209
215	0xbd03e7a5	-0.032203335
216	0xbd348633	-0.044073295
217	0xbdd9b4e1	-0.10630203
218	0xbd7b2005	-0.061309833
219	0x3d2503eb	0.04028694
220	0xbbba3479	-0.0056825248
221	0xbd2de33d	-0.04245304
222	0x3dc51828	0.09623748
223	0xbdb8b67c	-0.09019181
224	0xbd7eb3be	-0.062183134
225	0xbd83ffab	-0.06445249
226	0xbcf7c260	-0.030244052
227	0xbda267dd	-0.079299666
228	0xbd235093	-0.039871763
229	0xbd8af76e	-0.06785475
230	0xbc09585d	-0.008382884
231	0xbc9b1fff	-0.018936155
232	0xbb425f67	-0.0029658915
233	0xbd4539d6	-0.04815086
234	0xbc041178	-0.0080608055
235	0x3d9ec40e	0.07752238
236	0xbdb10378	-0.0864324
237	0xbdd5a25d	-0.10431359
238	0xbdc508e8	-0.09620839
239	0x3cb93b9b	0.02261143
240	0xbdb3f91d	-0.08787749
241	0xbd658fcb	-0.056045335
242	0xbd0ca8ee	-0.03434079
243	0x3c046e63	0.008082959
244	0xbd6a661c	-0.057226285
245	0xbc1bdf32	-0.009513663
246	0x3d6619da	0.056176998
247	0x3d0a26f7	0.033728566
248	0xbd4e7394	-0.050403193
249	0xbdeca87f	-0.115555756
250	0x3cd73fcd	0.02627554
251	0xbd040edb	-0.03224073
252	0xbcc62398	-0.024186894
253	0x3d4bbfac	0.04974334
254	0x3ceb3067	0.028709603
255	0xbd930d98	-0.07180327

fc2.bias f4 [256]
0	0xbb2f3884	-0.0026736567
1	0xbe40b1b1	-0.18817784
2	0xbde791d2	-0.1130711
3	0x3f3a9bb5	0.7289384
4	0xbe22d6c6	-0.15902242
5	0xbbee13e5	-0.007265555
6	0xbe0b3155	-0.13593037
7	0xbb80213a	-0.003910211
8	0x3dfd5e06	0.12371449
9	0xbd12fade	-0.035883777
10	0xbe248ba6	-0.16068897
11	0xbd243c3c	-0.040096506
12	0x3d075d94	0.033048227
13	0xbd96c01b	-0.0736086
14	0x3c5f63b3	0.01363461
15	0xbdaa878e	-0.08326636
16	0xbd6ec9ac	-0.058297798
17	0xbba1f1a7	-0.0049421373
18	0xbdbdf654	-0.09275499
19	0xbe9ff213	-0.31239375
20	0x3d4e5d58	0.05038199
21	0xbe6930ce	-0.22772524
22	0xbdae1ba6	-0.08501367
23	0xbc5c8c2c	-0.013461154
24	0xbd33544f	-0.043781575
25	0x3f9f61ae	1.2451684
26	0xbd66902d	-0.05628984
27	0x3f9a8164	1.2070737
28	0x3c3926c4	0.011300746
29	0xbda42a7d	-0.080159165
30	0xbe59c832	-0.21267775
31	0xbed18df8	-0.40928626
32	0xbd6588dc	-0.056038722
33	0xbdcc8445	-0.09986166
34	0xbee2e458	-0.44314837
35	0x3e5860b3	0.21130638
36	0xbd7c2703	-0.061560642
37	0xbe25d505	-0.16194542
38	0xbe0b4748	-0.1360141
39	0xbd5bb8e8	-0.053643137
40	0xbd87834f	-0.06616842
41	0xbea27ac0	-0.31734276
42	0xbdda6c4c	-0.10665187
43	0xbd882728	-0.066480935
44	0xbd2b8068	-0.041870505
45	0xbf238250	-0.63870716
46	0x3d6120e7	0.05496302
47	0xbe0a35c0	-0.13497066
48	0x3c14244d	0.009041858
49	0xbc2c20c8	-0.0105058625
50	0xbdace9c2	-0.08443023
51	0x3fbf7212	1.4956686
52	0x3ccf6500	0.025316715
53	0xbdaa77c3	-0.08323624
54	0xbe46afd3	-0.19403009
55	0x3ef63615	0.48088136
56	0x3bccde41	0.0062520807
57	0xbd09ab86	-0.033610843
58	0xbd302a35	-0.043009
59	0xbd3078a1	-0.04308379
60	0xbdb79024	-0.089630395
61	0x3d166289	0.036715064
62	0xbc836eb0	-0.01604399
63	0x3c911558	0.017710373
64	0x3fbdde1c	1.4833407
65	0xbd56b57f	-0.052419182
66	0xbcab3759	-0.020900415
67	0xbd929d54	-0.07158914
68	0xbc5103f5	-0.012757291
69	0x3ccb8f71	0.024848672
70	0xbda454de	-0.08024
71	0xbd65fd95	-0.056150038
72	0xbd25c243	-0.040468466
73	0xbdcb739e	-0.099341616
74	0xbc44450e	-0.011979355
75	0xbd7e3576	-0.062062703
76	0xbea04837	-0.31305096
77	0xbebb2077	-0.36548206
78	0xbe9e83a5	-0.30959812
79	0xbe3b97cf	-0.18319629
80	0xbd6d1d58	-0.057889313
81	0xbf0eb5e1	-0.55746275
82	0xbcb8e0e7	-0.02256818
83	0x3e867461	0.26260665
84	0xbf2b0a4d	-0.6681259
85	0xbe69d4ee	-0.22835132
86	0xbead2f5f	-0.33825204
87	0xbdb4c8a1	-0.088273294
88	0xbdb23885	-0.087021865
89	0xbd1c38dd	-0.038140167
90	0x3ec8879c	0.39165962
91	0xbec4ff93	-0.38476238
92	0xbe51df87	-0.20495425
93	0xbb8de8da	-0.0043307366
94	0xbd94c149	-0.07263429
95	0xbbcabf30	-0.006187342
96	0x3d587435	0.0528452
97	0x3d81e777	0.063429765
98	0xbe1497f1	-0.14511086
99	0xbcde0efe	-0.027106758
100	0xbea0f60c	-0.3143772
101	0x3f435771	0.763053
102	0xbdcc6279	-0.0997972
103	0x3d4b9792	0.049705096
104	0xbf0a9404	-0.54132104
105	0x3e2b240a	0.16712967
106	0x3f4b86e3	0.79502696
107	0xbef9da34	-0.48799288
108	0xbf2769d3	-0.6539585
109	0xbda492a2	-0.080357805
110	0x3cc15b46	0.023603093
111	0xbda4b830	-0.080429435
112	0x3d4ad58b	0.049520057
113	0xbe4a57db	-0.19760077
114	0xbe30db83	-0.17271237
115	0xbcfb607e	-0.03068566
116	0xbe5de0c8	-0.21667778
117	0xbd45aef5	-0.048262555
118	0xbcc0a81b	-0.023517659
119	0xbe0e1210	-0.13874078
120	0x3c22ee92	0.009944575
121	0xbd1006ca	-0.035162725
122	0xbdbe055e	-0.092783675
123	0xbdf61ab0	-0.12016809
124	0xbd7b1116	-0.06129559
125	0x3e1dc01f	0.1540532
126	0xbd2d81b3	-0.04236002
127	0xbbbb9fb4	-0.005725825
128	0xbc881a12	-0.016613994
129	0xbda90eb1	-0.08254755
130	0xbc3049d4	-0.0107597895
131	0xbeab2608	-0.33427453
132	0xbf15e5cd	-0.58553773
133	0xbdc85a99	-0.09782905
134	0xbbc7210c	-0.0060769375
135	0xbcfe1023	-0.031013554
136	0xbf2cc298	-0.67484426
137	0x3f4eeae1	0.80827147
138	0xbd5290fd	-0.051407803
139	0xbba8e29b	-0.0051539666
140	0x3d5725ed	0.052526403
141	0xbca29395	-0.019845763
142	0xbe1e6e06	-0.15471658
143	0xbc6a1b01	-0.014288665
144	0x3f64ac2c	0.89325213
145	0xbc5cafba	-0.013469631
146	0xbe85b249	-0.26112583
147	0xbcc150a4	-0.023598023
148	0xbe454238	-0.19263542
149	0xbca98864	-0.020694919
150	0xbeb8d562	-0.36100298
151	0xbdddb1c0	-0.10824919
152	0xbe57ba85	-0.21067245
153	0xbde2afe9	-0.110687084
154	0xbe57f89d	-0.21090932
155	0xbee65dd4	-0.4499346
156	0xbd89a456	-0.06720798
157	0xbe99ea59	-0.30061606
158	0xbecd915e	-0.4014997
159	0xb7dd81e4	-2.6405738e-05
160	0xbde53a20	-0.11192727
161	0xbdb864fb	-0.090036355
162	0x3e2e036e	0.16993496
163	0xbf3550c2	-0.7082635
164	0x3eca2480	0.39480972
165	0xbd0771c5	-0.033067483
166	0xbd9aa230	-0.07550466
167	0xbdcabaad	-0.09898887
168	0xbd764af1	-0.060130063
169	0xbe7efbbe	-0.2490072
170	0xbdb11cf4	-0.086481005
171	0xbf3a4e3d	-0.7277563
172	0xbd27bd47	-0.040951993
173	0xbe18058f	-0.1484587
174	0xbc62d8e9	-0.013845661
175	0x3bd3ddc6	0.0064656464
176	0x3f2d222e	0.6763028
177	0xbe7609f5	-0.24027236
178	0x3d77340a	0.060352363
179	0xbeaa57e8	-0.33270192
180	0xbe7dc481	-0.24781992
181	0xbe101c1e	-0.14073226
182	0xbdbe6ebd	-0.092984654
183	0xbc463012	-0.012096422
184	0xbc3d754b	-0.011563609
185	0xbd15aa68	-0.036539465
186	0xbd73f351	-0.059558216
187	0xbd9dedc1	-0.077113636
188	0xbd5b8972	-0.053597875
189	0xbd8eca0f	-0.06972133
190	0xbd3fd1b3	-0.046830844
191	0xbdb4b0c6	-0.08822779
192	0xbcb904fc	-0.022585385
193	0xbc91f7d3	-0.017818367
194	0x3dcebd89	0.10094745
195	0xbcdf405e	-0.027252372
196	0xbd44ac2b	-0.048015755
197	0xbcf75747	-0.030192984
198	0xbea2cc37	-0.3179643
199	0xbc3c3093	-0.01148619
200	0xbd1e6c05	-0.038677234
201	0xbdfac868	-0.12245256
202	0xbde4f8dd	-0.111802794
203	0xbe10ab1f	-0.14127778
204	0xbedf1ea1	-0.43578056
205	0xbe4c53e2	-0.19953874
206	0xbe630d06	-0.22172937
207	0xbe09bfba	-0.13452044
208	0xbe44ff7d	-0.19238086
209	0xbd3e294f	-0.046426114
210	0xbc2f94df	-0.010716646
211	0x3cd6c453	0.026216662
212	0xbd7fde79	-0.062468026
213	0xbdb5889d	-0.088639475
214	0xbe8028ec	-0.2503122
215	0x3d0d615c	0.034516677
216	0xbeff0b69	-0.49813393
217	0x3b798d46	0.003807859
218	0xbdbf65ed	-0.09345613
219	0x3d93a2aa	0.0720876
220	0xbcdc868b	-0.026919624
221	0xbef7ef23	-0.48424634
222	0xbd2f4832	-0.04279346
223	0xbc7cf244	-0.01543862
224	0xbe78386b	-0.24240272
225	0xbe324fe6	-0.17413291
226	0xbf00422f	-0.5010099
227	0xbe935263	-0.28773794
228	0xbd5f963f	-0.054586645
229	0x3c94ba39	0.018155204
230	0xbe185235	-0.1487511
231	0x3cc89e03	0.024489408
232	0xbebd6054	-0.36987555
233	0x3e901586	0.2814142
234	0xbe90aeb6	-0.28258294
235	0xbd06d954	-0.032922104
236	0xbd016202	-0.03158761
237	0xbd31ed5f	-0.043439265
238	0x3f860411	1.0469991
239	0xbca56c6a	-0.020193297
240	0x388885bd	6.509896e-05
241	0xbe0ee585	-0.13954742
242	0x3ee58789	0.44829968
243	0xbd851366	-0.064978406
244	0xbccb0bce	-0.024785902
245	0xbc3257a0	-0.010885149
246	0xbe6b869a	-0.23000565
247	0xbd61ca2c	-0.055124447
248	0xbe1b8e89	-0.15191092
249	0xbcc73473	-0.024317002
250	0xbe7559ce	-0.23960039
251	0x3eec6010	0.4616704
252	0x3e65fa3e	0.22458741
253	0x3db86ba9	0.090049095
254	0xbd4f9d9e	-0.050687425
255	0xbdcd1b12	-0.10014929

fc3.weight f4 [4, 256]
0	0xbbe7def6	-0.0070761396
1	0xbe85528c	-0.2603954
2	0x3fc49085	1.5356604
3	0x3f5f2838	0.87170744
4	0xbf015342	-0.50517666
5	0x3d4bc180	0.049745083
6	0x3e75bb0e	0.23997137
7	0xbe36f148	-0.17865479
8	0x3effe45c	0.49978912
9	0x3b0d880e	0.0021595987
10	0x3de0ea99	0.10982246
11	0xbcbaec1f	-0.02281767
12	0x3d17432d	0.0369293
13	0xbd1846ff	-0.037177082
14	0xbd120e4c	-0.035658166
15	0xbc4b4d32	-0.0124085415
16	0xbcbe7218	-0.023247764
17	0x3cd93ce6	0.026518296
18	0xbcd3e406	-0.025865566
19	0xbf294502	-0.6612092
20	0x3d3d06d7	0.0461491
21	0x3dae0f81	0.08499051
22	0xbc2ab020	-0.010417968
23	0x3a12c4d2	0.00055987865
24	0x3f6e0d50	0.92989063
25	0x3f1d521d	0.6145342
26	0xbd60bbcc	-0.054866597
27	0x3f1ff0d4	0.6247685
28	0x3d2f04e0	0.04272926
29	0xbcbae793	-0.022815501
30	0xbec868d9	-0.39142492
31	0xbf3b37e4	-0.7313216
32	0xbd5b050f	-0.05347162
33	0x3b92af6f	0.0044764797
34	0x3f71368d	0.9422386
35	0xbf5a10ef	-0.8518209
36	0xbf23ad3c	-0.6393621
37	0xbe2a9b5e	-0.1666083
38	0x3cce2788	0.025165334
39	0xbd16c8ea	-0.0368127
40	0xbd2fa6d0	-0.042883694
41	0xbf6364ca	-0.88825667
42	0xbdc8969e	-0.09794353
43	0xbd312c1a	-0.04325495
44	0x3d209ae7	0.039210226
45	0x3ed76d4b	0.4207557
46	0x3eddeef9	0.43346384
47	0xbf1df663	-0.6170408
48	0xbf2a8d20	-0.6662159
49	0x3f01a824	0.5064719
50	0x3f123f74	0.5712807
51	0x3f272248	0.65286684
52	0x3c9247ae	0.017856445
53	0xbd79e574	-0.06100984
54	0x3c8881be	0.016663428
55	0x3f1d02cf	0.6133241
56	0xbf077313	-0.52909964
57	0x3cb89456	0.02253167
58	0x3beb757e	0.007185637
59	0x3bdbe23f	0.0067103202
60	0x3dd885e5	0.10572413
61	0xbf516189	-0.8178945
62	0x3cd71923	0.026257103
63	0x3d098d8e	0.033582263
64	0x3f1e3f1f	0.61815065
65	0x3c183dcb	0.009292076
66	0xbd386e20	-0.0450269
67	0xbf048a2a	-0.5177332
68	0xbc323db4	-0.010878969
69	0xbf0c8a4d	-0.5489853
70	0xbd3b1b40	-0.045680285
71	0xbd113cbd	-0.035458315
72	0x3cf2b066	0.029625129
73	0xbcf8bbcf	-0.030362992
74	0x3cd32de3	0.025778716
75	0xbdf75be7	-0.12078076
76	0x3fbfc7f6	1.4982898
77	0x3f29d607	0.66342205
78	0x3f5bdc01	0.85882574
79	0xbe073062	-0.1320205
80	0x3c5bccd0	0.01341553
81	0x3ea68fd8	0.3253162
82	0xbd258e96	-0.040419184
83	0x3f1eb0ea	0.619887
84	0x3f95edfa	1.171325
85	0x3f8a89ba	1.0823281
86	0xbecae7d6	-0.39630002
87	0x3cda0f78	0.026618704
88	0xbd80014a	-0.06250246
89	0xbe19b8f8	-0.15011966
90	0xbf45047d	-0.76959974
91	0x3eaab1e3	0.33338842
92	0x3e503de7	0.20336114
93	0xbc25e840	-0.0101261735
94	0xbcaf7f98	-0.021423146
95	0xbd6cee45	-0.05784442
96	0x3cbef3fd	0.023309702
97	0x3ebb7351	0.36611417
98	0x3f3ee162	0.74562657
99	0xbf1d5572	-0.61458504
100	0x3ed67bdd	0.41891375
101	0x3f2f0cb6	0.6837877
102	0x3c43e95b	0.011957492
103	0xbc2d05ba	-0.010560447
104	0xbe607bcd	-0.21922226
105	0x3ec485f8	0.3838346
106	0x3f282536	0.6568178
107	0xbe848e1d	-0.25889674
108	0x3f38ea37	0.72232383
109	0x3d635066	0.055496596
110	0xbf067a12	-0.52530015
111	0xbe3db55c	-0.18526214
112	0xbc9d0860	-0.019169033
113	0x3efab2b1	0.48964456
114	0x3d703378	0.058642834
115	0xbf254689	-0.64560753
116	0xbd9ef079	-0.0776071
117	0xbd21352e	-0.039357357
118	0x3ba9f826	0.0051870523
119	0xbf4ce679	-0.80039173
120	0xbc25ab0d	-0.010111582
121	0x3bfdd998	0.0077468865
122	0xbc1e8517	-0.009675286
123	0xbceb01f6	-0.028687458
124	0xbd446313	-0.047946047
125	0xbf52e654	-0.823827
126	0xbcc9a0ef	-0.024612872
127	0xbd404d1f	-0.04694855
128	0xbd322cf0	-0.043499887
129	0xbdc26e53	-0.09493699
130	0x3dcf469c	0.101208895
131	0xbf06d417	-0.52667373
132	0xbf076530	-0.52888775
133	0xbd037acf	-0.03209954
134	0xbd7ede79	-0.062223885
135	0xbce64008	-0.028106704
136	0x3f9efcf6	1.2420948
137	0x3f18d93e	0.59706485
138	0x3ca35fc0	0.019943118
139	0xbc16bd36	-0.009200385
140	0xbf46e251	-0.7768908
141	0x3cc442c6	0.023957621
142	0x3e2c9540	0.1685381
143	0xbb24b254	-0.0025130706
144	0x3f224532	0.63386834
145	0xbc09daf7	-0.008414022
146	0x3e6afe47	0.22948562
147	0xbd09ddf7	-0.033658948
148	0xbf20e4bc	-0.6284902
149	0x3d1236a7	0.03569665
150	0xbdc2942a	-0.09500916
151	0xbe13cf96	-0.14434657
152	0x3e531d3f	0.20616625
153	0x3f941a24	1.1570477
154	0xbf0c592a	-0.54823554
155	0x3eac6db8	0.3367746
156	0x3c46065c	0.012086477
157	0x3fabbe45	1.3417441
158	0x3ecc9809	0.39959744
159	0x3c3d84c5	0.011567299
160	0x3f01f147	0.50758785
161	0x3c638a23	0.013887915
162	0x3eff1547	0.4982092
163	0xbe0a444e	-0.13502619
164	0xbf40c689	-0.7530294
165	0xbc1f2f40	-0.009715855
166	0x3bfb1cdf	0.007663354
167	0x3cdb67a9	0.026782827
168	0x3cfba21a	0.030716944
169	0xbd40231f	-0.046908494
170	0xbb6557d1	-0.003499497
171	0x3f8b017b	1.0859827
172	0x3cb8ed12	0.022573981
173	0xbe279f36	-0.16369328
174	0x3efa4f35	0.48888555
175	0x3d85b1ad	0.065280296
176	0xbfe3a7f1	-1.7785627
177	0xbef50081	-0.47851947
178	0x3d051407	0.032489803
179	0xbe9ff49e	-0.31241316
180	0x3e91f469	0.28506783
181	0x3c8a3877	0.016872628
182	0x3e20129a	0.15632096
183	0x3d4ef65b	0.05052791
184	0x3d63eff8	0.055648774
185	0x3cd0a110	0.025467426
186	0xbd581236	-0.052751742
187	0xbfbfa3b8	-1.4971838
188	0x3beaa566	0.0071608303
189	0x3b206e3b	0.0024479765
190	0xbcd31264	-0.025765605
191	0xbf046dda	-0.5173012
192	0x3d11da5e	0.03560864
193	0x3c4680fc	0.012115713
194	0x3f6234b8	0.8836169
195	0x3d5d7dc6	0.054075025
196	0x3caebc0e	0.021329906
197	0xbe8af344	-0.27138722
198	0xbf115158	-0.56764746
199	0x3c1b3f26	0.009475505
200	0x3d289672	0.0411591
201	0xbdb47985	-0.088122405
202	0xbeb29f97	-0.34887382
203	0x3f15921e	0.5842608
204	0xbf2e908c	-0.6818931
205	0xbef84534	-0.48490298
206	0x3f489b81	0.7836228
207	0xbf1697af	-0.588252
208	0xbef0bfc1	-0.47021297
209	0xbf236d82	-0.6383897
210	0xbbc5b76c	-0.0060338285
211	0x3c8f1263	0.017464822
212	0xbd2d195e	-0.04226052
213	0xbb5c7a06	-0.0033642068
214	0xbd0912a7	-0.033465054
215	0x3cd3f778	0.025874838
216	0x3ee56230	0.44801474
217	0x3ce94c00	0.028478622
218	0x3d1c2557	0.038121548
219	0xbf5c317e	-0.8601302
220	0x3b936299	0.0044978377
221	0xbd82125f	-0.0635116
222	0xbc06a050	-0.008216932
223	0x3c8bde80	0.01707387
224	0xbeb6d44f	-0.35708854
225	0xbf660804	-0.8985598
226	0x3ea752fa	0.32680494
227	0xbe8f6651	-0.2800775
228	0x3c903e39	0.017607795
229	0x3c7ec4b8	0.015549831
230	0x3b6c3349	0.003604131
231	0x3f199734	0.5999634
232	0x3f9ac977	1.2092732
233	0x3f11b30a	0.56913817
234	0xbf6665f8	-0.8999934
235	0x3e3449c9	0.17606272
236	0xbc6d340f	-0.014477744
237	0xbed64b31	-0.41854241
238	0x3f083523	0.5320608
239	0x3d23206f	0.039825853
240	0xbd143242	-0.036180742
241	0xbe60810f	-0.21924232
242	0xbf3d41ff	-0.7392883
243	0xbf59a243	-0.85013217
244	0x3d60f947	0.05492523
245	0x3cbc56b3	0.02299056
246	0xbf412d1e	-0.7545947
247	0xbcf92160	-0.030411422
248	0x3ce6bbd3	0.028165733
249	0x3d1b59da	0.037927486
250	0xbf03b350	-0.51445484
251	0x3f088e77	0.53342384
252	0xbecd5e06	-0.40110797
253	0xbeebcef8	-0.46056342
254	0xbb804008	-0.003913883
255	0x3ea46b2d	0.3211302

fc3.bias f4 [4]
0	0xbe802c0a	-0.250336
1	0x3da916f4	0.08256331
2	0x3ea29773	0.31756172
3	0xbd29ae6c	-0.041426107
