csv_and_models/vanilla_dqn/vanilla_lunar_300.pth (torch, 279212 bytes, 6 tensors)

fc1.weight f4 [256, 8]
0	0xbc9d6522	-0.019213263
1	0x3e7d691e	0.2474713
2	0xbc70a114	-0.0146868415
3	0xbe54edbd	-0.20793815
4	0x3e3347b7	0.17507826
5	0x3efd7092	0.49499947
6	0xbef10719	-0.47075728
7	0xbe925cb7	-0.2858636
8	0xbf4283cd	-0.7598236
9	0xbf24f6ee	-0.64439285
10	0x3c60e32e	0.013726039
11	0xbe311003	-0.17291264
12	0x3db6e431	0.08930243
13	0x3d487190	0.048936427
14	0xbd19e577	-0.03757235
15	0x3ebb89e5	0.36628643
16	0x3f17f865	0.59363395
17	0x3e4d99a3	0.20078139
18	0xbe8239cd	-0.25434723
19	0xbe8b40c0	-0.27197838
20	0x3dcdaec4	0.100430995
21	0x3e340cf7	0.1758307
22	0xbf1b0e37	-0.60568565
23	0x3ec38533	0.3818756
24	0xbe7770d1	-0.2416413
25	0x3e942ef9	0.28942087
26	0x3eb0e2b0	0.3454795
27	0x3e3cf639	0.18453301
28	0xbf288b5b	-0.6583764
29	0x3e25dc3d	0.16197295
30	0x3cd06d67	0.025442792
31	0xbee45fdf	-0.44604394
32	0x3dd48d41	0.103785045
33	0xbd867fc9	-0.06567342
34	0xbd0c1e37	-0.034208503
35	0x3d53c826	0.05170455
36	0x3fc89450	1.5670261
37	0x3d761ba5	0.060084958
38	0xbdae6c02	-0.085166946
39	0x3c93e9d7	0.01805584
40	0x3dd026c2	0.101636425
41	0xbef46085	-0.4772989
42	0x3e038a1c	0.12845653
43	0xbdbfb0a1	-0.09359861
44	0xbe2021c4	-0.1563788
45	0x3e18dd32	0.1492813
46	0xbe8dfcfb	-0.2773207
47	0x3d8e6af9	0.06953997
48	0x3f868b88	1.0511332
49	0xbd1ddf9b	-0.038543325
50	0xbe4479bb	-0.19187061
51	0x3e6d1394	0.23152
52	0xbf834689	-1.0255901
53	0xbdbcf910	-0.092271924
54	0x3d9203ae	0.07129608
55	0xbdf5c892	-0.120011464
56	0x3f8dbeea	1.1073887
57	0xbe69f8ea	-0.2284886
58	0x3d1788ec	0.036995813
59	0xbd4dc690	-0.050238192
60	0xbf51c643	-0.8194315
61	0x3e170fa8	0.14752066
62	0x3e1c708e	0.15277311
63	0x3e639497	0.22224651
64	0x3fa1879c	1.261951
65	0x3e292d6b	0.16521232
66	0x3d78ae2d	0.060712982
67	0x3d64ea96	0.05588778
68	0xbf2c7611	-0.67367655
69	0xbe82ed4c	-0.25571668
70	0x3d633f00	0.055480003
71	0x3e598cac	0.21245068
72	0x3ddcc4be	0.10779713
73	0xbd30b27e	-0.043138973
74	0x3d036689	0.032080207
75	0xbdecbea1	-0.11559797
76	0x3f920f67	1.141095
77	0xbe91e1ae	-0.28492492
78	0x3f22fd58	0.6366782
79	0xbe852acf	-0.26009223
80	0x3e74ef69	0.23919453
81	0x3c2bc667	0.0104843145
82	0x3f212487	0.6294636
83	0xbe615b58	-0.22007501
84	0x3ed08236	0.40724343
85	0xbeec6674	-0.46171916
86	0xbe8bf789	-0.27337292
87	0x3e0d5809	0.13803114
88	0x3e12727b	0.14301483
89	0xbe8dea37	-0.27717754
90	0x3ebc75a4	0.36808503
91	0x3cc94e7c	0.024573557
92	0xbdd5d5c7	-0.104411654
93	0xbf62226b	-0.8833377
94	0xbeeaf61b	-0.4589089
95	0xbe807b12	-0.25093895
96	0xb9fa9a51	-0.0004779869
97	0x3ec4de59	0.38450888
98	0xba31a330	-0.0006776331
99	0xbf1c9bf7	-0.61175483
100	0x3ed917d7	0.42401
101	0xbe77dfe1	-0.24206497
102	0x3dbada61	0.09123684
103	0xbd525d00	-0.051358223
104	0xbf0b18e5	-0.5433486
105	0x3f16d46d	0.58917886
106	0xbe7f5b5a	-0.24937192
107	0x3e96f864	0.29486382
108	0x3ecfa597	0.40556023
109	0x3e856d85	0.2606012
110	0xbed7c206	-0.42140216
111	0x3c82a115	0.01594595
112	0x3f4415f6	0.7659601
113	0xbe66dde9	-0.2254559
114	0x3e832c0d	0.25619546
115	0x3f0d1dca	0.5512358
116	0xbefd1094	-0.4942671
117	0x3e9b07a4	0.30279267
118	0x3e1e1b66	0.15440139
119	0xbe5cd368	-0.2156502
120	0xbd01694c	-0.03159456
121	0xbda83fd2	-0.08215298
122	0xbd863978	-0.0655393
123	0x3eae51eb	0.34046873
124	0xbf2faec0	-0.6862602
125	0xbe05a337	-0.13050543
126	0x3dec8aec	0.11549935
127	0x3e8d6d7e	0.27622598
128	0xbe3daf69	-0.18523945
129	0x3d3c95f6	0.04604145
130	0xbe42287b	-0.18960755
131	0x3e6da363	0.23206858
132	0xbea47fa3	-0.3212863
133	0x3d9b4454	0.07581392
134	0xbe2136bc	-0.15743536
135	0x3e12a6e7	0.1432148
136	0x3f032b19	0.51237637
137	0x3d48c4cc	0.049015805
138	0xbdbddad5	-0.092702545
139	0x3ea34009	0.31884792
140	0x3e85c7ec	0.2612909
141	0x3f4c8dd6	0.79903924
142	0xbb9c8a16	-0.0047772033
143	0xbd38bdc6	-0.045102857
144	0x3e09eb93	0.1346877
145	0xbd56e422	-0.05246366
146	0x3ab226cc	0.0013591885
147	0x3af07b67	0.0018347324
148	0x3fac7946	1.347451
149	0xbe034130	-0.12817836
150	0xbf090ebd	-0.53538114
151	0xbe5aafda	-0.21356145
152	0xbf6e2f66	-0.93041074
153	0xbeba9a6b	-0.36445937
154	0xbe0c0ac2	-0.13675979
155	0xbec590cb	-0.3858703
156	0x3e78f711	0.24312998
157	0xbdef8af0	-0.11696422
158	0x3eafd49d	0.343419
159	0x3d4ce235	0.050020415
160	0xbdd66428	-0.10468322
161	0x3e8c87ab	0.27447256
162	0x3fb5f7c3	1.4216236
163	0xbeec6f3e	-0.4617862
164	0x3dce983f	0.100876324
165	0xbd357bd0	-0.04430753
166	0x3d6488ed	0.055794645
167	0xbf502bdc	-0.81316924
168	0xbf21808f	-0.6308679
169	0xbf4d07d8	-0.80090094
170	0x3e45865f	0.1928954
171	0x3ea4e331	0.32204583
172	0xbe05aa80	-0.13053322
173	0x3ec33eb1	0.38133767
174	0xbf2aba87	-0.6669087
175	0xbe98cc75	-0.29843488
176	0x3e8539c1	0.26020625
177	0xbda55dc7	-0.08074527
178	0xbe2b5836	-0.16732869
179	0x3e54156a	0.20711294
180	0xbf1667ca	-0.5875212
181	0xbee8095c	-0.4531964
182	0x3ec6c738	0.38823867
183	0x3ddd8e42	0.10818149
184	0xbdb1dd0a	-0.08684738
185	0x3eafed4e	0.34360737
186	0xbf2e61dc	-0.6811807
187	0xbec43827	-0.3832409
188	0x3f2767ec	0.6539295
189	0xbed8eaf9	-0.4236677
190	0x3e53f19e	0.20697638
191	0xbe962453	-0.29324588
192	0xbf62abf3	-0.88543624
193	0xbfa5b5cd	-1.2946106
194	0xbeb7e131	-0.35913995
195	0x3e019bd9	0.12657107
196	0xbe86b3f8	-0.2630918
197	0xbe0145c1	-0.12624265
198	0xbdc07b14	-0.09398475
199	0x3df578c3	0.11985924
200	0xbf21905e	-0.6311091
201	0xbe009a7f	-0.12558936
202	0x3dfd3313	0.12363257
203	0xbebfa52c	-0.37430704
204	0x3e41596b	0.18881766
205	0x3ee9a69f	0.45634934
206	0xbd98ac9b	-0.07454797
207	0x3eb491a1	0.35267356
208	0x3f03af3d	0.5143927
209	0xbe62fb63	-0.22166209
210	0xbd8d17d2	-0.06889309
211	0x3f087667	0.5330567
212	0xbf653f9c	-0.89550185
213	0x3e772d67	0.24138413
214	0xbe729d30	-0.23692775
215	0xbe842308	-0.25807977
216	0x3f82efb3	1.02294
217	0xbea16b9b	-0.3152741
218	0x3e72a4d9	0.23695697
219	0x3c1a9cf1	0.009436832
220	0x3ec86387	0.39138433
221	0xbed56adf	-0.416831
222	0xbe219275	-0.15778525
223	0x3eb57a81	0.35445026
224	0xbe105b14	-0.14097244
225	0xbf6fe54c	-0.93709254
226	0xbdfea9c2	-0.124347225
227	0xbdccd2c9	-0.100011416
228	0xbf002873	-0.5006172
229	0xbe0c8d43	-0.13725762
230	0xbef9505f	-0.4869413
231	0xbeec969f	-0.46208665
232	0xbdd1cb5a	-0.10243864
233	0xc04131a3	-3.0186546
234	0x3b82bb17	0.003989588
235	0xbeaf5db4	-0.34251177
236	0x3ecb57e2	0.39715487
237	0x3e4cadc6	0.19988164
238	0xbe75bd6a	-0.23998037
239	0xbe85f347	-0.26162168
240	0x3c0b0786	0.00848568
241	0xbecd2c11	-0.40072682
242	0xbf881ac5	-1.063317
243	0x3f3569b3	0.7086441
244	0x3c186438	0.009301238
245	0x3e96b29f	0.29433152
246	0xbeb2d419	-0.34927443
247	0xbe85341e	-0.26016325
248	0xbeb49af8	-0.35274482
249	0xbe2b1e77	-0.1671084
250	0x3ec038a3	0.3754321
251	0xbe7843a2	-0.2424455
252	0xbe2d33a0	-0.16914225
253	0x3e8b329c	0.2718705
254	0x3e64a1ca	0.22327343
255	0x3e7ed229	0.24884857

fc1.bias f4 [256]
0	0xbd7483c8	-0.05969599
1	0x3e345b7b	0.17613022
2	0xbe338da6	-0.17534503
3	0x3eb940d5	0.36182275
4	0x3dbe8cbb	0.09304186
5	0x3f66df8a	0.90184844
6	0x3e93c33c	0.2885989
7	0x3ee102f0	0.43947554
8	0xbe00887a	-0.12552062
9	0x3d076376	0.033053838
10	0xbc864740	-0.016391397
11	0x3f0b8638	0.54501677
12	0xbe80d19d	-0.25159922
13	0xbe676ee3	-0.22600894
14	0x3f775a34	0.96622014
15	0x3f07785f	0.52918047
16	0x3edc2eda	0.43004495
17	0x3edf4697	0.43608543
18	0x3d930522	0.071787134
19	0xbe45e390	-0.1932509
20	0xbee629a5	-0.44953647
21	0xbd5d979b	-0.05409966
22	0x3ed8df75	0.42357984
23	0xbdd0081d	-0.101577975
24	0xbcfe2a81	-0.031026127
25	0x3d3c0e38	0.045911998
26	0x3f5555c9	0.8333402
27	0x3ee76501	0.45194247
28	0xbf018dc8	-0.50606966
29	0x3cde9398	0.027169988
30	0xbf0eac0b	-0.55731267
31	0x3f1d8a7e	0.6153945
32	0x3f1cd363	0.6126005
33	0xbe001c34	-0.12510759
34	0xbe361f35	-0.17785342
35	0xbe1da175	-0.15393622
36	0x3c3618be	0.011114297
37	0xbf46ba64	-0.7762816
38	0x3f005fac	0.50145984
39	0x3c62d962	0.013845773
40	0xbdd227e4	-0.10261515
41	0xbe934985	-0.28767028
42	0xbe4b9ef6	-0.19884858
43	0xbf1514da	-0.5823494
44	0x3ebc0198	0.36719966
45	0x3e55c244	0.20874888
46	0xbec8ad20	-0.39194584
47	0xbecbaa34	-0.39778292
48	0x3e1262e4	0.14295536
49	0x3d147cf3	0.036251973
50	0xbc95c5d6	-0.018282812
51	0x3ef43cdf	0.4770269
52	0x3f00b72d	0.50279504
53	0x3f2b1021	0.66821486
54	0x3eaa6903	0.33283243
55	0x3e7cd7c0	0.24691677
56	0x3f0d4ae4	0.551924
57	0x3e57cdb8	0.21074569
58	0xbf2dd4db	-0.67902917
59	0xbe8bc82a	-0.2730115
60	0x3e5f596a	0.21811453
61	0x3f206f65	0.62669975
62	0x3f26cd14	0.65156674
63	0xbe84a1ca	-0.25904685
64	0x3f385ff6	0.72021425
65	0x3e83c693	0.25737438
66	0xbdd75542	-0.105143085
67	0x3e414578	0.18874156
68	0xbe00d6f9	-0.12582006
69	0x3d87812f	0.06616437
70	0x3dcd8228	0.10034591
71	0x3f6b5c3f	0.9193763
72	0xbea09715	-0.31365266
73	0x3ef68561	0.48148635
74	0xbe2b8f3b	-0.16753857
75	0x3ea29dc6	0.31760997
76	0x3e5835ef	0.21114324
77	0x3f0f2181	0.559105
78	0x3f127cdb	0.57221764
79	0x3f1b8564	0.6075041
80	0x3dd0bb50	0.10191977
81	0x3f509187	0.8147206
82	0x3deecd52	0.116602555
83	0x3e0c32a1	0.13691188
84	0xbe4fd767	-0.20297013
85	0x3dc58328	0.09644157
86	0x3ead3d32	0.3383575
87	0x3f5c9e64	0.86179185
88	0x3e5aa3d4	0.21351558
89	0x3ec0fa67	0.37691042
90	0x3f2a8406	0.666077
91	0xbeb5ea8b	-0.35530505
92	0xbef6e255	-0.48219553
93	0xbd68508c	-0.05671744
94	0x3c838ade	0.016057428
95	0xbdf927e9	-0.121658154
96	0x3f336cb9	0.7008777
97	0xbe94d537	-0.2906892
98	0xbe6b003e	-0.22949311
99	0xbeca2afd	-0.39485922
100	0x3f278560	0.6543789
101	0xbe55a21a	-0.20862618
102	0xbe4cc112	-0.19995525
103	0xbe897bc4	-0.26852238
104	0x3f35ae7b	0.7096936
105	0x3f0c6616	0.5484327
106	0xbe930922	-0.28717905
107	0x3ed55ea4	0.41673768
108	0x3e3f885a	0.18704358
109	0xbe2da80f	-0.1695864
110	0xbdc05db8	-0.093928754
111	0xbeaa8e72	-0.33311802
112	0x3f2b2466	0.66852415
113	0xbe90a578	-0.28251243
114	0xbe4957fa	-0.19662467
115	0x3f4febfd	0.81219465
116	0xbe5d3b3f	-0.21604632
117	0xbdb14509	-0.086557455
118	0x3f48ec79	0.7848583
119	0xbe9fd56f	-0.31217524
120	0xbf186b2c	-0.5953853
121	0x3ccf821c	0.025330596
122	0x3ee18153	0.4404398
123	0xbe298657	-0.16555153
124	0xbb55f87f	-0.0032649336
125	0xbeaee0f7	-0.3415601
126	0x3e5ead45	0.21745785
127	0x3e45df84	0.19323546
128	0x3f0e3549	0.55550057
129	0x3f03b8bb	0.5145375
130	0xbdb4103c	-0.08792159
131	0xbe19c830	-0.15017772
132	0xbe6deacf	-0.23234104
133	0x3d41636a	0.04721395
134	0xbdb3fe93	-0.087887906
135	0x3e0ea65d	0.1393065
136	0x3bd76592	0.0065733874
137	0x3f078537	0.52937645
138	0xbe311457	-0.17292915
139	0x3f1d597e	0.6146468
140	0x3c0e76bc	0.008695301
141	0x3ef60222	0.48048502
142	0x3d2928b5	0.041298587
143	0x3f14cdec	0.5812671
144	0xbe0e1400	-0.13874817
145	0xbf189799	-0.5960632
146	0x3e2bbb4d	0.16770668
147	0x3f3e7b57	0.7440695
148	0x3f15192b	0.5824153
149	0x3e5b613e	0.21423814
150	0x3f23dc1b	0.6400773
151	0x3f1fcf63	0.6242582
152	0x3e908e74	0.28233683
153	0xbe284056	-0.16430792
154	0x3f2c49c5	0.67300063
155	0x3f5571d7	0.8337683
156	0xbf247a0c	-0.6424873
157	0x3f07d20d	0.5305489
158	0x3f22a4ea	0.6353289
159	0x3ee7b154	0.45252478
160	0x3e43e860	0.19131613
161	0x3e84ef09	0.2596362
162	0xbf0a8645	-0.5411113
163	0xbdbd576f	-0.09245192
164	0xbd44a9d4	-0.048013523
165	0x3e08b5ac	0.13350552
166	0x3e805f52	0.25072724
167	0xbd429131	-0.047501747
168	0x3f08c687	0.5342793
169	0x3efd8fb0	0.49523687
170	0xbf02a520	-0.5103321
171	0x3f29bc75	0.6630319
172	0xbe4b2c26	-0.1984106
173	0x3db66ff6	0.089080736
174	0x3d975865	0.07389907
175	0x3f43d965	0.7650359
176	0x3f0f695d	0.56020147
177	0xbe8890dc	-0.2667302
178	0xbe0717ee	-0.13192722
179	0xbe6f5fc6	-0.23376378
180	0xbe50b3c1	-0.2038107
181	0x3ef74da5	0.48301426
182	0x3b80a3ab	0.0039257607
183	0x3f245490	0.6419153
184	0xbec26e65	-0.3797485
185	0x3e534149	0.20630373
186	0x3e2e4a00	0.17020416
187	0x3f1878ea	0.595595
188	0xbebe1355	-0.37124124
189	0x3c805cd6	0.015669268
190	0x3e442896	0.19156107
191	0x3e9683bd	0.29397383
192	0x3e4ba499	0.19887008
193	0x3e60b9e7	0.21945916
194	0x3edbbe0d	0.42918435
195	0x3ef3ce2b	0.4761823
196	0xbcde32e8	-0.027123883
197	0xbe15c50f	-0.14625953
198	0xbdb8f030	-0.09030187
199	0xbe23ae36	-0.15984425
200	0xbe634fc6	-0.221984
201	0xbe96eb34	-0.2947632
202	0xbe960351	-0.29299405
203	0x3e9bdcfe	0.3044204
204	0xbe2cab83	-0.16862302
205	0xbdd4bf1f	-0.10388016
206	0x3f44b147	0.76833004
207	0x3de570c3	0.11203148
208	0x3f3def28	0.7419305
209	0xbe688b36	-0.22709355
210	0x3e0e14e8	0.13875163
211	0x3e0a8ddd	0.13530679
212	0x3ed92217	0.4240882
213	0x3ed5ea16	0.41780156
214	0x3f577686	0.8416523
215	0xbe97f9ad	-0.29682675
216	0xbe3cf374	-0.18452245
217	0x3f009eba	0.502422
218	0x3e63fdeb	0.22264831
219	0x3f252fac	0.64525867
220	0x3f3cabab	0.73699445
221	0x3f1ebe5e	0.6200923
222	0xbd078ccc	-0.03309326
223	0x3ebe697d	0.37189856
224	0xbe1f868a	-0.15578666
225	0x3e4f1e27	0.20226346
226	0xbec3a63c	-0.38212764
227	0x3e64218d	0.22278424
228	0x3ed3c964	0.41364586
229	0x3f12e431	0.5737944
230	0x3e0d59e8	0.13803828
231	0x3e00bf49	0.1257297
232	0x3c7df9da	0.015501464
233	0x3daf7006	0.08566289
234	0xbea2419e	-0.31690687
235	0x3d9842f7	0.074346475
236	0x3f1d92e1	0.61552244
237	0xbece7900	-0.4032669
238	0x3e017c30	0.1264503
239	0x3df9943f	0.12186479
240	0x3f1135f3	0.56722945
241	0x3f35bb86	0.70989263
242	0x3d9bb576	0.0760297
243	0xbed525da	-0.4163044
244	0x3ee33ce4	0.44382393
245	0xbe027243	-0.127389
246	0xbed9fbd2	-0.42574936
247	0xbe090930	-0.13382411
248	0xbdbbc4f7	-0.091684274
249	0x3e8b64cd	0.27225342
250	0x3db266bc	0.08711001
251	0x3ea7050b	0.32621035
252	0xbdc22216	-0.094791576
253	0xbd5ddd77	-0.054166283
254	0xbe8d7788	-0.27630258
255	0x3e49d36a	0.19709554

fc2.weight f4 [256, 256]
0	0xbd9bc8c9	-0.07606656
1	0x3dc70af2	0.097188845
2	0xbce3f276	-0.027825575
3	0xbd769748	-0.060202867
4	0xbd9becc2	-0.07613517
5	0x3ce69f4a	0.028152127
6	0xbd81caa0	-0.06337476
7	0xbd459670	-0.04823917
8	0xbd462ec6	-0.04838445
9	0xbc92dabe	-0.01792657
10	0xbd8f3396	-0.06992261
11	0xbdd8cb60	-0.10585666
12	0xbdde632b	-0.108587585
13	0xbddeea55	-0.10884539
14	0xbc9b3dea	-0.018950421
15	0xbdfb3849	-0.12266595
16	0xbd215852	-0.03939087
17	0xbd21d8e2	-0.039513476
18	0xbe039ba1	-0.12852336
19	0x3aea812a	0.0017891277
20	0xbd2a88d4	-0.041634396
21	0xbcb17f08	-0.021667019
22	0xbc9672bc	-0.018365256
23	0xbdecbf15	-0.115598835
24	0xbc8848c3	-0.016636258
25	0x3db0a948	0.08626038
26	0xbdafbb71	-0.085806735
27	0xbd2d01b0	-0.042237937
28	0x3d796538	0.060887545
29	0x3b36407c	0.0027809432
30	0xbe1723af	-0.14759706
31	0x3cc123e1	0.023576679
32	0xbdb9c2df	-0.09070372
33	0xbc348f66	-0.011020517
34	0xbd61943c	-0.055073008
35	0xbc667733	-0.014066505
36	0x3d1bb71c	0.038016424
37	0xbd95dd12	-0.073175564
38	0x3d076b21	0.03306115
39	0x3d1ca749	0.038245473
40	0xbd70b57d	-0.05876683
41	0xbc2a66f5	-0.010400523
42	0xbc350b21	-0.011050017
43	0xbce29763	-0.027660077
44	0xbd14a20e	-0.03628736
45	0xbd65b99f	-0.056085225
46	0xbd5049e3	-0.050851714
47	0x3ca2660c	0.01982405
48	0xbdb06b75	-0.08614246
49	0xbd9ea1aa	-0.07745679
50	0xbd30f58f	-0.043202933
51	0x3becf6a5	0.0072315508
52	0xbd0ef934	-0.034905627
53	0xbd795ab7	-0.060877528
54	0xbd966787	-0.07343965
55	0xbd946bd2	-0.072471276
56	0x3ca2f93c	0.019894235
57	0xbdc11652	-0.094280854
58	0x3b9b3ff9	0.0047378507
59	0xbd540863	-0.05176581
60	0xbd3bc013	-0.045837473
61	0xbd5298ab	-0.051415127
62	0x3b37a050	0.0028019138
63	0x3d291621	0.04128087
64	0xbda12af3	-0.0786952
65	0xbd304856	-0.043037735
66	0x3bd37e60	0.006454274
67	0x3b7ddcb4	0.0038736286
68	0xbd4dfb48	-0.05028847
69	0xbd57e4cc	-0.052708432
70	0xbd16cd12	-0.036816664
71	0xbd083140	-0.033250093
72	0x3c728748	0.014802761
73	0xbcc22915	-0.02370123
74	0xbd37fae2	-0.044916995
75	0xbcd30a2a	-0.025761683
76	0xbda5fd57	-0.08104961
77	0xbe096a52	-0.13419464
78	0xbe02c740	-0.1277132
79	0xbdc12c08	-0.094322264
80	0xbd81fc68	-0.06346971
81	0xbdb785d6	-0.08961074
82	0x3d039fb9	0.032134745
83	0xbbb5c020	-0.0055465847
84	0xbd954ac5	-0.07289652
85	0xbde78280	-0.11304188
86	0xbc6cea6d	-0.014460188
87	0xbe0598e1	-0.130466
88	0x3b2d203b	0.0026416916
89	0xbd95e1d8	-0.07318467
90	0xbdbf5d38	-0.09343952
91	0xbde7badd	-0.11314938
92	0x3d11e23c	0.035616145
93	0xbd3cfac4	-0.046137586
94	0xbce8a549	-0.028399127
95	0xbcb7e440	-0.022447705
96	0xbe32cf14	-0.17461807
97	0x3cd675bb	0.026179185
98	0xbd7a5b57	-0.061122265
99	0xbd3dbb40	-0.046321154
100	0x3b177270	0.0023108982
101	0xbd4b3822	-0.04961408
102	0xbd9af4b8	-0.07566208
103	0x3e4ae30e	0.19813177
104	0xbd407d5a	-0.046994545
105	0x3a0aba2b	0.00052920234
106	0x3b55dff3	0.0032634705
107	0xbd502c45	-0.05082347
108	0x3d1cc0f1	0.03826994
109	0xbdd054c0	-0.10172415
110	0xbca31437	-0.0199071
111	0xbc3992e4	-0.011326525
112	0x3c8f2d76	0.017477732
113	0x3d28add3	0.041181397
114	0x3d5a20de	0.053254
115	0xbd5564da	-0.052098133
116	0xbc124b0f	-0.008929028
117	0xbd68b5d2	-0.056814022
118	0xbde6ba4b	-0.11266001
119	0xbd44a8f4	-0.04801269
120	0x3b0d891f	0.0021596623
121	0xbbff6313	-0.007793793
122	0xbd3984ca	-0.045292653
123	0xbdaa6173	-0.08319368
124	0x3ba80a86	0.0051282076
125	0xbb279480	-0.002557069
126	0xbd203110	-0.03910929
127	0xbd58c028	-0.05291763
128	0xbdaebe29	-0.08532364
129	0xbd87aeef	-0.06625163
130	0xbd5a8ccc	-0.05335693
131	0xbd8e3ea8	-0.069455445
132	0xbd8be356	-0.0683047
133	0xbce73edf	-0.028228221
134	0xbc65da6a	-0.014029125
135	0xbdb2e4e9	-0.087350674
136	0xbdd03a90	-0.1016742
137	0xbc0b12bf	-0.008488356
138	0xbd0816c9	-0.033224855
139	0xbd452eaf	-0.048140224
140	0xbc684b6e	-0.01417814
141	0xbd43358e	-0.047658496
142	0xbdb4ef7b	-0.0883474
143	0xbd525f2c	-0.051360294
144	0x3d32c11d	0.0436412
145	0x3c86d958	0.01646106
146	0xbd8c03f9	-0.06836695
147	0xbc89ff15	-0.016845265
148	0xbd4b0249	-0.049562726
149	0xbc1a794d	-0.009428334
150	0xbd9e9a4e	-0.07744275
151	0x3c490bb0	0.012270853
152	0xbda25fd5	-0.07928435
153	0x3d255ce3	0.040371787
154	0xbd3ee036	-0.046600543
155	0xbbb00dbe	-0.005372732
156	0x3d06308c	0.03276114
157	0xbc440a9b	-0.011965419
158	0x3d2ba6ce	0.041907124
159	0x3d497419	0.049182985
160	0xbe065ce2	-0.1312137
161	0xbd0f5a6c	-0.034998342
162	0x3d86124d	0.06546459
163	0xbc64eef5	-0.013972987
164	0xbc039f39	-0.008033567
165	0x3cd2bab9	0.025723802
166	0xbdcac57a	-0.09900947
167	0xbdcba9a1	-0.099444635
168	0xbd23e5d4	-0.040014103
169	0xbdc964eb	-0.09833702
170	0x3b05a62b	0.0020393233
171	0xbe2deda5	-0.16985185
172	0x3d875e28	0.06609756
173	0x3dec121f	0.11526894
174	0xbb423df8	-0.0029638987
175	0xbd3bab90	-0.04581791
176	0xbba01d8c	-0.0048863348
177	0xbda51875	-0.080613054
178	0xbd1e32d2	-0.038622685
179	0x3cb1f902	0.021725181
180	0xbd3acc29	-0.04560486
181	0xbc74f696	-0.014951369
182	0xbd41be87	-0.04730084
183	0xbdec5e1a	-0.11541386
184	0xbdc10512	-0.09424795
185	0xbd6e7d00	-0.058224678
186	0x3d3402b3	0.043947887
187	0xbd274b27	-0.040843155
188	0xbd79887e	-0.060921185
189	0x3c80fc3c	0.015745275
190	0xbdb28225	-0.08716229
191	0xbc5a8290	-0.013336793
192	0xbd1c2e7b	-0.038130265
193	0xbc23e1b5	-0.010002543
194	0x396a3fe7	0.00022339784
195	0xbc9912a9	-0.018685656
196	0xbd1c6bed	-0.038188864
197	0xbc9868ca	-0.018604655
198	0xbdb6564a	-0.08903177
199	0xbd96cf4f	-0.0736376
200	0xbe3a693f	-0.1820421
201	0x3cc82876	0.024433356
202	0xbd30a558	-0.043126434
203	0xbda58afa	-0.08083148
204	0xbc341992	-0.010992425
205	0xbc667403	-0.014065745
206	0xbd5d9fb5	-0.054107387
207	0x3c30d576	0.010793081
208	0xbdb85d3e	-0.090021595
209	0xbd35e5a7	-0.044408467
210	0xbda9a840	-0.08284044
211	0x3c42e42c	0.011895221
212	0xbd439a62	-0.047754653
213	0x3cff1b2f	0.031140892
214	0xbcc11eb3	-0.023574209
215	0xbd03e7a5	-0.032203335
216	0xbd348633	-0.044073295
217	0xbdd9b4e1	-0.10630203
218	0xbd7b2005	-0.061309833
219	0x3d2503eb	0.04028694
220	0xbbba3479	-0.0056825248
221	0xbd2de33d	-0.04245304
222	0x3dc51828	0.09623748
223	0xbdb8b67c	-0.09019181
224	0xbd7eb3be	-0.062183134
225	0xbd83ffab	-0.06445249
226	0xbcf7c260	-0.030244052
227	0xbda267dd	-0.079299666
228	0xbd235093	-0.039871763
229	0xbd8af76e	-0.06785475
230	0xbc09585d	-0.008382884
231	0xbc9b1fff	-0.018936155
232	0xbb425f67	-0.0029658915
233	0xbd4539d6	-0.04815086
234	0xbc041178	-0.0080608055
235	0x3d9ec40e	0.07752238
236	0xbdb10378	-0.0864324
237	0xbdd5a25d	-0.10431359
238	0xbdc508e8	-0.09620839
239	0x3cb93b9b	0.02261143
240	0xbdb3f91d	-0.08787749
241	0xbd658fcb	-0.056045335
242	0xbd0ca8ee	-0.03434079
243	0x3c046e63	0.008082959
244	0xbd6a661c	-0.057226285
245	0xbc1bdf32	-0.009513663
246	0x3d6619da	0.056176998
247	0x3d0a26f7	0.033728566
248	0xbd4e7394	-0.050403193
249	0xbdeca87f	-0.115555756
250	0x3cd73fcd	0.02627554
251	0xbd040edb	-0.03224073
252	0xbcc62398	-0.024186894
253	0x3d4bbfac	0.04974334
254	0x3ceb3067	0.028709603
255	0xbd930d98	-0.07180327

fc2.bias f4 [256]
0	0xbb2f3884	-0.0026736567
1	0x3dde2433	0.10846748
2	0xbe32f8af	-0.17477678
3	0xbd531fa0	-0.05154383
4	0x3db79d10	0.08965504
5	0x3cc88352	0.02447668
6	0xbda8af6f	-0.08236586
7	0x3f0694d1	0.52570826
8	0xbdc2a0d5	-0.095033325
9	0xbb87528b	-0.004129713
10	0xbdc7a387	-0.09747987
11	0xbc503dfb	-0.01271009
12	0x3d075d94	0.033048227
13	0xbd96c01b	-0.0736086
14	0x3c5f63b3	0.01363461
15	0xbdaa878e	-0.08326636
16	0xbcd97878	-0.026546702
17	0x3d3a5526	0.04549136
18	0xbc7c2e0e	-0.01539184
19	0x3d14d30d	0.036334086
20	0x3d4e5d58	0.05038199
21	0xbd599e8b	-0.053129714
22	0xbdae1ba6	-0.08501367
23	0x3ce771eb	0.028252563
24	0x3d49703d	0.049179304
25	0x3e36162f	0.177819
26	0xbd66902d	-0.05628984
27	0x3dc04a40	0.09389162
28	0x3c3926c4	0.011300746
29	0xbd4685e2	-0.048467524
30	0x3e0e6fd7	0.13909851
31	0x3e04824b	0.12940328
32	0xbc50567f	-0.012715935
33	0xbd6a08b1	-0.057137195
34	0x3d9a3f48	0.07531601
35	0x3d59f299	0.053209875
36	0x3ce4ef2b	0.027946075
37	0xbcffdbc8	-0.03123273
38	0xbdaab919	-0.08336086
39	0xbd5bb8e8	-0.053643137
40	0xbd0d0412	-0.03442771
41	0xbb070512	-0.0020602387
42	0xbdd85e8a	-0.10564907
43	0xbd0edfee	-0.034881525
44	0x3bbacaec	0.0057004597
45	0xbe80252a	-0.25028354
46	0xbd920995	-0.07130734
47	0x3db9de8f	0.09075653
48	0xbe145add	-0.14487787
49	0x3df79f26	0.12090902
50	0xbe9c84a2	-0.3056994
51	0x3e476c1d	0.19474836
52	0x3ccf6500	0.025316715
53	0xbd52d96f	-0.051476892
54	0xbc63418b	-0.013870607
55	0x3e40a35b	0.18812315
56	0x3d9f212a	0.077699974
57	0x3c39c53a	0.011338526
58	0xbd302a35	-0.043009
59	0xbd3078a1	-0.04308379
60	0xbdb79024	-0.089630395
61	0x3d138edb	0.03602491
62	0xbc836eb0	-0.01604399
63	0x3c911558	0.017710373
64	0x3e1cde10	0.15319085
65	0xbca96e33	-0.02068243
66	0xbcab3759	-0.020900415
67	0x3e107587	0.14107333
68	0xbc5103f5	-0.012757291
69	0x3e6dcfb1	0.23223759
70	0xbda454de	-0.08024
71	0xbd65fd95	-0.056150038
72	0xbc0edcd8	-0.008719645
73	0xbd8a6af3	-0.0675868
74	0xbc44450e	-0.011979355
75	0xbd7e3576	-0.062062703
76	0xbc7908dd	-0.015199867
77	0xbd84343b	-0.06455275
78	0x3d8ded0c	0.06929979
79	0xbd4820df	-0.048859473
80	0xbd6d1d58	-0.057889313
81	0xbe213fe2	-0.15747026
82	0xbcb8e0e7	-0.02256818
83	0xbe0b0337	-0.13575445
84	0xbdb3dddf	-0.08782553
85	0x3c5113a9	0.012761035
86	0x3e98395d	0.29731265
87	0xbd679801	-0.056541447
88	0xbd626707	-0.055274036
89	0xbd1c38dd	-0.038140167
90	0x3ef8f3d9	0.4862354
91	0xbe51d2e2	-0.20490602
92	0xbd1d837f	-0.038455483
93	0xbb8de8da	-0.0043307366
94	0xbd94c149	-0.07263429
95	0x3cb29eb1	0.021804186
96	0x3d8af8bc	0.067857236
97	0xbb4455d2	-0.002995838
98	0x3d4efdb4	0.05053492
99	0x3d2f54ee	0.042805605
100	0xbd6d991d	-0.05800735
101	0xbd6d3254	-0.057909325
102	0xbd8ba35a	-0.06818266
103	0x3d4b9792	0.049705096
104	0xbbadd4ea	-0.0053049223
105	0x3cd7e3a3	0.026353663
106	0x3e184031	0.14868237
107	0x3e2d6405	0.16932686
108	0xbd084716	-0.033270918
109	0xbda492a2	-0.080357805
110	0x3d9f7083	0.07785132
111	0x3d28d722	0.04122079
112	0x3e5515df	0.20809124
113	0x3d6e2fa5	0.058150906
114	0xbcd5f50c	-0.026117824
115	0x3dd9e6e8	0.10639745
116	0xbe3d5fc1	-0.18493558
117	0xbcbb5a53	-0.022870218
118	0x3c067413	0.008206385
119	0x3d9f5f3a	0.07781835
120	0x3c7add9e	0.015311627
121	0xbb634c16	-0.0034682802
122	0xbd79fbb4	-0.06103106
123	0xbdf61ab0	-0.12016809
124	0xbd7b1116	-0.06129559
125	0x3e0b7510	0.13618875
126	0xbc2dd684	-0.010610227
127	0xbbbb9fb4	-0.005725825
128	0xbc881a12	-0.016613994
129	0x3d19d793	0.037559103
130	0x3c3acb2a	0.011400977
131	0x3e9bf29f	0.30458543
132	0x3e32b802	0.17453006
133	0xbd9c9372	-0.076453105
134	0x3cfd32ea	0.030908067
135	0xbcfe1023	-0.031013554
136	0xbda67ca3	-0.08129241
137	0xbd2061cf	-0.039155778
138	0xbd009b56	-0.03139814
139	0x3cd9d4ff	0.026590822
140	0x3e4e2124	0.2012983
141	0xbca29395	-0.019845763
142	0xbd7530b7	-0.05986091
143	0x3d4303ae	0.04761093
144	0x3dc296f3	0.095014475
145	0xbc5cafba	-0.013469631
146	0xbe122033	-0.14270096
147	0x3c058e5a	0.008151615
148	0x3e09b5d3	0.13448267
149	0xbca98864	-0.020694919
150	0x3d8d006b	0.06884845
151	0x3ce60ee1	0.028083267
152	0xbdb71d91	-0.08941186
153	0xbd92642f	-0.07148015
154	0x3edb005e	0.42773718
155	0xbad8d5e4	-0.0016543237
156	0xbd1137c1	-0.03545356
157	0x3d3087d2	0.04309828
158	0xbdf72cb2	-0.12069072
159	0xb7dd81e4	-2.6405738e-05
160	0x3c97ff39	0.018554317
161	0xbd4e5dbf	-0.050382372
162	0x3cd15dfa	0.025557507
163	0x3e752794	0.23940879
164	0x3e85d3dd	0.261382
165	0xbd0771c5	-0.033067483
166	0xbd3338dd	-0.0437554
167	0xbd89c470	-0.067269206
168	0xbcfa52aa	-0.030556995
169	0x3d111d09	0.03542808
170	0xbdb11cf4	-0.086481005
171	0xbe7ddf8f	-0.24792312
172	0xbd27bd47	-0.040951993
173	0xbd97099c	-0.0737488
174	0x3d57b7aa	0.05266539
175	0x3cfb0ea1	0.030646624
176	0x3e186841	0.1488352
177	0x3eb1926f	0.34682032
178	0x3d1cc251	0.038271252
179	0xbd87c23c	-0.06628844
180	0xbe2a9c0a	-0.16661087
181	0xbd7e3780	-0.062064648
182	0x3ec13104	0.37732708
183	0xbc463012	-0.012096422
184	0xbc3d754b	-0.011563609
185	0xbd15aa68	-0.036539465
186	0xbd73f351	-0.059558216
187	0x3cf91f0b	0.03041031
188	0xbd5b8972	-0.053597875
189	0xbcd19288	-0.025582567
190	0xbd3fd1b3	-0.046830844
191	0x3f2bfb53	0.67180365
192	0x39d50c93	0.00040635894
193	0xbc91f7d3	-0.017818367
194	0xbd369910	-0.044579566
195	0x3c8b11fb	0.016976347
196	0xbd44ac2b	-0.048015755
197	0x3e06b551	0.13155104
198	0x3ea764d5	0.32694116
199	0x3ca72756	0.020404499
200	0xbd1e6c05	-0.038677234
201	0x3c6d220d	0.01447345
202	0x3e307218	0.17231023
203	0xbde15587	-0.11002641
204	0x3ef3b9a8	0.47602582
205	0x3e09b485	0.13447769
206	0xbdba2395	-0.09088818
207	0x3e03b513	0.12862043
208	0x3dca0aee	0.09865366
209	0x3e99f1f7	0.30067417
210	0x3cab9641	0.02094567
211	0x3c8abb2b	0.016934952
212	0xbd7fde79	-0.062468026
213	0xbdb5889d	-0.088639475
214	0xbe2bc708	-0.16775143
215	0x3d0d615c	0.034516677
216	0xbe04f7a3	-0.12985091
217	0x3b798d46	0.003807859
218	0xbd54f619	-0.05199251
219	0x3e458064	0.19287258
220	0xbcdc868b	-0.026919624
221	0x3e4e9c63	0.20176844
222	0xbd2f4832	-0.04279346
223	0x3c8586d3	0.01629964
224	0x3e890209	0.26759365
225	0x3e4dfff0	0.20117164
226	0x3ec03e57	0.37547562
227	0x3eb34675	0.35014692
228	0xbd5f963f	-0.054586645
229	0x3c94ba39	0.018155204
230	0xbe185235	-0.1487511
231	0x3dafcf5e	0.08584474
232	0xbe8795ca	-0.26481467
233	0x3dd540cb	0.10412749
234	0x3daf9dac	0.085749954
235	0x3dafd02e	0.08584629
236	0xbd016202	-0.03158761
237	0x3e64b63d	0.22335143
238	0x3e815a79	0.25264338
239	0xbc7c07b6	-0.015382698
240	0x388885bd	6.509896e-05
241	0xbe0ee585	-0.13954742
242	0x3e1891e6	0.14899406
243	0x3e3b469f	0.18288659
244	0x3d31c71e	0.043402784
245	0x3d1511e3	0.03639401
246	0xbd598970	-0.053109586
247	0xbcc522d6	-0.024064463
248	0x3c4c093b	0.012453373
249	0x3bec3421	0.0072083627
250	0x3e9395c9	0.28825215
251	0x3e045c3b	0.12925808
252	0x3e26196f	0.1622064
253	0x3df7b1a6	0.120944306
254	0xbd4f9d9e	-0.050687425
255	0xbdb841c9	-0.089969225

fc3.weight f4 [4, 256]
0	0xbbe7def6	-0.0070761396
1	0xbe4e8ba9	-0.20170464
2	0x3ebf38ad	0.37347928
3	0x3e8bd0b5	0.27307668
4	0xbe8f4448	-0.27981782
5	0x3d4bc180	0.049745083
6	0x3e2c8ef2	0.16851404
7	0xbe8ac0c9	-0.27100208
8	0x3ed4c259	0.41554525
9	0x3b0d880e	0.0021595987
10	0x3e10fb94	0.1415847
11	0xbd5f5fe6	-0.054534815
12	0x3d17432d	0.0369293
13	0xbd1846ff	-0.037177082
14	0xbd120e4c	-0.035658166
15	0xbc4b4d32	-0.0124085415
16	0xbcbe7218	-0.023247764
17	0xbd32940a	-0.043598212
18	0xbd6a93e1	-0.057269935
19	0xbebcc9f2	-0.36872822
20	0x3d3d06d7	0.0461491
21	0xbc09ea72	-0.0084177125
22	0xbc2ab020	-0.010417968
23	0xbd47caf5	-0.04877754
24	0xbc93dde9	-0.018050151
25	0x3ea711d0	0.32630777
26	0xbd60bbcc	-0.054866597
27	0x3ece0940	0.40241432
28	0x3d2f04e0	0.04272926
29	0xbcbae793	-0.022815501
30	0xbe1770e2	-0.14789155
31	0xbe4b12ae	-0.19831344
32	0xbd5b050f	-0.05347162
33	0x3c38f289	0.011288294
34	0xbe3a8f6d	-0.18218775
35	0xbed23372	-0.41054875
36	0xbec15cc6	-0.37766093
37	0xbddf6cb2	-0.10909404
38	0x3d30ae95	0.043135244
39	0xbd16c8ea	-0.0368127
40	0xbd2fa6d0	-0.042883694
41	0xbe6b758f	-0.22994064
42	0xbe0fde8e	-0.14049742
43	0xbd312c1a	-0.04325495
44	0x3d209ae7	0.039210226
45	0x3ee0e7d2	0.43926865
46	0x3e8b0b05	0.27156845
47	0xbe31c7dd	-0.17361398
48	0xbf5484dd	-0.83015233
49	0x3ea8dc35	0.32980505
50	0x3eb89fad	0.36059323
51	0x3ec83605	0.39103714
52	0x3c9247ae	0.017856445
53	0xbd79e574	-0.06100984
54	0x3cf93fa8	0.030425861
55	0x3efd2316	0.4944083
56	0xbe3a7611	-0.18209101
57	0x3c8ff4e4	0.017572828
58	0x3beb757e	0.007185637
59	0x3bdbe23f	0.0067103202
60	0x3dd885e5	0.10572413
61	0xbe5b084f	-0.21389888
62	0x3cd71923	0.026257103
63	0x3d098d8e	0.033582263
64	0x3eb45184	0.3521844
65	0xbcb7ba92	-0.02242783
66	0xbd386e20	-0.0450269
67	0xbe5e3238	-0.21698844
68	0xbc323db4	-0.010878969
69	0xbe268e46	-0.1626521
70	0xbd3b1b40	-0.045680285
71	0xbd113cbd	-0.035458315
72	0x3cf2b066	0.029625129
73	0xbcf8bbcf	-0.030362992
74	0x3cd32de3	0.025778716
75	0xbdf75be7	-0.12078076
76	0x3e15da25	0.14633997
77	0x3e012a4f	0.12613796
78	0x3e9048e2	0.28180605
79	0xbe29b5a0	-0.1657319
80	0x3c5bccd0	0.01341553
81	0x3f08d1e8	0.5344529
82	0xbd258e96	-0.040419184
83	0x3eb9be6c	0.36278093
84	0x3ed710b7	0.4200494
85	0x3e74b9f0	0.23899055
86	0xbe6d0365	-0.23145826
87	0x3cda0f78	0.026618704
88	0xbd80014a	-0.06250246
89	0xbe19b8f8	-0.15011966
90	0xbe7c11af	-0.24616121
91	0x3ecba5ef	0.39775035
92	0xb9d4f98f	-0.00040621727
93	0xbc25e840	-0.0101261735
94	0xbcaf7f98	-0.021423146
95	0xbcef6778	-0.029224142
96	0xbceb3cf9	-0.028715597
97	0xbe0b1384	-0.13581663
98	0xbba8f64e	-0.005156315
99	0xbe621a12	-0.22080258
100	0x3e03f59f	0.12886666
101	0x3efc2e21	0.49253944
102	0x3c43e95b	0.011957492
103	0xbc2d05ba	-0.010560447
104	0xbd0182ab	-0.031618755
105	0x3e857c7e	0.26071543
106	0x3ee17dd7	0.4404132
107	0xbe429cb6	-0.19005093
108	0x3ed795fc	0.42106616
109	0x3d635066	0.055496596
110	0xbe1dd68f	-0.15413879
111	0x3d0cbaec	0.03435795
112	0xbe4f3213	-0.20233946
113	0x3e6b49b8	0.2297734
114	0x3c8c7256	0.017144363
115	0xbe87eac4	-0.265463
116	0xbd9ef079	-0.0776071
117	0xbc78b374	-0.015179504
118	0x3ba9f826	0.0051870523
119	0xbe230a8b	-0.1592199
120	0xbc25ab0d	-0.010111582
121	0x3bfdd998	0.0077468865
122	0xbc1e8517	-0.009675286
123	0xbceb01f6	-0.028687458
124	0xbd446313	-0.047946047
125	0xbea27c78	-0.31735587
126	0xbcc9a0ef	-0.024612872
127	0xbd404d1f	-0.04694855
128	0xbd322cf0	-0.043499887
129	0x3daa8c46	0.08327536
130	0x3d8e8f7c	0.06960961
131	0xbe2ceb94	-0.16886741
132	0xbe2c1d0f	-0.1680796
133	0xb9b1d49b	-0.00033918474
134	0xbce5b7e6	-0.028041791
135	0xbce64008	-0.028106704
136	0x3e9bf204	0.3045808
137	0x3ecf17a6	0.4044773
138	0x3c8a2096	0.016861241
139	0xbc16bd36	-0.009200385
140	0xbe2e9210	-0.17047906
141	0x3cc442c6	0.023957621
142	0x3e327d26	0.17430553
143	0xbb24b254	-0.0025130706
144	0x3e9cf47c	0.30655277
145	0xbc09daf7	-0.008414022
146	0x3e6e770d	0.23287602
147	0xbd09ddf7	-0.033658948
148	0xbe2512d6	-0.16120467
149	0x3d1236a7	0.03569665
150	0xbe5048ef	-0.20340322
151	0xbe692762	-0.2276893
152	0xbc7aee93	-0.01531567
153	0x3e91d3b7	0.28481838
154	0xbe5e6dea	-0.21721616
155	0x3e89f781	0.26946643
156	0x3c46065c	0.012086477
157	0x3e91962d	0.28434888
158	0x3ecb9f82	0.39770132
159	0x3c3d84c5	0.011567299
160	0x3e903969	0.281688
161	0xbc2f34f2	-0.0106937755
162	0xbe06f20e	-0.13178274
163	0xbe79214e	-0.24329111
164	0xbeb71aca	-0.35762626
165	0xbc1f2f40	-0.009715855
166	0x3d215876	0.039391004
167	0x3cdb67a9	0.026782827
168	0xb98fc198	-0.00027419324
169	0xbcb7a57c	-0.022417776
170	0xbb6557d1	-0.003499497
171	0x3ebd7b13	0.3700796
172	0x3cb8ed12	0.022573981
173	0xbe28ef66	-0.16497573
174	0x3e9f955c	0.3116864
175	0x3c585296	0.013203284
176	0xbe426204	-0.18982702
177	0xbe585109	-0.21124662
178	0x3d051407	0.032489803
179	0xbcaa561c	-0.020793013
180	0x3e852bea	0.26010066
181	0xbcb53b1b	-0.02212291
182	0xbe8e9edd	-0.27855578
183	0x3d4ef65b	0.05052791
184	0x3d63eff8	0.055648774
185	0x3cd0a110	0.025467426
186	0xbd581236	-0.052751742
187	0xbfa91e52	-1.3212378
188	0x3beaa566	0.0071608303
189	0x3cd86550	0.026415497
190	0xbcd31264	-0.025765605
191	0xbe60f7a0	-0.21969461
192	0xbbf11a9d	-0.007357909
193	0x3c4680fc	0.012115713
194	0xbded6d3e	-0.11593102
195	0x3cf9259c	0.030413441
196	0x3caebc0e	0.021329906
197	0xbe11380e	-0.1418154
198	0xbe96ede7	-0.2947838
199	0xbc9c4c68	-0.019079402
200	0x3d289672	0.0411591
201	0xbe158efc	-0.14605325
202	0xbe5ab756	-0.21359
203	0x3e4b52d9	0.19855823
204	0xbe2d6333	-0.16932373
205	0xbe36a228	-0.17835295
206	0x3ef3d8f4	0.4762646
207	0xbe372646	-0.17885694
208	0xbe391d6f	-0.18077634
209	0xbe4589e7	-0.19290887
210	0xbbc5b76c	-0.0060338285
211	0x3c8f1263	0.017464822
212	0xbd2d195e	-0.04226052
213	0xbb5c7a06	-0.0033642068
214	0xbb450449	-0.0030062369
215	0x3cd3f778	0.025874838
216	0xba636627	-0.00086745847
217	0x3ce94c00	0.028478622
218	0x3d1c2557	0.038121548
219	0xbe861587	-0.261883
220	0x3b936299	0.0044978377
221	0xbe583f17	-0.21117817
222	0xbc06a050	-0.008216932
223	0x3c8bde80	0.01707387
224	0xbe4093c9	-0.18806376
225	0xbe4aeaac	-0.19816083
226	0xbe39bd5d	-0.18138643
227	0xbe676044	-0.22595316
228	0x3c903e39	0.017607795
229	0x3c7ec4b8	0.015549831
230	0x3b6c3349	0.003604131
231	0x3e9831ae	0.29725403
232	0x3ee01fd3	0.4377428
233	0x3e8ce8bc	0.27521312
234	0xbe41a0cd	-0.18908997
235	0x3e305caa	0.17222849
236	0xbc6d340f	-0.014477744
237	0xbe4e7b45	-0.20164211
238	0x3ec471ea	0.3836816
239	0x3d415a4c	0.047205254
240	0xbd143242	-0.036180742
241	0xbe60810f	-0.21924232
242	0xbe34506e	-0.17608806
243	0xbe742dd1	-0.23845603
244	0xbd367cdb	-0.044552665
245	0xbbc049da	-0.005868179
246	0xbe4d7f12	-0.20068005
247	0xbcf92160	-0.030411422
248	0x3c7f2345	0.015572374
249	0x3d1b59da	0.037927486
250	0xbe4cb29a	-0.19990006
251	0x3ec32a53	0.38118228
252	0xbe3ca695	-0.18422921
253	0xbe832dcf	-0.25620887
254	0xbb804008	-0.003913883
255	0x3dc9a0af	0.09845101

fc3.bias f4 [4]
0	0xbd57c3be	-0.05267691
1	0xbae6c53c	-0.0017606388
2	0xbd25b865	-0.040459055
3	0xbd42d5d7	-0.047567215
