csv_and_models/vanilla_dqn/vanilla_lunar_800.pth (torch, 279212 bytes, 6 tensors)

fc1.weight f4 [256, 8]
0	0xbda9978a	-0.08280857
1	0xbc346815	-0.011011143
2	0xbe54cad4	-0.20780498
3	0xbf86e500	-1.0538635
4	0xbecf11cf	-0.40443274
5	0x3efed0db	0.4976872
6	0xbf2c6397	-0.6733946
7	0xbf92bf63	-1.1464657
8	0xbfa49554	-1.2858071
9	0xbffac9e3	-1.9592861
10	0x3ed6dc40	0.41964912
11	0xbeca49ce	-0.39509434
12	0xbf8a9c4c	-1.0828948
13	0x3e58782a	0.21139589
14	0xbe39ba2d	-0.18137427
15	0x3e686686	0.2269536
16	0x3f3d7d36	0.7401918
17	0xbfaf3549	-1.3688136
18	0x3dd06b04	0.101766616
19	0xbe578d9b	-0.21050112
20	0xbe0e83ce	-0.13917467
21	0x3f43a7ed	0.7642811
22	0xbecb47d5	-0.3970324
23	0x3ee516a0	0.44743824
24	0xbf7a8b73	-0.9786903
25	0x3fb0ecce	1.3822267
26	0x3f1afe70	0.6054449
27	0x3baa5c0b	0.0051989607
28	0xbfc4ab8b	-1.5364851
29	0x3e027564	0.12740093
30	0xbe4add26	-0.19810924
31	0xbe7894e2	-0.24275544
32	0x3d8d4e5a	0.0689971
33	0x3a9b072a	0.0011827697
34	0xbb264035	-0.002536786
35	0x3c4346c8	0.011918731
36	0x40450fbc	3.0790854
37	0x3c16237a	0.009163732
38	0xbbe2afe8	-0.0069179423
39	0xbcf8e5d6	-0.030383032
40	0xbefe4604	-0.49662793
41	0xc00e8582	-2.2268987
42	0xbea6eb1c	-0.3260125
43	0x3eabf224	0.33583176
44	0xbe3b2f93	-0.18279867
45	0x3ca2578a	0.019817133
46	0xbe458db9	-0.19292344
47	0xbd0272f7	-0.03184792
48	0x400ff6d4	2.2494402
49	0x3e21c7a6	0.15798816
50	0x3edafdad	0.42771664
51	0x3ee10d7e	0.43955606
52	0xbf771c93	-0.96527976
53	0xbe714b48	-0.23563874
54	0x3e45a97d	0.19302936
55	0x3bcb05c5	0.006195756
56	0x3fedb344	1.8570333
57	0xbffac477	-1.9591206
58	0xbc5c82da	-0.013458932
59	0xbdd28ba8	-0.102805436
60	0xbeb41464	-0.35171807
61	0x3df8579d	0.12126086
62	0xbde0b1a1	-0.1097138
63	0x39362e9e	0.00017374239
64	0x4056365c	3.3470678
65	0xbe927ac5	-0.2860929
66	0x3e9ab928	0.30219388
67	0x3dbc8bcd	0.092063524
68	0xbf782abe	-0.9694022
69	0xbee8a95a	-0.45441705
70	0x3e101949	0.14072146
71	0x3e7fe2e6	0.24988899
72	0xbd35603b	-0.044281226
73	0xbe6414fa	-0.22273627
74	0x3deb39f7	0.11485665
75	0xbe2c702e	-0.16839668
76	0x3f26cc6e	0.65155685
77	0xbf11af9d	-0.5690859
78	0x3f4a60f7	0.79054207
79	0xbe9152ff	-0.28383633
80	0xbec9333b	-0.39296898
81	0xbccf2aee	-0.025289025
82	0x3f9a88aa	1.2072957
83	0xbf77ad05	-0.9674838
84	0x3d858852	0.06520142
85	0xbee68f61	-0.45031264
86	0xbe21cc44	-0.15800577
87	0xbe8b1cdb	-0.27170452
88	0x3d766a61	0.060160045
89	0xbee7f11e	-0.45301145
90	0x3f5c4f2e	0.8605832
91	0xbf0d0904	-0.5509188
92	0x3e2a0ff9	0.16607656
93	0xbf3286e9	-0.69737107
94	0xbea5c8c8	-0.32379746
95	0xbd835faf	-0.064147346
96	0x3db316a3	0.08744552
97	0x4002f9df	2.046501
98	0x3e00106f	0.12506269
99	0xbf758b12	-0.9591533
100	0x3f36f3e4	0.714659
101	0xbe5cd488	-0.21565449
102	0x3d557bb8	0.05211994
103	0x3e88bfe5	0.26708904
104	0xbf2c9b68	-0.6742463
105	0x3f9413ea	1.1568577
106	0xbe9f3171	-0.31092408
107	0x3eafb769	0.34319618
108	0x3f1e288c	0.6178062
109	0x3e903938	0.28168654
110	0xbf0a94b3	-0.54133147
111	0x3e896468	0.26834416
112	0x3f829e3c	1.0204539
113	0x3e79dc47	0.24400435
114	0xbe50abb6	-0.20378003
115	0x3f90c7d9	1.1310989
116	0xbea9fb00	-0.3319931
117	0xbe12ccb9	-0.14335908
118	0x3dfea09e	0.12432979
119	0xbe9915ec	-0.29899538
120	0xbe29850e	-0.16554663
121	0xbfadf4a6	-1.3590286
122	0xbdcd615c	-0.100283355
123	0x3f3b5cbb	0.7318837
124	0xbfcf6ccc	-1.6205077
125	0x3e6985a2	0.22804883
126	0x3c263998	0.010145567
127	0x3e8d54fd	0.27603903
128	0x3f43c20c	0.7646797
129	0xbf041d7c	-0.5160749
130	0xbe4971f1	-0.19672371
131	0xbe9c2276	-0.30495042
132	0xbfb9008b	-1.4453291
133	0x3f1c3d8a	0.610314
134	0xbed145ae	-0.40873474
135	0xbf835e55	-1.0263163
136	0x3ebf4a6e	0.37361473
137	0x3f7fc968	0.99916697
138	0xbf1fb44c	-0.62384486
139	0x3e833a49	0.25630406
140	0x3ee18b14	0.4405142
141	0xbda402be	-0.080083355
142	0xbebfb888	-0.37445474
143	0xbeb44ae9	-0.35213402
144	0x3e3f2d24	0.18669564
145	0x3d998ed9	0.07497949
146	0xbe196e99	-0.14983596
147	0x3dc2a2c5	0.09503702
148	0x3ff59dbf	1.9188765
149	0x3d44b1a7	0.048020985
150	0xbf5ed83f	-0.87048715
151	0xbdcb21d3	-0.09918561
152	0xbee13b4d	-0.43990555
153	0xc05ed683	-3.4818428
154	0x3defd934	0.1171135
155	0xbfa7c33e	-1.3106458
156	0x3e0cd2f6	0.1375235
157	0x3d5f847c	0.054569706
158	0x3cef2cba	0.029196132
159	0x3dc04635	0.09388391
160	0xbd253127	-0.04033008
161	0xbb212305	-0.0024587524
162	0x3ff2c46e	1.8966196
163	0xbdbf2c4f	-0.09334623
164	0xbcb7f7d5	-0.022457043
165	0xbd8a3d7f	-0.06750011
166	0x3e48ab6f	0.19596647
167	0xbfd8e2a5	-1.6944166
168	0xbeee5858	-0.46551776
169	0xbf52c1f4	-0.823272
170	0x3f6cbf71	0.92479616
171	0x3a3b3b3e	0.00071423117
172	0x3dad194e	0.08452092
173	0x3f75be02	0.95993054
174	0xbf2536b4	-0.64536595
175	0x3c422815	0.011850377
176	0x3f243e5d	0.6415766
177	0xbe9b359a	-0.30314332
178	0x3dd5c96f	0.10438811
179	0x3eeca1d1	0.46217206
180	0xbe063c8c	-0.13109034
181	0xbf3a6ea8	-0.728251
182	0x3e771dff	0.24132536
183	0x3e1fd6c1	0.15609266
184	0x3ea6b743	0.32561693
185	0xbdeab41a	-0.11460133
186	0xbf54cfb3	-0.83129424
187	0xbf7e141d	-0.9924944
188	0x3f051174	0.51979756
189	0xbe76cf8a	-0.24102607
190	0x3e5af126	0.21381053
191	0xbe9c800d	-0.30566445
192	0xbf3cec17	-0.73797745
193	0xbfcb19f2	-1.5867293
194	0x3e5b0032	0.21386793
195	0xbdef5ea1	-0.11687971
196	0xbf34fa90	-0.7069483
197	0xbf19a283	-0.600136
198	0xbe9948bd	-0.29938307
199	0xbf1f0640	-0.6211891
200	0xbf7ab159	-0.9792686
201	0xbf79a71a	-0.975206
202	0x3f67e994	0.90590787
203	0xbf64cfac	-0.8937938
204	0xbe37b549	-0.17940249
205	0x3e2df019	0.16986121
206	0x3bfd2d3c	0.0077263396
207	0x3dbfcda2	0.09365393
208	0xbe5197a2	-0.20468
209	0x3f701bdc	0.9379251
210	0xbf7f9d94	-0.9984982
211	0x3e618e56	0.22026953
212	0xbf84d992	-1.0378897
213	0x3ea460ef	0.32105204
214	0xbefb7699	-0.4911392
215	0xbe94e0d7	-0.2907779
216	0x3f131934	0.5746033
217	0xbfa02fa1	-1.2514535
218	0x3f7ece8e	0.9953393
219	0x3e509868	0.20370638
220	0x3f855326	1.0416
221	0xbf4bca42	-0.79605496
222	0xbd0fd57c	-0.035115704
223	0x3e0168e4	0.12637669
224	0xbe561bf5	-0.20909102
225	0xbff1b4f0	-1.8883343
226	0xbf0624d9	-0.52399975
227	0x3caec00b	0.021331808
228	0x3ea2edc3	0.31822023
229	0xbe26b441	-0.16279699
230	0xbf4b8481	-0.7949906
231	0xbeaad428	-0.33364987
232	0x3f0b5004	0.5441897
233	0xc09fa6bd	-4.989104
234	0x3e0b2952	0.13589981
235	0xbea2fb3a	-0.31832296
236	0x3f8c0ab4	1.0940766
237	0xbe67ffee	-0.22656223
238	0x3ea2da93	0.31807384
239	0xbe6e30de	-0.23260829
240	0xbcb2ead4	-0.02184049
241	0xbfc6566a	-1.5495121
242	0xbf68fa87	-0.91007274
243	0x3f4e76d9	0.806501
244	0xbdec794f	-0.11546575
245	0x3d33b5f8	0.04387471
246	0xbed88e83	-0.42296228
247	0xbe87bc5f	-0.26510903
248	0x3d8d9b7d	0.06914423
249	0xc0041ba4	-2.064187
250	0x3f8475a1	1.0348397
251	0xbe36ab0e	-0.1783869
252	0xbe582b4b	-0.21110265
253	0x3e8f0f9c	0.27941597
254	0xbd1d8c8f	-0.038464125
255	0x3d92128b	0.07132443

fc1.bias f4 [256]
0	0xbf1f6675	-0.6226571
1	0xbefc8db5	-0.49326864
2	0xbea16110	-0.31519365
3	0x3e237b28	0.15964949
4	0x3bc137fe	0.0058965674
5	0x3f4a519b	0.7903077
6	0x3dec3834	0.115341574
7	0xbe53d77e	-0.20687672
8	0xbe4b7961	-0.19870521
9	0xbe2ffee1	-0.17187072
10	0x3e852ee2	0.2601233
11	0x3f1f83c3	0.6231043
12	0xbdfd2aa6	-0.1236165
13	0xbf1326fc	-0.5748136
14	0x3edcd0d7	0.43128082
15	0x3e7797e4	0.24179035
16	0xbe7314a0	-0.23738337
17	0x3f295eac	0.6616008
18	0x3c144127	0.009048737
19	0xbed2bb6a	-0.4115861
20	0xbc2adda2	-0.010428818
21	0xbe989bb0	-0.2980628
22	0x3d8b72d8	0.06809014
23	0xbea8a8b3	-0.32941207
24	0xbefdb995	-0.4955565
25	0xbea4b21b	-0.32167134
26	0x3f331630	0.6995573
27	0x3d8d08bc	0.068864316
28	0xbeef93fc	-0.4679259
29	0xbb05f16b	-0.0020438086
30	0xbf4ca6d1	-0.7994204
31	0xbebc7432	-0.368074
32	0x3f2d5a7e	0.67716205
33	0x3e430b06	0.19047174
34	0xba1e8ea9	-0.00060484797
35	0xbdcbec64	-0.09957197
36	0x3b46b9bc	0.0030323109
37	0xbf90a4b9	-1.1300269
38	0xbdea6f10	-0.11446965
39	0x3e9b8610	0.3037572
40	0xbe8aa70a	-0.27080566
41	0xbdf2e25e	-0.11859582
42	0xbd9ca1cc	-0.07648048
43	0xbf1e82f6	-0.6191858
44	0x3f66c005	0.9013675
45	0x3e833c8e	0.25632137
46	0xbef617a8	-0.48064923
47	0xbf82e755	-1.0226847
48	0xbf13f037	-0.57788414
49	0x3df0bd7b	0.117548905
50	0xbe58a447	-0.21156417
51	0x3ec56b66	0.385585
52	0xbe38cdfc	-0.18047327
53	0x3e0100ef	0.12598012
54	0x3e208047	0.15673934
55	0xbe6fb111	-0.23407389
56	0x3ecde0b8	0.4021051
57	0x3e428618	0.18996465
58	0xbe941ec9	-0.28929737
59	0xbf05798a	-0.5213858
60	0x3f1d5167	0.61452335
61	0x3e0be33d	0.13660903
62	0x3e89eb90	0.26937532
63	0xbbb460ee	-0.005504719
64	0x3e3e29f1	0.18570687
65	0xbd938a5f	-0.072041266
66	0xbf1737cc	-0.59069514
67	0xbc063a82	-0.00819266
68	0xbed7fa93	-0.4218336
69	0xbe261a12	-0.16220883
70	0xbe279431	-0.16365124
71	0x3ef3bf02	0.47606665
72	0xbf2bbaf8	-0.67082167
73	0x3f73e6ba	0.95273936
74	0xbbbcb2ea	-0.005758633
75	0x3ee152fa	0.4400862
76	0xbe3eec2d	-0.18644781
77	0xbdfe5c3e	-0.124199376
78	0x3e3d7358	0.18501031
79	0x3de7e66c	0.11323246
80	0xbdda2a66	-0.10652618
81	0x3ee41715	0.4454886
82	0xbe317808	-0.17330945
83	0xbefa3363	-0.4886733
84	0xbdb7c7cd	-0.08973656
85	0x3ea41aa0	0.32051563
86	0x3e49576c	0.19662255
87	0x3ef85b36	0.48507088
88	0xbda0b923	-0.07847812
89	0x3f5d99ad	0.86562616
90	0x3f19f0ee	0.60133255
91	0xbf003459	-0.50079876
92	0xbf9891b1	-1.1919461
93	0xbe9528d6	-0.29132718
94	0x3c688e22	0.014194043
95	0x3dbe6b07	0.092977576
96	0x3e102a1f	0.14078568
97	0xbedbcbc0	-0.42928886
98	0xbf5e56e6	-0.86851346
99	0xbf4bc550	-0.7959795
100	0x3f695fab	0.911616
101	0x3dd9e1ef	0.106387965
102	0xbdde8e08	-0.10866934
103	0xbe3ba605	-0.1832505
104	0xbe9255ef	-0.28581187
105	0x3c912d82	0.017721895
106	0xbf6e9582	-0.9319688
107	0x3ed58c31	0.4170852
108	0xbe7e37d9	-0.24825992
109	0xbdbb743b	-0.091530286
110	0xbeb30a54	-0.34968817
111	0xbef820fc	-0.48462665
112	0x3ec570b4	0.38562548
113	0xbeadec79	-0.33969477
114	0xbe892156	-0.26783246
115	0x3f2cda1c	0.6752031
116	0xbda2a338	-0.07941288
117	0xbe51ce33	-0.20488815
118	0x3f1e45ed	0.6182545
119	0xbf0e4eab	-0.5558879
120	0xbf79e687	-0.9761738
121	0x3efa8416	0.489289
122	0x3ed357d5	0.41277948
123	0xbf200c6c	-0.62518954
124	0x3bd8c711	0.0066155274
125	0xbeddfc18	-0.43356395
126	0xbf0c0aad	-0.5470379
127	0xbeeb9130	-0.46009207
128	0x3e713ad5	0.23557599
129	0x3dff684e	0.124710664
130	0x3c3021ff	0.010750293
131	0xbf2240db	-0.6338021
132	0x3b866ac4	0.004102083
133	0xbe61a174	-0.22034246
134	0x3ed231b0	0.41053534
135	0x3f1de3c7	0.61675686
136	0xbd83ca55	-0.06435076
137	0x3ed6fed8	0.41991305
138	0xbeec162c	-0.46110666
139	0x3f17b8c0	0.5926628
140	0x3f195749	0.5989881
141	0xbe2d34b6	-0.16914639
142	0x3eb3a4b6	0.35086602
143	0x3dea2519	0.11432857
144	0xbf4678b5	-0.77527934
145	0xbf285271	-0.65750796
146	0xbedbfa83	-0.42964563
147	0x3ea8d027	0.32971308
148	0x3f05e2be	0.52299106
149	0x3edd1b19	0.43184736
150	0x3eb2dbc8	0.34933305
151	0x3d087b02	0.033320434
152	0xbd53fe18	-0.051755995
153	0xbf1ecb68	-0.62029123
154	0x3eb804a2	0.35941035
155	0x3f1b45a1	0.6065312
156	0xbf00e811	-0.50354105
157	0xbe1b750a	-0.15181366
158	0x3e197532	0.14986113
159	0x3df19eb6	0.1179785
160	0x3e82f5e3	0.25578222
161	0x3df3cdb5	0.1190447
162	0xbf3576ba	-0.7088429
163	0xbea9afa0	-0.33141804
164	0xbe0e2f4c	-0.1388523
165	0x3eac0b78	0.336025
166	0xbe666c72	-0.22502306
167	0x3e6ed140	0.2332201
168	0x3e8406b9	0.2578638
169	0xbd1abd46	-0.03777816
170	0xbeeddb38	-0.46456313
171	0x3ed1bbeb	0.40963683
172	0xbe71cf03	-0.23614125
173	0xbeaba9e0	-0.33528042
174	0xbeda6ff0	-0.42663527
175	0x3f3a7d1e	0.72847164
176	0x3e62e993	0.22159414
177	0xbe696355	-0.22791798
178	0x3f89caeb	1.0765051
179	0xbf22eeec	-0.63645816
180	0xbee14ed7	-0.44005463
181	0x3e4df6eb	0.20113723
182	0xbdcdff37	-0.10058444
183	0x3e80bc66	0.25143737
184	0xbe94df68	-0.29076695
185	0x3e15626c	0.14588326
186	0xbec89312	-0.39174706
187	0x3e563f28	0.2092253
188	0xbf406ee6	-0.7516922
189	0xbf2592ba	-0.6467701
190	0x3f7c6265	0.9858764
191	0xbe96ee0f	-0.294785
192	0x3f25968f	0.6468286
193	0xbe32a552	-0.17445877
194	0x3f060e9e	0.52366054
195	0x3d85bfbb	0.0653071
196	0x3c8c2772	0.017108653
197	0xbdc64ff0	-0.096832156
198	0x3c695f7a	0.014243955
199	0xbed5f842	-0.41790968
200	0xbf159398	-0.58428335
201	0xbea2ebd3	-0.31820545
202	0xbe59bd42	-0.21263602
203	0x3da82303	0.08209803
204	0x3ed79ce0	0.42111874
205	0x3f140fd4	0.5783665
206	0x3ef121c0	0.47096062
207	0xbe27e145	-0.16394527
208	0x3f0607b0	0.5235548
209	0xbe8273a9	-0.25478867
210	0x3ea86cbb	0.32895455
211	0xbf06ae85	-0.52610046
212	0x3d8d2059	0.068909355
213	0xbcfdbe91	-0.030974658
214	0x3ef3eea6	0.47643012
215	0xbf12438e	-0.5713433
216	0xbf09c18f	-0.5381097
217	0xbed8db3b	-0.4235476
218	0x3ecb5031	0.3970962
219	0x3eaee11a	0.34156114
220	0x3f4b531a	0.7942368
221	0x3f0169b7	0.50551933
222	0xbe33d255	-0.17560704
223	0xbc652cf3	-0.0139877675
224	0xbf11b94d	-0.5692337
225	0xbb307589	-0.0026925525
226	0xbf0b5418	-0.5442519
227	0xbd6b13f9	-0.057392094
228	0xbd77c5b2	-0.06049127
229	0xbe3db894	-0.18527442
230	0xbcfe36c0	-0.031031966
231	0xbe772de9	-0.24138607
232	0xbf429b8c	-0.76018596
233	0xbec92fe8	-0.39294362
234	0xbf311d40	-0.69185257
235	0xbeef5360	-0.46743298
236	0xbe54638f	-0.20741104
237	0xbf003517	-0.5008101
238	0xbedea1cc	-0.43482816
239	0x3c0fd1cb	0.008778046
240	0x3f1e6271	0.6186896
241	0x3f359997	0.70937485
242	0xbd4189a7	-0.047250416
243	0xbee1d652	-0.44108826
244	0x3e91355e	0.28361028
245	0xbeb5f891	-0.35541204
246	0xbdfa45c4	-0.12220338
247	0xbea41671	-0.3204837
248	0xbea31c2b	-0.31857428
249	0x3eba5e84	0.36400235
250	0x3ba7726c	0.0051100757
251	0x3e6ac464	0.2292648
252	0xbf2e522d	-0.6809414
253	0x3e2d2058	0.1690687
254	0xbdb3439a	-0.08753128
255	0xbd6b9d06	-0.057522796

fc2.weight f4 [256, 256]
0	0xbd9bc8c9	-0.07606656
1	0x3dc70af2	0.097188845
2	0xbce3f276	-0.027825575
3	0xbd769748	-0.060202867
4	0xbd9becc2	-0.07613517
5	0x3ce69f4a	0.028152127
6	0xbd81caa0	-0.06337476
7	0xbd459670	-0.04823917
8	0xbd462ec6	-0.04838445
9	0xbc92dabe	-0.01792657
10	0xbd8f3396	-0.06992261
11	0xbdd8cb60	-0.10585666
12	0xbdde632b	-0.108587585
13	0xbddeea55	-0.10884539
14	0xbc9b3dea	-0.018950421
15	0xbdfb3849	-0.12266595
16	0xbd215852	-0.03939087
17	0xbd21d8e2	-0.039513476
18	0xbe039ba1	-0.12852336
19	0x3aea812a	0.0017891277
20	0xbd2a88d4	-0.041634396
21	0xbcb17f08	-0.021667019
22	0xbc9672bc	-0.018365256
23	0xbdecbf15	-0.115598835
24	0xbc8848c3	-0.016636258
25	0x3db0a948	0.08626038
26	0xbdafbb71	-0.085806735
27	0xbd2d01b0	-0.042237937
28	0x3d796538	0.060887545
29	0x3b36407c	0.0027809432
30	0xbe1723af	-0.14759706
31	0x3cc123e1	0.023576679
32	0xbdb9c2df	-0.09070372
33	0xbc348f66	-0.011020517
34	0xbd61943c	-0.055073008
35	0xbc667733	-0.014066505
36	0x3d1bb71c	0.038016424
37	0xbd95dd12	-0.073175564
38	0x3d076b21	0.03306115
39	0x3d1ca749	0.038245473
40	0xbd70b57d	-0.05876683
41	0xbc2a66f5	-0.010400523
42	0xbc350b21	-0.011050017
43	0xbce29763	-0.027660077
44	0xbd14a20e	-0.03628736
45	0xbd65b99f	-0.056085225
46	0xbd5049e3	-0.050851714
47	0x3ca2660c	0.01982405
48	0xbdb06b75	-0.08614246
49	0xbd9ea1aa	-0.07745679
50	0xbd30f58f	-0.043202933
51	0x3becf6a5	0.0072315508
52	0xbd0ef934	-0.034905627
53	0xbd795ab7	-0.060877528
54	0xbd966787	-0.07343965
55	0xbd946bd2	-0.072471276
56	0x3ca2f93c	0.019894235
57	0xbdc11652	-0.094280854
58	0x3b9b3ff9	0.0047378507
59	0xbd540863	-0.05176581
60	0xbd3bc013	-0.045837473
61	0xbd5298ab	-0.051415127
62	0x3b37a050	0.0028019138
63	0x3d291621	0.04128087
64	0xbda12af3	-0.0786952
65	0xbd304856	-0.043037735
66	0x3bd37e60	0.006454274
67	0x3b7ddcb4	0.0038736286
68	0xbd4dfb48	-0.05028847
69	0xbd57e4cc	-0.052708432
70	0xbd16cd12	-0.036816664
71	0xbd083140	-0.033250093
72	0x3c728748	0.014802761
73	0xbcc22915	-0.02370123
74	0xbd37fae2	-0.044916995
75	0xbcd30a2a	-0.025761683
76	0xbda5fd57	-0.08104961
77	0xbe096a52	-0.13419464
78	0xbe02c740	-0.1277132
79	0xbdc12c08	-0.094322264
80	0xbd81fc68	-0.06346971
81	0xbdb785d6	-0.08961074
82	0x3d039fb9	0.032134745
83	0xbbb5c020	-0.0055465847
84	0xbd954ac5	-0.07289652
85	0xbde78280	-0.11304188
86	0xbc6cea6d	-0.014460188
87	0xbe0598e1	-0.130466
88	0x3b2d203b	0.0026416916
89	0xbd95e1d8	-0.07318467
90	0xbdbf5d38	-0.09343952
91	0xbde7badd	-0.11314938
92	0x3d11e23c	0.035616145
93	0xbd3cfac4	-0.046137586
94	0xbce8a549	-0.028399127
95	0xbcb7e440	-0.022447705
96	0xbe32cf14	-0.17461807
97	0x3cd675bb	0.026179185
98	0xbd7a5b57	-0.061122265
99	0xbd3dbb40	-0.046321154
100	0x3b177270	0.0023108982
101	0xbd4b3822	-0.04961408
102	0xbd9af4b8	-0.07566208
103	0x3e4ae30e	0.19813177
104	0xbd407d5a	-0.046994545
105	0x3a0aba2b	0.00052920234
106	0x3b55dff3	0.0032634705
107	0xbd502c45	-0.05082347
108	0x3d1cc0f1	0.03826994
109	0xbdd054c0	-0.10172415
110	0xbca31437	-0.0199071
111	0xbc3992e4	-0.011326525
112	0x3c8f2d76	0.017477732
113	0x3d28add3	0.041181397
114	0x3d5a20de	0.053254
115	0xbd5564da	-0.052098133
116	0xbc124b0f	-0.008929028
117	0xbd68b5d2	-0.056814022
118	0xbde6ba4b	-0.11266001
119	0xbd44a8f4	-0.04801269
120	0x3b0d891f	0.0021596623
121	0xbbff6313	-0.007793793
122	0xbd3984ca	-0.045292653
123	0xbdaa6173	-0.08319368
124	0x3ba80a86	0.0051282076
125	0xbb279480	-0.002557069
126	0xbd203110	-0.03910929
127	0xbd58c028	-0.05291763
128	0xbdaebe29	-0.08532364
129	0xbd87aeef	-0.06625163
130	0xbd5a8ccc	-0.05335693
131	0xbd8e3ea8	-0.069455445
132	0xbd8be356	-0.0683047
133	0xbce73edf	-0.028228221
134	0xbc65da6a	-0.014029125
135	0xbdb2e4e9	-0.087350674
136	0xbdd03a90	-0.1016742
137	0xbc0b12bf	-0.008488356
138	0xbd0816c9	-0.033224855
139	0xbd452eaf	-0.048140224
140	0xbc684b6e	-0.01417814
141	0xbd43358e	-0.047658496
142	0xbdb4ef7b	-0.0883474
143	0xbd525f2c	-0.051360294
144	0x3d32c11d	0.0436412
145	0x3c86d958	0.01646106
146	0xbd8c03f9	-0.06836695
147	0xbc89ff15	-0.016845265
148	0xbd4b0249	-0.049562726
149	0xbc1a794d	-0.009428334
150	0xbd9e9a4e	-0.07744275
151	0x3c490bb0	0.012270853
152	0xbda25fd5	-0.07928435
153	0x3d255ce3	0.040371787
154	0xbd3ee036	-0.046600543
155	0xbbb00dbe	-0.005372732
156	0x3d06308c	0.03276114
157	0xbc440a9b	-0.011965419
158	0x3d2ba6ce	0.041907124
159	0x3d497419	0.049182985
160	0xbe065ce2	-0.1312137
161	0xbd0f5a6c	-0.034998342
162	0x3d86124d	0.06546459
163	0xbc64eef5	-0.013972987
164	0xbc039f39	-0.008033567
165	0x3cd2bab9	0.025723802
166	0xbdcac57a	-0.09900947
167	0xbdcba9a1	-0.099444635
168	0xbd23e5d4	-0.040014103
169	0xbdc964eb	-0.09833702
170	0x3b05a62b	0.0020393233
171	0xbe2deda5	-0.16985185
172	0x3d875e28	0.06609756
173	0x3dec121f	0.11526894
174	0xbb423df8	-0.0029638987
175	0xbd3bab90	-0.04581791
176	0xbba01d8c	-0.0048863348
177	0xbda51875	-0.080613054
178	0xbd1e32d2	-0.038622685
179	0x3cb1f902	0.021725181
180	0xbd3acc29	-0.04560486
181	0xbc74f696	-0.014951369
182	0xbd41be87	-0.04730084
183	0xbdec5e1a	-0.11541386
184	0xbdc10512	-0.09424795
185	0xbd6e7d00	-0.058224678
186	0x3d3402b3	0.043947887
187	0xbd274b27	-0.040843155
188	0xbd79887e	-0.060921185
189	0x3c80fc3c	0.015745275
190	0xbdb28225	-0.08716229
191	0xbc5a8290	-0.013336793
192	0xbd1c2e7b	-0.038130265
193	0xbc23e1b5	-0.010002543
194	0x396a3fe7	0.00022339784
195	0xbc9912a9	-0.018685656
196	0xbd1c6bed	-0.038188864
197	0xbc9868ca	-0.018604655
198	0xbdb6564a	-0.08903177
199	0xbd96cf4f	-0.0736376
200	0xbe3a693f	-0.1820421
201	0x3cc82876	0.024433356
202	0xbd30a558	-0.043126434
203	0xbda58afa	-0.08083148
204	0xbc341992	-0.010992425
205	0xbc667403	-0.014065745
206	0xbd5d9fb5	-0.054107387
207	0x3c30d576	0.010793081
208	0xbdb85d3e	-0.090021595
209	0xbd35e5a7	-0.044408467
210	0xbda9a840	-0.08284044
211	0x3c42e42c	0.011895221
212	0xbd439a62	-0.047754653
213	0x3cff1b2f	0.031140892
214	0xbcc11eb3	-0.023574209
215	0xbd03e7a5	-0.032203335
216	0xbd348633	-0.044073295
217	0xbdd9b4e1	-0.10630203
218	0xbd7b2005	-0.061309833
219	0x3d2503eb	0.04028694
220	0xbbba3479	-0.0056825248
221	0xbd2de33d	-0.04245304
222	0x3dc51828	0.09623748
223	0xbdb8b67c	-0.09019181
224	0xbd7eb3be	-0.062183134
225	0xbd83ffab	-0.06445249
226	0xbcf7c260	-0.030244052
227	0xbda267dd	-0.079299666
228	0xbd235093	-0.039871763
229	0xbd8af76e	-0.06785475
230	0xbc09585d	-0.008382884
231	0xbc9b1fff	-0.018936155
232	0xbb425f67	-0.0029658915
233	0xbd4539d6	-0.04815086
234	0xbc041178	-0.0080608055
235	0x3d9ec40e	0.07752238
236	0xbdb10378	-0.0864324
237	0xbdd5a25d	-0.10431359
238	0xbdc508e8	-0.09620839
239	0x3cb93b9b	0.02261143
240	0xbdb3f91d	-0.08787749
241	0xbd658fcb	-0.056045335
242	0xbd0ca8ee	-0.03434079
243	0x3c046e63	0.008082959
244	0xbd6a661c	-0.057226285
245	0xbc1bdf32	-0.009513663
246	0x3d6619da	0.056176998
247	0x3d0a26f7	0.033728566
248	0xbd4e7394	-0.050403193
249	0xbdeca87f	-0.115555756
250	0x3cd73fcd	0.02627554
251	0xbd040edb	-0.03224073
252	0xbcc62398	-0.024186894
253	0x3d4bbfac	0.04974334
254	0x3ceb3067	0.028709603
255	0xbd930d98	-0.07180327

fc2.bias f4 [256]
0	0xbb2f3884	-0.0026736567
1	0xbdeed684	-0.11662009
2	0xbe544175	-0.20728095
3	0x3e962ae8	0.2932961
4	0xbdab25e7	-0.08356839
5	0xbbee13e5	-0.007265555
6	0xbe0b3155	-0.13593037
7	0xbd9fa673	-0.077954195
8	0x3d841daf	0.06450974
9	0xbd12fade	-0.035883777
10	0xbe248ba6	-0.16068897
11	0xbd243c3c	-0.040096506
12	0x3d075d94	0.033048227
13	0xbd96c01b	-0.0736086
14	0x3c5f63b3	0.01363461
15	0xbdaa878e	-0.08326636
16	0xbd6ec9ac	-0.058297798
17	0xbba1f1a7	-0.0049421373
18	0xbdbdf654	-0.09275499
19	0xbdd58320	-0.10425401
20	0x3d4e5d58	0.05038199
21	0xbe6930ce	-0.22772524
22	0xbdae1ba6	-0.08501367
23	0x3ce771eb	0.028252563
24	0xbd372cdc	-0.044720516
25	0x3f8a0994	1.0784173
26	0xbd66902d	-0.05628984
27	0x3f437d3a	0.76362956
28	0x3c3926c4	0.011300746
29	0xbda42a7d	-0.080159165
30	0xbdeebbbc	-0.11656901
31	0xbeae2f03	-0.34020242
32	0xbd6588dc	-0.056038722
33	0xbdcc8445	-0.09986166
34	0xbe28b0dd	-0.16473718
35	0x3e5e6f33	0.21722107
36	0x3d69d9fd	0.057092655
37	0xbdf1cb76	-0.11806385
38	0xbdaab919	-0.08336086
39	0xbd5bb8e8	-0.053643137
40	0xbd87834f	-0.06616842
41	0xbe45adb6	-0.19304547
42	0xbcd19df6	-0.025588017
43	0xbd882728	-0.066480935
44	0xbd2b8068	-0.041870505
45	0xbf05c405	-0.5225223
46	0xbdee7648	-0.11643654
47	0xbe7e574f	-0.24837993
48	0xbcd98d81	-0.026556732
49	0x3daaf4fc	0.08347508
50	0xbcfeb351	-0.031091364
51	0x3f99ec54	1.2025247
52	0x3ccf6500	0.025316715
53	0xbdaa77c3	-0.08323624
54	0xbe46afd3	-0.19403009
55	0x3eb51a9f	0.35371873
56	0x3e0daa93	0.138346
57	0xbd09ab86	-0.033610843
58	0xbd302a35	-0.043009
59	0xbd3078a1	-0.04308379
60	0xbdb79024	-0.089630395
61	0xbda5d7af	-0.08097779
62	0xbc836eb0	-0.01604399
63	0x3c911558	0.017710373
64	0x3f8b0551	1.0860997
65	0xbd56b57f	-0.052419182
66	0xbcab3759	-0.020900415
67	0xbe5da099	-0.21643294
68	0xbc5103f5	-0.012757291
69	0xb9f019cf	-0.00045795596
70	0xbda454de	-0.08024
71	0xbd65fd95	-0.056150038
72	0xbd25c243	-0.040468466
73	0xbdcb739e	-0.099341616
74	0xbc44450e	-0.011979355
75	0xbd7e3576	-0.062062703
76	0x3d9e647f	0.07734012
77	0xbe1d9c6a	-0.15391698
78	0xbe82fb22	-0.25582224
79	0xbe3b97cf	-0.18319629
80	0xbd6d1d58	-0.057889313
81	0xbea8cdd5	-0.32969537
82	0xbcb8e0e7	-0.02256818
83	0x3dac72e6	0.08420353
84	0xbede7c75	-0.43454328
85	0xbeba6b2e	-0.36409897
86	0xbea072b2	-0.31337506
87	0xbdb4c8a1	-0.088273294
88	0xbdb23885	-0.087021865
89	0xbd1c38dd	-0.038140167
90	0x3d0a1cc7	0.03371885
91	0xbec4ff93	-0.38476238
92	0xbe51df87	-0.20495425
93	0xbb8de8da	-0.0043307366
94	0xbd94c149	-0.07263429
95	0xbbcabf30	-0.006187342
96	0x3da9ac4e	0.08284818
97	0x3debcf28	0.11514121
98	0xbe915984	-0.28388608
99	0xbcde0efe	-0.027106758
100	0xbea0f60c	-0.3143772
101	0x3f091990	0.5355463
102	0xbdcc6279	-0.0997972
103	0x3d4b9792	0.049705096
104	0xbf008ddf	-0.5021648
105	0x3e96235c	0.29323852
106	0x3eb2d611	0.34928945
107	0xbef9da34	-0.48799288
108	0xbea54fb1	-0.32287362
109	0xbda492a2	-0.080357805
110	0x3e806610	0.25077868
111	0xbda4b830	-0.080429435
112	0x3c602324	0.013680253
113	0xbe4a57db	-0.19760077
114	0xbe30db83	-0.17271237
115	0xba815b48	-0.0009869123
116	0xbe5de0c8	-0.21667778
117	0xbd45aef5	-0.048262555
118	0xbcc0a81b	-0.023517659
119	0x3cbad2e1	0.022805633
120	0x3c22ee92	0.009944575
121	0xbd1006ca	-0.035162725
122	0xbdbe055e	-0.092783675
123	0xbdf61ab0	-0.12016809
124	0xbd7b1116	-0.06129559
125	0xbd7547ff	-0.059883114
126	0xbd2d81b3	-0.04236002
127	0xbbbb9fb4	-0.005725825
128	0xbc881a12	-0.016613994
129	0xbda90eb1	-0.08254755
130	0xbc3049d4	-0.0107597895
131	0xbe831bd5	-0.25607172
132	0xbe162e88	-0.14666188
133	0xbdc85a99	-0.09782905
134	0xbbc7210c	-0.0060769375
135	0xbcfe1023	-0.031013554
136	0xbe9a6aed	-0.30159703
137	0x3ef16fff	0.4715576
138	0xbd5290fd	-0.051407803
139	0xbba8e29b	-0.0051539666
140	0x3e0bea28	0.13663542
141	0xbca29395	-0.019845763
142	0xbe1e6e06	-0.15471658
143	0xbc6a1b01	-0.014288665
144	0x3ee42208	0.44557214
145	0xbc5cafba	-0.013469631
146	0xbe85b249	-0.26112583
147	0xbcc150a4	-0.023598023
148	0xbdb0a1c3	-0.086246036
149	0xbca98864	-0.020694919
150	0xbeb8d562	-0.36100298
151	0xbdddb1c0	-0.10824919
152	0xbe57ba85	-0.21067245
153	0xbe8c3722	-0.27385813
154	0xbc9c9310	-0.019113094
155	0xbe2b3e12	-0.16722897
156	0xbd89a456	-0.06720798
157	0x3df29759	0.118452735
158	0xbebd4de9	-0.36973503
159	0xb7dd81e4	-2.6405738e-05
160	0xbde53a20	-0.11192727
161	0xbd4e5dbf	-0.050382372
162	0xb9af0c6f	-0.00033387865
163	0xbf040e33	-0.51584166
164	0x3f020738	0.50792265
165	0xbd0771c5	-0.033067483
166	0xbd9aa230	-0.07550466
167	0xbdcabaad	-0.09898887
168	0xbcfa52aa	-0.030556995
169	0x3d111d09	0.03542808
170	0xbdb11cf4	-0.086481005
171	0xbe7ccd69	-0.24687733
172	0xbd27bd47	-0.040951993
173	0xbe18058f	-0.1484587
174	0x3ddb3afe	0.10704611
175	0x3cfb0ea1	0.030646624
176	0x3eee020d	0.4648594
177	0xbdee534b	-0.116369806
178	0x3d77340a	0.060352363
179	0xbe477374	-0.19477636
180	0xbe7dc481	-0.24781992
181	0xbe101c1e	-0.14073226
182	0x3d85dcc9	0.06536252
183	0xbc463012	-0.012096422
184	0xbc3d754b	-0.011563609
185	0xbd15aa68	-0.036539465
186	0xbd73f351	-0.059558216
187	0x3c9e54ff	0.019327639
188	0xbd5b8972	-0.053597875
189	0xbd8eca0f	-0.06972133
190	0xbd3fd1b3	-0.046830844
191	0xbe6346ec	-0.22195023
192	0xbcb904fc	-0.022585385
193	0xbc91f7d3	-0.017818367
194	0xbdcfee6c	-0.10152897
195	0xbcdf405e	-0.027252372
196	0xbd44ac2b	-0.048015755
197	0xbcf75747	-0.030192984
198	0xbdee9202	-0.116489425
199	0xbc3c3093	-0.01148619
200	0xbd1e6c05	-0.038677234
201	0xbd14d606	-0.03633692
202	0x3bf2327b	0.0073912716
203	0xbe244c68	-0.16044772
204	0xbea63588	-0.32462716
205	0xbd3c4353	-0.045962643
206	0xbdc672e2	-0.09689881
207	0x3da88546	0.08228545
208	0xbccbd2c9	-0.024880784
209	0xbe8caf7e	-0.2747764
210	0xbc2f94df	-0.010716646
211	0x3cd6c453	0.026216662
212	0xbd7fde79	-0.062468026
213	0xbdb5889d	-0.088639475
214	0xbe8028ec	-0.2503122
215	0x3d0d615c	0.034516677
216	0xbeff0b69	-0.49813393
217	0x3b798d46	0.003807859
218	0xbdbf65ed	-0.09345613
219	0x3e22a7ca	0.15884319
220	0xbcdc868b	-0.026919624
221	0xbf168457	-0.58795685
222	0xbd2f4832	-0.04279346
223	0xbc7cf244	-0.01543862
224	0xbe043a8a	-0.12912956
225	0xbbd42c02	-0.0064749727
226	0xbe3944a5	-0.18092592
227	0xbe7527b1	-0.23940922
228	0xbd5f963f	-0.054586645
229	0x3c94ba39	0.018155204
230	0xbe185235	-0.1487511
231	0x3de0eecc	0.10983047
232	0xbead1ccb	-0.3381103
233	0x3e82aae3	0.25521
234	0xbdf74390	-0.120734334
235	0xbd06d954	-0.032922104
236	0xbd016202	-0.03158761
237	0xbe8e7173	-0.2782093
238	0x3f327762	0.69713414
239	0xbca56c6a	-0.020193297
240	0x388885bd	6.509896e-05
241	0xbe0ee585	-0.13954742
242	0x3e5a5d97	0.21324764
243	0xbdd41881	-0.10356236
244	0xbccb0bce	-0.024785902
245	0xbc3257a0	-0.010885149
246	0xbe5654aa	-0.20930734
247	0xbd61ca2c	-0.055124447
248	0xbe1b8e89	-0.15191092
249	0xbcc73473	-0.024317002
250	0xbe8394c8	-0.2569945
251	0x3eea699c	0.457837
252	0x3e2a664d	0.16640587
253	0xbcf2bfb7	-0.029632432
254	0xbd4f9d9e	-0.050687425
255	0xba47a74b	-0.0007616176

fc3.weight f4 [4, 256]
0	0xbbe7def6	-0.0070761396
1	0xbee785d2	-0.45219284
2	0x3f67fdc3	0.90621585
3	0x3f333243	0.6999857
4	0xbefc4f38	-0.4927919
5	0x3d4bc180	0.049745083
6	0x3e75bb0e	0.23997137
7	0xbefd2e76	-0.4944951
8	0x3f0c85f8	0.5489192
9	0x3b0d880e	0.0021595987
10	0x3de0ea99	0.10982246
11	0xbcbaec1f	-0.02281767
12	0x3d17432d	0.0369293
13	0xbd1846ff	-0.037177082
14	0xbd120e4c	-0.035658166
15	0xbc4b4d32	-0.0124085415
16	0xbcbe7218	-0.023247764
17	0x3cd93ce6	0.026518296
18	0xbcd3e406	-0.025865566
19	0xbf27e4de	-0.655836
20	0x3d3d06d7	0.0461491
21	0x3dae0f81	0.08499051
22	0xbc2ab020	-0.010417968
23	0xbd47caf5	-0.04877754
24	0x3ed9eb48	0.42562318
25	0x3eee8bc7	0.46591017
26	0xbd60bbcc	-0.054866597
27	0x3eef7665	0.46770015
28	0x3d2f04e0	0.04272926
29	0xbcbae793	-0.022815501
30	0xbebc0eaa	-0.36729938
31	0xbf0e50a5	-0.55591804
32	0xbd5b050f	-0.05347162
33	0x3b92af6f	0.0044764797
34	0x3e2f2f0c	0.1710779
35	0xbf536e50	-0.825902
36	0xbeea801b	-0.45800862
37	0xbda05eab	-0.078305565
38	0x3d30ae95	0.043135244
39	0xbd16c8ea	-0.0368127
40	0xbd2fa6d0	-0.042883694
41	0xbf5622ff	-0.8364715
42	0xbec48d1b	-0.38388905
43	0xbd312c1a	-0.04325495
44	0x3d209ae7	0.039210226
45	0x3f0d172b	0.55113477
46	0x3eb266a9	0.34843948
47	0xbf03c6bd	-0.51475126
48	0xbf841522	-1.0318949
49	0x3f046d14	0.5172894
50	0x3f01fd60	0.50777245
51	0x3f1884a8	0.5957742
52	0x3c9247ae	0.017856445
53	0xbd79e574	-0.06100984
54	0x3c8881be	0.016663428
55	0x3f217307	0.6306614
56	0xbf3e6e9c	-0.74387527
57	0x3cb89456	0.02253167
58	0x3beb757e	0.007185637
59	0x3bdbe23f	0.0067103202
60	0x3dd885e5	0.10572413
61	0xbe6eb627	-0.23311673
62	0x3cd71923	0.026257103
63	0x3d098d8e	0.033582263
64	0x3f027123	0.5095388
65	0x3c183dcb	0.009292076
66	0xbd386e20	-0.0450269
67	0xbee144c7	-0.43997785
68	0xbc323db4	-0.010878969
69	0xbebf21ef	-0.37330577
70	0xbd3b1b40	-0.045680285
71	0xbd113cbd	-0.035458315
72	0x3cf2b066	0.029625129
73	0xbcf8bbcf	-0.030362992
74	0x3cd32de3	0.025778716
75	0xbdf75be7	-0.12078076
76	0x3f8e9fc7	1.114251
77	0x3f08a886	0.53382146
78	0x3eda7b65	0.42672268
79	0xbe073062	-0.1320205
80	0x3c5bccd0	0.01341553
81	0x3e47c856	0.19510016
82	0xbd258e96	-0.040419184
83	0x3f1020d3	0.56300086
84	0x3f2db0cc	0.67847896
85	0x3ecbc316	0.39797276
86	0xbeee4913	-0.46540126
87	0x3cda0f78	0.026618704
88	0xbd80014a	-0.06250246
89	0xbe19b8f8	-0.15011966
90	0xbeb77028	-0.35827756
91	0x3eaab1e3	0.33338842
92	0x3e503de7	0.20336114
93	0xbc25e840	-0.0101261735
94	0xbcaf7f98	-0.021423146
95	0xbd6cee45	-0.05784442
96	0xbda54a6c	-0.080708355
97	0x3d17f569	0.037099276
98	0x3ec26d51	0.37974027
99	0xbf1d5572	-0.61458504
100	0x3ed67bdd	0.41891375
101	0x3f29163e	0.66049564
102	0x3c43e95b	0.011957492
103	0xbc2d05ba	-0.010560447
104	0xbbe5ee82	-0.0070169577
105	0x3edce7e2	0.43145663
106	0x3f0e6805	0.5562747
107	0xbe848e1d	-0.25889674
108	0x3f1671e7	0.5876755
109	0x3d635066	0.055496596
110	0xbf0a8392	-0.5410701
111	0xbe3db55c	-0.18526214
112	0xbe856a38	-0.260576
113	0x3efab2b1	0.48964456
114	0x3d703378	0.058642834
115	0xbf2ad313	-0.66728324
116	0xbd9ef079	-0.0776071
117	0xbd21352e	-0.039357357
118	0x3ba9f826	0.0051870523
119	0xbf059887	-0.52185863
120	0xbc25ab0d	-0.010111582
121	0x3bfdd998	0.0077468865
122	0xbc1e8517	-0.009675286
123	0xbceb01f6	-0.028687458
124	0xbd446313	-0.047946047
125	0xbefa88c4	-0.4893247
126	0xbcc9a0ef	-0.024612872
127	0xbd404d1f	-0.04694855
128	0xbd322cf0	-0.043499887
129	0xbdc26e53	-0.09493699
130	0x3dcf469c	0.101208895
131	0xbf06d417	-0.52667373
132	0xbf01feba	-0.50779307
133	0xbd037acf	-0.03209954
134	0xbd7ede79	-0.062223885
135	0xbce64008	-0.028106704
136	0x3f53cc31	0.82733446
137	0x3f0d2533	0.55134887
138	0x3ca35fc0	0.019943118
139	0xbc16bd36	-0.009200385
140	0xbe6ba84c	-0.23013419
141	0x3cc442c6	0.023957621
142	0x3e2c9540	0.1685381
143	0xbb24b254	-0.0025130706
144	0x3ef9717d	0.48719397
145	0xbc09daf7	-0.008414022
146	0x3e6afe47	0.22948562
147	0xbd09ddf7	-0.033658948
148	0xbf284cd3	-0.65742224
149	0x3d1236a7	0.03569665
150	0xbdc2942a	-0.09500916
151	0xbe13cf96	-0.14434657
152	0x3e531d3f	0.20616625
153	0x3f1991be	0.5998801
154	0xbe257f13	-0.16161756
155	0x3eccb04a	0.39978248
156	0x3c46065c	0.012086477
157	0x3ef15df7	0.47142002
158	0x3ecc9809	0.39959744
159	0x3c3d84c5	0.011567299
160	0x3f01f147	0.50758785
161	0xbc2f34f2	-0.0106937755
162	0xbf0fa5da	-0.56112444
163	0xbea00824	-0.3125621
164	0xbf0ad2ef	-0.5422811
165	0xbc1f2f40	-0.009715855
166	0x3bfb1cdf	0.007663354
167	0x3cdb67a9	0.026782827
168	0xb98fc198	-0.00027419324
169	0xbcb7a57c	-0.022417776
170	0xbb6557d1	-0.003499497
171	0x3f5990bc	0.8498647
172	0x3cb8ed12	0.022573981
173	0xbe279f36	-0.16369328
174	0x3f04c9e5	0.51870567
175	0x3c585296	0.013203284
176	0xbf05febf	-0.52341837
177	0xbefdd1c9	-0.49574116
178	0x3d051407	0.032489803
179	0xbe397f2c	-0.18114918
180	0x3e91f469	0.28506783
181	0x3c8a3877	0.016872628
182	0xbeec9137	-0.4620454
183	0x3d4ef65b	0.05052791
184	0x3d63eff8	0.055648774
185	0x3cd0a110	0.025467426
186	0xbd581236	-0.052751742
187	0xbfae25f0	-1.3605328
188	0x3beaa566	0.0071608303
189	0x3b206e3b	0.0024479765
190	0xbcd31264	-0.025765605
191	0xbef69d60	-0.48166943
192	0x3d11da5e	0.03560864
193	0x3c4680fc	0.012115713
194	0x3f2cd9b2	0.67519677
195	0x3d5d7dc6	0.054075025
196	0x3caebc0e	0.021329906
197	0xbe8af344	-0.27138722
198	0xbeaf0754	-0.34185278
199	0x3c1b3f26	0.009475505
200	0x3d289672	0.0411591
201	0xbe649c84	-0.22325331
202	0xbe85643f	-0.26053044
203	0x3ef50240	0.4785328
204	0xbefbb255	-0.49159494
205	0xbee5c125	-0.4487392
206	0x3f0ff8fd	0.562393
207	0xbf2144c7	-0.6299557
208	0xbec16f6d	-0.37780324
209	0xbea5bdd1	-0.3237138
210	0xbbc5b76c	-0.0060338285
211	0x3c8f1263	0.017464822
212	0xbd2d195e	-0.04226052
213	0xbb5c7a06	-0.0033642068
214	0xbd0912a7	-0.033465054
215	0x3cd3f778	0.025874838
216	0x3ee56230	0.44801474
217	0x3ce94c00	0.028478622
218	0x3d1c2557	0.038121548
219	0xbf14307b	-0.57886475
220	0x3b936299	0.0044978377
221	0xbe5ef316	-0.21772417
222	0xbc06a050	-0.008216932
223	0x3c8bde80	0.01707387
224	0xbea03965	-0.3129379
225	0xbed405cd	-0.41410676
226	0xbeb28421	-0.3486643
227	0xbde6f702	-0.11277582
228	0x3c903e39	0.017607795
229	0x3c7ec4b8	0.015549831
230	0x3b6c3349	0.003604131
231	0x3f0368bd	0.5133169
232	0x3f9eda50	1.2410374
233	0x3ee270d6	0.44226712
234	0xbf957bee	-1.1678445
235	0x3e3449c9	0.17606272
236	0xbc6d340f	-0.014477744
237	0xbeddd304	-0.43325055
238	0x3eed567b	0.46355042
239	0x3d23206f	0.039825853
240	0xbd143242	-0.036180742
241	0xbe60810f	-0.21924232
242	0xbf2cd36b	-0.675101
243	0xbe99832a	-0.29982883
244	0x3d60f947	0.05492523
245	0x3cbc56b3	0.02299056
246	0xbf412d1e	-0.7545947
247	0xbcf92160	-0.030411422
248	0x3ce6bbd3	0.028165733
249	0x3d1b59da	0.037927486
250	0xbec5c8f3	-0.38629875
251	0x3ef7a55d	0.4836835
252	0xbe98a71f	-0.29815003
253	0xbeba695c	-0.36408508
254	0xbb804008	-0.003913883
255	0x3e47a71d	0.19497342

fc3.bias f4 [4]
0	0xbd19d12f	-0.03755301
1	0x3c79d53e	0.015248595
2	0x3e478687	0.19484912
3	0xbd9be4b9	-0.07611985
