csv_and_models/vanilla_dqn/vanilla_lunar_100.pth (torch, 279212 bytes, 6 tensors)

fc1.weight f4 [256, 8]
0	0xbe6fb23b	-0.23407833
1	0x3e8f3f2a	0.27977878
2	0xbdbf41b0	-0.09338701
3	0xbe1801f3	-0.14844494
4	0x3ddc1b9c	0.107474536
5	0x3ef75731	0.4830871
6	0xbd903898	-0.070420444
7	0xbe9e1e30	-0.30882406
8	0xbf2eab72	-0.68230355
9	0xbeef43d7	-0.46731445
10	0x3cd1603c	0.025558583
11	0xbd99f44a	-0.075172976
12	0x3dcb4d9c	0.09926912
13	0x3dcd111f	0.10013031
14	0x3da1859a	0.078868106
15	0x3eca25f0	0.3948207
16	0x3f0795c7	0.5296292
17	0x3e3e185e	0.18563983
18	0x3c8c6777	0.01713918
19	0xbe470583	-0.19435696
20	0xbd2593d5	-0.040424187
21	0x3ebca255	0.368426
22	0x3e2b9358	0.16755426
23	0x3ed90f08	0.4239428
24	0xbd8b9dd5	-0.068172134
25	0x3e92f949	0.28705814
26	0x3d16c9ec	0.03681366
27	0x3e1043eb	0.14088409
28	0xbe1662bd	-0.14686103
29	0x3d384b79	0.04499385
30	0x3d8a6e13	0.06759276
31	0xbef99de1	-0.48753265
32	0xbda4aa7a	-0.08040328
33	0xbe86714e	-0.2625832
34	0x3dbd5157	0.0924403
35	0xbd5dc1b7	-0.05413982
36	0x3f03675b	0.5132958
37	0xbdc4c97d	-0.09608743
38	0xbe9be683	-0.30449304
39	0x3e8fbf96	0.28075856
40	0x3e86eab7	0.26350948
41	0xbeef0d06	-0.46689624
42	0x3e4a82d0	0.19776464
43	0xbcef6413	-0.029222524
44	0xbdcaacf4	-0.098962694
45	0x3e1d8d14	0.15385848
46	0xbe784f09	-0.242489
47	0x3daadc18	0.08342761
48	0x3f8690fd	1.0512997
49	0x3e1ad559	0.15120448
50	0xbed115c5	-0.4083692
51	0x3eb49e23	0.352769
52	0xbe8fd302	-0.28090674
53	0xbeb9e7de	-0.36309713
54	0x3e56b7b4	0.20968515
55	0xbe21cf9e	-0.15801856
56	0x3f7b90e4	0.9826796
57	0xbd8c89dd	-0.06862233
58	0x3d58e7c6	0.05295541
59	0x3e827366	0.25478667
60	0xbf0eda1a	-0.55801547
61	0x3e719101	0.23590471
62	0x3de47828	0.111557305
63	0x3e160b16	0.14652666
64	0x3f52c825	0.82336646
65	0x3e5022ef	0.20325826
66	0x3cb476cc	0.022029303
67	0x3e02bac2	0.12766555
68	0xbe9afe21	-0.3027201
69	0xbef403a6	-0.47659034
70	0x3eb10626	0.34575003
71	0x3e4bbe0a	0.19896713
72	0xbe081c62	-0.13292077
73	0x3c3674aa	0.011136213
74	0x3c431aba	0.011908228
75	0xbe7a4f5c	-0.24444336
76	0x3f0bdd9b	0.5463502
77	0xbd64073a	-0.055670954
78	0x3ef0db9c	0.4704255
79	0xbde025a2	-0.10944678
80	0xbcd78c1c	-0.026311927
81	0x3dea89a1	0.11452032
82	0x3e582715	0.21108659
83	0xbe6b2281	-0.22962381
84	0x3ef8a3e2	0.48562533
85	0xbea12ca1	-0.31479362
86	0xbe288ec7	-0.16460715
87	0x3eb08527	0.34476587
88	0x3f10b808	0.5653081
89	0xbee34a63	-0.4439269
90	0x3e0a2908	0.13492215
91	0xbdc83c17	-0.09777086
92	0x3ead7f48	0.3388617
93	0xbf2e561a	-0.6810013
94	0xbeac37f3	-0.33636436
95	0xbe56f5de	-0.20992228
96	0xbe70faf4	-0.23533231
97	0x3e570dcb	0.21001355
98	0xbd6c7175	-0.05772539
99	0xbf1ae689	-0.6050802
100	0x3eee620b	0.46559176
101	0xbeb026e1	-0.34404662
102	0x3dc09389	0.0940314
103	0x3d0b92d4	0.034075573
104	0xbed318c8	-0.41229844
105	0x3ed6d4fe	0.41959375
106	0xbe604a5a	-0.21903363
107	0x3e18a7e3	0.14907794
108	0x3e35237a	0.17689314
109	0x3e3614ff	0.17781447
110	0xbee04e10	-0.43809557
111	0xbd89ef3f	-0.06735086
112	0x3f045ec4	0.517071
113	0xbe4a96dc	-0.19784111
114	0x3ce48bfc	0.027898781
115	0x3f18018d	0.59377366
116	0xbe835075	-0.2564732
117	0x3e0bc5af	0.13649629
118	0x3e21468b	0.15749566
119	0xbea07dd0	-0.31345987
120	0x3e801f5e	0.2502393
121	0xbdb034c6	-0.08603816
122	0xbdbbd02f	-0.09170567
123	0x3e9ea22c	0.30983102
124	0xbe82a9d5	-0.25520197
125	0xbe370767	-0.17873918
126	0x3e08f6f6	0.13375458
127	0x3e418fd6	0.18902525
128	0xbe5187f0	-0.20462012
129	0x3df60312	0.12012304
130	0xbdb8d3e7	-0.09024792
131	0x3de8a00c	0.113586515
132	0xbe5ecf44	-0.21758753
133	0x3dd24f51	0.10269035
134	0xbd6ccb67	-0.057811167
135	0x3e818383	0.25295648
136	0x3f10fa69	0.56632096
137	0xbe09f0a5	-0.13470705
138	0xbe400127	-0.1875044
139	0x3e873fc9	0.26415852
140	0x3e597eea	0.2123982
141	0x3f3e67ac	0.7437694
142	0xbcdff818	-0.02733998
143	0xbcde49a0	-0.027134717
144	0x3e40d617	0.18831669
145	0xbd71be36	-0.05901929
146	0xbd7171d1	-0.058946434
147	0xbdad1db9	-0.08452935
148	0x3f3bba57	0.7333121
149	0xbf18af1d	-0.596422
150	0xbf0c93b8	-0.549129
151	0x3d86cfdc	0.06582615
152	0xbf495182	-0.78639996
153	0xbec5bae0	-0.38619137
154	0xbd8161a3	-0.06317451
155	0xbe62387b	-0.22091858
156	0x3e50800d	0.20361347
157	0xbdc74488	-0.09729868
158	0x3ebb6239	0.36598375
159	0x3e9bbe73	0.3041874
160	0xbef27aad	-0.4735922
161	0x3e830715	0.2559134
162	0x3f6501b7	0.8945574
163	0xbebcd460	-0.3688078
164	0xbe10f7ce	-0.1415703
165	0xbdfa1a96	-0.12212102
166	0x3e815f03	0.252678
167	0xbf152b5c	-0.58269286
168	0xbec24ef0	-0.3795085
169	0xbe9dfbcd	-0.3085617
170	0x3e5ab5b8	0.21358383
171	0x3e7b8a4b	0.24564473
172	0xbe7380a4	-0.23779541
173	0x3ef70222	0.48243815
174	0xbeb12c6c	-0.34604204
175	0xbe92c8a1	-0.28668693
176	0x3ea24d24	0.3169948
177	0xbe066656	-0.13124976
178	0xbe162f63	-0.14666514
179	0x3de734f0	0.11289394
180	0xbe7b1fc7	-0.24523841
181	0xbeef2161	-0.46705154
182	0x3ebd92ac	0.37025964
183	0x3bcdce11	0.0062806685
184	0xbd699752	-0.057029076
185	0x3e35b851	0.17746092
186	0xbef635a3	-0.48087797
187	0xbedaed40	-0.42759132
188	0x3f1a96a0	0.60386086
189	0xbef21ded	-0.47288457
190	0x3e6569ef	0.22403692
191	0xbe5a8498	-0.21339643
192	0xbf0e7015	-0.55639774
193	0xbe82a53c	-0.2551669
194	0xbee7f085	-0.4530069
195	0xbdd9b7b0	-0.10630739
196	0xbea3236f	-0.3186297
197	0xbe8636bc	-0.26213634
198	0xbe24b727	-0.16085492
199	0xbd6c80c8	-0.057740003
200	0xbf1d4da2	-0.61446583
201	0xbe86b22f	-0.26307818
202	0x3ddfd04d	0.10928402
203	0xbe2ccf43	-0.16875939
204	0xbbb34382	-0.005470694
205	0x3eed583e	0.46356386
206	0xbdd8b9cf	-0.10582315
207	0x3ec791bc	0.38978374
208	0x3f14419f	0.5791263
209	0xbe15170f	-0.14559577
210	0xbe859afd	-0.2609481
211	0x3ebc48f1	0.367744
212	0xbf0152b2	-0.5051681
213	0x3e1fb28c	0.15595454
214	0xbda44a44	-0.080219775
215	0xbed652b2	-0.41859967
216	0x3f66079f	0.8985538
217	0xbe8473ec	-0.2586969
218	0x3e882d80	0.26597214
219	0x3c957965	0.018246362
220	0x3efd1fea	0.4943841
221	0xbef7255d	-0.48270693
222	0xbe86e9e8	-0.2635033
223	0x3eb3e52d	0.35135785
224	0xbda222d7	-0.079168014
225	0xbf51c211	-0.81936747
226	0x3d02f874	0.031975225
227	0xbe995b95	-0.29952684
228	0xbf149724	-0.5804312
229	0xbe1e5c7f	-0.15464972
230	0xbe07008b	-0.13183801
231	0xbedeb054	-0.43493903
232	0x3e77d721	0.24203159
233	0xbfa57229	-1.2925464
234	0x3dc8c2ea	0.09802802
235	0xbeacb21c	-0.33729637
236	0x3eadb50e	0.33927196
237	0xbd2836a6	-0.04106774
238	0xbf19e970	-0.6012182
239	0xbe65bfa7	-0.22436391
240	0xbe31b54d	-0.17354317
241	0xbe58f6fc	-0.21187967
242	0xbf80a4b4	-1.0050263
243	0x3f007b46	0.501881
244	0x3e33e56d	0.17567988
245	0x3e2f85a2	0.1714082
246	0xbeb2d419	-0.34927443
247	0xbe5d7555	-0.2162679
248	0xbe00cd86	-0.12578401
249	0xbe7046b6	-0.23464474
250	0x3ed06d8a	0.40708572
251	0xbe3ad149	-0.18243898
252	0xbe05521e	-0.13019606
253	0x3eac9417	0.33706734
254	0x3e9f5571	0.31119874
255	0x3e944eda	0.2896641

fc1.bias f4 [256]
0	0x3c9562b2	0.018235538
1	0x3ea7a06d	0.32739583
2	0xbdd976ff	-0.106184
3	0x3ef42fb2	0.4769264
4	0x3e14be27	0.14525662
5	0x3f846bcd	1.0345398
6	0x3e9358bb	0.28778633
7	0x3de21c46	0.11040549
8	0xbd77863e	-0.060430758
9	0x3d3dfd4d	0.046384145
10	0x3d7ddb4e	0.061976723
11	0x3f3a2e3e	0.7272681
12	0xbe9cff54	-0.3066355
13	0x3d1bf4a6	0.03807511
14	0x3f4b28f6	0.79359376
15	0x3ecae261	0.39625838
16	0x3f189547	0.5960278
17	0x3f099961	0.5374966
18	0xbd8e18cb	-0.06938323
19	0x3d83b94c	0.06431827
20	0xbed23657	-0.41057083
21	0xbe45e052	-0.19323853
22	0x3ec72845	0.3889791
23	0xbe628909	-0.22122587
24	0xbd6e63ef	-0.058200773
25	0x3df1bf9e	0.11804126
26	0x3f579446	0.8421062
27	0x3f091d29	0.5356012
28	0xbea65a76	-0.3249089
29	0xbde5a784	-0.11213592
30	0xbebf2231	-0.37330773
31	0x3f3d7d5e	0.7401942
32	0x3f107444	0.5642741
33	0xbe218152	-0.15771988
34	0xbe9e1d79	-0.3088186
35	0xbd79606d	-0.060882974
36	0xbe07bb73	-0.132551
37	0xbed8bdb8	-0.42332244
38	0x3f07b010	0.53003025
39	0xbe087322	-0.1332517
40	0xbe21d613	-0.15804319
41	0xbed02e99	-0.4066055
42	0xbe8d71a7	-0.27625772
43	0xbf0e39ef	-0.5555715
44	0x3e810070	0.25195646
45	0x3e5aa1fd	0.21350856
46	0xbe5e64aa	-0.21718088
47	0xbeeb423f	-0.4594898
48	0x3e9a9716	0.30193394
49	0xbe165fd2	-0.1468499
50	0x3e262de1	0.16228439
51	0x3efa8237	0.4892747
52	0x3f1c93c4	0.6116297
53	0x3f1259c1	0.57168204
54	0x3ea8028b	0.3281444
55	0x3eb134f8	0.34610724
56	0x3f2b9e56	0.67038476
57	0x3d8a50c0	0.06753683
58	0xbf27cffe	-0.65551746
59	0xbdda95e5	-0.10673121
60	0x3dd0fb88	0.10204226
61	0x3f0a0476	0.53913057
62	0x3f2686a5	0.650492
63	0xbe8a2148	-0.26978517
64	0x3f4af6ef	0.7928304
65	0x3eb8f4d7	0.36124298
66	0xbe8529df	-0.26008508
67	0x3e2e2a97	0.17008434
68	0x3d9b7aff	0.07591819
69	0xbe2405e8	-0.16017878
70	0x3e8ffe7b	0.2812384
71	0x3f71c382	0.94438946
72	0xbeaa3ed4	-0.3325106
73	0x3e81698d	0.2527584
74	0xbe39f727	-0.18160687
75	0x3f023baf	0.5087232
76	0x3bfdb8da	0.0077429833
77	0x3f27b4d5	0.655103
78	0x3f13f565	0.5779632
79	0x3f266d62	0.65010655
80	0x3e596401	0.21229555
81	0x3f7dc9ca	0.9913603
82	0xbd9194fa	-0.07108493
83	0x3e7c05d7	0.24611603
84	0xbde24b0a	-0.11049469
85	0x3ccfc16b	0.025360784
86	0x3ebcd108	0.36878228
87	0x3f47324e	0.77811134
88	0x3ef74ca7	0.4830067
89	0x3e40e828	0.1883856
90	0x3f41e11a	0.757341
91	0xbeaaa099	-0.3332565
92	0xbe2d0faf	-0.16900514
93	0x3de70ee1	0.11282135
94	0x3e917c61	0.28415206
95	0x3d4710a9	0.048599873
96	0x3f5b8a9d	0.8575838
97	0xbd3b33dc	-0.045703754
98	0xbe741b99	-0.23838653
99	0xbeb3e196	-0.35133046
100	0x3f44a65b	0.7681634
101	0xbe60d40e	-0.21955892
102	0xbe5eb6c1	-0.21749403
103	0xbe7cca82	-0.24686626
104	0x3f6e20eb	0.9301898
105	0x3f28cffc	0.6594236
106	0xbdfc5b3f	-0.12322091
107	0x3f0d155b	0.5511071
108	0x3ee4c2c5	0.44679847
109	0xbdcb1745	-0.09916548
110	0x3cd1f36f	0.025628773
111	0xbef11305	-0.47084823
112	0x3f6d9f88	0.9282155
113	0xbe9dd12d	-0.3082365
114	0xbe2f2a2f	-0.17105936
115	0x3f7047ac	0.9385936
116	0xbe28e163	-0.16492228
117	0xbdb568f5	-0.088579096
118	0x3f594ba5	0.8488105
119	0xbe20b3de	-0.15693614
120	0xbe3e7ef0	-0.1860311
121	0xbdb6a57a	-0.08918281
122	0x3ed5dfd5	0.41772333
123	0xbdcb8c85	-0.09938911
124	0xbd2c722a	-0.042101063
125	0xbe9e1b73	-0.30880317
126	0x3e9be9e7	0.3045189
127	0x3ea2ba61	0.3178282
128	0x3f3fe2e5	0.7495559
129	0x3f3054e6	0.68879545
130	0xbd0c76bf	-0.034292933
131	0x3dcca5b1	0.09992541
132	0xbede1c86	-0.43381137
133	0x3e064573	0.1311243
134	0xbe2f848e	-0.1714041
135	0x3e5adea1	0.21373989
136	0xbe2434d9	-0.16035785
137	0x3f3e33ca	0.74297774
138	0xbdd1df6b	-0.10247692
139	0x3f3ae93d	0.73012143
140	0xbd6ca01c	-0.05776988
141	0x3f2439c8	0.6415067
142	0x3eb1cf1b	0.3472832
143	0x3f13c36f	0.57720083
144	0xbd80e14c	-0.06292972
145	0xbf142c84	-0.57880425
146	0x3ed32d26	0.41245383
147	0x3f6c24a4	0.9224341
148	0x3f1db660	0.6160641
149	0x3e8da710	0.2766652
150	0x3f418e48	0.7560773
151	0x3f415a03	0.7552797
152	0x3e906e2d	0.28209057
153	0xbe4e6043	-0.20153908
154	0x3f202029	0.6254907
155	0x3f3c7f1e	0.73631465
156	0xbf08f197	-0.53493637
157	0x3f1e9159	0.6194053
158	0x3f37d2a3	0.7180578
159	0x3f20b31e	0.6277331
160	0x3e90e2bf	0.28297994
161	0x3eb6cecd	0.3570465
162	0xbf04b352	-0.5183612
163	0xbe4785bc	-0.1948461
164	0x3e698f66	0.22808608
165	0x3e4286b4	0.18996698
166	0x3ec3a203	0.38209543
167	0x3cbe062c	0.023196302
168	0x3efed85e	0.4977445
169	0x3f2b2d16	0.6686567
170	0xbf00e87f	-0.5035476
171	0x3f3da396	0.7407774
172	0xbe56e90a	-0.20987335
173	0x3e19a761	0.15005256
174	0x3e806c13	0.25082454
175	0x3f6d1544	0.92610574
176	0x3f286cdc	0.65791106
177	0xbe793c49	-0.24339403
178	0xbe1d2209	-0.15345015
179	0xbe298a36	-0.1655663
180	0xbd35df36	-0.044402324
181	0x3ec2c41f	0.38040254
182	0x3ddb2e12	0.107021466
183	0x3f44d23c	0.7688329
184	0xbe3700ce	-0.178714
185	0x3e08ad51	0.13347365
186	0x3e6c1b5f	0.23057316
187	0x3eb1b9a3	0.34711942
188	0xbf013211	-0.5046702
189	0x3e167c1b	0.1469578
190	0x3e081ae0	0.13291502
191	0x3f0286bd	0.50986844
192	0x3e65ba91	0.2243445
193	0x3e9107fd	0.28326407
194	0x3e79cca7	0.24394475
195	0x3f2537ce	0.64538276
196	0x3d871430	0.06595647
197	0xbe6e1666	-0.23250732
198	0xbc01eb09	-0.007929572
199	0xbe615f5a	-0.2200903
200	0xbec3bf83	-0.3823205
201	0xbec291b2	-0.38001782
202	0xbe8fbcc2	-0.28073698
203	0x3ef4f4f3	0.4784313
204	0xbe36df2e	-0.17858574
205	0x3d7daefb	0.061934453
206	0x3f594837	0.84875816
207	0x3e801558	0.25016284
208	0x3f67fe4d	0.9062241
209	0xbd716639	-0.058935378
210	0x3eaa4fb5	0.33263937
211	0x3ebac374	0.36477244
212	0x3f20e22a	0.628451
213	0x3e8ee0b2	0.27905804
214	0x3f7dc8b1	0.99134356
215	0xbe2cbcd3	-0.16868906
216	0xbe1b8a88	-0.15189564
217	0x3f3b3194	0.73122525
218	0x3ec760e8	0.3894112
219	0x3f368ab6	0.71305406
220	0x3f659686	0.89682806
221	0x3f477b56	0.7792257
222	0xbe07e744	-0.13271815
223	0x3eff95fe	0.49919122
224	0xbe6ca368	-0.2310921
225	0x3eb6daad	0.3571371
226	0xbebc533a	-0.36782247
227	0x3e87ec48	0.26547456
228	0x3ef42475	0.47684065
229	0x3f2e2551	0.6802569
230	0x3b3695aa	0.0027860203
231	0x3e808563	0.25101766
232	0x3e631d19	0.22179069
233	0x3e62521a	0.22101632
234	0xbeae5df9	-0.3405607
235	0x3e4ccf08	0.20000851
236	0x3f2aaa47	0.6666607
237	0xbebba16b	-0.3664659
238	0x3e347a4d	0.17624779
239	0x3da6df8f	0.08148109
240	0x3eeddfac	0.4645971
241	0x3f64d334	0.8938477
242	0x3d638da5	0.055555005
243	0xbeb63f3a	-0.35595113
244	0x3f03cda7	0.51485676
245	0xbd8d3bf3	-0.068962
246	0xbe7ca02a	-0.24670473
247	0x3cb6fd74	0.022337653
248	0xbdcbf5c9	-0.09958989
249	0x3ee60951	0.44928983
250	0x3e4b9aa7	0.19883214
251	0x3e2e4ab6	0.17020687
252	0xbd40fc1f	-0.04711544
253	0x3d8e2f8e	0.06942664
254	0xbe8c6f2f	-0.27428576
255	0x3e70a180	0.23499107

fc2.weight f4 [256, 256]
0	0xbd9bc8c9	-0.07606656
1	0x3e040a2e	0.12894508
2	0x3b80c449	0.003929649
3	0xbd769748	-0.060202867
4	0xbd35e269	-0.044405375
5	0x3d7566a5	0.059912343
6	0xbd81caa0	-0.06337476
7	0xbc87118c	-0.01648786
8	0xbc887971	-0.01665947
9	0xbc92dabe	-0.01792657
10	0xbd1c5842	-0.038170107
11	0xbd97c7ec	-0.07411179
12	0xbd9d5d32	-0.07683791
13	0xbddeea55	-0.10884539
14	0x3c50439b	0.012711431
15	0xbdba34f1	-0.09092129
16	0xbbfa4adc	-0.0076383185
17	0xbbfe9853	-0.0077696233
18	0xbdc6764a	-0.096905306
19	0x3d095836	0.03353139
20	0xbd2a88d4	-0.041634396
21	0xbcb17f08	-0.021667019
22	0x3c5a7568	0.013333656
23	0xbdabf243	-0.08395817
24	0xbc8848c3	-0.016636258
25	0x3df1b33e	0.11801766
26	0xbdafbb71	-0.085806735
27	0xbc2bb5ef	-0.010480388
28	0x3d796538	0.060887545
29	0x3d0d6884	0.034523502
30	0xbe1723af	-0.14759706
31	0x3d62a96c	0.055337355
32	0xbd725f7a	-0.059173085
33	0x3ca949f0	0.020665139
34	0xbd61943c	-0.055073008
35	0xbc667733	-0.014066505
36	0x3d1bb71c	0.038016424
37	0xbd95dd12	-0.073175564
38	0x3d84c094	0.06482044
39	0x3d8e0e38	0.06936306
40	0xbcdd8a57	-0.027043505
41	0xbc2a66f5	-0.010400523
42	0xbc350b21	-0.011050017
43	0x3b8631fb	0.0040953136
44	0xbb963cf1	-0.0045849015
45	0xbd65b99f	-0.056085225
46	0xbd5049e3	-0.050851714
47	0x3ca2660c	0.01982405
48	0xbd5f5fca	-0.05453471
49	0xbd9ea1aa	-0.07745679
50	0xbc3b8eb1	-0.0114475945
51	0x3becf6a5	0.0072315508
52	0xbb526b3e	-0.0032107378
53	0xbcef2b7b	-0.029195538
54	0xbd2af31e	-0.04173576
55	0xbd2721e0	-0.04080379
56	0x3d539058	0.05165133
57	0xbd802f8f	-0.06259071
58	0x3d154b5f	0.036448833
59	0xbd540863	-0.05176581
60	0xbd3bc013	-0.045837473
61	0xbca10de8	-0.019659951
62	0x3d0d8f3e	0.034560435
63	0x3d291621	0.04128087
64	0xbd404383	-0.046939384
65	0xbc3a2657	-0.01136168
66	0x3bd37e60	0.006454274
67	0x3d11e6e2	0.035620578
68	0xbd4dfb48	-0.05028847
69	0xbd57e4cc	-0.052708432
70	0xbd16cd12	-0.036816664
71	0xbac36982	-0.0014908763
72	0x3c728748	0.014802761
73	0xbcc22915	-0.02370123
74	0xbd37fae2	-0.044916995
75	0x3bbe2c09	0.0058035892
76	0xbd49febf	-0.04931521
77	0xbdd1e5ea	-0.10248931
78	0xbdc48853	-0.09596314
79	0xbd802563	-0.06257131
80	0xbd81fc68	-0.06346971
81	0xbd6cf421	-0.057850007
82	0x3d82cddc	0.06386921
83	0xbbb5c020	-0.0055465847
84	0xbd954ac5	-0.07289652
85	0xbda6834d	-0.081305124
86	0x3c8da45c	0.017290287
87	0xbdca2f15	-0.098722614
88	0x3d0ccea1	0.034376744
89	0xbd95e1d8	-0.07318467
90	0xbd7ca84b	-0.061683934
91	0xbde7badd	-0.11314938
92	0x3d89e4bc	0.06733081
93	0xbc6d0695	-0.014466901
94	0xbce8a549	-0.028399127
95	0xbcb7e440	-0.022447705
96	0xbe1254f1	-0.14290215
97	0x3cd675bb	0.026179185
98	0xbd7a5b57	-0.061122265
99	0xbc6eb24b	-0.014568876
100	0x3d0b8500	0.034062386
101	0xbd4b3822	-0.04961408
102	0xbd33d9c4	-0.04390885
103	0x3e4ae30e	0.19813177
104	0xbc799608	-0.015233524
105	0x3a0aba2b	0.00052920234
106	0x3b55dff3	0.0032634705
107	0xbc9c33af	-0.019067613
108	0x3d8f6a69	0.07002718
109	0xbd8f4f58	-0.069975555
110	0x3c41d1c4	0.011829797
111	0x3ca74a85	0.020421276
112	0x3d49ae22	0.04923833
113	0x3d955311	0.07291234
114	0x3d5a20de	0.053254
115	0xbca6c800	-0.02035904
116	0xbc124b0f	-0.008929028
117	0xbccdcfa6	-0.025123429
118	0xbda5b3db	-0.08090945
119	0xbd44a8f4	-0.04801269
120	0x3b0d891f	0.0021596623
121	0xbbff6313	-0.007793793
122	0xbd3984ca	-0.045292653
123	0xbdaa6173	-0.08319368
124	0x3ba80a86	0.0051282076
125	0xbb279480	-0.002557069
126	0xbd203110	-0.03910929
127	0xbcad7ba9	-0.02117713
128	0xbd5b66bf	-0.053564783
129	0xbd0d5941	-0.034508947
130	0xbd5a8ccc	-0.05335693
131	0xbd20232c	-0.039096043
132	0xbd15bb03	-0.0365553
133	0x3b66b3ef	0.0035202464
134	0xbc65da6a	-0.014029125
135	0xbd63d340	-0.055621386
136	0xbdd03a90	-0.1016742
137	0xbc0b12bf	-0.008488356
138	0xbd0816c9	-0.033224855
139	0xbc864118	-0.016388461
140	0xbc684b6e	-0.01417814
141	0xbc825288	-0.015908495
142	0xbd67e5d1	-0.056615654
143	0xbd525f2c	-0.051360294
144	0x3d9a662b	0.07539018
145	0x3c86d958	0.01646106
146	0xbd16029d	-0.036623586
147	0x3c744c9e	0.014910845
148	0xbca464bd	-0.020067567
149	0x3cb6e01a	0.022323657
150	0xbd3b2edd	-0.04569899
151	0x3d345502	0.044026382
152	0xbda25fd5	-0.07928435
153	0x3d255ce3	0.040371787
154	0xbc7446fa	-0.0149095
155	0x3cd8119f	0.02637559
156	0x3d06308c	0.03276114
157	0x3ca22211	0.019791635
158	0x3d96d9f3	0.07365789
159	0x3da5c555	0.08094279
160	0xbdcc4063	-0.09973218
161	0xbb5f00c6	-0.003402756
162	0x3d86124d	0.06546459
163	0x3c919a5d	0.017773801
164	0x3cc259e2	0.0237245
165	0x3cd2bab9	0.025723802
166	0xbd89bd63	-0.06725576
167	0xbdcba9a1	-0.099444635
168	0xbd23e5d4	-0.040014103
169	0xbd885e70	-0.066586375
170	0x3b05a62b	0.0020393233
171	0xbe0d6f0b	-0.13811891
172	0x3dc8664b	0.09785136
173	0x3e168d0a	0.1470224
174	0x3cebd7ee	0.028789487
175	0xbc664f48	-0.014056988
176	0x3cdbded8	0.026839659
177	0xbda51875	-0.080613054
178	0xbd1e32d2	-0.038622685
179	0x3cb1f902	0.021725181
180	0xbc63079d	-0.013856796
181	0xbc74f696	-0.014951369
182	0xbc7ee63f	-0.015557825
183	0xbdab5404	-0.08365634
184	0xbdc10512	-0.09424795
185	0xbd6e7d00	-0.058224678
186	0x3d9aec7a	0.075646356
187	0xbd274b27	-0.040843155
188	0xbd79887e	-0.060921185
189	0x3d428d2d	0.047497917
190	0xbdb28225	-0.08716229
191	0xbc5a8290	-0.013336793
192	0xbbd18416	-0.0063939197
193	0x3cae454e	0.021273281
194	0x396a3fe7	0.00022339784
195	0xbc9912a9	-0.018685656
196	0xbbd39ff6	-0.006458278
197	0xbc9868ca	-0.018604655
198	0xbd6aa2fa	-0.057284333
199	0xbd2b91fe	-0.041887276
200	0xbe1b2cfb	-0.15153877
201	0x3cc82876	0.024433356
202	0xbd30a558	-0.043126434
203	0xbda58afa	-0.08083148
204	0xbc341992	-0.010992425
205	0xbc667403	-0.014065745
206	0xbd5d9fb5	-0.054107387
207	0x3d27a043	0.04092432
208	0xbd6ea2d6	-0.05826076
209	0xbd35e5a7	-0.044408467
210	0xbda9a840	-0.08284044
211	0x3d32cb28	0.043650776
212	0xbc8307dc	-0.015994959
213	0x3d80d03d	0.06289718
214	0x3c062048	0.008186407
215	0xbd03e7a5	-0.032203335
216	0xbd348633	-0.044073295
217	0xbd98a961	-0.074541815
218	0xbcf32759	-0.029681848
219	0x3d938c0f	0.072044484
220	0x3cd59fe0	0.02607721
221	0xbc2f2f40	-0.010692418
222	0x3dc51828	0.09623748
223	0xbdb8b67c	-0.09019181
224	0xbcf95c3c	-0.030439489
225	0xbd10d985	-0.035363693
226	0xbcf7c260	-0.030244052
227	0xbda267dd	-0.079299666
228	0xbc054942	-0.008135142
229	0xbd13db87	-0.03609803
230	0xbc09585d	-0.008382884
231	0x3c5140dd	0.012771812
232	0x3ceb01ab	0.028687319
233	0xbc867a08	-0.01641561
234	0x3cc218ca	0.023693461
235	0x3ddf9851	0.10917724
236	0xbd6019bc	-0.054712042
237	0xbd949e7e	-0.072567925
238	0xbdc508e8	-0.09620839
239	0x3cb93b9b	0.02261143
240	0xbd65f88f	-0.056145247
241	0xbcc6f802	-0.024288181
242	0xbd0ca8ee	-0.03434079
243	0x3d231a07	0.039819743
244	0xbd6a661c	-0.057226285
245	0xbc1bdf32	-0.009513663
246	0x3d6619da	0.056176998
247	0x3d0a26f7	0.033728566
248	0xbd4e7394	-0.050403193
249	0xbdaba6fb	-0.08381458
250	0x3cd73fcd	0.02627554
251	0xba0194e2	-0.0004943145
252	0xbcc62398	-0.024186894
253	0x3d4bbfac	0.04974334
254	0x3ceb3067	0.028709603
255	0xbd241bb6	-0.04006549

fc2.bias f4 [256]
0	0x3cee42d4	0.0290846
1	0x3e36ec47	0.1786357
2	0xbda8c224	-0.082401544
3	0xbc665a03	-0.014059546
4	0x3e0358d2	0.12826851
5	0x3cc88352	0.02447668
6	0xbd1bfeb3	-0.038084697
7	0x3f010cec	0.5041034
8	0x3c607f83	0.013702276
9	0xbb87528b	-0.004129713
10	0xbcef4ac2	-0.029210452
11	0xbc503dfb	-0.01271009
12	0x3d075d94	0.033048227
13	0xbd96c01b	-0.0736086
14	0x3d30f82d	0.04320543
15	0xbda57c79	-0.08080382
16	0xbcd97878	-0.026546702
17	0x3d3a5526	0.04549136
18	0xbc7c2e0e	-0.01539184
19	0x3cdad3d3	0.026712334
20	0x3d4e5d58	0.05038199
21	0xbd599e8b	-0.053129714
22	0xbd5eff54	-0.05444272
23	0x3ce771eb	0.028252563
24	0x3d49703d	0.049179304
25	0x3d986271	0.07440651
26	0xbd66902d	-0.05628984
27	0xbd425447	-0.047443654
28	0x3c3926c4	0.011300746
29	0xbd4685e2	-0.048467524
30	0x3e2cb147	0.16864501
31	0x3e208dba	0.15679064
32	0xbc50567f	-0.012715935
33	0xbd6a08b1	-0.057137195
34	0x3ddd7887	0.108140044
35	0x3bc00b27	0.0058607045
36	0xbc6aa934	-0.014322568
37	0xbca69ba7	-0.020337893
38	0xbdaab919	-0.08336086
39	0xbd5bb8e8	-0.053643137
40	0xbd0d0412	-0.03442771
41	0x3d315127	0.043290284
42	0xbc83b04e	-0.01607528
43	0xbd0edfee	-0.034881525
44	0x3bbacaec	0.0057004597
45	0xbe22eef7	-0.1591147
46	0xbd3c4ad2	-0.04596979
47	0x3dccb56f	0.09995543
48	0xbdb86cf4	-0.09005156
49	0x3c86b9a1	0.016445937
50	0xbe18cd2f	-0.14922021
51	0x3d910f10	0.07082951
52	0x3ccf6500	0.025316715
53	0xbd52d96f	-0.051476892
54	0x3c825b4a	0.01591267
55	0x3d8e01df	0.06933951
56	0x3e3cfd1d	0.1845593
57	0x3d2a549d	0.0415846
58	0xbd302a35	-0.043009
59	0xbbc33f75	-0.0059584924
60	0xbdb79024	-0.089630395
61	0x3dc0324f	0.093845956
62	0xbc836eb0	-0.01604399
63	0x3d4a1180	0.049333096
64	0x3b5b6548	0.0033477116
65	0xbbcb8bf2	-0.006211751
66	0xbcab3759	-0.020900415
67	0x3e0a8281	0.13526346
68	0xbc5103f5	-0.012757291
69	0x3e873a26	0.2641155
70	0xbda454de	-0.08024
71	0xbd65fd95	-0.056150038
72	0xbc0edcd8	-0.008719645
73	0xbd8a6af3	-0.0675868
74	0xbc44450e	-0.011979355
75	0xbcf31130	-0.029671282
76	0x3cf5f3c1	0.030023457
77	0xbce6e9b0	-0.028187603
78	0x3da757c9	0.081710406
79	0xbd4820df	-0.048859473
80	0xbcd660b1	-0.026169153
81	0xbc2ad417	-0.010426543
82	0xbcb8e0e7	-0.02256818
83	0x3cb3377a	0.02187704
84	0xbc786d8d	-0.015162838
85	0xbd4a4872	-0.049385495
86	0x3e9bf883	0.30463037
87	0xbd31ab4b	-0.04337625
88	0xbd626707	-0.055274036
89	0xbd1c38dd	-0.038140167
90	0x3ee70a95	0.4512526
91	0xbe0cd903	-0.13754658
92	0x3c2f98a9	0.010717549
93	0xbb8de8da	-0.0043307366
94	0xbd94c149	-0.07263429
95	0x3cb29eb1	0.021804186
96	0x3ce1a665	0.027545163
97	0x3e1152da	0.14191762
98	0x3d0d70cb	0.034531396
99	0x3ca4c9d8	0.020115778
100	0xbd80d41b	-0.06290456
101	0xbd218c32	-0.03944034
102	0xbd8ba35a	-0.06818266
103	0x3d4b9792	0.049705096
104	0xbb5c0b72	-0.0033576158
105	0xbdc2ae42	-0.09505893
106	0x3d8d9a6e	0.06914221
107	0x3e461388	0.19343388
108	0x3d5bba8a	0.053644694
109	0xbda492a2	-0.080357805
110	0x3dccfd0f	0.100092046
111	0x3d447a63	0.04796828
112	0x3e85f5b3	0.26164016
113	0x3daae121	0.08343721
114	0xbc9ac8d3	-0.018894589
115	0x3d9fe128	0.07806617
116	0xbdfd2a7f	-0.12361621
117	0xbc84ed9e	-0.016226586
118	0x3c067413	0.008206385
119	0xbc55ea2d	-0.01305632
120	0x3d1af7e6	0.03783407
121	0xbb634c16	-0.0034682802
122	0xbd79fbb4	-0.06103106
123	0xbdbef391	-0.093238
124	0xbd7b1116	-0.06129559
125	0xbc8b362f	-0.01699361
126	0xbc2dd684	-0.010610227
127	0xbbbb9fb4	-0.005725825
128	0xbc881a12	-0.016613994
129	0x3d1cbe50	0.038267434
130	0x3c3acb2a	0.011400977
131	0x3eb37d67	0.35056612
132	0x3e3fe152	0.18738297
133	0xbd9c9372	-0.076453105
134	0x3cfd32ea	0.030908067
135	0xbcfe1023	-0.031013554
136	0xbd73ce2f	-0.059522804
137	0xbcb3722d	-0.02190503
138	0xbd009b56	-0.03139814
139	0x3cd9d4ff	0.026590822
140	0x3e6776bb	0.22603886
141	0xbca29395	-0.019845763
142	0x3ca70919	0.02039008
143	0x3d4303ae	0.04761093
144	0x3d2b7e0e	0.041868262
145	0x3c9589fe	0.018254276
146	0x3d02cc98	0.031933397
147	0x3c058e5a	0.008151615
148	0x3e333770	0.17501616
149	0xbca98864	-0.020694919
150	0x3db67931	0.08909834
151	0xbc904d3a	-0.01761495
152	0xbd25dea8	-0.040495545
153	0xbd421c90	-0.04739052
154	0x3ee6f592	0.4510923
155	0xbc1ef43f	-0.0097017875
156	0xbd1137c1	-0.03545356
157	0xbd1b05db	-0.03784738
158	0xbd2470a4	-0.040146485
159	0xb7dd81e4	-2.6405738e-05
160	0x396c6272	0.00022543388
161	0xbd4947ce	-0.049140744
162	0x3cd15dfa	0.025557507
163	0x3e80046b	0.2500337
164	0x3dc5724c	0.09640941
165	0xbd0771c5	-0.033067483
166	0xbd3338dd	-0.0437554
167	0xbd89c470	-0.067269206
168	0xbcfa52aa	-0.030556995
169	0x3d111d09	0.03542808
170	0xbdb11cf4	-0.086481005
171	0xbd731ecd	-0.059355546
172	0xbc9fdaee	-0.019513573
173	0x3dbd6c12	0.092491284
174	0xbd8b331d	-0.067968585
175	0x3cfb0ea1	0.030646624
176	0x3e0e41e7	0.13892327
177	0x3ebe9796	0.37225026
178	0x3d1cc251	0.038271252
179	0xbd3d8a89	-0.046274696
180	0xbc152f31	-0.00910549
181	0xbd7e3780	-0.062064648
182	0x3eb3e0f4	0.35132563
183	0x3ca0bdd7	0.019621773
184	0xbc3d754b	-0.011563609
185	0xbb9ef5de	-0.004851087
186	0xbd73f351	-0.059558216
187	0x3cb151f7	0.02164553
188	0xbd5b8972	-0.053597875
189	0xbcd19288	-0.025582567
190	0xbd3fd1b3	-0.046830844
191	0x3f295ba0	0.66155434
192	0x3b9daa34	0.0048115496
193	0xbc91f7d3	-0.017818367
194	0xbce7de36	-0.0283042
195	0x3c8b11fb	0.016976347
196	0xbd44ac2b	-0.048015755
197	0x3e59b870	0.21261764
198	0x3e7c55cb	0.24642102
199	0x3ca72756	0.020404499
200	0xbd1e6c05	-0.038677234
201	0x3daf4688	0.08558375
202	0x3e24e0d5	0.16101392
203	0xbd17d7cd	-0.037071038
204	0x3eff8f52	0.49914032
205	0x3e12219f	0.14270638
206	0xbd3bd4d7	-0.045857277
207	0x3e485b5f	0.19566105
208	0x3dd84d9b	0.10561677
209	0x3ea6e88f	0.32599303
210	0x3d677f6e	0.05651801
211	0x3c8abb2b	0.016934952
212	0xbc2e62d5	-0.010643681
213	0xbd5a460d	-0.053289462
214	0xbc39fbcb	-0.011351536
215	0x3d0d615c	0.034516677
216	0xbda239d4	-0.07921186
217	0x3b798d46	0.003807859
218	0xbd54f619	-0.05199251
219	0x3d872e45	0.06600622
220	0x3919e600	0.00014676899
221	0x3e6555c3	0.22395997
222	0xbd2f4832	-0.04279346
223	0x3c8586d3	0.01629964
224	0x3e9168bb	0.28400216
225	0x3e74582d	0.23861761
226	0x3ec34a7d	0.38142768
227	0x3eb7f75c	0.35930908
228	0xbd5f963f	-0.054586645
229	0x3d4b3dbd	0.049619425
230	0x3afe83ef	0.0019417981
231	0xbc5317a0	-0.012884051
232	0xbe495075	-0.19659598
233	0x3d61d58d	0.0551353
234	0x3e12adc8	0.14324105
235	0x3dab2a8a	0.08357723
236	0x3ce6850f	0.02813962
237	0x3e7b175a	0.24520627
238	0x3d2ede6f	0.042692598
239	0xbc7c07b6	-0.015382698
240	0x3d008e04	0.031385437
241	0xbddd3674	-0.10801402
242	0x3e333265	0.17499693
243	0x3e5a21cd	0.21301956
244	0x3d31c71e	0.043402784
245	0x3d1511e3	0.03639401
246	0x3bfea223	0.007770793
247	0xbcc522d6	-0.024064463
248	0x3bb5d709	0.005549316
249	0x3bec3421	0.0072083627
250	0x3e87da77	0.26533863
251	0x3d8a0751	0.06739677
252	0x3e468626	0.19387111
253	0x3ddda1ae	0.108218536
254	0xbd4f9d9e	-0.050687425
255	0x3caa5068	0.020790294

fc3.weight f4 [4, 256]
0	0xbbe7def6	-0.0070761396
1	0xbe5f1e97	-0.21789013
2	0x3e741f06	0.2383996
3	0xbd49d6da	-0.049277164
4	0xbe121341	-0.14265157
5	0x3d4bc180	0.049745083
6	0x3e19fbcf	0.15037464
7	0xbe8bf1e0	-0.27332973
8	0x3eb33a60	0.35005474
9	0x3b0d880e	0.0021595987
10	0x3e3f97bd	0.18710227
11	0xbd5f5fe6	-0.054534815
12	0x3d17432d	0.0369293
13	0xbd1846ff	-0.037177082
14	0xbd89d776	-0.06730549
15	0xbc4b4d32	-0.0124085415
16	0xbcbe7218	-0.023247764
17	0xbd32940a	-0.043598212
18	0xbd6a93e1	-0.057269935
19	0xbdde09f2	-0.10841741
20	0x3d3d06d7	0.0461491
21	0xbc09ea72	-0.0084177125
22	0xbc2ab020	-0.010417968
23	0xbd47caf5	-0.04877754
24	0xbc93dde9	-0.018050151
25	0x3e03f343	0.12885766
26	0xbd60bbcc	-0.054866597
27	0x3e97de76	0.29661912
28	0x3d2f04e0	0.04272926
29	0xbcbae793	-0.022815501
30	0xbe0c260a	-0.13686386
31	0xbe4da370	-0.20081878
32	0xbd5b050f	-0.05347162
33	0x3c38f289	0.011288294
34	0xbe3bb782	-0.18331721
35	0xbda012f0	-0.07816112
36	0xbd5f7cdd	-0.05456244
37	0xbd917b4b	-0.071035944
38	0x3d30ae95	0.043135244
39	0xbd16c8ea	-0.0368127
40	0xbd2fa6d0	-0.042883694
41	0xbdb26f1f	-0.08712601
42	0xbe03ab71	-0.12858368
43	0xbd312c1a	-0.04325495
44	0x3d209ae7	0.039210226
45	0x3e9f524c	0.31117475
46	0x3d1aff9f	0.037841436
47	0xbe11bada	-0.14231434
48	0x3ca207ea	0.019779164
49	0x3e3c7ec6	0.18407735
50	0x3eaf06d2	0.3418489
51	0x3e773b30	0.24143672
52	0x3c9247ae	0.017856445
53	0xbd79e574	-0.06100984
54	0x3d95d29c	0.07315561
55	0x3eb496c8	0.35271287
56	0xbe2d1e31	-0.16906048
57	0x3de9b45b	0.11411353
58	0x3beb757e	0.007185637
59	0xbd09f805	-0.033683795
60	0x3dd885e5	0.10572413
61	0xbe145bb1	-0.14488102
62	0x3cd71923	0.026257103
63	0x3d098d8e	0.033582263
64	0x3e6306a4	0.22170502
65	0xbd30d2f7	-0.04316994
66	0xbd386e20	-0.0450269
67	0xbe1a8b16	-0.1509212
68	0xbc323db4	-0.010878969
69	0xbe139685	-0.14412887
70	0xbd3b1b40	-0.045680285
71	0xbd113cbd	-0.035458315
72	0x3cf2b066	0.029625129
73	0xbcf8bbcf	-0.030362992
74	0x3cd32de3	0.025778716
75	0xbd873294	-0.06601444
76	0x3db8af34	0.09017792
77	0x3d915dd3	0.07097974
78	0x3e6f7bc0	0.2338705
79	0xbe29b5a0	-0.1657319
80	0x3c5bccd0	0.01341553
81	0x3e0b35d4	0.13594753
82	0xbd258e96	-0.040419184
83	0x3de665e1	0.112499006
84	0x3e4bd9b4	0.19907266
85	0x3d5def6d	0.054183412
86	0xbe65c4c9	-0.22438349
87	0x3bb1c1ce	0.0054247146
88	0xbd80014a	-0.06250246
89	0xbe19b8f8	-0.15011966
90	0xbe622a32	-0.22086409
91	0xbb525f44	-0.003210024
92	0x3daf6ada	0.08565302
93	0xbc25e840	-0.0101261735
94	0xbcaf7f98	-0.021423146
95	0xbcef6778	-0.029224142
96	0xbde948a8	-0.11390811
97	0xbdf3149e	-0.11869167
98	0xbdb39065	-0.087677754
99	0xbe4ae97f	-0.19815634
100	0xbe1e1f41	-0.1544161
101	0x3ed5ba64	0.41743767
102	0x3c43e95b	0.011957492
103	0xbc2d05ba	-0.010560447
104	0xbe105739	-0.14095773
105	0x3e6cce5f	0.231256
106	0x3e793007	0.24334727
107	0xbe3de0ea	-0.18542829
108	0x3e82af0b	0.25524172
109	0x3d635066	0.055496596
110	0xbda0d424	-0.078529626
111	0x3c8c1999	0.01710205
112	0xbe36d637	-0.17855154
113	0x3e258238	0.16162956
114	0x3ce61fac	0.028091274
115	0xbe11a249	-0.14222063
116	0xbcc1c8a9	-0.023655253
117	0xbcfd1dfc	-0.030898087
118	0x3ba9f826	0.0051870523
119	0xbd7fd297	-0.062456694
120	0xbd1d8d16	-0.03846463
121	0x3bfdd998	0.0077468865
122	0xbc1e8517	-0.009675286
123	0xbceb01f6	-0.028687458
124	0xbd446313	-0.047946047
125	0xbd84c7f8	-0.064834535
126	0xbcc9a0ef	-0.024612872
127	0xbd404d1f	-0.04694855
128	0xbd322cf0	-0.043499887
129	0x3dd2c8ab	0.10292181
130	0x3d8e8f7c	0.06960961
131	0xbe26b6a3	-0.16280608
132	0xbdf889f1	-0.12135685
133	0xb9b1d49b	-0.00033918474
134	0xbce5b7e6	-0.028041791
135	0xbce64008	-0.028106704
136	0x3e063cf9	0.13109197
137	0x3e95169e	0.29118818
138	0x3c8a2096	0.016861241
139	0xbc16bd36	-0.009200385
140	0xbe1d0e71	-0.1533754
141	0x3cc442c6	0.023957621
142	0x3dbf6d43	0.09347012
143	0xbb24b254	-0.0025130706
144	0x3e3c2f77	0.18377481
145	0xbc09daf7	-0.008414022
146	0x3d01af4b	0.031661313
147	0xbd09ddf7	-0.033658948
148	0xbe3a2c40	-0.18180943
149	0x3d1236a7	0.03569665
150	0xbe3c5cca	-0.18394771
151	0xbe1bf98c	-0.15231913
152	0x3cc20c5c	0.023687534
153	0x3e43d5db	0.19124548
154	0xbe58ded6	-0.21178755
155	0x3e5a1a9a	0.2129921
156	0x3c46065c	0.012086477
157	0x3e408b2a	0.18803087
158	0x3e872fa9	0.2640355
159	0x3c3d84c5	0.011567299
160	0xbd5d95c7	-0.054097917
161	0xbc2ef66c	-0.010678869
162	0xbe06f20e	-0.13178274
163	0xbe704a44	-0.2346583
164	0xbe261ed1	-0.16222693
165	0xbc1f2f40	-0.009715855
166	0x3d215876	0.039391004
167	0x3cdb67a9	0.026782827
168	0xb98fc198	-0.00027419324
169	0xbcb7a57c	-0.022417776
170	0xbb6557d1	-0.003499497
171	0x3d040fc5	0.0322416
172	0xbc8d80f8	-0.017273411
173	0xbe11fcdd	-0.14256616
174	0x3e700fd7	0.23443542
175	0x3c585296	0.013203284
176	0xbdbcc111	-0.09216512
177	0xbe573412	-0.21015957
178	0x3d051407	0.032489803
179	0x3cc2a3c4	0.02375973
180	0x3dd2089b	0.102555476
181	0xbcb53b1b	-0.02212291
182	0xbe8a16e4	-0.2697059
183	0x3d4ef65b	0.05052791
184	0x3d63eff8	0.055648774
185	0x3cd0a110	0.025467426
186	0xbd581236	-0.052751742
187	0xbde23c70	-0.11046684
188	0x3beaa566	0.0071608303
189	0x3cd86550	0.026415497
190	0xbcd31264	-0.025765605
191	0xbe506bc1	-0.20353605
192	0xbd5e30c2	-0.054245718
193	0x3c4680fc	0.012115713
194	0xbde72a2c	-0.112873405
195	0x3cf9259c	0.030413441
196	0x3caebc0e	0.021329906
197	0xbe028db9	-0.12749375
198	0xbea62435	-0.324495
199	0xbc9c4c68	-0.019079402
200	0x3d289672	0.0411591
201	0xbd3cf02f	-0.046127494
202	0xbe466ee8	-0.19378245
203	0x3dda7e3b	0.10668608
204	0xbe14ef61	-0.14544441
205	0xbe08c34c	-0.1335575
206	0x3da4d986	0.08049302
207	0xbe1410b3	-0.14459495
208	0xbdded9f6	-0.108814165
209	0xbe385c5a	-0.1800398
210	0x3cdcb606	0.026942264
211	0x3c8f1263	0.017464822
212	0xbd643ba3	-0.055720937
213	0x3c984fa9	0.018592672
214	0xbd0177be	-0.031608336
215	0x3cd3f778	0.025874838
216	0x3d79ab10	0.060954154
217	0x3ce94c00	0.028478622
218	0x3d1c2557	0.038121548
219	0xbe0498ac	-0.12948865
220	0xbcdf47b0	-0.027255863
221	0xbe56032c	-0.20899647
222	0xbc06a050	-0.008216932
223	0x3c8bde80	0.01707387
224	0xbe3694e4	-0.17830235
225	0xbe5878c1	-0.21139814
226	0xbe1667ce	-0.14688036
227	0xbe646638	-0.22304618
228	0x3c903e39	0.017607795
229	0x3c7ec4b8	0.015549831
230	0xbd75d7c4	-0.060020223
231	0x3e9e61cf	0.30933997
232	0x3e6773ea	0.22602811
233	0xbbaa0414	-0.0051884744
234	0xbdcbd0f9	-0.09951968
235	0x3e1a1931	0.15048672
236	0xba8f54e8	-0.0010935338
237	0xbe3c2dcd	-0.18376847
238	0x3e4ceffd	0.20013423
239	0x3d415a4c	0.047205254
240	0xbd143242	-0.036180742
241	0xbe60810f	-0.21924232
242	0xbe1b09e5	-0.15140493
243	0xbe6031f2	-0.21894053
244	0xbd367cdb	-0.044552665
245	0xbbc049da	-0.005868179
246	0xbd3a4deb	-0.045484465
247	0xbcf92160	-0.030411422
248	0x3cee9838	0.029125318
249	0x3d1b59da	0.037927486
250	0xbe1db366	-0.15400466
251	0x3e813e43	0.25242814
252	0xbe46d4e3	-0.19417147
253	0xbe903269	-0.2816346
254	0xbb804008	-0.003913883
255	0x3d034472	0.032047696

fc3.bias f4 [4]
0	0xbd2e04ef	-0.042485174
1	0xbc32a08c	-0.010902535
2	0xbcdc708e	-0.026909139
3	0xbcbaffdb	-0.02282708
