csv_and_models/DDQN/trained_models/DDQN_lunar_main_1500.pth (torch, 279306 bytes, 6 tensors)

fc1.weight f4 [256, 8]
000000 8b d4 06 be 95 13 cd bf 72 b1 b3 be 7b 2e 10 c0
       -0.13167016 -1.6021601 -0.35096318 -2.252837
000010 46 19 e5 3e 78 df 7c 3e be 2d e3 bd 3d 34 b8 bf
       0.44745845 0.24694622 -0.11092709 -1.4390942
000020 df bf 55 be bc 78 60 bf 01 79 b4 3f c6 8b 55 3e
       -0.20873974 -0.87684226 1.4099427 0.208541
000030 92 1e 9a bf ac c2 4d 3f 08 fe 96 bf a1 e6 d0 be
       -1.2040579 0.8037517 -1.1796274 -0.40800956
000040 ef d6 33 bf a2 0a cd be 14 4f d9 3f e0 ea 67 3f
       -0.7024984 -0.40047175 1.6977258 0.90592766
000050 ca 9a 02 bf 51 91 1a 3e 1b f2 7a 3e 15 c5 86 3e
       -0.5101744 0.15094496 0.24506418 0.26322237
000060 02 b2 01 bf 9c a5 32 bf 9f 8a d1 be a7 dd 25 3e
       -0.50662243 -0.6978395 -0.40926072 0.16197835
000070 c6 5a d5 3e 6a 6e b8 3e 65 07 2c 3f ac c1 12 bf
       0.41670817 0.3602174 0.67198783 -0.5732677
000080 84 38 e2 be 54 ba e3 3e a0 89 dd 3b 78 30 08 bf
       -0.44183743 0.44478095 0.006760791 -0.5319896
000090 d0 1a 32 3f 75 76 f6 3e 74 cc 09 bf 2d 4e 47 bf
       0.6957216 0.4813725 -0.53827596 -0.7785366
0000a0 bd 3e 00 3f 9e b6 23 c0 cb 00 42 bf bd 0d 8c 40
       0.5009573 -2.558021 -0.7578246 4.376677
0000b0 7d 07 d0 3e 06 09 85 bf a6 08 7a be 9f a1 91 3e
       0.40630713 -1.0393379 -0.24417362 0.2844362
0000c0 30 54 82 bf ba 61 50 bf 9d 5f 14 be 63 9c 1f be
       -1.0181942 -0.8139912 -0.14489599 -0.15587
0000d0 7d 32 98 3f ab 35 09 3e c7 83 19 3f 40 2f fa bf
       1.1890408 0.13399379 0.599667 -1.954567
0000e0 d6 e7 1b 3e 58 fb 8f bf 8c b0 90 3f 8f 01 89 40
       0.15225157 -1.1248579 1.1303878 4.2814403
0000f0 c6 ef 06 3f 62 1b 41 3b a4 e2 a1 bf 15 db 04 b8
       0.52709615 0.0029465784 -1.264729 -3.167529e-05
000100 69 40 9e bf c1 1c 01 bf 57 eb a1 be 6d 5a 06 be
       -1.2363406 -0.504345 -0.31624863 -0.13120432
000110 a2 37 73 bf 53 9d c7 3f 77 77 88 bf e4 3f 2e bf
       -0.95006764 1.5594887 -1.0661458 -0.6806624
000120 55 10 d1 3e 04 97 8e be 39 2c c7 be ab 8e 01 40
       0.40832773 -0.2784959 -0.38900927 2.0243328
000130 0f c2 c8 3e 65 1f 12 3e be a2 34 bf 37 e7 16 3f
       0.39210555 0.14269789 -0.70560825 0.58946556
000140 e6 c4 a6 bf 5f 29 08 c0 80 36 9e bf ed 4b 92 3f
       -1.3028839 -2.127525 -1.2360382 1.1429421
000150 52 13 67 bf fe 03 fd be aa 27 82 3e 08 81 97 be
       -0.90263855 -0.49417108 0.25420886 -0.2959063
000160 ad 89 a5 3f 8f a3 0c bf 2c fe a3 bf 38 01 f3 3f
       1.293264 -0.5493707 -1.2811942 1.8984747
000170 ae e1 23 3f 91 a6 a9 bf 59 eb 4a bf 23 72 e4 be
       0.64016235 -1.3253957 -0.7926536 -0.4461833
000180 61 8b 08 3e d5 bd 07 3e c1 7d 35 bf 4b 9e 14 bf
       0.13334419 0.13256009 -0.7089501 -0.58054036
000190 44 16 a2 bf 0d 8e 74 be 5c e7 d2 bf 73 f0 0a bf
       -1.2663045 -0.23882313 -1.6476855 -0.54273146
0001a0 ef 6f 2e bf 4e aa 8f be f0 1f 9f 3f 10 6a 75 3e
       -0.6813955 -0.2805962 1.2431622 0.23966241
0001b0 f5 33 7a 3f 49 d1 4a 3f 46 53 65 bf 4e ac 5b bf
       0.9773553 0.79225594 -0.8958019 -0.8580979
0001c0 ac d9 67 bf 5f f7 92 bf bc bb 89 bf 2f 1b 6f bf
       -0.90566516 -1.1481742 -1.0760417 -0.93400854
0001d0 e3 d1 95 3f 76 64 5e bf bd 94 90 bf 43 b9 2c bf
       1.1704677 -0.8687204 -1.1295391 -0.67470187
0001e0 37 c5 51 bc 2c 93 75 be 5c 62 05 40 4e 60 5e 3f
       -0.012803367 -0.23981923 2.0841284 0.868657
0001f0 a5 fa d7 bf 4f 5a 83 be b2 bd c5 3c b4 4c cb 3e
       -1.6873366 -0.25654837 0.024138305 0.39706957
000200 85 63 13 40 c2 c0 10 bf c5 95 06 c0 4b 72 8c 3e
       2.3029492 -0.56544125 -2.1028912 0.2743095
000210 93 5f 41 3f 0a ee 00 be 8f c5 85 3e a7 e5 85 be
       0.7553646 -0.12590805 0.26127288 -0.26151773
000220 b2 27 da 3e f3 29 0d c0 af ca 23 bf 9d 1d d4 be
       0.4260841 -2.2056854 -0.63981146 -0.41428843
000230 51 2b f7 bf e8 5b d8 3e b2 93 6e 3e 89 cb c1 bd
       -1.9310094 0.4225762 0.23298529 -0.094626494
000240 25 10 ea 3e 2a 80 84 3d 13 f4 22 bb 15 11 5d bf
       0.45715442 0.06469758 -0.0024864718 -0.8635419
000250 86 8c 77 3f 24 d1 93 be a9 c7 83 bf d3 6a c8 3d
       0.96698797 -0.288705 -1.0295306 0.09786
000260 e7 02 19 bf 03 0a 9f bf 4d 28 0b bf c2 d2 88 bf
       -0.59770054 -1.242493 -0.5435837 -1.0689318
000270 56 88 1a bf 64 75 43 bf 38 46 fb be 75 4a a2 be
       -0.6036428 -0.76351 -0.4907701 -0.3169743
000280 a2 fe 9e 3f ff 29 f7 3e 03 0a 79 3f d7 f8 4c 3f
       1.2421458 0.48274228 0.972809 0.800672
000290 32 7c d3 bf 8f 5e 89 be d6 c6 0e be e6 7f e4 bf
       -1.6522276 -0.26829955 -0.13943037 -1.7851532
0002a0 5c 81 c8 bf 08 d1 61 3e 7d 24 30 3f eb e1 ce 3e
       -1.5664477 0.22052395 0.68805677 0.40406737
0002b0 01 6f 62 3e 8f 2f 5a bf 2f 2a 99 be fd 89 98 3d
       0.22112657 -0.8522882 -0.29914996 0.07448194
0002c0 4f 7d 11 bf 87 7e df bc d7 c4 5e bf 12 7f 27 3d
       -0.5683183 -0.027282013 -0.87019104 0.040892668
0002d0 1b 14 d5 3f e2 ec 25 3f b0 23 64 3f 62 9b 89 be
       1.6646761 0.6481458 0.89116955 -0.2687636
0002e0 c3 65 00 3f 4d f0 22 3e 86 bc 45 3e 4b 63 e3 be
       0.50155276 0.1591198 0.19310197 -0.44411692
0002f0 1c 94 0e 3f 81 fa 6d bd 4c 91 7e bf c3 f3 1d c0
       0.55694747 -0.058100227 -0.99440455 -2.468003
000300 ed fb 39 3f 8e 91 f0 bd 42 d0 b0 be e4 33 8f be
       0.72650033 -0.11746512 -0.34533888 -0.27969277
000310 88 82 d7 be 3d 8c 7c be d2 f1 9d be 0c 6e 4f 3f
       -0.42091775 -0.24662872 -0.30848557 0.81027293
000320 61 7d ac 3f 35 fa 84 3e fc 97 06 3f 0a b2 81 be
       1.3475763 0.25972143 0.5257566 -0.25331146
000330 e9 3f e6 3d aa 86 ff be 06 45 5e bf bf be c4 bf
       0.11242659 -0.49907428 -0.8682407 -1.5370711
000340 a4 14 82 3d 9d fe 0e bb cf 85 3c bc e1 72 b6 bb
       0.06351593 -0.0021819242 -0.011506512 -0.005567894
000350 e1 b0 8f c0 18 bb 95 3d e9 44 e2 3b 8b cf 90 3b
       -4.4903417 0.07311076 0.0069051874 0.0044192723
000360 99 85 84 bd 77 f8 af 3b fb ec cb 3c 3e 32 88 3c
       -0.06470794 0.0053701955 0.024893275 0.01662552
000370 1e 38 62 c0 9e af c7 3a 86 56 11 bc d4 bd ea be
       -3.5346751 0.0015234833 -0.008870726 -0.45847952
000380 b6 fe 66 be 22 ee 03 3e 1f 1d 86 bf 17 98 84 bf
       -0.22558102 0.12883809 -1.0477637 -1.0358914
000390 76 ac 9a be 1d 62 f6 3e bc 2c a4 bf 3f 22 89 bf
       -0.30209702 0.4812173 -1.2826152 -1.0713576
0003a0 a7 7e b9 be 2b f9 8b 3e 58 4d 78 bf eb 4e 07 40
       -0.3622944 0.27338538 -0.9699302 2.1141918
0003b0 0b 7f 4a bf cb 47 21 3f 77 11 65 bc 86 cc 5b bf
       -0.791001 0.6300017 -0.013981215 -0.85858953
0003c0 21 35 0a bf c9 f7 0a 3e 42 f5 52 bf 59 08 e9 be
       -0.5398732 0.13571085 -0.82405484 -0.4551418
0003d0 d9 b6 32 bf d6 3a b1 3e 79 0d 9d bf e8 0e 6f 3f
       -0.69810253 0.346152 -1.2269737 0.9338212
0003e0 93 9d b2 bf d7 fd 0d c0 6d 4e 02 bf 65 0f a4 3f
       -1.3954338 -2.2186182 -0.5090092 1.2817198
0003f0 0a ff 28 3f 19 17 dc bc 34 02 31 bf d3 0a 26 3f
       0.6601416 -0.026866483 -0.69143987 0.64860266

fc1.bias f4 [256]
000000 b1 dd 7d 3f 75 a2 85 be ff d2 d9 3e a2 4e da 3e
       0.991664 -0.26100507 0.4254379 0.42638117
000010 d4 c7 96 be 3d 52 a0 3e dc 0c 55 bd 58 09 b5 bb
       -0.29449332 0.31312743 -0.052014217 -0.0055247955
000020 4f 19 86 3e c8 b9 51 3e a7 48 b0 be f0 7e 69 bf
       0.26191184 0.20481026 -0.3443043 -0.91209316
000030 be c2 42 be 83 3a af be ca 05 ce bc 1d 81 94 bc
       -0.19019601 -0.34224328 -0.025149245 -0.018127972
000040 3e 9d 0d bf 84 59 c8 3d 60 3c 90 bd c2 02 30 bf
       -0.5531806 0.09782699 -0.070427656 -0.6875421
000050 40 11 c5 be 84 51 4a bf 23 2c b2 be ab 57 8a be
       -0.38489723 -0.7903063 -0.347993 -0.2702001
000060 17 2e 01 bf 20 f4 29 bf 21 0c 99 ba f5 0f 16 bb
       -0.5046095 -0.6638813 -0.0011676588 -0.0022897695
000070 e5 f6 51 be f0 f2 b8 be cc ef 87 bf 0d 1f 06 3f
       -0.20504339 -0.36122847 -1.0620055 0.5239113
000080 2f 71 5e bf 14 3d e1 be 79 6e e4 bd 7c f3 5a bf
       -0.86891454 -0.4399191 -0.111538835 -0.8552778
000090 7c 02 b5 3e a7 51 78 be 78 ac c6 3b 4c f1 0c bd
       0.35353458 -0.24249898 0.0060630403 -0.034409806
0000a0 cd eb 41 bf 20 43 ad 3d dc 9f a3 bd 7b 08 3f bf
       -0.7575043 0.08460069 -0.07989475 -0.74622315
0000b0 c1 b5 9c be e3 89 54 3e 05 25 af be 9d 3e 4f bf
       -0.30607417 0.20755725 -0.3420793 -0.80954915
0000c0 77 0f b2 be af 95 b8 3e dc f8 d4 3a 92 29 6a be
       -0.34777424 0.360517 0.0016248482 -0.2286742
0000d0 b8 42 3f 3f ce 7d ff bd 3d 54 8e bd a3 99 3c bc
       0.7471118 -0.12475167 -0.06949661 -0.011511239
0000e0 4d 91 86 be b0 7d f8 be cc 33 38 3f 50 bc 51 bd
       -0.2628273 -0.48533392 0.71954036 -0.05120498
0000f0 1a ef 76 be e6 6b 93 bf 0b 5f 9d ba 43 f2 96 bf
       -0.24114648 -1.1517303 -0.0012006474 -1.1792682
000100 22 6f b1 bf c8 a1 3d bb 02 29 15 bf 4b 80 00 3f
       -1.386204 -0.002893554 -0.582657 0.5019576
000110 4f 6a 3d be 8d 9d 81 be 56 2d b0 bd 89 5d 17 bf
       -0.18497585 -0.25315514 -0.08602397 -0.591271
000120 1c 58 ea be 9e 90 dc bd 27 dc 85 3e 40 33 e7 be
       -0.45770347 -0.10769771 0.26144525 -0.45156288
000130 da ac 9a bd ff d9 51 3e 0f 03 d9 bd e1 37 ab be
       -0.075525 0.20493315 -0.105962865 -0.3344107
000140 47 be b0 3d 33 df 19 bf 96 5e 6b 3e 16 77 43 3e
       0.086300425 -0.601062 0.229853 0.19088396
000150 c9 4d 3b 3e 04 d2 25 bf 0b 68 1e bf d4 03 bd be
       0.18291391 -0.64773583 -0.61877507 -0.36916983
000160 4e 9b 89 be d5 4b d0 3d 86 4d a9 bd 42 d7 0c be
       -0.268763 0.10170714 -0.082667395 -0.1375399
000170 02 42 9a bd 9f 6a 4f bf c5 ca cc be c1 02 65 bf
       -0.07532121 -0.81022066 -0.3999845 -0.8945733
000180 ef 6a 63 39 8c 49 08 bc 46 1d bc 3e bc 47 ba be
       0.00021688243 -0.008318316 0.36741084 -0.36382854
000190 5e e1 e2 be ff 40 03 bf c1 20 15 bf be f8 f8 3d
       -0.44312567 -0.5127105 -0.58253103 0.12156819
0001a0 f6 5c a7 be 6e 8c 95 3d 51 65 0f 3f 05 73 8d bf
       -0.3268811 0.073021755 0.5601397 -1.1050726
0001b0 73 40 a1 bd 5b 32 44 3e 83 90 a1 bf 5d 4a 8f be
       -0.07873621 0.19159834 -1.2622226 -0.27986422
0001c0 d9 68 71 3c a6 50 3e 3d 7e c9 63 bd 67 ba 66 be
       0.01473447 0.04646363 -0.05561208 -0.22532044
0001d0 ff b3 1f bf 58 36 17 bf 7c aa f2 ba 36 41 80 bf
       -0.6238403 -0.59067297 -0.0018513943 -1.0019901
0001e0 c5 35 e2 be 4c 0f 46 bf ca 63 1c bf fc 5c 07 3e
       -0.44181648 -0.7736709 -0.61089766 0.13219064
0001f0 1b 2f 3f bf 49 86 10 bf 66 c4 68 bf f9 ea 0c bf
       -0.7468125 -0.564549 -0.9092468 -0.5504604
000200 5c 7e d6 3e 5b bb 13 bf ef ff 8b 3d 41 ff 90 3e
       0.4189328 -0.57707757 0.06835925 0.28319743
000210 da 5f df 3c 59 aa 45 bf c9 d5 8e bf 03 fc 3f bf
       0.027267385 -0.77213055 -1.1158992 -0.74993914
000220 9c d8 f2 bc 7b ed 18 bf f7 d0 6d bf 5a de 35 3d
       -0.029644303 -0.59737366 -0.9289698 0.044401504
000230 9a cf 2b bf 68 4c b1 bd b1 db 62 bf fb 67 90 bf
       -0.6711365 -0.086571515 -0.8861647 -1.1281732
000240 c5 3a 6b 3d a7 64 df be 38 a7 98 be be 9b 66 bd
       0.057429094 -0.4363148 -0.29815078 -0.05630087
000250 4e c8 aa be 73 33 ff 3d 92 23 80 bf e3 fa 0f 3e
       -0.33355945 0.12460985 -1.0010855 0.1406055
000260 6e 47 28 bd 21 93 18 bf ac 9c 05 bf 19 7f ee be
       -0.041083746 -0.595995 -0.5219219 -0.46581343
000270 91 1f c6 3e bc b1 78 bf 80 16 ec 3c 38 32 98 be
       0.38695958 -0.971462 0.028819323 -0.29725814
000280 45 4d e5 3e ed 42 92 bd 7a 98 c5 3e 34 c3 f2 bd
       0.44785514 -0.07141671 0.38592893 -0.11853638
000290 20 5b 45 be 57 47 1e bf 86 88 e7 3d 35 14 00 bf
       -0.19273043 -0.61827606 0.11305337 -0.50030833
0002a0 69 aa 3e bf a9 92 56 3e 8d 15 96 bf 87 83 86 bc
       -0.74478775 0.20954384 -1.1725327 -0.016420139
0002b0 50 3c 94 be e7 b1 81 be 56 04 32 3f 0c 48 07 bf
       -0.28952265 -0.2533104 0.69537866 -0.5284431
0002c0 b4 84 7a bd ba e1 a8 bf 7f f8 98 bd 88 08 7d 3e
       -0.06116171 -1.3193886 -0.07469272 0.24710286
0002d0 54 62 47 be 19 2a 51 bf ea f7 33 bd 79 e0 28 bf
       -0.19471103 -0.8170486 -0.0439376 -0.6596752
0002e0 6a 4b 1a be ca 57 78 3b 81 a3 11 be f0 28 91 be
       -0.1506783 0.0037894123 -0.14222528 -0.28351545
0002f0 08 98 c7 be 1a 36 f7 3e df b2 64 3d 72 e2 8c be
       -0.38983178 0.48283464 0.055834647 -0.27516514
000300 6a 20 6d be ac 18 a9 be 20 5c 54 3d 6f 38 77 bf
       -0.23156896 -0.33026636 0.05184567 -0.96570486
000310 95 77 86 3e 9f 86 10 be fb 69 eb be e4 a0 ca 3e
       0.2626311 -0.14113854 -0.45979294 0.39575875
000320 57 70 b6 bd ca ff bb be a8 37 0f bf ad 63 88 be
       -0.08908146 -0.3671859 -0.559443 -0.26638547
000330 4e f5 a2 bf 22 68 56 3d b7 4c fc 3d 3a 7b 38 bf
       -1.2731111 0.052345403 0.1231932 -0.7206303
000340 8f 7c 41 bf 3f 2e d4 3e 61 9b c6 b9 99 ae ca be
       -0.75580686 0.41441533 -0.0003788127 -0.39586332
000350 05 a9 78 be 2f 54 88 bf 2e 76 6c bf ef b9 18 be
       -0.24283226 -1.0650691 -0.9236783 -0.14914678
000360 bb 8d 0e be 5a 7e 97 3e b4 63 48 bf 7a 3f 15 3f
       -0.13921253 0.29588586 -0.78277135 0.5829998
000370 4e cd 43 bf 56 aa 89 bf 2a d2 1e bf 15 a4 c9 bd
       -0.76485145 -1.0755107 -0.62039435 -0.09845749
000380 3d 04 31 bf a4 4f 29 be c2 b1 8e 3e fe a7 a7 be
       -0.6914709 -0.16534287 0.27869993 -0.32745355
000390 52 2d 7c 3d e4 35 c2 bd 8b f5 d0 be 6f 86 13 be
       0.06156666 -0.09482935 -0.40812334 -0.14406751
0003a0 6c cf 25 be c3 9e 37 3a c3 1f 08 bf d0 00 96 3e
       -0.16192406 0.00070045533 -0.53173465 0.29297495
0003b0 f8 4d e4 bd 37 d0 9a 3e 36 c1 c5 be f3 e6 81 be
       -0.11147684 0.3023698 -0.3862397 -0.25371513
0003c0 10 5e 47 bf b4 b7 1a bf 48 b0 81 3a e1 0b a3 be
       -0.77877903 -0.6043656 0.0009894455 -0.31845
0003d0 80 37 50 bf 33 16 39 be 87 71 a4 3e 20 f7 a4 be
       -0.81334686 -0.18074875 0.32117864 -0.3221979
0003e0 9f ae af 3e 0f c0 9c bd 9e 32 0b 3e cf 51 4a be
       0.34312913 -0.0765382 0.13593528 -0.1975777
0003f0 18 56 6d be 0d ac 56 3e 95 0c 5b be c9 cf 6e be
       -0.23177373 0.2096407 -0.21391518 -0.23321451

fc2.weight f4 [256, 256]
000000 55 87 07 3f 1b c7 1d be 8c 8f 82 3f 16 29 ae be
       0.52940875 -0.15407984 1.0200057 -0.3401572
000010 36 60 19 bd 33 76 dd 3f 23 a8 aa 3d 55 d9 ca be
       -0.03744527 1.7301697 0.08332851 -0.39618936
000020 ff 2b 6f bd 84 8b 7a 3e c9 05 dc bd 55 24 2b 3d
       -0.058391567 0.24467283 -0.10743291 0.041782696
000030 38 a9 35 3e 71 fc ab be 77 bc 87 3d 01 b0 d2 3e
       0.17740333 -0.33591035 0.06627744 0.41149905
000040 bb 73 a5 3f f7 f6 c0 3e da d9 f0 3d 3c d8 ba 3e
       1.2925943 0.3768842 0.11760302 0.364931
000050 57 49 34 3f 4c 18 b0 be 00 07 97 be 2f 4b 00 3e
       0.7042441 -0.34393537 -0.29497528 0.1252868
000060 92 b9 c4 be 0e 5e cb be 52 e8 85 3f 96 ad 31 3f
       -0.3842283 -0.39720196 1.0461524 0.69405496
000070 46 dd e1 3e f5 df 97 3d 71 05 0f bf 6e 79 c0 3e
       0.4411413 0.07415763 -0.5586768 0.37592643
000080 e1 b2 36 bf f6 01 52 be d8 db a8 3e c0 4a 25 bf
       -0.713667 -0.2050856 0.32980227 -0.64567184
000090 a7 eb 1d 3e d5 a7 fe 3e 71 ea 9b 3e d3 21 73 be
       0.15421925 0.4973742 0.30452302 -0.23743372
0000a0 79 c4 e8 bd f7 b8 ef be 6c 12 86 3e 87 3d b1 be
       -0.11365599 -0.46820804 0.2618593 -0.34617254
0000b0 72 99 ee 3e 59 fb 2b bf 2b b3 85 be 65 65 07 3f
       0.46601444 -0.671804 -0.26113257 0.5288909
0000c0 8a a5 7b bd e2 a8 8c 3f ef dd 8c be 6e df a2 3d
       -0.061437167 1.0989039 -0.27513072 0.07952772
0000d0 61 a2 18 3f 83 d3 a3 3e 85 15 44 bf 92 35 77 bc
       0.5962277 0.31997308 -0.76595336 -0.015088456
0000e0 7d 61 27 3d 2a 87 77 3e bd 0f ae 3d 2d aa d4 3d
       0.040864456 0.24172655 0.084990956 0.10384021
0000f0 0e 01 1e 3e 36 d7 a1 bf 3d b3 61 3e 91 6d 3a 3f
       0.1543009 -1.2643802 0.2204103 0.72823435
000100 68 e4 97 bf ee d8 ba 3f b4 0a 43 bf 20 14 ba 3e
       -1.1866579 1.4597452 -0.76188207 0.3634348
000110 1c 1a 1a 3f 84 61 04 bf be 00 2e be 97 a6 d9 3d
       0.6019609 -0.517113 -0.1699247 0.106274776
000120 c8 a9 18 be 09 24 51 3f 5b 38 a5 3e df bc 02 3f
       -0.14908516 0.8169561 0.32269558 0.51069444
000130 d0 4c ed be 24 9d a9 3e 58 85 c8 be 6b 55 13 be
       -0.46347666 0.331277 -0.39164233 -0.14388053
000140 e8 66 04 be fa 96 a3 bc dc e2 38 be 1c bd 45 3f
       -0.1292988 -0.019969452 -0.1805529 0.77241683
000150 16 37 60 be d3 f4 6e 3e 7e e8 ec be 8e 0f 19 3f
       -0.21896014 0.2333558 -0.46271127 0.5978936
000160 57 86 ec 3e 3d fd 9e be db 1b 4c bf 1c 1a 1d 3f
       0.46196243 -0.3105258 -0.79730004 0.61367965
000170 c1 f1 fa 3d 80 42 e1 bd 92 a1 00 be f0 80 c7 3e
       0.12253142 -0.10999012 -0.12561634 0.3896556
000180 0c 5f 7d 3f 28 9b e0 3d e0 46 18 3f da 21 79 3e
       0.98973155 0.10967094 0.59483147 0.2432932
000190 c0 de 8d be f9 0c 97 3f 57 68 82 bf 52 d3 6c bf
       -0.27709007 1.1800834 -1.0188092 -0.9250995
0001a0 25 e2 cf be 5a ab 3b 3e 02 2e 89 3e 67 19 fe 3e
       -0.40602222 0.18327084 0.26792914 0.49628755
0001b0 d6 05 6a 3c 95 d6 29 3f 63 60 0a bf e1 47 12 bf
       0.014283618 0.6634305 -0.54053324 -0.5714093
0001c0 11 c6 48 3f ca fc c2 3e b7 1c 88 3f 5a fd 74 3e
       0.78427225 0.38083488 1.0633763 0.23924771
0001d0 b5 78 f8 3e 81 54 1e bf 7c fc 95 3f 34 86 e7 bf
       0.48529592 -0.6184769 1.1717677 -1.808783
0001e0 0a 46 f3 be 0a 97 01 be fe d7 84 3e 94 6c 03 bf
       -0.47514373 -0.12655273 0.2594604 -0.5133755
0001f0 d0 17 f5 be 44 6f 19 3f c2 fd 54 bf fe c4 99 bf
       -0.4786973 0.599354 -0.83199704 -1.2013242
000200 a9 c6 b7 be 67 eb c7 3f 64 ab e2 3e 96 4f e2 3e
       -0.35893753 1.5618714 0.44271386 0.44201344
000210 4e 55 3c bf 21 c1 47 bf b4 88 52 be 97 13 bf 3d
       -0.73567665 -0.78029066 -0.2055996 0.09329908
000220 eb 0a b9 be a8 4d 7d be 7e 11 b5 bf 00 b3 c4 bf
       -0.36141142 -0.24736655 -1.4145963 -1.5367126
000230 bc d4 e0 be 1c c6 16 3f 9a f9 54 bf 03 0a 8e be
       -0.43912303 0.5889604 -0.8319336 -0.27742013
000240 c6 da ed be f8 53 53 3e 7c 2d ba be f8 02 3a 3f
       -0.46455973 0.206375 -0.36362827 0.7266078
000250 1f 73 0c bf dc 2b d3 be 22 59 9e bf 95 ef 00 bf
       -0.5486316 -0.412444 -1.2370951 -0.50365573
000260 e4 b4 0a 3f 24 a8 47 be c9 3c 1f bf 4a 9c d6 bd
       0.5418227 -0.19497734 -0.62202126 -0.104790285
000270 fc 47 07 be 32 2b fa 3c 3f f0 72 3e 6a 3c 87 bf
       -0.13211054 0.030538175 0.23724459 -1.0565312
000280 ad ab d9 bf f7 c6 48 bf 1b 9e 05 3f de 74 e0 be
       -1.7005516 -0.78428596 0.52194375 -0.43839163
000290 51 cd c9 3d a1 d0 b7 3d 3c c3 bc 3c fb 5a 71 3f
       0.09853614 0.0897534 0.023042314 0.9427945
0002a0 7f 48 5e bf a9 64 1a be 1c 13 aa be f6 ce 4d bc
       -0.8682937 -0.15077461 -0.33217704 -0.01256155
0002b0 40 26 5b bb 48 80 4e 3f 6b c0 30 3f d9 39 08 be
       -0.0033439547 0.8066449 0.69043607 -0.13303317
0002c0 b3 e3 44 be 6c a7 11 c0 f4 13 d3 3d 43 ef cd 3d
       -0.19227485 -2.2758436 0.1030654 0.10055401
0002d0 b2 b6 2a bf 5d 0a ca bf 3e 3e f2 bc 52 ac 1e 3f
       -0.6668502 -1.5784413 -0.029570695 0.6198169
0002e0 7b 49 0e 3e 8b 0a 4b 3e ad 79 bc be 80 91 5a 3d
       0.13895218 0.1982824 -0.3681158 0.053361416
0002f0 5b 0b fa be 12 07 ed 3d 8c 43 4b 3e 74 11 4b 3f
       -0.4883679 0.11573614 0.19849986 0.79323506
000300 48 4c fc be a0 65 3b 3e aa d4 c4 3e c1 38 2e 3f
       -0.49276948 0.18300486 0.384435 0.6805535
000310 99 3f f7 be 30 74 61 bf 02 d7 1e 3f c9 c3 4f bf
       -0.4829071 -0.88067913 0.62046826 -0.8115812
000320 a5 8e 96 be af 2c 94 3e 41 66 2b bf 4d 70 ae 3e
       -0.29405704 0.2894034 -0.669529 0.34070054
000330 5d df cc 3f 80 34 02 bf 7a 5c 3e bf f6 be 2c bf
       1.6005665 -0.5086136 -0.7435986 -0.67478883
000340 c7 1a 6d 3e 06 40 3e 3f 8b 6a 11 3f d8 e4 c0 bf
       0.23154746 0.7431644 0.56803197 -1.5069838
000350 2d 10 0d 3e 91 ca 96 3f 0a 6f 36 3f cb 0d de be
       0.13775702 1.1780568 0.7126318 -0.43369898
000360 84 7a 02 3f d7 0b 9f be 54 ce 9c 3e bc 49 b8 3e
       0.50968194 -0.3106372 0.30626166 0.35993755
000370 ee 37 70 be 24 5a 71 bf 61 17 a2 3e d4 bf bb 3d
       -0.23458835 -0.9427817 0.31658462 0.09167448
000380 b2 8f 06 be f5 c9 e8 3b 06 73 5f 3e 24 46 ed bf
       -0.13140753 0.0071041533 0.21821222 -1.853703
000390 34 fe c9 3e da 33 ca 3d 7a cc 34 be 16 ab 5b 3d
       0.39451754 0.09873171 -0.17656127 0.053629957
0003a0 89 2e d1 be 3d 47 18 3f d3 b2 08 bf 97 52 c9 bf
       -0.40855816 0.594837 -0.53397864 -1.572833
0003b0 57 91 53 3e f0 e7 d3 3e e8 aa 3b 3f da 3f 6f 3f
       0.20660912 0.41387892 0.7330766 0.93456805
0003c0 62 a6 73 3e ba 13 92 bf b8 09 5e be 4e 2e 8d 3e
       0.23793939 -1.141227 -0.21683395 0.2757439
0003d0 46 77 3f bf 04 4c da 3e 88 21 4a 3f ae 6a f7 3d
       -0.7479137 0.4263612 0.78957415 0.120808944
0003e0 03 20 68 3e f6 d8 b5 3e 4f 8e 15 3f 5e a6 d0 bd
       0.22668462 0.3551709 0.5842027 -0.10187982
0003f0 c2 a3 00 be fe 8e b8 3e 01 70 38 3e 11 52 1a 3f
       -0.12562469 0.36046594 0.18011476 0.60281473

fc2.bias f4 [256]
000000 72 d2 b3 3e 57 e3 d0 3e d9 b7 9d bd 2f c4 3d 3c
       0.35121495 0.40798447 -0.07701082 0.011582418
000010 59 2f f2 3e 38 cd 82 3e 3b af 64 be 67 39 42 3e
       0.47301748 0.25547194 -0.2233247 0.1896721
000020 bd cc ac bc c3 14 22 ba 6e 33 fa 3e 34 46 53 bd
       -0.02109372 -0.00061829033 0.48867363 -0.051580623
000030 c8 fc e4 be 2f 0c e9 3e 54 f4 9c bf f9 64 cc 3d
       -0.44724107 0.45517108 -1.2262063 0.099801965
000040 69 fd 0f 3e ec dd 16 3f 63 ea 48 bf 60 b1 22 3f
       0.14061512 0.58932376 -0.78482646 0.635519
000050 b9 b8 b4 3c a1 0a d2 3e 5d 0c 98 3c 8d 0f b4 bd
       0.022060739 0.41023734 0.018560583 -0.087920286
000060 48 ef 13 be 75 fa a8 ba ef d7 df bd 08 05 2b bf
       -0.14446747 -0.0012892025 -0.10929858 -0.6680455
000070 3e 64 78 bd 78 8b b0 3e 9c b0 ad bd 3b 40 ad bd
       -0.060642473 0.34481406 -0.08480951 -0.084595166
000080 5f fc d0 3e 92 cf e5 3d 9b 07 1d bd cd 4b bc bc
       0.40817544 0.112212315 -0.03833733 -0.022985363
000090 95 52 aa bf 1d b1 64 3e ac 3d 73 3c 5e 0a c4 bc
       -1.3306452 0.22333188 0.014846247 -0.023930725
0000a0 84 bc bf bc dd d0 b8 3e 07 6a e1 bc 1f 06 0b 3e
       -0.023405321 0.3609685 -0.027516378 0.13576554
0000b0 3d 9e 57 bd 7a d5 0b bf 23 24 3f bf 67 1b b7 bd
       -0.052641142 -0.54622614 -0.74664515 -0.089407735
0000c0 59 26 95 bd 70 17 3c be b0 2d 44 3f 20 98 63 bd
       -0.07282705 -0.18368316 0.76632214 -0.055565
0000d0 24 9c 09 bf 39 5a ab bd 7b 71 83 bd ff d4 3c 3f
       -0.53753877 -0.08366818 -0.06418129 0.73762506
0000e0 7f 20 a3 bc 7c 66 83 bd 4d 90 5b bf 87 12 28 bf
       -0.019912956 -0.06416032 -0.8576706 -0.6565327
0000f0 fb 65 b6 3e fe 5d a8 bd a9 3f bf be 1a b6 dc bc
       0.3562468 -0.082210526 -0.37353256 -0.026942302
000100 2f e6 7c 3e e0 13 e8 be 4d 9e 29 3e b7 01 2e bd
       0.24697183 -0.45327663 0.16564293 -0.042482104
000110 76 16 2e 3f 3e 82 e8 3e 27 07 1b bd d5 9d 9f bf
       0.6800302 0.45411867 -0.037848618 -1.2470042
000120 32 a7 82 bd f9 1d 2d 3c b1 63 a7 bd 46 fa 5c bc
       -0.06379546 0.010566228 -0.081733115 -0.013487404
000130 d3 0d 08 bf 5d d9 36 bf 6d eb 4e 3e 67 22 bd bd
       -0.53146094 -0.7142542 0.20206995 -0.09235077
000140 65 35 d5 bd cc bd d8 3e 88 13 af bc 16 19 26 3f
       -0.10410575 0.42332304 -0.021371618 0.6488203
000150 ef 02 ea 3d 79 5b 90 bc 6d 06 99 bd 1a a2 50 bd
       0.11426341 -0.017621743 -0.07471929 -0.050935842
000160 b1 46 f0 bb 5b 7e bf be 72 06 67 3c 6c 9a 14 bc
       -0.007332646 -0.3740109 0.014100658 -0.00907002
000170 37 74 ca bd 60 91 37 bd 38 b6 03 bf eb be 29 3f
       -0.098854475 -0.044816375 -0.5144992 0.6630694
000180 fd 41 de 3e 4c b5 9e be 13 50 12 bd 1a 4e 92 be
       0.4340972 -0.30997694 -0.035720896 -0.28575212
000190 79 90 1e 3f ca 61 0c bd d8 20 af bb 08 ea 3a bd
       0.619392 -0.034272946 -0.0053444915 -0.045633346
0001a0 ac 99 11 bf 18 a5 66 bd 08 87 90 be ab da 6b bb
       -0.5687511 -0.05630979 -0.2822802 -0.003598849
0001b0 fd ac 86 bd 51 0f fc bb 1b d9 07 3e 42 ca f9 3e
       -0.06575964 -0.0076922555 0.13266413 0.48787123
0001c0 e4 8b 62 bd 7d 9b cd be 30 eb 47 be 68 a5 12 3f
       -0.05530919 -0.4015769 -0.1952331 0.5728364
0001d0 5a 57 79 bf 06 a2 0a bd e7 de e5 bb 69 83 f4 3e
       -0.9739891 -0.033845924 -0.0070150974 0.47756508
0001e0 bc 06 08 be c2 6a f5 bd e4 21 61 bd 8e c0 5e 3e
       -0.13283819 -0.11983253 -0.05496396 0.21753141
0001f0 38 b8 bc 3d 48 50 0b 3f 60 a6 bb bd aa 3a 9b bd
       0.092148244 0.54419374 -0.09162593 -0.07579549
000200 c4 c2 55 be 67 e0 97 bd dc 92 49 bd 20 8f de 3e
       -0.20875078 -0.07415848 -0.04921232 0.4346857
000210 ce 67 dc 3e f4 b1 54 bc ae a1 46 bd 57 79 56 be
       0.43047947 -0.01298188 -0.048494034 -0.20944725
000220 47 57 04 bd b0 00 c6 be 60 e2 b3 be 3f 0e 9e bd
       -0.032309797 -0.386724 -0.35133648 -0.07717561
000230 99 05 80 bd b2 83 bc bd b8 42 bf bb 4b 81 5f be
       -0.06251068 -0.092048064 -0.005836811 -0.21826665
000240 b9 2a 4a 3f 39 9e e0 bd b5 95 00 bd dc 1a 30 bc
       0.7897144 -0.109676786 -0.03139277 -0.010748591
000250 07 73 28 3f 96 fc af bd 74 65 7d bd f9 f9 32 bc
       0.6580052 -0.08593099 -0.06186433 -0.010923856
000260 d9 8a 72 bd 08 65 f1 be 16 50 67 be 89 03 b9 bd
       -0.059214447 -0.47147393 -0.22589144 -0.090338774
000270 a9 f6 92 3e a2 11 6e bd eb 56 02 3a 19 b2 5d bd
       0.28703812 -0.058122285 0.0004972058 -0.054124925
000280 57 7b a5 be ce 5f 95 3e a2 ce 31 be 6c 89 8e 3e
       -0.32320663 0.29174656 -0.1736398 0.2783922
000290 c0 cc c5 3e 9d d5 46 be 34 13 94 be 4a 82 ad 3d
       0.38632774 -0.19417424 -0.289209 0.08472116
0002a0 f2 b2 fe bd cb 1e 1a be a7 00 b8 bd 98 a9 11 3e
       -0.12436475 -0.15050809 -0.089844994 0.14224851
0002b0 c5 33 fd 3b 35 bb e4 3e 0d e5 26 bf 22 15 9d 3b
       0.0077271187 0.44674078 -0.65193254 0.004793779
0002c0 1f a4 ee bb 54 91 13 3e d9 d9 ca 3c 4e 63 b3 bd
       -0.0072827484 0.14410907 0.024762081 -0.08759175
0002d0 b5 aa 51 3f da b1 c0 bd 9e e7 06 be 61 66 82 bf
       0.81901103 -0.094089225 -0.13174292 -1.0187494
0002e0 03 ae 9c 3e 4c bb f4 3e dd 9a fa 3d e0 8c be be
       0.3060151 0.47799146 0.12236569 -0.37216854
0002f0 65 00 05 bf 9f cf b8 be f2 20 98 bd d5 dc d8 bc
       -0.51953727 -0.36095902 -0.07428159 -0.026472488
000300 3d 81 ec 3e ae e4 a7 be 3d 49 ed be cd 23 29 bd
       0.4619235 -0.32791656 -0.4634494 -0.041293908
000310 0e d1 a9 bd e2 d4 98 bb db bf c9 3e 6b eb 62 3e
       -0.08291827 -0.0046640495 0.39404187 0.22160117
000320 d4 52 1a bd fb 12 0d be 34 4b 37 3f e9 c4 c1 bc
       -0.037676647 -0.13776772 0.71599126 -0.023653464
000330 10 f5 05 bc 49 45 c1 3e 81 cc f2 3d 48 94 8e 3e
       -0.008176103 0.37748173 0.11855412 0.27847505
000340 63 6d 6d bd 4c 0c 2a 3f ea 60 0c 3f f2 31 1b 3e
       -0.057965647 0.66425014 0.5483538 0.15155771
000350 58 d6 67 be 57 46 0a 3f 57 e5 e5 3e 6e a4 1a 3e
       -0.2264036 0.5401358 0.44901535 0.15101787
000360 31 a1 d1 be 18 6e 46 3e 1f aa 13 bb e0 ab 7b bd
       -0.40943292 0.19377935 -0.002253182 -0.06144321
000370 ec 5e f2 3e fe 00 a4 3d e1 73 29 bd d9 eb 5b bc
       0.47338045 0.08008002 -0.041370276 -0.01342293
000380 fa ef c2 3e 1a 81 48 3d fc 3f fb bd dc 86 2b 3c
       0.38073713 0.048951246 -0.122680634 0.010469165
000390 6a 3c ab 3e 81 3d 07 be 77 9e 16 3f b0 21 c4 bd
       0.3344453 -0.13207056 0.5883555 -0.09576738
0003a0 f0 ce 36 bd 89 18 13 bd c9 dc 1e bf f9 9c d1 3e
       -0.044630945 -0.03591207 -0.6205564 0.40940073
0003b0 e6 0a b7 3e f5 6e a0 bd f5 92 20 bf 9a d7 7a bd
       0.35750502 -0.078336634 -0.6272424 -0.06124077
0003c0 2e 77 85 3d f4 ed 2f bd a4 3d 35 bb e3 8d 84 3c
       0.06516872 -0.04295154 -0.002765515 0.016180938
0003d0 e7 42 9c bd 62 b6 95 bd d3 28 cd 3e d0 50 be bd
       -0.07629948 -0.073101774 0.4007021 -0.092927575
0003e0 f7 42 f4 3b dd 46 c4 bc 3e 5a 48 bd 38 10 ae bd
       0.007454272 -0.023959571 -0.048914187 -0.08499187
0003f0 d6 79 66 3c 35 89 e0 3d 49 37 67 bd 3f d0 e6 3e
       0.014067134 0.1096367 -0.05644921 0.45080754

fc3.weight f4 [4, 256]
000000 86 a9 ea 3e ba f4 da 3e 90 11 f2 3b 51 df 44 bf
       0.4583246 0.42764837 0.0073873475 -0.76903254
000010 91 46 08 3f 8f 90 d0 3f 7b 27 cf be 23 53 85 3d
       0.53232676 1.6294116 -0.4045981 0.06509998
000020 3f ae 31 bd 58 78 34 3c 17 cc e9 3d 00 40 df 3a
       -0.043379065 0.01101502 0.1141588 0.0017032623
000030 84 92 9f bd c7 06 b6 3f d1 cd 90 be 07 86 b0 bf
       -0.077916175 1.4220818 -0.28282025 -1.3790902
000040 36 21 84 bf ab 31 9a 3e 4e fe 54 bf 32 0f 0e 3f
       -1.0322635 0.3011602 -0.8320054 0.55491936
000050 4b 5c d1 bb de 71 e9 3e 58 21 ce 3c 72 28 9c 3d
       -0.006389176 0.45594686 0.025162384 0.07624902
000060 0a 5f 82 bf c9 34 86 3c f2 f2 16 bf c7 0f a2 bf
       -1.0185254 0.016382592 -0.58964455 -1.2661065
000070 31 18 08 bd 94 8f 78 3e 37 08 53 bc 22 a4 e3 bb
       -0.033226196 0.2427352 -0.012880377 -0.0069470564
000080 e7 25 62 3f 82 9e 3e 3f 27 9b b8 bc 98 c0 af 3c
       0.88339084 0.74460614 -0.02253492 0.02145414
000090 35 84 5b bf 9f 4a d7 be 06 e3 6a 3d 39 05 6a 3c
       -0.85748607 -0.4204912 0.057345413 0.014283472
0000a0 5a 61 0e 3d 76 63 7d 3e dc c2 21 bd af 40 8f bf
       0.03476081 0.24744973 -0.039492473 -1.1191615
0000b0 e1 90 cc 3c 40 40 68 3f b5 d7 88 bf 71 de 8a ba
       0.024971427 0.9072304 -1.0690829 -0.0010594857
0000c0 f5 d9 19 3c 18 af 8d be 63 70 11 3e 3f 62 07 3d
       0.009390344 -0.27672648 0.14203028 0.03305268
0000d0 03 ad a1 3f ad 8a 12 3d 65 99 db 3e e2 8d 02 3f
       1.2630924 0.035776783 0.42890468 0.50997746
0000e0 85 7d 5b 3d 99 bf c2 3b 0f bb bd bf 09 f2 35 bf
       0.0535865 0.0059432504 -1.4822711 -0.7107244
0000f0 31 3c 85 3e c4 9a 78 3d 25 b9 f6 be 56 1b cc 3c
       0.26022485 0.06069447 -0.4818813 0.024915379
000100 03 1d 9d bf 9d d9 c4 be 8f f5 bf bb c0 c7 b5 bc
       -1.2274479 -0.38447276 -0.0058581303 -0.022189975
000110 1f 41 11 3f 83 7b 33 3e b7 de f3 bc 6e 39 ca bf
       0.5673999 0.17527585 -0.029769285 -1.5798776
000120 22 25 db be 43 34 44 3d 6a 02 40 3a 30 8f 4d 3c
       -0.42801768 0.047901403 0.00073245785 0.012546346
000130 23 37 be 3e b6 8b 54 3f 68 f7 3d bf 03 2f e7 bb
       0.3715144 0.8302568 -0.74205637 -0.007055165
000140 e9 78 88 3c 38 47 0f bd 80 49 12 3d c8 a0 e5 3e
       0.016659217 -0.03498003 0.035714626 0.4484923
000150 cc 45 e8 3e bd 46 96 3c d9 85 62 3d 45 20 09 3d
       0.4536575 0.018344278 0.05530343 0.03347804
000160 fe 95 6e 3d fd b0 be be 80 a3 e0 bc 16 31 80 3c
       0.058248512 -0.37244406 -0.027421713 0.015648406
000170 f9 e2 7f 3c de 29 75 bb 07 09 e9 bd 31 92 c5 3e
       0.015618079 -0.0037408988 -0.11378675 0.38588098
000180 7a 34 c3 3d dd 1d 95 be 40 96 a3 ba 57 d9 26 3d
       0.095314935 -0.29124346 -0.0012480691 0.040734615
000190 39 10 f1 3e c6 41 aa bc 3d dc a0 bd 72 53 1e 3c
       0.4708269 -0.020783316 -0.07854507 0.00966345
0001a0 75 44 8f be 87 f2 b1 3d 76 51 11 bf 7c f3 c2 be
       -0.27981916 0.086888365 -0.56764925 -0.3807639
0001b0 70 2b 73 bd 55 a6 a5 bc 52 31 30 bf 40 0b b9 3e
       -0.059367597 -0.020220915 -0.68825257 0.36141396
0001c0 da 50 3e 3d 0c 12 4a 3e 82 9a 88 3f 96 94 92 3e
       0.046463825 0.19733447 1.0672152 0.28628987
0001d0 ba 8a a8 3e 06 f5 af 3c 3c cd ca be 3c 99 74 3e
       0.3291834 0.021479141 -0.39609706 0.2388658
0001e0 62 07 a4 3f 24 89 ce 3c 67 70 44 bb 96 de 37 bf
       1.2814753 0.025211878 -0.0029974224 -0.71824014
0001f0 8f 3f 91 3f dd 42 98 3e e0 3d e1 bb c1 20 22 3c
       1.1347522 0.29738513 -0.006873831 0.009895504
000200 23 da 6e 3f 70 32 66 bd 8a 46 c7 bb 81 6e 05 3f
       0.933016 -0.056200445 -0.006081407 0.5212174
000210 32 d7 a7 3e 4c 43 6b 3d da 9c 18 3c 6c 2b 9c bd
       0.32781368 0.057437226 0.00931474 -0.076254696
000220 bc f4 92 ba 7b 6b b8 bf 1b b2 13 bf 29 18 2a 3c
       -0.0011211853 -1.44078 -0.5769364 0.010381737
000230 74 7b 09 bb 7d 5e 32 bf 61 14 46 3d 35 4d b8 bc
       -0.0020978125 -0.6967543 0.04835928 -0.022497753
000240 cd 42 3f 3f d8 f7 54 3d 9f c8 10 3d 52 82 b9 bb
       0.74711305 0.051994175 0.035347577 -0.0056612873
000250 a4 fc 0c 3f c0 82 0b bd 88 17 88 3d 84 cd a0 3b
       0.55073 -0.03406024 0.06645113 0.004907312
000260 fe be b7 3b 4c 44 24 3f 8a 9c 6a bf a6 34 0a bd
       0.005607485 0.6416671 -0.9164511 -0.033741616
000270 52 c4 91 3e 5f f3 7d 3f fe e9 d4 3a 37 06 c1 3b
       0.28470093 0.9919948 0.0016244052 0.0058906334
000280 92 b6 39 be 18 c7 45 bf a3 71 c5 3f 21 04 69 bf
       -0.18136051 -0.7725692 1.5425304 -0.91021925
000290 eb 2f fe be 8e c6 05 c0 aa 0b 54 bf a3 d1 a2 be
       -0.49645934 -2.0902438 -0.828303 -0.31800565
0002a0 6e 35 80 3b 3d 8c ec be 20 64 76 3b d6 41 07 3f
       0.0039126193 -0.46200743 0.00375963 0.5283483
0002b0 45 bc 92 3c e1 c1 5f 3e 9b 3e a0 be 5d e2 fc 3c
       0.01791204 0.21851303 -0.31297764 0.030869657
0002c0 36 47 2f 3d e1 6d 10 bf 3b 5e 47 3d 8a 14 f4 3c
       0.04279252 -0.5641766 0.04867385 0.02979495
0002d0 3f 40 32 3f 82 94 7d 3d 2e 66 af 3e c8 a8 ec bf
       0.6962928 0.061909206 0.34257644 -1.8489008
0002e0 16 12 f0 be 40 b0 2c bf 04 0e 5e be d0 7d 53 bf
       -0.46888798 -0.67456436 -0.21685034 -0.8261385
0002f0 b0 de 35 3f c3 21 05 be 0b 33 80 3c c6 57 20 bc
       0.7104292 -0.1300116 0.01564934 -0.009786552
000300 2a dc eb 3e c0 8d 06 bf ee 59 8b 3f 15 fe 78 bc
       0.4606641 -0.52560043 1.0886819 -0.015197297
000310 a8 33 91 3c d9 86 57 3d 97 cc c8 3e f8 bc 47 3f
       0.017724827 0.052618835 0.3921859 0.7802272
000320 cd b1 1c 3c 4d 37 05 bf f1 b5 03 c0 3f 5f 91 3c
       0.009563875 -0.5203751 -2.0579798 0.017745612
000330 39 b4 8f bb b3 ae 4c bf 50 7d 0e 3c 9d 62 c3 3e
       -0.004385498 -0.7995407 0.008696869 0.38161173
000340 fd 68 7f bc a3 b3 fe 3e 8a 0a d7 3e d6 6b 07 3f
       -0.015588996 0.49746427 0.42000228 0.5289892
000350 90 55 07 3f 11 7e 48 3f 1f 2b 14 be e6 76 08 3f
       0.52864933 0.7831736 -0.14469574 0.53306425
000360 82 0a 8e bd fb 2f b6 3e 36 28 99 be fc 2d c9 bc
       -0.06935598 0.3558348 -0.2991349 -0.02455806
000370 20 fa 9e 3e fc 77 32 3d 02 7d ad bc 4b f6 65 3d
       0.31050205 0.043571457 -0.021177772 0.056143086
000380 e0 35 94 3e 05 7a ec 3d c0 d8 2c 3b e1 4e a5 bc
       0.28947353 0.11546711 0.002637431 -0.020179214
000390 43 48 c9 3e a0 68 16 c0 75 64 45 3e ab 2c 3c bc
       0.39312944 -2.3501358 0.19276603 -0.011485259
0003a0 d2 85 05 bd c4 4c 2f bd 1e 1b b0 bf a6 8d 3c 3f
       -0.032598324 -0.04279782 -1.3758276 0.7365364
0003b0 bf a2 f7 3e 07 8b 80 bc a9 ab f6 bf a8 f6 ed bc
       0.48366353 -0.015691293 -1.9271137 -0.029048279
0003c0 64 67 ef be 32 89 5c ba 9c 8b d2 3c b4 9e 98 3f
       -0.46758568 -0.00084127777 0.025701337 1.1923432
0003d0 25 1e c1 bc 22 29 4c 3c a2 10 3b bf 9e 14 51 bf
       -0.023573944 0.012460979 -0.73072255 -0.81672084
0003e0 69 3a 3f 3d 79 24 a7 ba 3d ae c5 3c 91 a1 24 3d
       0.046686564 -0.0012751959 0.024130935 0.040193144
0003f0 af 6b 1a bd b0 a1 4d 3e a4 8a 93 bc 1f 5a fa 3e
       -0.03770035 0.2008121 -0.018010445 0.48896882

fc3.bias f4 [4]
000000 74 03 4f 3f df 4a 70 3f 1a 5a 60 3f c4 8c 62 3f
       0.80864644 0.93864244 0.87637484 0.8849604
