csv_and_models/DDQN/trained_models/DDQN_lunar_main_700.pth (torch, 279296 bytes, 6 tensors)

fc1.weight f4 [256, 8]
00000000: 1783 33bd 0ecb 6bc0 1ea8 1b3f 90df f6be
00000010: 58ef b63d f57f 3ebd 49fa 003f 6ecd 81bf
00000020: 4ed6 943d c022 6bbf 2ae8 693f ec6d 703e
00000030: 3cd7 7abf a915 ae3e b356 3dbf 611f e3bd
00000040: 3575 053e db96 d2bd 47cc db3f 89b5 ff3e
00000050: a895 d03e 1388 313f 26a0 343e 2cf0 963e
00000060: 309d cabd 60c1 1b3d 907d 0dbf a21a b33e
00000070: 6914 513f af92 5e3f 491f 043f d4e4 6dbd
00000080: 5258 82bd 0f81 963e cb6a 49be 4d41 58bf
00000090: 0abf 813f d332 d83d 0719 0d3e a8e1 5fbf
000000a0: 2128 473d 2023 2bc0 9d09 05be e80a 8c40
000000b0: 8c77 94be 3aa9 73bf bfee 4abe 166d 153e
000000c0: e4f9 8dbe ced9 08be 3a0c 453e 8ee1 c3be
000000d0: 3fb0 153f 00e4 913d 8eb1 4fbd 4f4b d0bf
000000e0: 699c c5bb 2551 f43b 7195 e23f 1adc 7240
000000f0: 1bb2 23bc 2c26 0fbe a42e 73bf 9b9c 1dbd
00000100: 3538 53bf e3ed a0be 0bc3 d33e 8400 a63e
00000110: eaad 50bf 1c17 8b3f 7131 cabf 6ab6 e9bc
00000120: ce2b 0bbe 8aea 893e 6c6e 4abf 735a 503f
00000130: 2de6 433f 7941 453e 0e98 1dbf 528d 8d3e
00000140: e770 3bbf 6d85 56be befa 57bf 3950 723f
00000150: 119d 42bf 7134 f23d 8447 9f3e 870a 6bbe
00000160: 0816 1b3f 7752 fdbe 3b00 8cbf bdee ec3f
00000170: 5cfe 2b3f 04a0 a7bf e848 713c d703 5cbf
00000180: abe7 8abd b48d c7bd 6103 88be eae1 38bf
00000190: a62f 99bf 966c 733e 52a4 81be 318d 2ebf
000001a0: 49b3 933c d9ae cabe d2fc 853f 5a16 9d3e
000001b0: b411 523f 4f73 6abe d577 0abf a063 91be
000001c0: 9bf0 f03d e672 a5bf f1e5 14bf 343d 02bf
000001d0: 70c7 82be e7fc 81bf 5d58 34bf e734 5ebf
000001e0: be2c 003f f1cb 7abe 0258 b93f 744c 133f
000001f0: 3838 d6bd 7db9 9c3f 7e22 823e 66e5 0c3e
00000200: 1219 5b3f a51d b4be 354b 04c0 3b3d 303f
00000210: 08a1 373e 26bd 733e 4d41 b33e 898c 69bf
00000220: e8e6 393d eb9f 8cbe 1edc 803d 8111 6f3e
00000230: 94b9 88bf e176 743f ec49 c0bc bcf0 1d3e
00000240: 4de4 183e a311 6abe 949c 7fbe 64c7 5abf
00000250: e91f a83e 620d 6fbf 9f24 d7bd 423d 0bbe
00000260: e244 413e c4ef 72bf 21cf 2dbf aac3 96bf
00000270: c412 9ebd 6d96 78be 6029 a0be b7b8 1a3d
00000280: 7187 ec3f 1190 aa3e d104 293f 95f0 e53e
00000290: 3b6a a1be 3bd4 103f dec3 9a3d bfdc fbbf
000002a0: 1c10 25bf 3eb6 0d3e fd5a 47be 472c 4e3e
000002b0: 4e12 c73e b0ad 5bbf 674f 23be c85a 213e
000002c0: 9b00 83be 75a9 d33d 4532 60bf 8537 513e
000002d0: 50e5 cd3f 6a38 173e f9a4 553f 366b bcbd
000002e0: a6ac cd3e 5252 1e3c f15b f93d ef3f 15bf
000002f0: ad65 1a3f a6a3 9ebe 48bb 51bf d6d8 08c0
00000300: 9824 c33d cd63 b3be b265 11bf 13cd 35be
00000310: 168b 70bf f686 a1be c1db d2be 2209 113f
00000320: eee8 803f b192 7e3e a712 c83e 8e23 efbe
00000330: f9da 2d3e 5de2 103f a2dd b6be 9691 9dbf
00000340: b6d5 55ba ac90 5bbb f1c6 63bc 2c67 fe3b
00000350: aedf 5dc0 6e5b 983d 5bed bb3a 00cb 13bd
00000360: 5493 70bc 5d2f 563b c8a9 043d d542 303c
00000370: 24f3 45c0 bd67 cebd 61ff 963d 15d4 32bf
00000380: 8bdb 96be a82a 2f3d 6553 90bf d7b9 5bbf
00000390: 9e11 8dbe 257e 8d3e deea b2bf 04b4 e3bd
000003a0: 7d24 acbe 9304 b63e 385e 2fbf b81e 953f
000003b0: 449e 23be fb88 793f 7399 ea3e 21bf 38bf
000003c0: 49fc 1ebf 4745 de3e 1603 8fbe 3181 bebe
000003d0: 46b7 09bf f1ad 733f c66d 84bf a541 c73e
000003e0: 4a0d 25bf f841 9dbf 7c73 46be 3b57 1040
000003f0: 76d1 123f d519 913d 5b74 a2be eead 9e3e
-0.04382619 -3.6842685 0.608034 -0.4821744 0.0893237 -0.046508748 0.50381905 -1.0140817
0.07267438 -0.918499 0.9136988 0.23479432 -0.9798467 0.340009 -0.7396042 -0.110899694
0.13032992 -0.1028268 1.7171715 0.49943188 0.4073918 0.6934826 0.17639217 0.29480112
-0.098932624 0.038026214 -0.5526972 0.34981257 0.8167177 0.8694257 0.5161024 -0.058079556
-0.06364502 0.2939534 -0.19669645 -0.8447464 1.0136425 0.10556569 0.13779078 -0.874537
0.048622254 -2.6740189 -0.12991948 4.3763313 -0.28997457 -0.95180094 -0.19817637 0.14592394
-0.27729714 -0.13364336 0.19242945 -0.38258022 0.58472055 0.07123566 -0.05070644 -1.6272982
-0.0060306084 0.0074559622 1.7701856 3.794684 -0.009991194 -0.13979405 -0.9499304 -0.03847943
-0.8250764 -0.31431493 0.41359743 0.32422268 -0.8151537 1.0866427 -1.5796338 -0.028529365
-0.13590929 0.26936752 -0.7907474 0.81388015 0.76523095 0.19263257 -0.6156014 0.2764688
-0.7321915 -0.20949335 -0.8436698 0.9465366 -0.76020914 0.11826409 0.3110925 -0.22953235
0.6058049 -0.49476978 -1.093757 1.8510357 0.67184997 -1.3095708 0.014726855 -0.8594336
-0.067824684 -0.097438246 -0.26565078 -0.7221972 -1.1967666 0.23771891 -0.2532068 -0.6818419
0.018029826 -0.39586523 1.046778 0.30681115 0.8205826 -0.22895549 -0.540891 -0.2839632
0.11764642 -1.2925689 -0.5816336 -0.5087464 -0.25542784 -1.0155305 -0.7044733 -0.8679947
0.5006827 -0.2449186 1.4479983 0.57538533 -0.104599416 1.2244107 0.2541694 0.13759384
0.8558513 -0.35178867 -2.0670903 0.6884343 0.17932522 0.23802623 0.35010758 -0.91230065
0.045386225 -0.27465758 0.06291984 0.23346521 -1.0681634 0.95493895 -0.023472749 0.15423864
0.1493084 -0.2285829 -0.24962074 -0.85460496 0.32836846 -0.93379796 -0.10505032 -0.13597587
0.18873933 -0.94897103 -0.6789418 -1.1778462 -0.07718423 -0.24276133 -0.31281567 0.037773814
1.8478833 0.3331304 0.66022974 0.44910112 -0.3152636 0.5657384 0.0755689 -1.9676741
-0.64477706 0.13839051 -0.19468303 0.20134078 0.38881153 -0.858119 -0.15948258 0.15757287
-0.255864 0.10335056 -0.87576705 0.20431335 1.6085606 0.14767614 0.83454853 -0.09200136
0.40170783 0.009663181 0.121757396 -0.5830068 0.60311395 -0.3098423 -0.81926394 -2.1382346
0.09528464 -0.3503708 -0.567958 -0.17754011 -0.9396223 -0.3154828 -0.41183284 0.5665456
1.0071084 0.24860646 0.3907673 -0.46706814 0.16978063 0.565954 -0.35715967 -1.2310054
-0.00081571506 -0.003350298 -0.013902412 0.007763764 -3.4667773 0.07439314 0.0014337705 -0.036082268
-0.014683563 0.003268204 0.03238848 0.0107581215 -3.0929651 -0.1007838 0.073729284 -0.6985486
-0.29464373 0.04276529 -1.127545 -0.85830444 -0.27552503 0.27635303 -1.3977926 -0.1111832
-0.33621588 0.35550365 -0.6850314 1.165 -0.15978342 0.9747464 0.45820197 -0.7216664
-0.62103707 0.4341223 -0.27932042 -0.3720794 -0.5379528 0.9518729 -1.0346 0.3891727
-0.644734 -1.2285757 -0.19379991 2.2553241 0.5735086 0.07085005 -0.31729397 0.30992073

fc1.bias f4 [256]
00000000: 8430 913e 9159 08bf 66b0 833c 55b9 0e3e
00000010: e429 08be ac60 263d f3cf 22bd 0a48 95bc
00000020: 6095 a03d 3ec1 593d 1cbc 3bbe 6005 4cbf
00000030: 3d0f c33b dd06 05be 5353 0c3c 9854 57be
00000040: e080 55be 94b7 34bd 5264 c8bd bdc2 8abe
00000050: ac6b 85be e2b7 bbbe 3adb 26be e516 e8bc
00000060: 5842 9d3c 409d bdbe 2151 0e3c 34bf 843b
00000070: 4a49 f1bd 7805 2dbe 6c96 21bf 6b76 b23c
00000080: 33d0 bbbe db33 8ebc e55f eabd 1a77 19bf
00000090: f194 b73e cbf8 dd3b 368d cebc 7513 4ebd
000000a0: d936 dcbe f000 b53d f347 653d 666c cfbe
000000b0: 7010 36be b812 023d b695 ddbd 1ac5 c0be
000000c0: 8f75 bbbe ba24 c93e 60c7 3cbe 568c 73be
000000d0: 6d38 afbd 0b43 8cbd 7a7e 23be d41f 9dbc
000000e0: 2d7d a0be 6704 debe 25e7 4a3c 4d22 36bd
000000f0: 4d13 39be 58ae 0fbf 6191 8e3c 700d 62bf
00000100: 79cd 4ebf 8bae efba cb8a e4be a5b2 cb3e
00000110: a2b4 3ebe 706a ddbe b55a 9cbd 385e 08bf
00000120: 3338 19be 25e7 933d 6584 e73e 714b 74bd
00000130: 18af cfbe 3cea 393e e6c6 b1bd 22b6 84bd
00000140: fdd1 cd3c e51f e33d aeb0 0d3e 4c5f 333e
00000150: 4114 b53d 43df 4cbf f4a7 12bf 2b98 e53c
00000160: 0153 a2bd 7342 afbd 41a7 65be dea6 b3be
00000170: fdbc 023e 484e 96be 29fa cabd 372c dabe
00000180: 7c7b 0d3c 1186 abbd bc06 953e 09e8 febd
00000190: 5be1 1fbe 90f8 09bf 636d 3abf 30f9 4dbe
000001a0: facb 9dbe 8564 02bd 0603 87bd 4d9a 2fbf
000001b0: ca43 e33d 5681 683c e433 51bf cfeb 2e3d
000001c0: 95a8 af3d 46e9 c3bd 7ef8 a1be 038c 83bd
000001d0: 2989 2bbe a953 00be e0e3 ba3b 6cb4 0dbf
000001e0: ccaa 6ebe d906 73bf 6cc1 75bf 839c 63bd
000001f0: a274 26bf 7fba cabe 96f7 07bf d445 31be
00000200: a186 103e f179 51bf 7b8f 233e da9a 81bc
00000210: f870 113d 00d9 d8be dbea 00bf 09ce e5bd
00000220: 1e34 403d e405 04be d1f4 27bf 9dc9 acbc
00000230: ef85 1ebf 5386 133e 352a f2be 1c4d 9bbf
00000240: 4430 b53d e626 02be ddb1 82be 6500 0cbf
00000250: 857b bfbe 668b cdbb ed1c 17bf d9ba 4f3c
00000260: 0c5a 10bd 6329 9abe 8339 79be ecbf 5bbe
00000270: d7e0 db3e f231 93bf 3f50 febd 41af ddbc
00000280: 7dab 493e 9184 d1bc 97e3 cf3c 0c00 a6bd
00000290: e0e4 50be 969c 24bf 8566 f53c 2928 74bd
000002a0: cb46 20bf d3df 923d c387 25bf b07d 3bbd
000002b0: a720 84be 615d 12bf b2f6 6d3e 44d5 a8bd
000002c0: d40d ddbd 37b6 20bf c85b bebd e557 8b3e
000002d0: 49f7 143d 4122 2fbf ef55 2ebc 2cce f3be
000002e0: 583d a23d 603b 023c abca d73b 7146 c4be
000002f0: f55c 2bbe 2ce6 593e b4da d43d 106d b6be
00000300: 854b 02bd 7434 a4be 43c6 68be 6b42 8abe
00000310: 2a2a 063d 7105 10be f859 61be 3ead 0a3d
00000320: 5788 7a3d e4fb 5d3d a776 10bf 88bf 9cbe
00000330: 298f 8dbf 8e8d ad3c 51b2 95bc 96b8 c6be
00000340: 5bb3 f0be b8cd 653e 5ee0 783c ac3f 95be
00000350: 5631 52be 4972 4fbf b2db 08bf ddae 4dbd
00000360: d32a 023d 7929 973d b226 d8be 84fd 943e
00000370: 4744 d3be a05d 10bf 2033 25bf f148 f4bd
00000380: 070c f8be 5d98 193d 4886 bbbd 9aed 50bd
00000390: ff49 463d 2ea3 d7bd a8a0 643d 1ac9 b6be
000003a0: 6b73 24be ed7a cb3a c696 e1be 14d1 da3d
000003b0: 729f 20bd 0ad0 793e de0b 36be 93de f2bd
000003c0: 13b2 0abf 79aa 01bf d2b2 893d 4359 c0be
000003d0: 17c2 0cbe 14f0 95bc c798 8e3e 5185 afbd
000003e0: 7214 3f3e 77af 5dbd 9229 0d3e f9e0 c03c
000003f0: 04b7 1cbe a22d ae3d 785a 4cbe 1e98 05bf
0.28357327 -0.5326167 0.016075324 0.13937886 -0.1329723 0.040619537 -0.039749097 -0.018222827
0.07840991 0.053162806 -0.18333477 -0.796957 0.0059527443 -0.129909 0.008564788 -0.21028364
-0.20849943 -0.044120386 -0.097847596 -0.271017 -0.2605871 -0.3666373 -0.16294566 -0.02833123
0.019196674 -0.37034035 0.008686335 0.0040511135 -0.11781557 -0.16896617 -0.6312015 0.021784982
-0.3668228 -0.017358711 -0.11444072 -0.5994736 0.3585582 0.006774043 -0.025213819 -0.050311524
-0.43010595 0.088380694 0.05597682 -0.4051239 -0.17779708 0.031756133 -0.10819571 -0.37650377
-0.36613128 0.39285833 -0.1843543 -0.23784003 -0.08555684 -0.06848725 -0.15966216 -0.019180216
-0.31345502 -0.43362734 0.012384211 -0.044466306 -0.18073769 -0.561254 0.017403306 -0.88301754
-0.80782276 -0.0018286271 -0.4463714 0.39784732 -0.18623593 -0.43245268 -0.076344885 -0.53268766
-0.14962845 0.07221822 0.45218197 -0.05964226 -0.40563273 0.1815576 -0.08680515 -0.064800516
0.025124544 0.11090068 0.13836929 0.17516822 0.08841754 -0.8002817 -0.57287526 0.02802666
-0.07925988 -0.08557596 -0.22427084 -0.35088247 0.12767406 -0.293566 -0.099109955 -0.42611858
0.008635398 -0.083751805 0.291067 -0.12446601 -0.1561331 -0.538949 -0.7282316 -0.20114589
-0.30819684 -0.031834144 -0.065923735 -0.6859482 0.11096914 0.014190992 -0.81719804 0.042705353
0.08577076 -0.09565978 -0.31634897 -0.064231895 -0.16751541 -0.12531914 0.0057034343 -0.55353427
-0.23307341 -0.94932324 -0.95998263 -0.055569183 -0.6502172 -0.3959541 -0.5311216 -0.17311794
0.14113857 -0.8182669 0.15972702 -0.01582091 0.035508126 -0.42353058 -0.5035836 -0.11220939
0.046924703 -0.12892872 -0.65607935 -0.02109223 -0.61923116 0.1440671 -0.47297826 -1.2132907
0.088470966 -0.12710151 -0.25526324 -0.546881 -0.37398925 -0.006272721 -0.5902851 0.012678825
-0.035242125 -0.301097 -0.24338345 -0.21459931 0.42944977 -1.1499617 -0.124176495 -0.027061107
0.19694324 -0.025575908 0.025377078 -0.08105478 -0.20399809 -0.6430143 0.029956112 -0.059608612
-0.6260802 0.07171597 -0.6466028 -0.04577416 -0.25806162 -0.57173735 0.23238638 -0.08243802
-0.10793653 -0.6277804 -0.0929485 0.27215496 0.036368642 -0.6841164 -0.010640605 -0.47618234
0.07921857 0.007948726 0.006585439 -0.38334993 -0.16734679 0.2127921 0.10393277 -0.35630083
-0.031810302 -0.3207127 -0.22731881 -0.27003798 0.032755055 -0.14064576 -0.22006977 0.033856623
0.06116518 0.0541953 -0.5643105 -0.30614877 -1.1059314 0.021185663 -0.018273504 -0.38812703
-0.47011837 0.22441757 0.015190212 -0.2915014 -0.20526633 -0.8103376 -0.5346023 -0.05021559
0.03177912 0.07380957 -0.42217022 0.29099667 -0.4126303 -0.5639286 -0.64531136 -0.11927975
-0.48446676 0.03749882 -0.091564715 -0.051007845 0.048410412 -0.10529171 0.055817276 -0.35700303
-0.16059653 0.0015524306 -0.44060344 0.1068441 -0.03921456 0.24395767 -0.17777964 -0.11858859
-0.5417797 -0.50650746 0.067235604 -0.375681 -0.13745914 -0.018302955 0.27850935 -0.0857035
0.18660143 -0.054122414 0.13785389 0.023544775 -0.1530419 0.085047975 -0.19956386 -0.5218524

fc2.weight f4 [256, 256]
00000000: c026 cf3e f481 ffbe 3c30 8c3f c77f d7be
00000010: 36a6 9bbc 3cd4 e33e 7004 2c3c 3322 513e
00000020: 4278 aebd fbd1 833e defd b93e a0be a2be
00000030: 2c0f a93d e3b1 6a3d 70f7 803e d3f3 313e
00000040: ba80 543f 2389 423d e110 2c3e 180c 1a3d
00000050: 68c4 8a3f adb4 163f ae65 13bf b613 163e
00000060: d73e a23e bbf6 72be 7f78 df3e b63b 773e
00000070: 03ec 943e 0146 80bf 857f 87bf 672e ea3e
00000080: 622c 3fbf de0a ca3d 15c2 9a3d aaeb 1fbf
00000090: 7376 a43e a67a f33e 6500 8b3e d63f 893d
000000a0: 91bc 9a3d f000 12bf 698d 4b3e 1bdf f4be
000000b0: d8aa e13e deae cbbe 60c2 c13e 4ffc e33d
000000c0: f8ef a73e b008 913f b4ab 28bf 3c54 483e
000000d0: e64e 143f dc51 713e 0fa0 f7be e044 32bc
000000e0: e9dd 653e b2fb 9f3e 50cd d5ba 3c64 ae3e
000000f0: d327 c93e 0e60 ddbf 83d1 023e 3f86 423f
00000100: ecd5 9bbf 18c2 9a3f c773 8ebf 31f7 fa3e
00000110: 98fe 473f bad1 0dbf 590f fabd 92a1 e7bd
00000120: ba1a 10bd 1503 373f a360 063f ee88 d93e
00000130: 84ca 3ebe bf8c 893e e70b 74be 8ad8 e2bd
00000140: 684d 72be 24eb 363d 29e6 abbe a23a c23e
00000150: 83ac 63be 2130 913e 9b7d e7be ab2e 033f
00000160: 1fb5 1d3e 95d2 2ebf 4d62 75bf d337 923e
00000170: 7d47 073f 193a 0cbf 0fe6 1ebe aa49 83bd
00000180: 90d1 723f 78a1 d93d 6e30 173f 251c f73d
00000190: f62f 37be 6417 c63e 3834 c6bf d8db 63bf
000001a0: 7355 62be 2500 593e 36ab 013f 3ce5 1fbe
000001b0: 0d59 6d3d 4090 0e3f eed9 52bf 828c c7be
000001c0: 7baf 4e3f 7e4e 123f a710 183f cedb a83d
000001d0: ec58 b33d cef1 5dbf c430 65bc 4e7b fcbf
000001e0: 38ba 0fbd a49b 73be aa01 2e3e dc94 bcbe
000001f0: e56e 77bd 0108 093f ba55 d7be ee3a 3cbf
00000200: f387 14be 92fa 573f 02ac ad3e 6432 463f
00000210: bfdd afbd 5f86 9ebf 1d42 dbbe a87a 1a3f
00000220: a3be 11bf a180 6abe 55a6 9abf 0389 bebf
00000230: e867 44be 1bb1 1f3f 015c a0bd 1410 d0be
00000240: ded2 d23d 4c12 413e ae44 62be 4401 b63d
00000250: 333b a9bf da85 d2be a429 ecbe 919c e6be
00000260: 751a 9c3e 6326 31be 432f 52bf 8d70 4abd
00000270: 8a36 4a3e 9a76 963d 0b7d 0f3f 3792 dabd
00000280: f129 a2bf 1b9e 45bf a2e0 393d 889b d3be
00000290: 8824 183f 87ad d3bd 2949 983d 746a 323f
000002a0: a0dd 97bf 250c d6be 3057 80bf 9025 01bf
000002b0: 4026 5bbb d137 e43f 42eb 823f 1c6c 5dbe
000002c0: 4326 50be 00af 6ebf ba58 c53d b55a 223e
000002d0: 9ce4 1cbf ebf7 9fbf fc1a 093c d4da 063f
000002e0: 3bad 6f3e 3333 583d 41da 09bf 8f8f 6a3e
000002f0: 0c5a 023d f7eb 813c 38d7 273e d3a6 153f
00000300: 5489 0bbe 3cbf 1a3e 8a5e 953e 855a b73e
00000310: 352a 3d3d f4dd edbd 1fc1 4bbe bcb8 c1be
00000320: 57cf 10be e52b 443e 4294 32bf 8f39 a13e
00000330: 8873 b83f b0bc 87be f30b 94be 06a9 08bf
00000340: e34c a13e 89f8 6a3f 10e0 083f 2329 afbf
00000350: 69ee 25be e0d3 5c3f 43b6 2d3f 6ca6 8bbe
00000360: 78e7 fc3d 76aa 25be bf54 94bd c312 9e3e
00000370: 22e4 3d3e 6795 4bbf 5900 82bd 137a a73d
00000380: 9d13 17bf 3aa3 f83e e909 ba3e 7551 89be
00000390: 23d7 b73e c89e 02bd 7570 69be 46af e4be
000003a0: ed22 19bf d5f0 3a3f 7441 c03e 5346 afbf
000003b0: 886c 983e 9d7a ca3e f81c 203f 6f3a b03e
000003c0: c2b9 edbe b210 5cbf 2f70 75be d306 cf3e
000003d0: 0114 cb3e 6f5e a73e c41e 423f 895e 0e3e
000003e0: 81fd 42be 095e 9b3e 45f8 0a3f 7ca4 febc
000003f0: bf6e 03be 9103 063e 94c3 5bbe 8db2 103f
0.4045925 -0.49903834 1.095222 -0.42089674 -0.019000154 0.4449786 0.010499105 0.20423202
-0.08519031 0.2574614 0.36326498 -0.3178606 0.08254847 0.057298552 0.2518878 0.17378168
0.8300892 0.047494065 0.16803314 0.03760919 1.0841188 0.5886944 -0.57577026 0.14655957
0.31688568 -0.23726933 0.4364662 0.24143872 0.29086313 -1.0021363 -1.0585791 0.45738527
-0.746771 0.09865354 0.075565495 -0.6246897 0.3212162 0.4755451 0.27148739 0.06701629
0.075554974 -0.5703268 0.19878162 -0.47826466 0.44075656 -0.3978185 0.3784361 0.111321084
0.3280027 1.1330776 -0.65887 0.19563383 0.5793289 0.23566383 -0.48364303 -0.010880679
0.22447933 0.31246716 -0.0016311798 0.34060848 0.39288196 -1.7294939 0.12775235 0.75986093
-1.2174659 1.2090483 -1.1129082 0.49016717 0.78122854 -0.5539814 -0.122099586 -0.11310114
-0.03518174 0.7148908 0.52491206 0.42487282 -0.18631941 0.26865193 -0.23832665 -0.11076458
-0.2366234 0.04465784 -0.33574036 0.37935358 -0.22233777 0.28357032 -0.45213017 0.51243085
0.15401123 -0.6829007 -0.9585312 0.28558215 0.5284346 -0.5477615 -0.15517448 -0.06410535
0.94851017 0.10626501 0.5905827 0.12065915 -0.1788939 0.3868972 -1.5484686 -0.8900733
-0.22102909 0.21191461 0.5065187 -0.1561479 0.057946254 0.5568886 -0.82363784 -0.38974386
0.8073651 0.5715102 0.5940041 0.082450494 0.08757195 -0.8669709 -0.013988677 -1.972513
-0.0350897 -0.23789841 0.16992822 -0.3683232 -0.06040849 0.5352784 -0.42057592 -0.7352742
-0.14504986 0.84366715 0.33920294 0.7742064 -0.085872166 -1.2384757 -0.42823878 0.6034341
-0.56931514 -0.2290063 -1.208201 -1.4885563 -0.19180262 0.62379616 -0.07830048 -0.40637267
0.10294126 0.18854636 -0.22096512 0.0888696 -1.3221191 -0.41117746 -0.4612552 -0.45041326
0.30488935 -0.172998 -0.82103366 -0.049423743 0.19747368 0.0734684 0.56050175 -0.106724195
-1.266905 -0.77194375 0.045380242 -0.41329598 0.5943074 -0.10335832 0.07435829 0.69693685
-1.186451 -0.4180614 -1.0026608 -0.5044794 -0.0033439547 1.7829534 1.0228045 -0.21623272
-0.20327096 -0.9323578 0.09636064 0.15854914 -0.6128633 -1.2497534 0.00836825 0.52677655
0.23405926 0.052783202 -0.53848654 0.22906326 0.031824157 0.015859587 0.16390693 0.5845768
-0.13626605 0.15112013 0.2917369 0.35811248 0.04618283 -0.116146 -0.19897889 -0.37836254
-0.14141594 0.1915737 -0.69757473 0.31489226 1.4410257 -0.26511145 -0.28915367 -0.5338291
0.31503972 0.91785485 0.5346689 -1.3684429 -0.16204228 0.86260796 0.67856234 -0.27275407
0.12348837 -0.16178307 -0.072427265 0.3087369 0.18544057 -0.79524845 -0.063477226 0.08177581
-0.590143 0.48562032 0.36335686 -0.2681996 0.35906324 -0.031889707 -0.22796805 -0.44664973
-0.5981892 0.7302373 0.37549937 -1.3693336 0.29770303 0.39546672 0.625442 0.3441958
-0.46430784 -0.85962975 -0.23968576 0.40434894 0.396637 0.32689235 0.75828195 0.1390325
-0.19042017 0.3034518 0.5428508 -0.031084292 -0.12835215 0.13087298 -0.21461326 0.56522447

fc2.bias f4 [256]
00000000: df11 b63e e874 743e 8b70 39bd 0bf6 263d
00000010: 4975 9b3e 886a a73d bcca 4ebe 162b 903e
00000020: bdcc acbc c314 22ba 83cf b43e 3446 53bd
00000030: db45 a93d f349 9c3e 0080 5ebf 0202 d93d
00000040: 6add c13d cadc c43e 4533 fdbe 155a a63e
00000050: b9b8 b43c 12b6 923e 5d0c 983c 8d0f b4bd
00000060: 3bf1 313d 75fa a8ba e95d c6bc 6e4d cdbd
00000070: 3e64 78bd 008d a13e 9cb0 adbd b1a9 58bd
00000080: 23c9 193e 3e5f b03d 9b07 1dbd cd4b bcbc
00000090: fc1c 91bf 51cb 683d ac3d 733c 5e0a c4bc
000000a0: 432f 083c 1d8d b13e 076a e1bc 4825 a8bd
000000b0: 3d9e 57bd 802a debe a5a0 85be 671b b7bd
000000c0: 5926 95bd 96d1 0abe 630e 193f 2098 63bd
000000d0: 249c 09bf 395a abbd cf2a 90bd 4a35 f93e
000000e0: 8d81 403c 7c66 83bd 9761 8abe 3e82 8abd
000000f0: 3ab4 be3e fe5d a8bd ecb8 9ebe 1ab6 dcbc
00000100: 1d57 6fbd e013 e8be 6462 eaba b701 2ebd
00000110: a7a6 e63e 98cf 993e 2707 1bbd 7c1f 71bf
00000120: c515 65bd f91d 2d3c b163 a7bd 46fa 5cbc
00000130: c31c fbbc a265 e2be a260 923e 6722 bdbd
00000140: 6535 d5bd 2cc7 c93e 8813 afbc 760e de3e
00000150: 2097 98bd 795b 90bc 6d06 99bd 1df9 0bbd
00000160: b146 f0bb 39ab 24be 7206 673c 6c9a 14bc
00000170: 3774 cabd 5a22 58bc bd95 c3be 715a de3e
00000180: 7dc3 b13e b5bf 6dbe 1350 12bd 48dd 183c
00000190: 587f f43e ca61 0cbd d820 afbb 8065 63bc
000001a0: 0669 2b3e 18a5 66bd 9ef5 9dbd 57d9 743e
000001b0: fdac 86bd 510f fcbb ebe2 0b3e bb00 9a3e
000001c0: e48b 62bd 7d9b cdbe 6671 813d 73fb d33e
000001d0: 99c7 24bf 06a2 0abd 041c 433c 3761 8d3e
000001e0: 4b96 0bbd 94e1 b5bd e421 61bd 7f48 ebbb
000001f0: 0596 1c3c 4b61 b43e 60a6 bbbd aa3a 9bbd
00000200: 88c4 0ebe 67e0 97bd dc92 49bd 09f5 d93e
00000210: 57e8 833e f4b1 54bc aea1 46bd fd66 67bd
00000220: 4757 04bd ee97 5d3d 327c 07be 3f0e 9ebd
00000230: fb8e 8fbc be7e c2bd b842 bfbb 4b81 5fbe
00000240: ff3c ef3e 399e e0bd b595 00bd dc1a 30bc
00000250: 28bb d53e 96fc afbd 7465 7dbd f9f9 32bc
00000260: d98a 72bd 0865 f1be befc dbbd 8903 b9bd
00000270: c729 ba3d 27ae 99be eb56 023a 19b2 5dbd
00000280: 577b a5be 542f 7fbd 3ad8 8a3d a6a8 c03e
00000290: d072 443e 1863 97be ee33 abbe c2c9 7b3e
000002a0: f2b2 febd 6151 d9bd a700 b8bd 5b3d 103e
000002b0: c533 fd3b 3690 a03e e3b5 30be 2215 9d3b
000002c0: 1fa4 eebb 346e 833d d9d9 ca3c 4e63 b3bd
000002d0: ddd9 fb3e dab1 c0bd 157f 80be f149 47bf
000002e0: 95b9 5b3e 3329 8c3e 09f2 333e 6434 1fbe
000002f0: 6500 05bf 9fcf b8be f220 98bd d5dc d8bc
00000300: 029a b63e aee4 a7be fee6 0b3e cd23 29bd
00000310: 0ed1 a9bd e2d4 98bb 8dd1 823e 8154 933c
00000320: d452 1abd 02b7 363e 3348 a83d e9c4 c1bc
00000330: 10f5 05bc 72c0 1b3d 21f2 243e 3851 323e
00000340: ab08 bfbb bdd8 e43e 0359 b03e d010 ffbc
00000350: 58d6 67be 71d7 d13e f47c a83e 2cfa aa3d
00000360: ad55 92be c5b0 1a3e a136 073e e0ab 7bbd
00000370: 2a5c 203e a3dd 3a3e e173 29bd d9eb 5bbc
00000380: a240 8b3e 1ea1 383e fcc2 96bd dc86 2b3c
00000390: 8099 303e 69b8 94be 8967 c83e b021 c4bd
000003a0: f0ce 36bd 8918 13bd 6402 40be 09ee 323c
000003b0: 3d2f 4c3e f56e a0bd f60d 71bd 9ad7 7abd
000003c0: a560 0e3e f4ed 2fbd a43d 35bb 494b 823d
000003d0: e742 9cbd 62b6 95bd 6b50 ca3d d050 bebd
000003e0: f742 f43b dd46 c4bc 3e5a 48bd 3810 aebd
000003f0: 784e 413e 5c73 cabc 4937 67bd 278e a93e
0.3556051 0.23872721 -0.045273345 0.04076199 0.3036292 0.08174616 -0.20194525 0.28157872
-0.02109372 -0.00061829033 0.3531457 -0.051580623 0.08265277 0.3052517 -0.8691406 0.10596086
0.094660595 0.384497 -0.49453178 0.32490602 0.022060739 0.28654534 0.018560583 -0.087920286
0.043442946 -0.0012892025 -0.024214702 -0.10024534 -0.060642473 0.31552887 -0.08480951 -0.052896205
0.15018134 0.08611916 -0.03833733 -0.022985363 -1.133697 0.056834523 0.014846247 -0.023930725
0.008312049 0.34677973 -0.027516378 -0.08210236 -0.052641142 -0.433918 -0.26099125 -0.089407735
-0.07282705 -0.13556513 0.5978758 -0.055565 -0.53753877 -0.08366818 -0.07039415 0.4867347
0.011749637 -0.06416032 -0.2702758 -0.06763123 0.37246877 -0.082210526 -0.3100046 -0.026942302
-0.058432687 -0.45327663 -0.0017882106 -0.042482104 0.4504902 0.30041194 -0.037848618 -0.94188666
-0.055928964 0.010566228 -0.081733115 -0.013487404 -0.030653363 -0.44218165 0.2858935 -0.09235077
-0.10410575 0.3940977 -0.021371618 0.43370408 -0.074507 -0.017621743 -0.07471929 -0.03417312
-0.007332646 -0.16080941 0.014100658 -0.00907002 -0.098854475 -0.013191784 -0.3820018 0.43428376
0.34719458 -0.23217662 -0.035720896 0.009330101 0.47753406 -0.034272946 -0.0053444915 -0.01387918
0.16739282 -0.05630979 -0.077128634 0.23911034 -0.06575964 -0.0076922555 0.13660781 0.30078682
-0.05530919 -0.4015769 0.06320457 0.41402778 -0.6436706 -0.033845924 0.011908535 0.27613232
-0.034078877 -0.08880916 -0.05496396 -0.007180273 0.009557252 0.3523048 -0.09162593 -0.07579549
-0.13942158 -0.07415848 -0.04921232 0.4256976 0.257632 -0.01298188 -0.048494034 -0.0564947
-0.032309797 0.05409997 -0.1323097 -0.07717561 -0.017524233 -0.094968304 -0.005836811 -0.21826665
0.46726224 -0.109676786 -0.03139277 -0.010748591 0.4174435 -0.08593099 -0.06186433 -0.010923856
-0.059214447 -0.47147393 -0.10741566 -0.090338774 0.0909 -0.3001568 0.0004972058 -0.054124925
-0.32320663 -0.062300995 0.06779523 0.3762867 0.19184422 -0.2956779 -0.33438057 0.24588683
-0.12436475 -0.10611225 -0.089844994 0.14085905 0.0077271187 0.31360024 -0.17256884 0.004793779
-0.0072827484 0.06417504 0.024762081 -0.08759175 0.49189654 -0.094089225 -0.25096956 -0.778472
0.21457513 0.27375183 0.17572798 -0.15547329 -0.51953727 -0.36095902 -0.07428159 -0.026472488
0.35664374 -0.32791656 0.13662335 -0.041293908 -0.08291827 -0.0046640495 0.255505 0.01798463
-0.037676647 0.1784325 0.08216896 -0.023653464 -0.008176103 0.038025327 0.1610799 0.17413795
-0.0058298907 0.44696608 0.3444291 -0.031135947 -0.2264036 0.4098468 0.32907832 0.08348498
-0.2858099 0.15106495 0.13204433 -0.06144321 0.15660158 0.1824861 -0.041370276 -0.01342293
0.27197748 0.18030211 -0.07361409 0.010469165 0.17246056 -0.29046944 0.3914149 -0.09576738
-0.044630945 -0.03591207 -0.18750912 0.01092101 0.19939895 -0.078336634 -0.058851205 -0.06124077
0.13904054 -0.04295154 -0.002765515 0.06362016 -0.07629948 -0.073101774 0.0987862 -0.092927575
0.007454272 -0.023959571 -0.048914187 -0.08499187 0.1887759 -0.02471321 -0.05644921 0.33116266

fc3.weight f4 [4, 256]
00000000: 9339 073f a05f 763f 447d babc 7bb6 c3be
00000010: bd30 273f 8c22 6c3f aa9e eebd 6e4a 693e
00000020: 3fae 31bd 5878 343c e980 333e 0040 df3a
00000030: 454a ed3d 8c05 9f3f a2eb ac3d 784c 6cbf
00000040: d14c 99bf 63ff c53e 63b6 8bbe 778b 443f
00000050: 4b5c d1bb 45a6 d63e 5821 ce3c 7228 9c3d
00000060: 0a5a 97bf c934 863c f2f2 16bf 7a23 bcbe
00000070: 3118 08bd 7b64 173e 3708 53bc 22a4 e3bb
00000080: 3492 163f a77b 293f 279b b8bc 98c0 af3c
00000090: 649e 4ebf a514 97be 06e3 6a3d 3905 6a3c
000000a0: 5a61 0e3d 2f7a 7c3e dcc2 21bd 8435 29bf
000000b0: e190 cc3c 5a8a e13d 4643 87be 71de 8aba
000000c0: f5d9 193c 837a 0dbf df8b 823e 3f62 073d
000000d0: 03ad a13f ad8a 123d a701 a83e 4c8b 183f
000000e0: 857d 5b3d 99bf c23b 1ee0 47bf 8af8 ddbe
000000f0: 4ae5 873e c49a 783d 25b9 f6be 561b cc3c
00000100: a7e9 b2be 9dd9 c4be fe0c 08be c0c7 b5bc
00000110: 71a6 e43e 9ec6 033e b7de f3bc 07b6 92bf
00000120: 14c6 c0be 4334 443d 6a02 403a 308f 4d3c
00000130: 8ab4 413d b4e5 1e3f d743 13bf 032f e7bb
00000140: e978 883c 4e66 ac3b 8049 123d a4de c63e
00000150: 4e8c a7bd bd46 963c d985 623d 4520 093d
00000160: fe95 6e3d fa9f a5be 80a3 e0bc 1631 803c
00000170: f9e2 7f3c e026 de3c 0709 e9bd 696e c33e
00000180: 6859 213e a40d 5abe 4096 a3ba 2d19 49be
00000190: 6128 1c3f c641 aabc 3ddc a0bd 7253 1e3c
000001a0: 041c 1cbe 87f2 b13d ea76 fbbe c4b4 be3e
000001b0: 702b 73bd 55a6 a5bc f7f6 4cbf 6d29 cb3e
000001c0: da50 3e3d 0c12 4a3e 47a4 c23e 7680 de3e
000001d0: 4271 a33e 06f5 af3c 1766 85be 1d0b 8c3e
000001e0: e2d7 cc3d 2489 ce3c 6770 44bb b254 02bf
000001f0: 9f99 823f 9b5b 863e e03d e1bb c120 223c
00000200: 311b 4a3e 7032 66bd 8a46 c7bb 50b4 563f
00000210: ee84 c83e 4c43 6b3d da9c 183c 9359 72bd
00000220: bcf4 92ba 7532 4ebf 4869 bbbe 2918 2a3c
00000230: 124f fbbc 3643 27bf 6114 463d 354d b8bc
00000240: 3c66 243f d8f7 543d 9fc8 103d 5282 b9bb
00000250: 2c7b 283f c082 0bbd 8817 883d 84cd a03b
00000260: febe b73b 4c44 243f 68b5 1bbf a634 0abd
00000270: 4dec ae3e 0987 853f fee9 d43a 3706 c13b
00000280: 92b6 39be 29a7 4dbf dc43 663e 7cce 35bf
00000290: 2466 04bf 8ec6 05c0 45f4 75be 4cef 62bf
000002a0: 6e35 803b 5db4 00bf 2064 763b e45c a93e
000002b0: 45bc 923c 6fb6 c23c e6be 29bf 5de2 fc3c
000002c0: 3647 2f3d ec22 d4be 3b5e 473d 8a14 f43c
000002d0: 437a 0e3f 8294 7d3d 6460 1e3f f446 88bf
000002e0: 8627 88be 1fb2 39bf be70 843c 7be3 f4be
000002f0: b0de 353f c321 05be 0b33 803c c657 20bc
00000300: 113b 5e3f c08d 06bf 9c50 1b3f 15fe 78bc
00000310: a833 913c d986 573d 59be eb3e b463 413f
00000320: cdb1 1c3c 2229 94be d479 60bf 3f5f 913c
00000330: 39b4 8fbb cc15 1bbc bdbb 86bd f0d0 25be
00000340: 53a8 85bc 1189 fb3e 8237 aa3e 4c13 f23e
00000350: 9055 073f a9c9 4c3f 970a 76be 92d1 cd3e
00000360: 95a8 98be 6c10 ca3e 5a4c dabe fc2d c9bc
00000370: 51f7 6e3e c4f0 3e3e 027d adbc 4bf6 653d
00000380: aed1 f23e f01f 493e 3029 20bc e14e a5bc
00000390: 6db0 ab3e 98d6 15bf 4e28 523e ab2c 3cbc
000003a0: d285 05bd c44c 2fbd e7c8 60bf 0ae9 e33e
000003b0: 01ef c83e 078b 80bc 6165 cbbf a8f6 edbc
000003c0: eee1 01bf 3289 5cba 9c8b d23c 6a5a 89be
000003d0: 251e c1bc 2229 4c3c afb8 5abf 9e14 51bf
000003e0: 693a 3f3d 7924 a7ba 3dae c53c 91a1 243d
000003f0: 3eb6 243e fe65 a33e a48a 93bc c901 3d3f
0.52822226 0.9623966 -0.02276481 -0.3822516 0.65308744 0.92240214 -0.116513565 0.22782299
-0.043379065 0.01101502 0.17529644 0.0017032623 0.115864314 1.2423568 0.08443381 -0.9230418
-1.1976568 0.38671407 -0.27287588 0.76775306 -0.006389176 0.4192373 0.025162384 0.07624902
-1.1824353 0.016382592 -0.58964455 -0.36745816 -0.033226196 0.14784424 -0.012880377 -0.0069470564
0.5881684 0.66204304 -0.02253492 0.02145414 -0.80710435 -0.29507938 0.057345413 0.014283472
0.03476081 0.24655984 -0.039492473 -0.66097283 0.024971427 0.110127166 -0.26418513 -0.0010594857
0.009390344 -0.55265063 0.25497338 0.03305268 1.2630924 0.035776783 0.3281376 0.5958755
0.0535865 0.0059432504 -0.7807635 -0.43353683 0.2654212 0.06069447 -0.4818813 0.024915379
-0.34943888 -0.38447276 -0.13286206 -0.022189975 0.44658235 0.12868735 -0.029769285 -1.14618
-0.37651122 0.047901403 0.00073245785 0.012546346 0.047291316 0.6206925 -0.5752539 -0.007055165
0.016659217 0.005261219 0.035714626 0.38841736 -0.08181058 0.018344278 0.05530343 0.03347804
0.058248512 -0.32348615 -0.027421713 0.015648406 0.015618079 0.027118146 -0.11378675 0.38170174
0.15756762 -0.21294266 -0.0012480691 -0.1963851 0.60999113 -0.020783316 -0.07854507 0.00966345
-0.15245062 0.086888365 -0.49114162 0.37247288 -0.059367597 -0.020220915 -0.8006434 0.39680043
0.046463825 0.19733447 0.3801596 0.43457383 0.31922346 0.021479141 -0.2605445 0.2735223
0.10002114 0.025211878 -0.0029974224 -0.50910485 1.0203131 0.26241764 -0.006873831 0.009895504
0.19736935 -0.056200445 -0.006081407 0.83868885 0.39163917 0.057437226 0.00931474 -0.059167456
-0.0011211853 -0.8054574 -0.3660376 0.010381737 -0.030677352 -0.6533693 0.04835928 -0.022497753
0.642185 0.051994175 0.035347577 -0.0056612873 0.65812945 -0.03406024 0.06645113 0.004907312
0.005607485 0.6416671 -0.6082368 -0.033741616 0.34164658 1.0431834 0.0016244052 0.0058906334
-0.18136051 -0.8033319 0.22486824 -0.71018195 -0.51718354 -2.0902438 -0.24018963 -0.8864639
0.0039126193 -0.5027521 0.00375963 0.33078682 0.01791204 0.023768632 -0.6630691 0.030869657
0.04279252 -0.41432893 0.04867385 0.02979495 0.55655307 0.061909206 0.6186583 -1.0646653
-0.26592654 -0.72537416 0.01616704 -0.47829804 0.7104292 -0.1300116 0.01564934 -0.009786552
0.8680888 -0.52560043 0.60669875 -0.015197297 0.017724827 0.052618835 0.4604366 0.7554276
0.009563875 -0.28937632 -0.87685895 0.017745612 -0.004385498 -0.009465646 -0.06578777 -0.16192985
-0.016315615 0.4912801 0.33245474 0.47280347 0.52864933 0.7999521 -0.24027477 0.40198952
-0.29816118 0.39465654 -0.42636377 -0.02455806 0.23336531 0.18646532 -0.021177772 0.056143086
0.47425598 0.1964109 -0.009775445 -0.020179214 0.3353304 -0.5853057 0.20523188 -0.011485259
-0.032598324 -0.04279782 -0.8780655 0.44513732 0.39244846 -0.015691293 -1.5890313 -0.029048279
-0.50735366 -0.00084127777 0.025701337 -0.26826793 -0.023573944 0.012460979 -0.85438055 -0.81672084
0.046686564 -0.0012751959 0.024130935 0.040193144 0.16085145 0.3191375 -0.018010445 0.7383085

fc3.bias f4 [4]
00000000: f8f2 073f 4070 0d3f 4633 013f ff5b 183f
0.53105116 0.55249405 0.5046886 0.59515375
