csv_and_models/DDQN/trained_models/DDQN_lunar_main_600.pth (torch, 279296 bytes, 6 tensors)

fc1.weight f4 [256, 8]
-0.21760932 -3.4737399 0.3814038 -0.373597 0.13266392 0.07835899 0.56023794 -0.74892735
0.0027433785 -0.6755028 0.9541579 -0.13150182 -0.9366928 0.4711271 -0.92108136 -0.32561728
0.12185264 -0.03921601 1.6496235 0.52937037 0.73441976 0.5278685 0.086784646 0.3840608
-0.106624454 0.036357135 -0.5423316 0.37607622 0.797752 1.0090288 0.6466784 -0.03878945
-0.02241099 0.25535744 -0.3279868 -0.83739465 1.1222812 0.00743296 0.16505158 -0.32166
0.09208026 -2.5753002 0.10697356 4.117587 -0.34314618 -0.41888857 -0.13301224 0.10543992
-0.04327812 -0.15540114 0.24602312 -0.3814389 0.84614384 -0.004987599 -0.008647934 -1.4095305
-0.020841563 -0.040214714 1.7145816 3.709201 0.21343835 -0.012186633 -0.84772074 -0.10832979
-0.854366 -0.29382753 0.47307107 0.39275366 -0.9232377 1.0268089 -1.5734165 0.030013539
-0.15133937 0.3058636 -0.87877715 0.6994591 0.5916376 0.013101399 -0.3891552 0.122806475
-0.6117279 -0.30847245 -0.63588953 1.0271486 -0.76986283 0.29738113 0.34611872 -0.2468269
0.24648313 -0.2617473 -1.1769522 2.0043743 0.36489445 -1.3518164 0.15438464 -0.8594336
0.013395028 -0.15930137 -0.15129684 -0.709005 -1.1166075 0.3534586 -0.21454236 -0.63130844
-0.15127704 -0.15642065 0.7912023 0.19609183 1.0906626 -0.25757086 -0.540891 -0.7047418
0.29461655 -1.3464656 -0.83641404 -0.27272046 -0.064297214 -0.7303535 -0.6955903 -0.8040841
0.26224202 -0.029553913 1.502858 0.32464334 0.07737656 0.9407596 0.30042383 0.18592028
0.66239053 -0.33776405 -1.814204 0.5550752 -0.03842768 0.19595908 0.46259406 -0.46539536
-0.032030873 -0.069211155 0.15676552 0.1889186 -1.0134584 0.8588294 -0.090643235 0.19097547
0.2580518 -0.32544944 -0.32877225 -0.8024614 0.31815 -0.7956801 0.10465988 -0.10469247
-0.02795394 -0.85623753 -0.8641543 -1.0332233 -0.10446757 0.01902743 -0.07932939 0.004177717
1.5191444 0.4019133 0.51812047 0.46899122 -0.5005047 0.6259999 0.13594209 -1.9676741
-0.517548 0.17902899 -0.11591432 0.27034155 0.19107251 -0.73680943 -0.1634598 0.34013224
-0.22201028 0.04610983 -0.9152505 0.21675482 1.6191546 0.105041385 0.8847704 -0.08003717
0.33127728 -0.043353792 0.008130263 -0.5786867 0.5446921 -0.3904501 -0.81926394 -1.4703685
0.08170339 -0.43960264 -0.52757525 -0.084572494 -1.0448905 -0.27633452 -0.27755868 0.59921116
0.81831145 0.25673887 0.38714358 -0.5527743 0.22667082 0.46344957 -0.5043409 -0.86500204
-0.023929173 -0.008471916 0.004893641 -0.006383617 -3.328119 0.09150938 0.032571126 -0.05416499
-0.013697391 0.0031770219 0.0049804877 0.011340877 -3.0480204 -0.011865647 0.04733886 -0.6458119
-0.46610647 0.052899156 -0.9913185 -0.85922813 -0.3160547 0.4586737 -1.3977926 0.0397847
-0.13154317 0.42431352 -0.7256892 1.2288347 -0.1844246 0.856998 0.32026246 -0.71954185
-0.36051303 0.3547557 -0.009356073 -0.48816758 -0.7249685 0.9824573 -1.0307716 0.42893678
-0.8087102 -0.6404499 0.057083733 1.8471019 0.7575475 0.04519922 -0.28027534 0.21474896
00000000: fad4 5ebe c151 5ec0 5c47 c33e 1b48 bfbe
00000010: 0dd9 073e ae7a a03d c16b 0f3f b4b9 3fbf
00000020: 41ca 333b c0ed 2cbf b143 743f 6aa8 06be
00000030: 19cb 6fbf 9237 f13e fdcb 6bbf 4fb7 a6be
00000040: e08d f93d f8a0 20bd dd26 d33f d184 073f
00000050: ef02 3c3f 6422 073f 26bc b13d 9ea3 c43e
00000060: ec5d dabd 38eb 143d 3ed6 0abf 108d c03e
00000070: 7a39 4c3f db27 813f b78c 253f b0e1 1ebd
00000080: 4197 b7bc 36be 823e e3ed a7be 7f5f 56bf
00000090: e9a6 8f3f 3090 f33b 4803 293e 9fb0 a4be
000000a0: 9394 bc3d b8d1 24c0 f414 db3d 46c3 8340
000000b0: dbb0 afbe 9078 d6be 5c34 08be e3f0 d73d
000000c0: 6644 31bd 7a21 1fbe 7ced 7b3e f64b c3be
000000d0: e29c 583f 036f a3bb 10b0 0dbc 7f6b b4bf
000000e0: edbb aabc 2fb8 24bd 6977 db3f 8d63 6d40
000000f0: 958f 5a3e 72aa 47bc 3a04 59bf 02dc ddbd
00000100: bbb7 5abf 9070 96be 5f36 f23e 0217 c93e
00000110: 4e59 6cbf 796e 833f b665 c9bf f4de f53c
00000120: b5f8 1abe 279a 9c3e 8af7 60bf c00f 333f
00000130: 9075 173f 40a7 563c 5a3f c7be f681 fb3d
00000140: 339a 1cbf 1af0 9dbe a8c9 22bf 9b79 833f
00000150: bb15 45bf 5742 983e 7936 b13e 31c0 7cbe
00000160: 1366 7c3e be03 86be 5fa6 96bf ab47 0040
00000170: 72d3 ba3e 5208 adbf 0217 1e3e d703 5cbf
00000180: d276 5b3c e61f 23be 8fed 1abe 5a81 35bf
00000190: ffec 8ebf 87f8 b43e feb0 5bbe 6e9d 21bf
000001a0: 5ee8 1abe bc2c 20be 3c8c 4a3f 4ccc 483e
000001b0: d59a 8b3f 54e0 83be d577 0abf f569 34bf
000001c0: fbd7 963e fc58 acbf 3b1f 56bf 04a2 8bbe
000001d0: 42ae 83bd 72f8 3abf 3512 32bf 75d8 4dbf
000001e0: 9644 863e 0c1b f2bc a75d c03f a737 a63e
000001f0: 9a77 9e3d 9fd5 703f 27d1 993e e361 3e3e
00000200: 6d92 293f 69ef acbe d637 e8bf 6919 0e3f
00000210: 5866 1dbd 7fa9 483e 21d9 ec3e 4d48 eebe
00000220: ce32 03bd 94be 8dbd 2487 203e e173 413e
00000230: 01b9 81bf 3edc 5b3f 29a3 b9bd 138f 433e
00000240: 5e1f 843e 4fa1 a6be d654 a8be 1c6e 4dbf
00000250: 8fe4 a23e b1b1 4bbf eb57 d63d 0169 d6bd
00000260: a9ff e4bc 6232 5bbf 3739 5dbf a940 84bf
00000270: 18f3 d5bd 6adf 9b3c 7277 a2bd 3be5 883b
00000280: 5373 c23f 94c7 cd3e 8ba3 043f 9e1f f03e
00000290: 1321 00bf 8841 203f 6734 0b3e bfdc fbbf
000002a0: 077e 04bf 6053 373e 7d64 edbd 356a 8a3e
000002b0: 83a8 433e 8b9f 3cbf 0162 27be d025 ae3e
000002c0: aa56 63be a9dd 3c3d db4d 6abf faf4 5d3e
000002d0: 7540 cf3f f01f d73d 5080 623f 87ea a3bd
000002e0: 2d9d a93e bf93 31bd cb34 053c d024 14bf
000002f0: f170 0b3f 13e9 c7be 48bb 51bf 0935 bcbf
00000300: 1b54 a73d 9913 e1be 2c0f 07bf 5834 adbd
00000310: f9be 85bf b87b 8dbe 2c1c 8ebe e765 193f
00000320: dc7c 513f 4773 833e af37 c63e 9e82 0dbf
00000330: 651c 683e 4349 ed3e 7c1c 01bf c670 5dbf
00000340: 1d07 c4bc cbcd 0abc d65a a03b a92d d1bb
00000350: e7ff 54c0 4569 bb3d 4d69 053d 1cdc 5dbd
00000360: 066b 60bc 9535 503b 5c33 a33b 16cf 393c
00000370: c412 43c0 2168 42bc 64e6 413d ee53 25bf
00000380: 82a5 eebe c9ac 583d 0dc7 7dbf 60f6 5bbf
00000390: ecd1 a1be 47d7 ea3e deea b2bf 48f5 223d
000003a0: 41b3 06be 9f3f d93e c4c6 39bf 754a 9d3f
000003b0: cdd9 3cbe 3964 5b3f 71f9 a33e e533 38bf
000003c0: 2a95 b8be 8aa2 b53e 374a 19bc 1af1 f9be
000003d0: 8997 39bf 5282 7b3f 53f0 83bf 9a9d db3e
000003e0: a207 4fbf 86f4 23bf a2d0 693d d66d ec3f
000003f0: a2ee 413f d122 393d 4080 8fbe 27e7 5b3e

fc1.bias f4 [256]
0.13186736 -0.46807253 -0.037915826 0.19115476 -0.028068732 -0.04589153 0.06355239 -0.0006630447
0.045113325 0.037754804 -0.0608347 -0.60708624 0.018276338 -0.015803501 0.027119007 -0.25511783
-0.13963486 -0.031277683 -0.0926014 -0.1719682 -0.29084322 -0.27450532 -0.07464152 -0.068152644
0.03258347 -0.34835112 -0.00077596965 -0.0023499343 -0.0873076 -0.29255742 -0.55411196 0.1303774
-0.34618416 0.12727979 -0.09078367 -0.55458194 0.32458094 -0.031181073 -0.017007977 -0.012996948
-0.3799284 0.14398026 0.025225988 -0.37047938 -0.08903611 0.10513262 -0.049905177 -0.34016868
-0.38161165 0.4258046 -0.13059402 -0.221936 -0.078067645 -0.020774925 -0.12743162 0.007980754
-0.17419195 -0.31339732 -0.01024509 -0.062230665 -0.109732226 -0.43925002 -0.025284234 -0.76937324
-0.6645404 0.00991432 -0.49322382 0.34218857 -0.2356539 -0.40338272 -0.10656164 -0.26992744
-0.07586094 0.12374122 0.43031543 -0.06483111 -0.30095127 0.1827601 -0.03825164 -0.058885753
-0.00032965705 0.1474123 0.07725175 0.12681599 0.17314093 -0.7012953 -0.5665071 -0.0024402186
-0.053331617 -0.068523765 -0.13537699 -0.28017282 0.09273953 -0.12061358 -0.20099074 -0.17877734
0.009213939 -0.060392987 0.30918276 -0.106800005 -0.15364853 -0.4830295 -0.86551064 -0.24522458
-0.35479996 -0.0492747 -0.17773116 -0.6179681 0.14034536 -0.018931024 -0.81692547 0.10491312
0.025216741 -0.08401301 -0.39296603 -0.056682203 -0.18297389 -0.09835724 0.0011392769 -0.5422996
-0.22249034 -0.8614311 -0.7746132 -0.11333222 -0.47678515 -0.29074365 -0.41714725 -0.042357713
0.17466295 -0.83387583 0.16063718 0.005714341 0.11126003 -0.40120405 -0.5277245 0.062241815
0.10756633 -0.09957291 -0.6442783 0.00709859 -0.4888358 0.20917985 -0.3455483 -1.0656508
0.050007798 -0.058726814 -0.20935474 -0.50350136 -0.36024153 0.0061281226 -0.53443223 0.039943747
-0.0013542563 -0.26423112 -0.27130216 -0.26323512 0.31409645 -1.1499617 -0.05214864 0.010789211
0.2430791 -0.0055232393 0.026980845 -0.10467827 -0.087200575 -0.5469787 -0.026048826 -0.052471362
-0.6357389 0.03545434 -0.6484586 0.022799995 -0.25806162 -0.6403699 0.19624716 -0.07467914
-0.13532703 -0.6977912 -0.06254797 0.27773392 -0.08742915 -0.612198 0.028839493 -0.43511203
-0.02316376 0.00019267462 0.049547303 -0.20182793 -0.16766205 0.16533916 0.12114703 -0.24699098
-0.080953605 -0.29393682 -0.20160349 -0.255303 0.12284151 -0.11670994 -0.2373712 0.011073173
0.028349949 0.0652203 -0.49047706 -0.13039659 -1.1495047 0.15475756 -0.036110442 -0.35996237
-0.39737576 0.16329342 0.043686338 -0.2336896 -0.18074946 -0.60504055 -0.3234427 -0.084632665
0.074719876 0.0423718 -0.43240348 0.26306698 -0.2421015 -0.5461523 -0.48302916 -0.001380742
-0.5039965 -0.010015414 -0.040938005 -0.050785266 0.07820567 -0.0789272 0.04358366 -0.38788253
-0.17860888 -0.03702659 -0.37520364 0.122454375 0.006571766 0.23202983 -0.13936915 -0.06761494
-0.3829879 -0.34576982 0.04184412 -0.3209903 -0.14996415 0.044231456 0.28407547 0.03578846
0.17959502 -0.008457096 0.17026122 0.01659759 -0.108955935 0.06820503 -0.10192614 -0.49663857
00000000: 3d08 073e 34a7 efbe a04d 1bbd 13be 433e
00000010: 66f0 e5bc c2f8 3bbd c127 823d 2dd0 2dba
00000020: c0c8 383d c8a4 1a3d ce2d 79bd 016a 1bbf
00000030: 42b8 953c 5876 81bc ae28 de3c ce9e 82be
00000040: 71fc 0ebe 071d 00bd cea5 bdbd 6f18 30be
00000050: 67e9 94be f68b 8cbe a7dd 98bd 9d93 8bbd
00000060: 3f76 053d 145b b2be 716a 4bba 5b01 1abb
00000070: 54ce b2bd 16ca 95be 48da 0dbf a781 053e
00000080: 0d3f b1be a255 023e caec b9bd 15f9 0dbf
00000090: 792f a63e 736f ffbc 5054 8bbc 27f1 54bc
000000a0: fa85 c2be 906f 133e bba6 ce3c 79af bdbe
000000b0: 9058 b6bd c54f d73d 5f69 4cbd 972a aebe
000000c0: 9a62 c3be 0f03 da3e 70ba 05be 3143 63be
000000d0: eee1 9fbd 2d30 aabc 6f7d 02be b5c1 023c
000000e0: 605f 32be 9d75 a0be 06db 27bc 95e5 7ebd
000000f0: 4abb e0bd 61e5 e0be e220 cfbc a5f5 44bf
00000100: 521f 2abf ac6f 223c d587 fcbe 5733 af3e
00000110: 424f 71be 2e88 cebe fd3c dabd ee33 8abe
00000120: fb5c 9bbd 096c fd3d 4e52 dc3e 2cc6 84bd
00000130: 4916 9abe 7725 3b3e c0ad 1cbd 3032 71bd
00000140: d2d5 acb9 40f3 163e 2a36 9e3d 0ddc 013e
00000150: db4b 313e 1788 33bf 9c06 11bf 13ec 1fbb
00000160: 4172 5abd 3056 8cbd 44a0 0abe d072 8fbe
00000170: 39ee bd3d 4104 f7bd 84d0 4dbe 6811 37be
00000180: 10f6 163c a35e 77bd 344d 9e3e f6b9 dabd
00000190: 0a56 1dbe a54f f7be 1b92 5dbf 271c 7bbe
000001a0: 57a8 b5be 45d4 49bd 28ff 35be 2833 1ebf
000001b0: b2b6 0f3e 3c15 9bbc 0722 51bf b1dc d63d
000001c0: 5793 ce3c 030f acbd d832 c9be 992b 68bd
000001d0: 825d 3bbe 856f c9bd ca53 953a 26d4 0abf
000001e0: 82d4 63be c086 5cbf 0d4d 46bf b91a e8bd
000001f0: 2f1d f4be 5adc 94be 5394 d5be 487f 2dbd
00000200: d8da 323e e378 55bf 137e 243e 5e3f bb3b
00000210: 4cdc e33d 9e6a cdbe f418 07bf 46f1 7e3d
00000220: bc4b dc3d e2ec cbbd 6cef 24bf 4a9b e83b
00000230: b048 fabe 3e33 563e b5eb b0be 3f67 88bf
00000240: fad4 4c3d 878b 70bd 1761 56be 77e5 00bf
00000250: 9471 b8be 6bce c83b 8dd0 08bf 0e9c 233d
00000260: 4d81 b1ba 4d49 87be 1ee8 8abe c1c6 86be
00000270: 40d1 a03e f231 93bf d099 55bd 3bc5 303c
00000280: bae9 783e 4afc b4bb ef06 dd3c 9061 d6bd
00000290: 3796 b2bd cc06 0cbf 5964 d5bc 36ec 56bd
000002a0: c9bf 22bf 9238 113d 6201 26bf 0ec7 ba3c
000002b0: a720 84be 48ef 23bf 04f5 483e 60f1 98bd
000002c0: 2b93 0abe 72a2 32bf 2619 80bd 2433 8e3e
000002d0: 0e0e b3bd 02b9 1cbf cd40 ec3c 01c7 debe
000002e0: edc1 bdbc b308 4a39 1df2 4a3d fbab 4ebe
000002f0: 9aaf 2bbe ab4e 293e ef1b f83d 34eb 7cbe
00000300: 01cb a5bd e37e 96be 2571 4ebe 13b7 82be
00000310: 5494 fb3d 9f05 efbd 7011 73be 416c 353c
00000320: 273e e83c 3892 853d cf1f fbbe af86 05be
00000330: f822 93bf c478 1e3e 8be8 13bd fd4c b8be
00000340: d674 cbbe 6436 273e 72f0 323d 544c 6fbe
00000350: 6316 39be f0e3 1abf 489a a5be e453 adbd
00000360: bc06 993d 0d8e 2d3d fd63 ddbe b7b0 863e
00000370: 75e9 77be a3d0 0bbf 994f f7be 03fa b4ba
00000380: ea05 01bf b117 24bc 9cae 27bd 3604 50bd
00000390: 4b2a a03d 95a4 a1bd c884 323d 8a98 c6be
000003a0: 3fe5 36be 32a9 17bd b11a c0be 5cc9 fa3d
000003b0: f857 d73b 3a99 6d3e c9b6 0ebe b479 8abd
000003c0: fd16 c4be be08 b1be bd64 2b3d d758 a4be
000003d0: 3490 19be 0b2c 353d 5772 913e ec96 123d
000003e0: c2e7 373e a28f 0abc f558 2e3e abf7 873c
000003f0: 4a24 dfbd 14af 8b3d a7be d0bd 6947 febe

fc2.weight f4 [256, 256]
0.3030188 -0.3863435 1.1134106 -0.56949216 -0.03169225 0.29149783 0.028245592 0.3117889
-0.0812989 0.24652617 0.4497757 0.102085054 0.094764546 0.16534397 0.3298921 0.15385959
0.63862336 -0.05510139 0.23466423 0.14107983 1.1130329 0.5612349 -0.7600454 0.1441848
0.33325514 -0.26941562 0.4707329 0.34106803 0.32012343 -0.8739071 -0.9746465 0.40109053
-0.5639157 0.08827075 0.20637761 -0.6278299 0.3809156 0.41360795 0.273767 0.108839974
0.09371351 -0.5999728 0.19453245 -0.55875 0.44743115 -0.1470739 0.21069545 -0.11747395
0.4965951 1.1324716 -0.62676406 0.25678453 0.39406717 0.2433151 -0.34898907 -0.0035767527
0.34613764 0.39767262 0.08259081 0.31667 0.36929092 -1.3404248 0.09897288 0.70712477
-1.310474 1.08271 -1.238578 0.49050826 1.1470529 -0.35081714 0.024918953 0.035673495
-0.0477701 0.7225009 0.5366985 0.40198007 -0.11215344 0.26376688 -0.30010238 -0.0825411
-0.3459232 0.096007936 -0.38896874 0.38490078 -0.21498008 0.41654825 -0.17898923 0.46417367
0.11533797 -0.8426818 -1.0815707 0.14820121 0.5052651 -0.65927285 -0.10243581 -0.19023596
1.0111669 0.078724466 0.67181313 0.12176269 -0.13365372 0.4107631 -1.0784147 -0.81666636
-0.21460144 0.15217586 0.38751715 -0.26820877 0.11605276 0.55656505 -0.89761496 -0.3626793
0.7479951 0.5476902 0.65754557 0.04680818 0.08797748 -0.87897885 -0.13935271 -1.9699892
-0.005988103 -0.06435919 0.19077812 -0.41221753 -0.011326354 0.5858213 -0.18084802 -0.4724433
-0.1385992 0.6238154 0.33799306 0.7788282 -0.19596004 -0.86535525 -0.09384057 0.7115824
-0.5883968 -0.070800714 -1.2649572 -1.3985865 -0.09633467 0.62436897 0.23551013 -0.64077264
0.09541434 0.1663958 -0.34693584 0.2560025 -1.5541675 -0.3453392 -0.5159883 -0.48363543
0.25374782 -0.16455798 -0.9008169 0.09093898 0.15759097 0.0734684 0.6323375 -0.022744294
-1.3409144 -0.84573203 0.17122632 -0.6182988 0.59874034 -0.17181647 0.21258575 0.6849217
-1.1627718 -0.3642134 -1.2247338 -0.41721827 -0.0033439547 1.8777686 0.9534014 -0.2363817
-0.21348444 -0.24166864 0.09228244 0.1731259 -0.44565552 -1.2893474 0.045847926 0.89726263
0.2067276 0.026821679 -0.5883543 0.1934444 0.03244064 -0.07372105 0.16355585 0.5841289
-0.1549462 -0.18566345 0.43241793 0.32852167 0.09341244 -0.17297004 -0.05993818 -0.41605774
-0.0933015 0.19452381 -0.7346779 0.17992623 1.5750532 -0.08480883 -0.3125078 -0.654228
0.25212494 0.77961844 0.5359472 -1.4387887 -0.1499502 0.50691956 0.73713666 -0.07273958
0.15486594 -0.1776223 -0.16694649 0.2823924 0.1701424 -0.60387546 0.11901863 0.06838596
-0.29491365 0.55756736 0.44418508 -0.13783637 0.38429996 0.010554249 -0.364598 -0.51306325
-0.57763404 0.59520537 0.93590283 -1.408129 0.28169355 0.38625443 0.52544975 0.3671609
0.05926785 -0.887639 -0.3018994 0.4227043 0.45487657 0.31539887 0.75951004 0.12773395
-0.24177745 0.32334858 0.55621254 -0.020936882 0.14292741 0.12161331 -0.1569033 0.3369917
00000000: 4825 9b3e d1ce c5be 3d84 8e3f 3dca 11bf
00000010: bccf 01bd 343f 953e 4d63 e73c cba2 9f3e
00000020: 0a80 a6bd 5b71 7c3e 0049 e63e f811 d13d
00000030: ea13 c23d ee4f 293e 9ee7 a83e 5e8d 1d3e
00000040: d27c 233f ffb1 61bd d24b 703e 3b77 103e
00000050: dd77 8e3f 17ad 0f3f 5692 42bf 2ea5 133e
00000060: 6ba0 aa3e d8f0 89be e703 f13e 78a0 ae3e
00000070: 38e7 a33e 60b8 5fbf 6f82 79bf bd5b cd3e
00000080: c85c 10bf 4cc7 b43d a754 533e 76b9 20bf
00000090: 5f07 c33e 6cc4 d33e 302b 8c3e 7ee7 de3d
000000a0: deec bf3d d197 19bf 8433 473e 3d0a 0fbf
000000b0: b215 e53e 8a9a 16be 8cc0 573e 2f96 f0bd
000000c0: b741 fe3e d4f4 903f 9c73 20bf 4379 833e
000000d0: 2cc3 c93e 9827 793e b2ae b2be f467 6abb
000000e0: f438 b13e bf9b cb3e 5f25 a93d 9222 a23e
000000f0: b313 bd3e 0a93 abbf 4bb2 ca3d 2106 353f
00000100: 9dbd a7bf 3e96 8a3f b989 9ebf e623 fb3e
00000110: a1d2 923f 4e9e b3be d522 cc3c 5f1e 123d
00000120: 95aa 43bd d2f5 383f 1365 093f 55d0 cd3e
00000130: b4b0 e5bd 740c 873e 05a7 99be 4f0b a9bd
00000140: d81c b1be cf9f c43d e926 c7be b711 c53e
00000150: bd23 5cbe d045 d53e f448 37be 2ca8 ed3e
00000160: 5036 ec3d ffb9 57bf e970 8abf 0fc2 173e
00000170: 0e59 013f 1bc6 28bf dec9 d1bd 37cd 42be
00000180: eb6d 813f 4b3a a13d f2fb 2b3f b85e f93d
00000190: 85dc 08be 8b4f d23e 7e09 8abf 0c11 51bf
000001a0: 7bc0 5bbe fdd3 1b3e a668 c63e a952 89be
000001b0: 12ad ed3d 0c7b 0e3f 18ca 65bf 1ab1 b9be
000001c0: 9b7c 3f3f 6d35 0c3f e854 283f efb9 3f3d
000001d0: 892d b43d c204 61bf 7ab2 0ebe 9b28 fcbf
000001e0: d937 c4bb c0ce 83bd 575b 433e 2d0e d3be
000001f0: 2c92 39bc 62f8 153f 3930 39be 17e4 f1be
00000200: f3ec 0dbe 5eb2 1f3f 6d0d ad3e 4961 473f
00000210: c0a9 48be ec87 5dbf 7c2f c0bd 442a 363f
00000220: 2ca1 16bf f7ff 90bd 1eea a1bf e204 b3bf
00000230: 1d4b c5bd a5d6 1f3f 9129 713e ad09 24bf
00000240: 9868 c33d a963 2a3e 93a1 b1be c212 833e
00000250: f6ee c6bf 4dd0 b0be cf17 04bf 109f f7be
00000260: 3ceb 813e e381 28be f09b 66bf 373e ba3d
00000270: 875f 213e 9a76 963d dfe0 213f 3e52 babc
00000280: 15a3 abbf e581 58bf f455 2f3e d548 1ebf
00000290: 0c47 193f a8f0 2fbe 14b0 593e 0757 2f3f
000002a0: b5d5 94bf 2e7a babe 14c4 9cbf a29d d5be
000002b0: 4026 5bbb b95a f03f 1d12 743f 0b0e 72be
000002c0: aa9b 5abe fc77 77be 93fe bc3d ea47 313e
000002d0: f62c e4be 5609 a5bf 09cb 3b3d 01b3 653f
000002e0: 66b0 533e 23b9 db3c 639e 16bf 4a16 463e
000002f0: 7ae0 043d 10fb 96bd 2f7b 273e 7989 153f
00000300: 37aa 1ebe 8f1e 3ebe e265 dd3e fe33 a83e
00000310: 054f bf3d 0f1f 31be bd81 75bd 8505 d5be
00000320: db14 bfbd 4031 473e da13 3cbf 953e 383e
00000330: 589b c93f 40b0 adbd 0601 a0be 7c7b 27bf
00000340: 8516 813e 1395 473f d633 093f 3a2a b8bf
00000350: 8c8c 19be 7bc5 013f fdb4 3c3f 7df8 94bd
00000360: 2d95 1e3e 9fe2 35be 05f4 2abe bd95 903e
00000370: cf39 2e3e 9597 1abf 0ac0 f33d f00d 8c3d
00000380: ecfe 96be bcbc 0e3f 3a6c e33e fa24 0dbe
00000390: f7c2 c43e bbeb 2c3c 97ac babe 1d58 03bf
000003a0: d3df 13bf 615f 183f 5497 6f3f 923d b4bf
000003b0: 233a 903e 24c3 c53e e083 063f 83fc bb3e
000003c0: d8c2 723d 4f3c 63bf 8f92 9abe b36c d83e
000003d0: 95e5 e83e f67b a13e 406f 423f b0cc 023e
000003e0: 8294 77be f28d a53e f263 0e3f d383 abbc
000003f0: 905b 123e 6610 f93d 42ab 20be 2d8a ac3e

fc2.bias f4 [256]
0.33847055 0.27262497 -0.045273345 -0.034168653 0.2263532 -0.030051647 -0.20056713 0.26554212
-0.02109372 -0.00061829033 0.3174242 -0.051580623 0.042845357 0.3122453 -0.60171354 0.17244443
0.08028464 0.3691607 -0.2948851 0.31271017 0.022060739 0.2613189 0.018560583 -0.087920286
0.05449583 -0.0012892025 0.002249466 -0.06800024 -0.04398212 0.32802963 -0.08480951 -0.052896205
0.12341956 0.04650654 -0.03833733 -0.022985363 -0.84993273 0.07205368 0.014846247 -0.023930725
0.008312049 0.35157168 -0.027516378 -0.18827192 -0.052641142 -0.35923743 -0.19949123 -0.089407735
-0.07282705 -0.22630529 0.59416 -0.055565 -0.50678396 -0.08366818 -0.106446184 0.41337797
0.011749637 -0.06416032 -0.29511923 -0.066634625 0.3455934 -0.082210526 -0.13306727 -0.026942302
-0.17814517 -0.45327663 -0.15558626 -0.042482104 0.37911403 0.31652313 -0.037848618 -0.80562806
-0.010412125 0.010566228 -0.081733115 -0.013487404 -0.030653363 -0.08831719 0.22604325 -0.09235077
-0.10410575 0.3349991 -0.021371618 0.4013794 0.01317597 -0.017621743 -0.07471929 -0.03417312
-0.007332646 -0.20107998 0.014100658 -0.00907002 -0.098854475 -0.013191784 -0.1781238 0.43354
0.31411624 -0.23217662 -0.035720896 -0.006352853 0.38241065 -0.034272946 -0.0053444915 -0.01387918
0.03943424 -0.05630979 -0.0052179135 0.15319096 -0.06575964 -0.0076922555 0.026512071 0.23695692
-0.05530919 -0.26827222 0.14308596 0.36744118 -0.5478248 -0.033845924 0.009130053 0.24111415
0.10812376 -0.08880916 -0.041041426 -0.054689426 0.02242163 0.32814988 -0.09162593 -0.07579549
-0.12492249 -0.07415848 -0.04921232 0.38368794 0.25881487 -0.01298188 -0.048494034 -0.08434401
-0.032309797 0.039945014 -0.11595578 -0.07717561 -0.017524233 -0.14647911 -0.005836811 -0.21826665
0.4305131 -0.109676786 -0.03139277 -0.010748591 0.37619185 -0.08593099 -0.06186433 -0.010923856
-0.03832071 -0.45729282 -0.23603009 -0.090338774 0.114477865 -0.31830594 0.0004972058 -0.054124925
-0.32320663 -0.008690191 0.026715145 0.3560878 0.089522265 -0.25592175 -0.20948802 0.25888425
-0.12436475 -0.076901674 -0.089844994 0.067281514 0.024516316 0.2972377 -0.13338502 0.004793779
-0.0072827484 -0.04183096 0.024762081 -0.08759175 0.44363418 -0.094089225 -0.23753802 -0.6697896
0.2373969 0.24963455 0.20431343 -0.049915534 -0.46649653 -0.36095902 -0.07428159 -0.026472488
0.29986224 -0.32791656 -0.10903415 -0.041293908 -0.08291827 -0.0046640495 0.16733716 -0.05566356
-0.037676647 0.17645624 -0.10707585 0.0021932668 -0.008176103 0.038025327 0.14368123 0.16746615
-0.0058298907 0.39900652 0.33731666 0.057151515 -0.19464469 0.40364578 0.24972548 0.07489349
-0.18552756 0.14634204 -0.012128788 -0.06144321 0.117336266 0.20709635 -0.041370276 -0.01342293
0.2912998 0.27040306 -0.07361409 0.015866043 0.16454346 -0.28638667 0.3534044 -0.09576738
-0.044630945 -0.03591207 -0.119017206 0.035973173 0.19587302 -0.078336634 -0.1429999 -0.06124077
0.102835365 -0.04295154 -0.002765515 0.027678747 -0.07629948 -0.073101774 -0.023703478 -0.092927575
0.007454272 -0.023959571 -0.048914187 -0.08499187 0.17373608 -0.034119807 -0.05644921 0.37240177
00000000: 034c ad3e 8095 8b3e 8b70 39bd 6ef4 0bbd
00000010: 22c9 673e df2e f6bc 7861 4dbe 23f5 873e
00000020: bdcc acbc c314 22ba 6d85 a23e 3446 53bd
00000030: 9d7e 2f3d 9ede 9f3e e609 1abf 4695 303e
00000040: 466c a43d a202 bd3e 2efb 96be 8c1b a03e
00000050: b9b8 b43c 97cb 853e 5d0c 983c 8d0f b4bd
00000060: 0537 5f3d 75fa a8ba c76b 133b b643 8bbd
00000070: 9826 34bd 80f3 a73e 9cb0 adbd b1a9 58bd
00000080: 65c3 fc3d a47d 3e3d 9b07 1dbd cd4b bcbc
00000090: 3195 59bf e190 933d ac3d 733c 5e0a c4bc
000000a0: 432f 083c 3401 b43e 076a e1bc 5bca 40be
000000b0: 3d9e 57bd f8ed b7be 6e47 4cbe 671b b7bd
000000c0: 5926 95bd 93bc 67be df1a 183f 2098 63bd
000000d0: 98bc 01bf 395a abbd 7500 dabd 47a6 d33e
000000e0: 8d81 403c 7c66 83bd de19 97be bc77 88bd
000000f0: 9ef1 b03e fe5d a8bd c942 08be 1ab6 dcbc
00000100: b06b 36be e013 e8be 0152 1fbe b701 2ebd
00000110: 3c1b c23e 520f a23e 2707 1bbd a43d 4ebf
00000120: 9e97 2abc f91d 2d3c b163 a7bd 46fa 5cbc
00000130: c31c fbbc a5df b4bd e277 673e 6722 bdbd
00000140: 6535 d5bd 0185 ab3e 8813 afbc 9a81 cd3e
00000150: 06e0 573c 795b 90bc 6d06 99bd 1df9 0bbd
00000160: b146 f0bb e9e7 4dbe 7206 673c 6c9a 14bc
00000170: 3774 cabd 5a22 58bc 1666 36be f4f8 dd3e
00000180: d8d3 a03e b5bf 6dbe 1350 12bd 982b d0bb
00000190: 54cb c33e ca61 0cbd d820 afbb 8065 63bc
000001a0: cc85 213d 18a5 66bd 08fb aabb 17de 1c3e
000001b0: fdac 86bd 510f fcbb d82f d93c d6a4 723e
000001c0: e48b 62bd fa5a 89be 2085 123e 4021 bc3e
000001d0: 3f3e 0cbf 06a2 0abd 3896 153c a1e6 763e
000001e0: fd6f dd3d 94e1 b5bd 0e1b 28bd 0502 60bd
000001f0: 91ad b73c 4303 a83e 60a6 bbbd aa3a 9bbd
00000200: 5dd7 ffbd 67e0 97bd dc92 49bd bf72 c43e
00000210: 6283 843e f4b1 54bc aea1 46bd 8dbc acbd
00000220: 4757 04bd 629d 233d 397a edbd 3f0e 9ebd
00000230: fb8e 8fbc 9ffe 15be b842 bfbb 4b81 5fbe
00000240: 376c dc3e 399e e0bd b595 00bd dc1a 30bc
00000250: 389c c03e 96fc afbd 7465 7dbd f9f9 32bc
00000260: 2df6 1cbd 4922 eabe dfb1 71be 8903 b9bd
00000270: 5f73 ea3d fff8 a2be eb56 023a 19b2 5dbd
00000280: 577b a5be 4e61 0ebc b8d9 da3c 2451 b63e
00000290: 7357 b73d 2d08 83be 0784 56be 7a8c 843e
000002a0: f2b2 febd a07e 9dbd a700 b8bd e4ca 893d
000002b0: 71d6 c83c 8a2f 983e 1596 08be 2215 9d3b
000002c0: 1fa4 eebb f156 2bbd d9d9 ca3c 4e63 b3bd
000002d0: 0524 e33e dab1 c0bd 2b3d 73be 5577 2bbf
000002e0: 2c18 733e 33a0 7f3e 8a37 513e 3b74 4cbd
000002f0: a2d8 eebe 9fcf b8be f220 98bd d5dc d8bc
00000300: 8b87 993e aee4 a7be 4c4d dfbd cd23 29bd
00000310: 0ed1 a9bd e2d4 98bb 6f5a 2b3e 79ff 63bd
00000320: d452 1abd f2b0 343e 954a dbbd e9bc 0f3b
00000330: 10f5 05bc 72c0 1b3d 2c21 133e 3f7c 2b3e
00000340: ab08 bfbb 954a cc3e c5b4 ac3e b517 6a3d
00000350: f050 47be a9aa ce3e 09b8 7f3e c261 993d
00000360: f0fa 3dbe b0da 153e d3b7 46bc e0ab 7bbd
00000370: ff4d f03d 1111 543e e173 29bd d9eb 5bbc
00000380: 3f25 953e 4572 8a3e fcc2 96bd 81f9 813c
00000390: 157e 283e 46a1 92be 6cf1 b43e b021 c4bd
000003a0: f0ce 36bd 8918 13bd 4bbf f3bd 9b58 133d
000003b0: f092 483e f56e a0bd 916e 12be 9ad7 7abd
000003c0: 599b d23d f4ed 2fbd a43d 35bb 8abe e23c
000003d0: e742 9cbd 62b6 95bd cc2d c2bc d050 bebd
000003e0: f742 f43b dd46 c4bc 3e5a 48bd 3810 aebd
000003f0: dfe7 313e 36c1 0bbd 4937 67bd 72ab be3e

fc3.weight f4 [4, 256]
0.5229955 0.8515695 -0.02276481 -0.33364984 0.660505 0.6869597 0.01402043 0.21590412
-0.043379065 0.01101502 0.18663058 0.0017032623 0.08016524 1.127451 -0.6392205 -0.6014732
-1.001691 0.40025857 -0.124485455 0.76200086 -0.006389176 0.39436385 0.025162384 0.07624902
-0.77875924 0.016382592 -0.663801 -0.37234777 -0.05748941 0.2111771 -0.012880377 -0.0069470564
0.65822154 0.3845911 -0.02253492 0.02145414 -0.80802333 -0.37700734 0.057345413 0.014283472
0.03476081 0.27678555 -0.039492473 -0.6952081 0.024971427 0.1299996 -0.101616815 -0.0010594857
0.009390344 -0.4281173 0.21851288 0.03305268 1.2630924 0.035776783 0.39684469 0.59520984
0.0535865 0.0059432504 -0.9212828 -0.34671813 0.28095847 0.06069447 -0.55060387 0.024915379
-0.4930813 -0.38447276 -0.28558397 -0.022189975 0.4401486 0.17321435 -0.029769285 -1.1391618
-0.36027023 0.047901403 0.00073245785 0.012546346 0.047291316 0.14937751 -0.5525041 -0.007055165
0.016659217 0.058019057 0.035714626 0.36879593 0.20281135 0.018344278 0.05530343 0.03347804
0.058248512 -0.3059702 -0.027421713 0.015648406 0.015618079 0.027118146 0.68952084 0.37960806
0.166543 -0.21294266 -0.0012480691 -0.2276123 0.58190423 -0.020783316 -0.07854507 0.00966345
-0.37978625 0.086888365 -0.18883196 0.28895453 -0.059367597 -0.020220915 -0.780476 0.4261907
0.046463825 0.19733447 0.26149964 0.3919544 0.3519464 0.021479141 -0.23231414 0.280712
0.019303504 0.025211878 0.028745182 -0.4304254 1.1258733 0.23708479 -0.006873831 0.009895504
0.19572216 -0.056200445 -0.006081407 0.9153166 0.28483748 0.057437226 0.00931474 -0.3101317
-0.0011211853 -0.6465512 -0.21366148 0.010381737 -0.030677352 -0.64227635 0.04835928 -0.022497753
0.6343068 0.051994175 0.035347577 -0.0056612873 0.6261749 -0.03406024 0.06645113 0.004907312
-0.024703266 0.6416671 -0.7181799 -0.033741616 0.3320685 1.3966964 0.0016244052 0.0058906334
-0.18136051 -0.75267273 0.17544672 -0.5648973 -0.3020922 -1.980267 -0.04788746 -0.8930808
0.0039126193 -0.74460644 0.00375963 0.20257995 0.04963062 0.097044766 -0.6307113 0.030869657
0.04279252 -0.32973656 0.04867385 0.02979495 0.4989976 0.061909206 0.45302224 -1.1038089
-0.24525185 -0.3933806 0.054677214 -0.2488701 0.78299546 -0.1300116 0.01564934 -0.009786552
0.7458598 -0.52560043 0.2514562 -0.015197297 0.017724827 0.052618835 0.4305893 0.76788265
0.009563875 -0.40927944 -0.44691166 0.049410716 -0.004385498 -0.009465646 -0.16060981 -0.22716545
-0.016315615 0.545211 0.33250955 0.56425494 0.5603358 0.7576584 -0.12659512 0.43480232
-0.3331392 0.46038604 -0.113839224 -0.02455806 0.22323869 0.24417232 -0.021177772 0.056143086
0.3815722 0.18858117 -0.009775445 0.0081306305 0.33688992 -0.42310914 0.20074041 -0.011485259
-0.032598324 -0.04279782 -0.85376847 0.27628422 0.3279675 -0.015691293 -1.3548195 -0.029048279
-0.40921006 -0.00084127777 0.025701337 -0.64106524 -0.023573944 0.012460979 0.06353197 -0.81672084
0.046686564 -0.0012751959 0.024130935 0.040193144 0.16516778 0.27522212 -0.018010445 0.7276783
00000000: 08e3 053f 7500 5a3f 447d babc 27d4 aabe
00000010: db16 293f 97dc 2f3f f2b5 653c f815 5d3e
00000020: 3fae 31bd 5878 343c 161c 3f3e 0040 df3a
00000030: ac2d a43d 5050 903f f4a3 23bf 26fa 19bf
00000040: 6937 80bf b1ee cc3e 3bf2 febd 7d12 433f
00000050: 4b5c d1bb 0fea c93e 5821 ce3c 7228 9c3d
00000060: c45c 47bf c934 863c ddee 29bf 5ea4 bebe
00000070: 047a 6bbd cf3e 583e 3708 53bc 22a4 e3bb
00000080: 3581 283f 20e9 c43e 279b b8bc 98c0 af3c
00000090: 9eda 4ebf 1b07 c1be 06e3 6a3d 3905 6a3c
000000a0: 5a61 0e3d d6b6 8d3e dcc2 21bd 28f9 31bf
000000b0: e190 cc3c 9d1e 053e 7a1c d0bd 71de 8aba
000000c0: f5d9 193c 3132 dbbe d7c1 5f3e 3f62 073d
000000d0: 03ad a13f ad8a 123d 3a2f cb3e ac5f 183f
000000e0: 857d 5b3d 99bf c23b 31d9 6bbf 0a85 b1be
000000f0: cad9 8f3e c49a 783d 60f4 0cbf 561b cc3c
00000100: 2775 fcbe 9dd9 c4be 1038 92be c0c7 b5bc
00000110: 285b e13e 1a5f 313e b7de f3bc 0ed0 91bf
00000120: 5775 b8be 4334 443d 6a02 403a 308f 4d3c
00000130: 8ab4 413d 6bf6 183e e970 0dbf 032f e7bb
00000140: e978 883c 64a5 6d3d 8049 123d d2d2 bc3e
00000150: c7ad 4f3e bd46 963c d985 623d 4520 093d
00000160: fe95 6e3d 20a8 9cbe 80a3 e0bc 1631 803c
00000170: f9e2 7f3c e026 de3c 7084 303f fd5b c23e
00000180: 408a 2a3e a40d 5abe 4096 a3ba 3313 69be
00000190: adf7 143f c641 aabc 3ddc a0bd 7253 1e3c
000001a0: 5873 c2be 87f2 b13d 2a5d 41be d9f1 933e
000001b0: 702b 73bd 55a6 a5bc 46cd 47bf ab35 da3e
000001c0: da50 3e3d 0c12 4a3e 48e3 853e 3fae c83e
000001d0: 5232 b43e 06f5 af3c c2e3 6dbe 7cb9 8f3e
000001e0: 6222 9e3c 2489 ce3c 047b eb3c b860 dcbe
000001f0: 9e1c 903f 5bc6 723e e03d e1bb c120 223c
00000200: 646b 483e 7032 66bd 8a46 c7bb 3052 6a3f
00000210: 38d6 913e 4c43 6b3d da9c 183c 95c9 9ebe
00000220: bcf4 92ba 6184 25bf 13ca 5abe 2918 2a3c
00000230: 124f fbbc 396c 24bf 6114 463d 354d b8bc
00000240: ee61 223f d8f7 543d 9fc8 103d 5282 b9bb
00000250: 004d 203f c082 0bbd 8817 883d 84cd a03b
00000260: 815e cabc 4c44 243f a3da 37bf a634 0abd
00000270: e204 aa3e f3c6 b23f fee9 d43a 3706 c13b
00000280: 92b6 39be 29af 40bf 4ea8 333e 1c9d 10bf
00000290: d4ab 9abe 6479 fdbf a425 44bd f1a0 64bf
000002a0: 6e35 803b 879e 3ebf 2064 763b 1e71 4f3e
000002b0: 7a49 4b3d 68bf c63d 4c76 21bf 5de2 fc3c
000002c0: 3647 2f3d 3bd3 a8be 3b5e 473d 8a14 f43c
000002d0: 9d7c ff3e 8294 7d3d 88f2 e73e 9c49 8dbf
000002e0: 4d23 7bbe 2f69 c9be 37f5 5f3d ced7 7ebe
000002f0: 6472 483f c321 05be 0b33 803c c657 20bc
00000300: abf0 3e3f c08d 06bf debe 803e 15fe 78bc
00000310: a833 913c d986 573d 3376 dc3e f593 443f
00000320: cdb1 1c3c 138d d1be 9bd1 e4be e462 4a3d
00000330: 39b4 8fbb cc15 1bbc e676 24be 0f9e 68be
00000340: 53a8 85bc f392 0b3f b13e aa3e 0373 103f
00000350: 2b72 0f3f e7f5 413f 27a2 01be 699e de3e
00000360: 3991 aabe b8b7 eb3e 8a24 e9bd fc2d c9bc
00000370: af98 643e 4f08 7a3e 027d adbc 4bf6 653d
00000380: 6e5d c33e 6c1b 413e 3029 20bc 5636 053c
00000390: d67c ac3e c3a1 d8be e58e 4d3e ab2c 3cbc
000003a0: d285 05bd c44c 2fbd 9290 5abf 2075 8d3e
000003b0: 5beb a73e 078b 80bc ba6a adbf a8f6 edbc
000003c0: fb83 d1be 3289 5cba 9c8b d23c da1c 24bf
000003d0: 251e c1bc 2229 4c3c 0d1d 823d 9e14 51bf
000003e0: 693a 3f3d 7924 a7ba 3dae c53c 91a1 243d
000003f0: be21 293e eae9 8c3e a48a 93bc 2049 3a3f

fc3.bias f4 [4]
0.4995917 0.44065723 0.46360615 0.53636223
00000000: 7cca ff3e d39d e13e c95d ed3e 094f 093f
