csv_and_models/DDQN/trained_models/DDQN_lunar_main_100.pth (torch, 279296 bytes, 6 tensors)

fc1.weight f4 [256, 8]
000000 09 04 f9 3d 4e a4 70 bf e4 a0 19 3f 38 ff c0 bd
       0.12158973 -0.9400071 0.60011125 -0.09423679
000010 20 d6 bb 3e bd 22 3e bc 73 86 47 3f 18 98 aa be
       0.36686802 -0.011604962 0.7793953 -0.33319163
000020 0f 46 94 3d 16 6c 00 3e 51 9c 04 3f b3 19 32 3e
       0.07239925 0.12541232 0.5180102 0.17392616
000030 c8 d5 0c bf e6 7a e7 3e d1 55 44 be 6f 12 6a be
       -0.55013704 0.45210952 -0.19173361 -0.22858594
000040 69 12 0c bd 90 7b ca bc b7 7e 21 3f fb 49 89 3e
       -0.034197245 -0.024717122 0.63083977 0.26814255
000050 72 a5 1b 3f 4d 80 c9 be ff f5 df be 01 97 ca 3e
       0.60799325 -0.39355698 -0.43742368 0.39568332
000060 9f dc a8 be 4a a5 45 3d 67 b8 00 bf 51 40 62 3d
       -0.3298082 0.048253335 -0.50281376 0.05523712
000070 be 77 1e 3f 06 21 d6 3e e6 6f 5a 3f 12 47 b8 bd
       0.6190146 0.4182207 0.85326993 -0.089979306
000080 51 a5 40 3d b3 dd e0 3d 4e ac 01 bf ef ae 04 bf
       0.047032658 0.10979786 -0.5065354 -0.5182943
000090 7a b1 4b 3f f8 57 92 bd 28 99 b3 be d7 1a c0 bd
       0.7956768 -0.07145685 -0.35077786 -0.09380119
0000a0 05 ab 3c 3d 80 ed fb be 94 f9 da bd c7 f9 3e 3f
       0.046061534 -0.49204636 -0.106921345 0.7459988
0000b0 13 71 e7 3e 56 3d 4e bf 8d b5 b4 bc ad 8a bb 3d
       0.45203456 -0.8056234 -0.022059226 0.0915731
0000c0 b2 e2 f5 3d 18 d0 eb bd 57 bc 36 3e 0f 93 2e be
       0.12006129 -0.115143 0.17845283 -0.17048286
0000d0 6c 30 fa 3e 3a da 66 3e 80 88 61 3f cb 65 96 be
       0.48865068 0.22544184 0.8809891 -0.29374537
0000e0 82 7c 1c 3e ba 07 49 3e 95 0c c1 3e b4 10 4f 3f
       0.15281871 0.19631854 0.37704912 0.8088486
0000f0 92 f9 7d be c2 66 8e 3e ca 0d b7 3e 19 b6 cc be
       -0.24802235 0.27812773 0.35752708 -0.3998268
000100 36 05 0b bf a2 30 01 3e 09 e3 90 3e 8f 79 04 3e
       -0.54304826 0.12616208 0.28298214 0.12936996
000110 ef 95 a3 be f2 db 28 3e 9b 11 72 be e4 33 ed bd
       -0.31950328 0.16490152 -0.23639528 -0.11582163
000120 31 87 8a 3d 9e 46 91 3c 45 52 ac be 97 1f c0 3e
       0.06764067 0.017733868 -0.33656517 0.375241
000130 2d 2e fa 3d 09 7e b1 3c 55 34 b1 3e 71 8f d4 3e
       0.122158386 0.021666544 0.3461024 0.41515687
000140 cd a4 0d bf 11 30 20 3d 81 3f 87 be 1e e7 22 3f
       -0.5532959 0.03910834 -0.26415637 0.63633907
000150 ff e1 2b be ee e0 32 3f 02 45 a4 3e 19 f1 a4 3d
       -0.1678543 0.69874465 0.320839 0.08053798
000160 f4 09 04 bd 91 f4 30 3e b7 92 21 be d1 28 7b 3d
       -0.032236055 0.17280795 -0.15778624 0.061318222
000170 a9 4a f0 be 13 80 c4 be 0d 41 23 3f 74 dc 4f be
       -0.4693196 -0.38378963 0.63771135 -0.2029894
000180 92 10 05 3f 1d ff b4 bd 11 9f 04 be 54 7c be be
       0.5197841 -0.088377215 -0.12951304 -0.3720423
000190 0a a6 be be 25 d6 2a 3e 6b bb c4 3e 39 11 d4 be
       -0.37236053 0.16683252 0.3842424 -0.4141939
0001a0 a8 78 37 3e a2 53 a7 3d 7c 74 82 3e 8a ca 87 be
       0.1791712 0.081702486 0.25479496 -0.26521713
0001b0 f4 52 9d 3e 0c dd 8c be 63 0f c5 be 33 de c3 be
       0.3072735 -0.27512395 -0.38488302 -0.38255462
0001c0 e9 1f 2d 3f 53 e6 28 be 2f 5b 00 3d 49 6d 91 3e
       0.67626816 -0.16494112 0.03133696 0.2840369
0001d0 5b 26 8b be 09 35 ab be 7e 1f c6 3d 65 5c 1e 3e
       -0.271777 -0.334389 0.096739754 0.15464933
0001e0 e7 26 14 be e3 9b aa 3d 38 1a 10 3f 0d 14 44 3d
       -0.14467965 0.08330514 0.56290007 0.047870684
0001f0 31 95 58 be f3 74 42 3e 02 d3 b1 bd 6f f4 52 3f
       -0.21150662 0.18989925 -0.08682825 0.82404226
000200 f9 cb c0 bc 31 31 8e 3e 58 fb d8 be 9c 69 e3 3e
       -0.023534762 0.27771905 -0.4237926 0.4441651
000210 80 fe 6d be 86 48 34 3f 73 48 72 3e 7a 83 64 be
       -0.23241615 0.7042316 0.2366045 -0.2231578
000220 40 58 7b 3e e7 a6 37 3e 7a 39 59 3e 19 64 25 be
       0.24545383 0.17934762 0.21213332 -0.16151465
000230 e4 94 a3 3d 69 d0 1d 3f f5 5d 05 bf a2 b7 e6 bb
       0.07987383 0.61646134 -0.5209649 -0.0070409337
000240 23 93 80 3c ec 7e b5 bd 86 f7 3d 3d b1 68 f2 be
       0.01569516 -0.08862099 0.046378635 -0.47345498
000250 82 83 b3 be 29 70 05 bf df f4 0f 3f e2 11 a1 bd
       -0.3506127 -0.5212427 0.5623302 -0.07864739
000260 ea d0 49 3e 9c 64 32 3b 4b b2 1b 3e ac 05 73 bd
       0.197086 0.0027220612 0.15204732 -0.05933158
000270 e7 c2 bc 3d b4 07 1f 3e 59 09 4e 3f 92 6f 1d 3f
       0.09216862 0.15530282 0.80483013 0.6149837
000280 22 4c fc 3e fa 4a d3 3e f8 90 a4 3d 6b e3 66 3e
       0.49276835 0.4126814 0.08035463 0.2254769
000290 34 16 e0 3d cc 94 3e 3f ed 70 bf be fd 12 ab be
       0.10941735 0.74445796 -0.37390843 -0.33412924
0002a0 03 4c b7 be 99 65 41 bd cf d1 d4 3b 8b 6e 81 3e
       -0.3580018 -0.04721603 0.0064947377 0.2527965
0002b0 dd 8b fb bd 71 49 00 bf a8 f0 3b 3f 41 00 8e 3e
       -0.12282536 -0.5011206 0.7341409 0.2773457
0002c0 ea 69 ae be 76 23 9f 3d 32 dc 1c bf 88 01 c1 3e
       -0.3406518 0.077704355 -0.6127349 0.3769648
0002d0 c9 b2 37 3f c9 61 2b 3e 7e cd 6e 3f de 53 00 39
       0.7175718 0.16736521 0.93282306 0.00012238274
0002e0 dd 38 b9 3b 8a bd 79 3d 7c cf 8f b9 c3 07 05 bf
       0.0056525306 0.060971774 -0.00027429673 -0.5196497
0002f0 73 a6 95 bc 05 c3 1e bf fe 64 12 bf e9 2e 86 be
       -0.018267846 -0.62016326 -0.5718535 -0.26207665
000300 c7 ed b1 be 73 0f ce bd 9d f1 43 3e 23 9c 11 3e
       -0.34751722 -0.100615405 0.19135137 0.14219718
000310 d0 12 08 bf ab e6 f3 be 3a a4 ff 3c 50 c0 6e 3f
       -0.53153706 -0.47636923 0.031206239 0.93262196
000320 55 9f ba 3e b8 b7 8e 3d cf 65 ed bc 65 a2 d7 be
       0.36449686 0.06968635 -0.02897921 -0.42116085
000330 f7 01 43 3e 00 73 b8 3e 89 6b ba 3e 03 e2 09 bf
       0.19043718 0.36025238 0.36410168 -0.5386049
000340 15 a9 68 be 8c f1 59 bd 35 d6 81 3e e9 c3 1f be
       -0.2272075 -0.053208873 0.2535874 -0.15602078
000350 d8 da 6a bf ec a5 b5 be 9e 00 f4 3c f3 83 12 bf
       -0.9174018 -0.3547815 0.02978545 -0.5723259
000360 bb df e5 3e 0d 04 37 be e7 8d 20 bd f7 02 40 bd
       0.44897255 -0.17872639 -0.03919783 -0.046877827
000370 79 40 29 bf c9 7f 58 be 08 94 70 3e 81 20 29 bf
       -0.66114 -0.21142496 0.2349397 -0.6606522
000380 0b e1 62 bf aa 8e 8d 3d 40 e1 03 bf 2f 61 11 bf
       -0.8862464 0.06911977 -0.5151558 -0.56788915
000390 e6 84 c6 3e 9c dc ee bd 24 0f bd be b6 1a be 3e
       0.38773268 -0.11663172 -0.36925614 0.37129754
0003a0 3a 2c b8 bc 4b 8e 66 3e 38 cf ed be f8 e6 cb 3e
       -0.022482026 0.22515218 -0.46447158 0.39824653
0003b0 b7 c2 38 3f f8 ac fc 3e 90 63 db bd 16 00 05 be
       0.7217211 0.49350715 -0.107123494 -0.12988314
0003c0 71 11 00 be 80 de 66 3e 59 0e 00 3e 70 0d f8 be
       -0.12506653 0.22545815 0.12505473 -0.48447752
0003d0 a7 07 8a be 16 bd d0 3e 0a 7b 08 bf 82 01 98 3c
       -0.26958963 0.4076926 -0.5331274 0.018555406
0003e0 85 e7 76 bf 73 b4 8d be 4e a9 81 3e d1 ec 6b 3f
       -0.9644702 -0.27676734 0.25324482 0.9215823
0003f0 0c 38 f8 3e ac 64 f1 bd 50 e0 c5 be 5b ab 05 3f
       0.4848026 -0.1178678 -0.386477 0.5221459

fc1.bias f4 [256]
000000 16 f1 70 bd 5c 0b 40 be 24 76 d0 3c eb cf 06 3e
       -0.058823667 -0.18754333 0.025446959 0.13165252
000010 27 e3 02 be 26 e1 84 3e a3 99 7b 3e cd dd 83 be
       -0.12781964 0.25953025 0.24570327 -0.25755158
000020 35 e9 95 3e 3d c5 85 3e 59 8b 27 bd 82 6a 91 bd
       0.29279485 0.26127043 -0.040904377 -0.07100393
000030 a1 ff b0 3d c6 91 94 3e 34 03 b9 3e 4c 52 77 be
       0.08642507 0.29017466 0.36135256 -0.24152488
000040 32 b4 8e bd 55 0e 70 3e fd e6 47 3e df d5 6e 3e
       -0.06967963 0.23442967 0.19521709 0.23323773
000050 fc 83 83 be d7 1f 05 3e 19 fb 60 3c 5f 9d 75 3e
       -0.25686634 0.13000427 0.013731741 0.23985814
000060 c3 95 a4 3e ea 5b 06 be bd fc ba 3d f0 44 5b 3e
       0.3214551 -0.13121 0.09130237 0.21413016
000070 93 06 02 be d6 ff 0f be b5 84 58 be 39 6e e7 3e
       -0.1269782 -0.14062437 -0.21144374 0.4520128
000080 4e 71 ab 3b 2b 2b 48 3e 56 b7 d0 bd 86 99 73 be
       0.005232013 0.19547717 -0.101912186 -0.23789033
000090 29 9e a3 3e 43 f8 88 3c 8c 6f e2 3c 50 e4 03 3e
       0.31956604 0.016719943 0.02764108 0.12880063
0000a0 32 ec 61 be c2 23 82 3e 14 21 01 3d 3a f2 18 be
       -0.22062758 0.25417906 0.031525686 -0.14936152
0000b0 b9 05 92 3e 61 f5 56 3e 31 82 04 bd c3 1b 01 bd
       0.2851999 0.20992042 -0.032350723 -0.031520616
0000c0 ff 15 14 bd e2 cc a9 3e ad 2f 48 3e 26 1f 9f bd
       -0.03615379 0.33164126 0.19549437 -0.07769613
0000d0 42 08 72 3e 2f 1b 8d 3e ae b8 ac 3e 6f 61 47 be
       0.23635963 0.27559802 0.3373465 -0.19470762
0000e0 51 0e ab 3d df f2 57 bd c9 91 c7 3e f1 0a 2c 3e
       0.0835234 -0.052721854 0.38978413 0.16801049
0000f0 25 ce ba 3e b0 2e 38 be 1a 9f d0 bc 75 f5 f6 be
       0.364854 -0.1798656 -0.02546649 -0.48234144
000100 ea 7c 0b bd 98 81 8c 3e ad e3 97 be a4 64 2c 3e
       -0.034054674 0.27442622 -0.2966589 0.16835266
000110 7b 87 b4 be ac 83 80 be f5 2b 59 bd 35 93 60 3e
       -0.35259613 -0.25100458 -0.053020436 0.21931155
000120 57 d7 25 3e 80 c8 02 3e 1a 81 f5 3e 1a b6 ad 3e
       0.16195427 0.12771797 0.4795006 0.33927995
000130 fb 87 31 3d 6e e3 8f 3e 6c fb ae 3d f9 8f 2c bd
       0.04334257 0.28103203 0.08544049 -0.04212949
000140 0c 36 0b 3e a0 ae 9e 3e ef fd 27 3e 04 d8 fc bc
       0.13594836 0.30992603 0.16405462 -0.030864723
000150 d8 8e 1f 3e f4 72 ae be 53 0c 63 be 86 d4 0f be
       0.15581834 -0.34072077 -0.2217267 -0.14045915
000160 3f cb 34 be a0 03 cb bb b7 82 85 bd 8f 0a 58 be
       -0.17655657 -0.0061955005 -0.065190725 -0.21097778
000170 6e 6a f2 3d 8a fd 3e be 95 2f 89 be 61 99 92 3e
       0.11836706 -0.18651405 -0.26794115 0.28632644
000180 4a 17 0d bc a4 f3 8f 3e 78 c1 f8 3d 8d 06 cb bc
       -0.00861151 0.2811557 0.12146276 -0.024783397
000190 3e c4 b0 bd 10 d9 bc 3c d9 7b 98 be 9a 5b 3b bd
       -0.0863118 0.023052722 -0.29781988 -0.045741655
0001a0 d2 8b 13 3d 92 14 5d bd 0c 9c 82 be 9b 6a ad be
       0.036022015 -0.053974696 -0.2550968 -0.33870396
0001b0 43 8d 4f 3e a2 18 ff bd 0b c0 ea be 48 1e 02 3e
       0.20268731 -0.1245587 -0.45849642 0.12706864
0001c0 23 8d 93 3d e2 c3 a5 3e fd 66 10 bd ee 83 6c be
       0.07204654 0.3237601 -0.035254467 -0.23097202
0001d0 5b a7 ba 3c ba f2 d0 3d f6 53 a1 bd a2 52 7c be
       0.02278488 0.102025464 -0.078773424 -0.24640897
0001e0 7a c0 27 be 95 af 94 be 6a f8 95 be 9b 1f b1 3d
       -0.16382018 -0.29040208 -0.29291087 0.086486064
0001f0 eb 8b 88 be 80 15 5c 3b 3d 62 d5 bd d8 7a f7 bd
       -0.2666925 0.003358215 -0.10419128 -0.120839775
000200 8f 09 89 3e f8 21 8e be a8 74 f6 3d 73 b3 3d be
       0.26765105 -0.2776029 0.12033969 -0.18525486
000210 c2 2c 95 3d ae 3a 17 be e8 c3 2f be 49 f8 10 3e
       0.072839275 -0.14768478 -0.17164576 0.14157213
000220 cf 2b 84 3d 9b eb 5b bd f4 b2 af be b2 43 83 bc
       0.06453668 -0.053691488 -0.34316218 -0.01602349
000230 4c f4 68 be 89 22 4b 3e dd 6b 95 bc 2f 45 5f be
       -0.22749442 0.19837393 -0.01823991 -0.21803735
000240 a0 74 69 3e 0c ec cf 3d da 3c 32 3b 40 91 41 3e
       0.22798395 0.10152444 0.0027196915 0.18903065
000250 f1 00 47 bd a1 5f 8a 3d a8 33 71 be da 44 01 bc
       -0.048584882 0.06756521 -0.23554862 -0.007889951
000260 20 9c b1 3e 20 ef 8e be 1f 33 73 be a1 48 21 be
       0.34689426 -0.27916813 -0.2374997 -0.15750362
000270 21 ca c8 3e 40 49 04 bf ba a9 09 3e 9d 92 9b 3e
       0.39216712 -0.5167427 0.13443652 0.30385295
000280 9f 97 72 3e 58 f0 db bc 5a f4 c2 3e ee 2c 57 3d
       0.23690651 -0.026848003 0.3807705 0.052533083
000290 0a c1 c3 3b e8 6b 8f be 67 e9 b4 3c 11 a0 a2 be
       0.00597394 -0.28012013 0.022083951 -0.31762746
0002a0 e1 95 a8 bd fc 34 30 ba 8e f7 86 be f7 e2 7c 3d
       -0.08231712 -0.00067217625 -0.26360744 0.061739888
0002b0 a7 20 84 be d7 77 22 bf 73 0b 5b 3e 66 ec 86 3e
       -0.25806162 -0.6346411 0.21391086 0.26352233
0002c0 51 d4 4e be dc 72 3e be 76 3c 62 3e 45 67 71 3e
       -0.2019818 -0.18598503 0.22093377 0.2357455
0002d0 43 ae 21 3e a8 66 7c be 80 0f 2c 3d 79 73 34 3d
       0.15789132 -0.24648535 0.04200697 0.044055436
0002e0 5d 56 96 3e e4 54 90 3c ff 64 4a 3e 7d 9f 3d 3c
       0.29362765 0.017618604 0.1976509 0.0115736695
0002f0 27 03 85 be f9 6d 8a 3e 60 3a 18 3e 84 0f 30 be
       -0.25978968 0.27037027 0.14866018 -0.17193419
000300 94 35 83 3e ea 7f 97 be 7b 4c 64 bd d3 f5 75 be
       0.25626814 -0.29589778 -0.055737 -0.24019556
000310 81 6c 25 3e 35 95 86 3c 19 46 8d 3e 4e 58 40 3d
       0.16154672 0.01642857 0.27592543 0.046959214
000320 ef c1 4d 3d ea a3 df bc 86 1b 51 be 17 8e 4e 3e
       0.050233778 -0.02729984 -0.20420656 0.2017139
000330 a4 3e 2c bf b2 a4 9f 3e 04 65 28 3e bb 2d 49 bd
       -0.6728308 0.3118034 0.16444784 -0.049115878
000340 9f 52 0d be 2f 72 90 3d 51 4b cf 3d d5 22 2a be
       -0.13801049 0.07053029 0.10121787 -0.1661485
000350 15 86 90 bc 0c ab b5 bd 8f 0d 26 be e2 a7 81 3e
       -0.01764206 -0.08870515 -0.1621611 0.25323397
000360 87 46 9a 3e 8b f6 62 3e d3 66 41 be 2e 36 9a 3e
       0.30131933 0.22164361 -0.1888688 0.3011946
000370 31 fd 64 3e 31 8b 91 3d 2b 14 66 be 34 1f 13 3e
       0.2236221 0.07106627 -0.22468631 0.14367372
000380 ba f4 cd bd 23 d1 76 3e b1 95 a8 3d a6 c0 6d 3e
       -0.100564435 0.24103217 0.08231676 0.23218021
000390 bd 78 21 3e df 4c c9 bd 3f eb 47 3e 3c 84 b3 be
       0.15768714 -0.09829115 0.19523333 -0.35061824
0003a0 a1 b5 7c 3d 38 32 7a be ca 3a 97 be 22 8d ec bc
       0.061696652 -0.2443322 -0.2953704 -0.028875891
0003b0 da 29 4b 3e 73 dd 97 3e e7 e0 04 3e e3 21 b8 3e
       0.19840184 0.2966114 0.12976418 0.35963354
0003c0 a3 f6 58 be 7f 77 86 3d b2 50 f9 39 5b 13 64 bc
       -0.21187834 0.06565761 0.00047553104 -0.01392063
0003d0 3a 0e e0 3d b8 df 5d 3e 7f 79 7e 3e 05 71 62 3e
       0.109402135 0.21667373 0.24851035 0.22113426
0003e0 c2 91 63 3e 4d 4d 93 3e 22 75 74 3e f4 2e be 3e
       0.22223571 0.28769913 0.23872808 0.37145197
0003f0 78 81 8e 3e 44 3a b2 3e 18 7a 4c bd 51 8d c7 be
       0.27833152 0.34810078 -0.049921125 -0.38975003

fc2.weight f4 [256, 256]
000000 33 2e ab 3e 15 ee 8d be 34 1c 54 3f ad fc 4a bd
       0.33433685 -0.27720705 0.82855535 -0.049557377
000010 b9 ee 80 be 61 8a 52 3f 07 d7 35 bc 09 14 7c be
       -0.2518213 0.822424 -0.01109863 -0.24617018
000020 0e 1b 50 be 4d e2 8f 3e ef 18 a0 3e a3 27 13 3e
       -0.2032282 0.2810234 0.31269023 0.14370589
000030 90 91 13 3d ad 71 0e be e3 c3 4b 3e 0d 18 82 3e
       0.03602749 -0.13910551 0.19898944 0.25408974
000040 31 f8 d9 3e aa 6b 2a bf c0 4e b3 3d 35 be 95 3c
       0.42572168 -0.6657053 0.08755255 0.018279174
000050 61 47 23 be 10 9f 0a 3f eb 63 04 be c8 f4 b1 bd
       -0.15945198 0.5414896 -0.1292874 -0.086892664
000060 70 9b 81 3e 2c 6a 55 be e3 40 84 bd 2a 5a 15 3e
       0.25313902 -0.20841283 -0.06457689 0.14585176
000070 0f 63 8a 3d f5 a9 f1 bd 41 9b 04 bf a2 9e 1f 3f
       0.06757175 -0.11799995 -0.517994 0.6235143
000080 05 58 24 3d b3 db 95 bd 31 21 33 be 84 85 5b be
       0.040123004 -0.07317295 -0.1749313 -0.21437651
000090 f2 46 8f 3e 93 5c 3f 3c 8e cf 3c 3e 39 24 8a be
       0.27983814 0.011679786 0.18438551 -0.2698076
0000a0 9a 7b 42 bc 61 50 4d bf ba 1e 3c 3c 64 56 ae 3d
       -0.011870289 -0.80200773 0.011481935 0.085125715
0000b0 36 33 4b be ea 85 46 bc 50 85 11 3d 4c 6f f2 3d
       -0.19843754 -0.012116889 0.035527527 0.118376344
0000c0 9b ae ee 3e ca 6f 3c 3f fa 95 f2 bd 5f c0 18 3d
       0.46617588 0.73608077 -0.11845012 0.037292834
0000d0 a6 dc 5b 3e ea f7 12 be 28 f5 9b be 4b 86 9b be
       0.2147089 -0.14352384 -0.30460477 -0.30375895
0000e0 5a b5 81 bd 70 84 94 3d 8d 8e c5 3e ea e2 77 3e
       -0.06333418 0.07251823 0.3858532 0.24207655
0000f0 c0 e2 99 3e ba 7f 22 be 78 c1 96 bd f0 65 86 3e
       0.3005581 -0.15869036 -0.0736112 0.26249647
000100 2f 09 90 be 94 7f 2b 3f 51 b0 39 3c 7b d9 04 3f
       -0.28132007 0.66991544 0.011333541 0.5189435
000110 cc 2e 1c 3d 41 24 e5 3e 60 d5 ca bd b9 c1 8a be
       0.038130566 0.44754222 -0.09903979 -0.27100924
000120 a6 79 8d 3d f8 8c 02 be 6a 12 22 3f 23 1a ea 3d
       0.06907968 -0.12749088 0.6330935 0.114307664
000130 bf cf 2e 3e 4b 98 2f be bd 92 ad be 8f 21 4d 3e
       0.17071436 -0.17147939 -0.33901015 0.20032333
000140 48 d8 51 bd 2a 30 b7 3d a4 26 7d bc 65 fc 4a 3e
       -0.051231652 0.089447334 -0.015451107 0.19822843
000150 37 44 02 3e e1 64 d4 3d c5 68 30 3e 3f 7c f3 bd
       0.12721334 0.103708036 0.17227466 -0.118889324
000160 7c a7 82 be 6d 56 a5 be 2f d3 5a be db f2 59 bc
       -0.25518405 -0.322925 -0.21369623 -0.01330253
000170 1f 7c d5 3e bd 7d 10 bf 19 9b dd be 7e a6 9b 3e
       0.4169626 -0.5644186 -0.43282393 0.3040046
000180 ac 30 5d bc 3e 13 85 3d 62 3e f1 3e 1c eb 29 bf
       -0.013500374 0.06497811 0.47117907 -0.66374373
000190 ce 00 ac 3c 72 4b ed 3e 3c 83 12 be 91 2e fc 3e
       0.020996477 0.46346623 -0.14307874 0.49254277
0001a0 ce 4a 47 bd ea ab 84 3e b9 b1 1d 3f 6a 5d dd bd
       -0.048655324 0.2591241 0.6159931 -0.10808833
0001b0 d6 aa 09 3e 0e 63 a4 bd be 2d 39 bf 16 dc 29 be
       0.13444075 -0.08026706 -0.7233542 -0.16587862
0001c0 52 fe 39 3e 0b 46 09 3e 86 2b ff 3e 52 4b b3 bc
       0.18163422 0.13405626 0.49837893 -0.021886501
0001d0 b0 8d 71 be a8 61 12 bf 0c a2 c8 3d 86 72 27 bf
       -0.23589206 -0.5718026 0.09796533 -0.65409124
0001e0 9f e7 3a bd 5f df 9b 3e b5 38 04 be 4d 05 ac bd
       -0.045631047 0.30443856 -0.12912257 -0.083994485
0001f0 38 00 c8 be a7 62 a8 3e e3 42 85 3e 4d 57 c7 bd
       -0.39062667 0.32887766 0.26027593 -0.09733448
000200 96 42 19 3e 9f 53 d2 3e d6 0e a3 3d 80 98 df 3e
       0.14966807 0.41079423 0.07961814 0.43671036
000210 30 4b f1 bd e2 4b b1 be 1f 33 5b bd 66 81 f6 3e
       -0.11781919 -0.34628206 -0.05351555 0.48145598
000220 88 94 ed be 61 03 0a be 59 46 5b 3e 3e c2 4e bf
       -0.46402383 -0.13477851 0.21413554 -0.8076514
000230 c7 2b f7 bd b1 bf 00 3e 97 77 2b 3f a5 08 80 be
       -0.12068897 0.12573124 0.66979355 -0.25006595
000240 72 6d 55 bd 77 10 15 bf 27 fd 77 bf 00 60 4e 3e
       -0.05210633 -0.5822825 -0.96870655 0.20153809
000250 ba 9a 38 bf 57 80 c4 be 66 13 35 be 63 db 23 be
       -0.72111094 -0.38379166 -0.17683181 -0.16001658
000260 15 71 0a 3e 1e f3 a4 bc bc d5 11 bf 86 42 ca 3e
       0.135197 -0.020135459 -0.5696676 0.39503878
000270 89 09 f1 3e 67 cb 29 be ea 9b 3d 3e 8d 4b 13 be
       0.47077587 -0.16581498 0.18516508 -0.14384289
000280 b7 d5 4d bf 9b b5 0d 3e f1 00 bc 3e c0 a8 39 be
       -0.8040423 0.13838808 0.36719468 -0.1813078
000290 27 ba 3a 3e 75 3a 88 be e7 7d fa 3d 5a e7 22 3d
       0.18235074 -0.266071 0.12231045 0.039771415
0002a0 8d b5 2f be b5 77 03 be cd f3 01 bf 37 45 7c be
       -0.171591 -0.12838633 -0.50762635 -0.24635778
0002b0 40 26 5b bb fb 8b a8 3e 03 00 19 3e 93 0c 0e bf
       -0.0033439547 0.32919297 0.1494141 -0.55487937
0002c0 6b 92 f0 be b0 2c 87 bd 9e 76 98 3d c5 e6 f5 3d
       -0.46986708 -0.0660032 0.074444994 0.120069064
0002d0 83 4b a9 3c d1 0b 12 bf 24 5e 39 3e f7 38 f0 3e
       0.02066589 -0.5704928 0.18102318 0.4691846
0002e0 f7 07 d5 3c c2 06 0e bf 95 cb 56 be 73 54 cd 3d
       0.026004774 -0.5547906 -0.20976098 0.10025873
0002f0 5d e8 b8 be e2 e3 70 3d 55 d7 ee 3c 22 90 4b 3e
       -0.3611478 0.058811076 0.029155413 0.19879201
000300 bb e8 b1 3e b6 f0 8f 3d e0 d2 8b 3e 83 eb 27 bd
       0.34747872 0.07028334 0.27309322 -0.040996086
000310 d4 c7 db 3e 90 86 b0 be 41 30 13 3e 84 59 b5 3d
       0.42925894 -0.34477663 0.14373876 0.088549644
000320 a2 3f a1 be 9c d6 b3 bd 85 c5 6b be 65 24 97 3d
       -0.3149386 -0.08781168 -0.23024566 0.073799886
000330 1e 4f 40 3e 10 f4 6a 3e 3a 09 9e be c7 62 f5 be
       0.18780181 0.22944665 -0.30866414 -0.47926924
000340 ed d7 0a 3e 0d 37 ed 3d 3c f8 d0 3e 05 9a 55 bf
       0.13558932 0.11582766 0.40814388 -0.8343814
000350 46 97 f2 3d 3e d8 d4 3e 04 04 9c 3e 7f 17 b1 3e
       0.11845259 0.4157123 0.30471814 0.3458824
000360 90 35 09 3f 21 77 46 3e b4 36 db 3c 0d 8a f6 3e
       0.53597355 0.19381382 0.026759483 0.481522
000370 36 7c ab 3e 4e 14 be be 0d 9e ee bc 49 e7 a8 bd
       0.33493203 -0.37124866 -0.029128099 -0.08247239
000380 41 81 30 bf c6 25 4b 3e 4d 00 64 3f 2c 1c 84 bd
       -0.68947226 0.19838628 0.8906296 -0.06450686
000390 60 f4 74 3e 48 43 58 bd 5f a5 0c be b3 86 4e be
       0.23921347 -0.05279854 -0.13734959 -0.20168571
0003a0 37 57 25 bf df 5f 7a 3e a0 9e ab 3b 33 89 31 bf
       -0.64586204 0.24450634 0.0052374154 -0.69349974
0003b0 33 2e 1c bf b4 c8 44 be 14 21 18 3f c6 cc 05 3e
       -0.61007994 -0.19217187 0.59425473 0.13066396
0003c0 00 1e c7 3e f9 d1 2d bf 0f eb 51 bf d6 9e 2f 3e
       0.38890076 -0.6789852 -0.81999296 0.17150435
0003d0 85 0f e3 3e 1f 45 f1 bd e8 28 b3 3e 2e b6 8b bd
       0.44347778 -0.11780762 0.34992146 -0.068218574
0003e0 f4 b0 06 be f7 31 43 3e 11 cf 88 3e 15 84 c6 be
       -0.1315344 0.19062029 0.2672048 -0.38772646
0003f0 2a 5b 27 3e ce fc 69 be 79 d3 55 be 0c d7 39 3f
       0.1634337 -0.22850344 -0.20881452 0.7259376

fc2.bias f4 [256]
000000 5e 1c 69 3d df c7 b6 3d 8b 70 39 bd 71 3b 61 3c
       0.05691182 0.08924841 -0.045273345 0.013747082
000010 db 55 d0 bb d4 bb 18 3d 7a e6 49 3c d5 f9 cd 3d
       -0.006357891 0.0372885 0.012323016 0.10057417
000020 fd ab 2e 3c d0 ed fe 3c e7 eb f8 3d dc 4c a3 bc
       0.010661122 0.031119257 0.1215437 -0.01993411
000030 21 1e 20 3e d8 8d 72 bd 06 f9 1e bd 2c f1 f0 3d
       0.15636493 -0.059217304 -0.038811706 0.1176475
000040 81 86 3d bc c3 51 d7 3d 38 7e 59 3d cf 9f 35 3d
       -0.011567713 0.10513642 0.053098887 0.04434186
000050 b9 b8 b4 3c b6 85 cf 3d cc ed 25 3d 55 d3 19 bc
       0.022060739 0.10132925 0.040509984 -0.009388764
000060 7c 51 81 3c b3 8f f9 3c 7a 34 61 ba 80 db 58 3d
       0.015785925 0.030464029 -0.00085908885 0.052943707
000070 98 26 34 bd c3 63 8b 3d 77 9e 59 bd b1 a9 58 bd
       -0.04398212 0.068061374 -0.05312964 -0.052896205
000080 f1 8b a9 3d f9 07 db 3c f5 9d df 3b f4 7d 0f 3c
       0.08278645 0.0267372 0.00682425 0.008758057
000090 55 85 54 bd 24 81 62 3d 25 da 3e 3d d1 cc 15 3d
       -0.051884968 0.05529894 0.046594758 0.03657228
0000a0 43 2f 08 3c c8 e5 a9 3d 07 6a e1 bc 40 91 52 3d
       0.008312049 0.082957804 -0.027516378 0.051408052
0000b0 06 1c ab bc 65 1f 50 39 90 87 69 3d 96 2e 6c bd
       -0.020887386 0.00019848121 0.057014048 -0.057661615
0000c0 45 40 28 bd 2d b6 93 3c 22 5e d1 3c c8 23 c3 bc
       -0.041076917 0.018031204 0.025557581 -0.023820773
0000d0 87 a4 f0 bd 31 a2 54 bd 6e 3a 13 3d fa 35 6a 3c
       -0.11750131 -0.05191249 0.035944395 0.014295096
0000e0 8d 81 40 3c 7c 66 83 bd 45 73 5f bd 1f 15 0e 3e
       0.011749637 -0.06416032 -0.05455329 0.13875245
0000f0 ef 56 c7 3d fe 5d a8 bd db 52 5a bc 45 9b 1c 3d
       0.09733378 -0.082210526 -0.013325418 0.038234014
000100 da 51 54 bd 6b 9c 23 be 6d 51 3a be 76 b2 30 bc
       -0.051835872 -0.15977637 -0.18195124 -0.010784736
000110 d7 14 54 3d 85 fa aa 3d a3 0b f4 bb 9b c8 0a be
       0.051777687 0.08348564 -0.0074476763 -0.13553087
000120 2b 9f 2f 3c 16 88 dd 3c d7 00 81 bd 5b 90 95 3c
       0.010719101 0.02704243 -0.06298988 0.01825731
000130 c3 1c fb bc 94 f1 b3 bd d8 cb 8d 3d 97 39 78 bd
       -0.030653363 -0.08786312 0.06923646 -0.060601797
000140 82 44 94 bd a1 aa ce 3c 6a 10 2a 3c 23 55 19 3e
       -0.07239629 0.025227847 0.01037989 0.14973883
000150 24 8a 0b 3d e0 ae ec 3b f4 b5 5c bd cf b3 84 bc
       0.034067288 0.007222995 -0.05388446 -0.01619902
000160 11 72 d7 3c 1d 51 23 be 3e 46 38 3d 6c 9a 14 bc
       0.026299508 -0.15948911 0.044988863 -0.00907002
000170 c4 70 89 bd 5a 22 58 bc 6c e8 a6 bd 1f 1a db 3d
       -0.067109615 -0.013191784 -0.081498 0.106983416
000180 de ed 17 3e 54 2e ae 3d 13 50 12 bd c1 90 8c be
       0.14836833 0.0850493 -0.035720896 -0.27454188
000190 92 a7 cc 37 5a ee bf 3c d8 20 af bb a2 e9 3c 3c
       2.4396726e-05 0.023429085 -0.0053444915 0.011530312
0001a0 85 ed 0f 3c 1b 59 a1 bc 73 34 2c 3d 3b ca ba 3c
       0.008784656 -0.01969581 0.042042207 0.02280151
0001b0 49 d1 05 bd 51 0f fc bb cc 44 a6 3d 2f ba 5b 3d
       -0.032670293 -0.0076922555 0.08118591 0.053644355
0001c0 ce 0a c1 bc aa 00 c1 3d d4 77 54 3d 42 66 b4 3d
       -0.023564722 0.09423955 0.05187209 0.08808567
0001d0 74 5a 4c 3d fb 26 0b bb 1f f2 87 3d 48 fb b3 bb
       0.04989095 -0.002123295 0.06637978 -0.0054926015
0001e0 9c 5d 80 3d 85 c3 4b bd 0e 1b 28 bd 95 b0 e9 3b
       0.062678546 -0.04974701 -0.041041426 0.007131646
0001f0 cc 20 07 bd 38 7b e1 3d 0e d4 75 bd f2 6c 34 bd
       -0.032990262 0.1100983 -0.060016684 -0.04404921
000200 33 e8 d8 bc d7 ca 2d bd dc 92 49 bd 6d 01 40 3d
       -0.026477909 -0.04242977 -0.04921232 0.04687636
000210 df 9f ce 3c 56 09 97 3c 96 94 93 bb e8 01 bd 3c
       0.025222717 0.018437069 -0.004503797 0.023072198
000220 e9 7e 1f ba 82 e6 81 3d a5 7d 4b be 6a 89 ee bc
       -0.000608428 0.06342794 -0.19872148 -0.029118259
000230 1d c3 69 3c 3b d6 80 3d 57 71 a9 3c 5d 02 76 bd
       0.01426771 0.06290861 0.020683927 -0.060060848
000240 1b a6 8c 3d 9e 19 67 bd 8e c8 b8 39 59 6c 00 3d
       0.068676196 -0.056420915 0.0003524464 0.03135333
000250 1d 44 50 3e 17 17 5e bd 2c 83 38 bd 14 07 aa 3c
       0.20338483 -0.05422124 -0.04504697 0.020755328
000260 f1 44 d7 bb 8d ad 53 3d 21 bd 9c 3d ec 93 2b bd
       -0.0065694978 0.051679183 0.07653261 -0.041889116
000270 e1 fb 53 3d a0 56 96 be 7b 8e 03 3d 60 45 38 bc
       0.051753882 -0.29362965 0.0321183 -0.011247009
000280 57 7b a5 be 61 5c 6e bd b1 b1 85 3d 2c f5 21 3e
       -0.32320663 -0.05819357 0.065280326 0.15816182
000290 78 8e 77 3c 85 dc c7 bc b6 af d8 3b dc c0 bd 3d
       0.015109651 -0.024397144 0.0066127433 0.09265301
0002a0 75 8c bd bd bd a9 ab 3d ae 10 6f bd d1 b1 12 3e
       -0.09255306 0.083819844 -0.058365516 0.14325644
0002b0 cc 47 66 3d 8d 0c 2d 3e 92 f4 99 3b 46 b4 15 3d
       0.056220815 0.16899319 0.0046983445 0.036548875
0002c0 1f a4 ee bb c8 6d 3a bb d9 d9 ca 3c 94 bb 2b bd
       -0.0072827484 -0.0028446782 0.024762081 -0.041926935
0002d0 30 0c 8b 3d c3 43 82 bd 27 f7 35 be 33 90 df bd
       0.06789434 -0.06360581 -0.17770062 -0.10916176
0002e0 7d c8 40 3b fe 6d 20 3d 93 39 c1 3d 66 5c 9c 3d
       0.0029416375 0.039167397 0.094348095 0.07634811
0002f0 4e 78 61 bd 12 a4 0d 3c 6b 38 2e bd d5 dc d8 bc
       -0.055046372 0.008645074 -0.042534273 -0.026472488
000300 4b 00 40 bc 2a 46 66 bc a5 bf 59 3d cd 23 29 bd
       -0.01171882 -0.014054814 0.053161282 -0.041293908
000310 0e d1 a9 bd be 19 f9 3c 10 84 4a 3a 69 f3 f0 3d
       -0.08291827 0.030407783 0.00077253673 0.11765177
000320 4b 32 c8 bb e1 6d ba 3d d4 7a 5d 3d e9 bc 0f 3b
       -0.006109511 0.09102989 0.054072216 0.0021932668
000330 0c 42 97 3c 72 c0 1b 3d 2a 64 d1 bc da b7 36 3d
       0.01846411 0.038025327 -0.025560457 0.04460893
000340 23 6b ad 3c 4f 1d 63 3d 33 e0 c3 3d 59 17 10 3d
       0.02116925 0.055447873 0.09564247 0.035178516
000350 a6 20 70 bd 6d 6f 10 3e d6 0d f6 3d 67 49 a1 3c
       -0.058624886 0.14105006 0.12014358 0.019688321
000360 d4 fa ef bd 82 41 a2 3d e3 db f2 bc e0 ab 7b bd
       -0.117177635 0.07922651 -0.029645866 -0.06144321
000370 cb ae c2 3d 3f ce 7e 3d b5 29 2e 3d 2a 3a 86 3c
       0.09505995 0.06220841 0.042520244 0.016385157
000380 51 a3 7f 3c 35 be 38 3d fc c2 96 bd fb 3e 42 3d
       0.0156029025 0.04510327 -0.07361409 0.047423344
000390 b2 c6 55 3d 83 cc a0 3d 1f 79 05 3e fd 7a 56 bd
       0.052191444 0.078515075 0.13034485 -0.052363385
0003a0 f0 ce 36 bd 76 4e 27 bb 55 37 e8 3d 68 82 21 3d
       -0.044630945 -0.0025528944 0.11338679 0.039431006
0003b0 26 32 c2 3d 9a 83 30 bb 93 50 df 3c 9a d7 7a bd
       0.09482221 -0.002693391 0.0272601 -0.06124077
0003c0 83 42 86 3c 92 99 37 bc a4 3d 35 bb 1a 3b 11 3e
       0.016389137 -0.011206048 -0.002765515 0.14182702
0003d0 e7 42 9c bd 6c c0 3b bc 24 bc a5 3d 06 37 5d 3d
       -0.07629948 -0.011459451 0.080925256 0.054007553
0003e0 89 87 06 3d 6d d9 53 3c 3e 5a 48 bd 4d 0d 5a bd
       0.0328441 0.012930256 -0.048914187 -0.05323534
0003f0 af d2 35 bc f1 9b 5d 3c 49 37 67 bd e1 28 3b 3e
       -0.011097594 0.013525949 -0.05644921 0.18277313

fc3.weight f4 [4, 256]
000000 6a 09 f2 3e 0c a0 86 3d 44 7d ba bc 4f 35 ab be
       0.47272807 0.06573495 -0.02276481 -0.3343911
000010 84 9d 79 3e 1c 09 0e be e4 8b 19 3f c3 1c 88 3e
       0.24376494 -0.13870662 0.5997908 0.26584443
000020 3f ae 31 bd 58 78 34 3c d6 71 6b 3e 00 40 df 3a
       -0.043379065 0.01101502 0.22992644 0.0017032623
000030 69 e2 e1 3d fb 32 e7 3e 21 c2 a8 be b3 24 7a be
       0.110295124 0.45156083 -0.3296061 -0.24428062
000040 80 53 22 be be 5d 83 3e 90 87 7a be 6d da db 3e
       -0.15852165 0.25657457 -0.24465775 0.42940083
000050 4b 5c d1 bb 6c 4a 92 3e dc 81 07 bd 97 e7 aa 3c
       -0.006389176 0.28572404 -0.033082828 0.020862384
000060 28 8e 36 be c9 34 86 3c 00 58 71 be 6a 89 f0 be
       -0.17827666 0.016382592 -0.23568726 -0.4697984
000070 04 7a 6b bd 4a 37 db 3e 30 6b 8b 3c 22 a4 e3 bb
       -0.05748941 0.4281562 0.017018884 -0.0069470564
000080 b2 ea 06 3f 58 84 3d 3d 7c 82 19 3d 98 c0 af 3c
       0.52701867 0.04626879 0.037477955 0.02145414
000090 99 dc 2e 3b d5 3b 42 be 06 e3 6a 3d 10 eb 1c 3d
       0.002668178 -0.18968137 0.057345413 0.03831011
0000a0 5a 61 0e 3d 1e 0f 8f 3e dc c2 21 bd 79 c0 da be
       0.03476081 0.2794122 -0.039492473 -0.4272497
0000b0 e1 90 cc 3c 48 8b b1 bd e4 78 b0 be b5 65 06 bd
       0.024971427 -0.08669144 -0.34467232 -0.03281184
0000c0 45 7e 28 3d 9f 68 e1 be 2c 1a 6e 3e 3f 62 07 3d
       0.041136045 -0.44025132 0.23252171 0.03305268
0000d0 2b 79 26 3d ad 8a 12 3d 7b ee c8 bb 13 9a a4 3e
       0.0406429 0.035776783 -0.0061319447 0.321488
0000e0 85 7d 5b 3d 99 bf c2 3b d0 f9 87 be 0c 7c 06 bf
       0.0535865 0.0059432504 -0.2655778 -0.5253303
0000f0 5e 5a 5d 3e c4 9a 78 3d 54 ac 40 be 15 6b 55 3d
       0.21616504 0.06069447 -0.18815738 0.052104075
000100 1d 41 9e bc dc 13 34 3b c0 58 18 3e 52 46 1a 3c
       -0.019318158 0.0027477657 0.14877605 0.00941618
000110 ad ff 86 3e e1 28 74 3e b7 de f3 bc 5d d5 4c 3e
       0.2636694 0.23843719 -0.029769285 0.20003267
000120 07 3a c2 be 10 2c 73 bd 15 fd ad bc 30 8f 4d 3c
       -0.37934896 -0.059368193 -0.021238843 0.012546346
000130 8a b4 41 3d 38 74 92 3d c8 4b 54 be da 00 1d bd
       0.047291316 0.07151073 -0.20732033 -0.03833089
000140 e9 78 88 3c 42 41 52 3e 80 49 12 3d fe 07 ee 3e
       0.016659217 0.20532706 0.035714626 0.46490473
000150 54 03 f7 3d f0 6a 51 3d 82 f9 c0 3c 03 00 9c 3c
       0.12061182 0.051127374 0.023556475 0.019042974
000160 1d f8 63 3c 33 ac 12 3e 80 a3 e0 bc 16 31 80 3c
       0.013914135 0.14323501 -0.027421713 0.015648406
000170 f9 e2 7f 3c e0 26 de 3c 81 a1 79 be 03 96 b3 3e
       0.015618079 0.027118146 -0.24378015 0.35075387
000180 3a a2 53 3e 86 97 0f be 40 96 a3 ba b8 83 6a be
       0.20667353 -0.14022645 -0.0012480691 -0.22901809
000190 e1 9c 87 3e a9 46 81 3b 3d dc a0 bd e8 8d 29 3d
       0.26486877 0.003945191 -0.07854507 0.041395098
0001a0 fa 90 95 be 33 24 46 3c 12 bd 86 be 38 34 10 bd
       -0.2921217 0.0120935915 -0.26316124 -0.03520605
0001b0 06 64 7c bd 55 a6 a5 bc 1e 3b 77 be fb 97 d5 3d
       -0.061618827 -0.020220915 -0.24143645 0.104293786
0001c0 da 50 3e 3d 64 56 9d 3e ea 01 5d 3c 93 2c 6e 3d
       0.046463825 0.30729973 0.013489226 0.058147978
0001d0 af 9f b0 3d 06 f5 af 3c 45 5e 54 be 13 42 82 3e
       0.08624207 0.021479141 -0.20739086 0.25441036
0001e0 e8 b2 94 bb 80 c2 a4 3b 04 7b eb 3c e0 c3 d9 be
       -0.004537929 0.005028069 0.028745182 -0.42532253
0001f0 b8 24 70 bc 3b b1 1b 3e c2 79 a4 3c b4 a0 07 3d
       -0.014657192 0.15204327 0.02007759 0.033112243
000200 c3 7d b8 3e 70 32 66 bd 8a 46 c7 bb 72 c0 be 3e
       0.3603345 -0.056200445 -0.006081407 0.372562
000210 46 12 1c 3e 4c 43 6b 3d 3f 9a 43 bc 66 5e 1d be
       0.15241346 0.057437226 -0.011938631 -0.15368041
000220 bc f4 92 ba 71 df 83 be ff ac 34 3e 6c 85 17 3d
       -0.0011211853 -0.2575641 0.17644118 0.036992475
000230 08 82 41 3d 4c 6e e4 be 61 14 46 3d 98 de e4 bc
       0.047243148 -0.446154 0.04835928 -0.027938172
000240 6f b5 d2 3e 9a 27 32 3d 9f c8 10 3d 50 c2 32 3d
       0.41154048 0.0434948 0.035347577 0.043642342
000250 5f 79 45 3f c0 82 0b bd 73 c5 c5 bb 84 cd a0 3b
       0.7713832 -0.03406024 -0.0060355007 0.004907312
000260 d4 6e 66 bd 14 de ce 3c 51 57 97 be 64 4a 91 bc
       -0.056258038 0.02525238 -0.29558805 -0.017735668
000270 7a 88 4d 3e 64 33 97 3e fe e9 d4 3a ee 27 6b bd
       0.20071593 0.29531395 0.0016244052 -0.057411127
000280 92 b6 39 be 6a 23 8e 3e 6b df 6e bd 23 93 5f bd
       -0.18136051 0.27761394 -0.058318537 -0.05458368
000290 9c ea e4 bd e1 b3 b7 be d3 60 bb be 69 39 a9 be
       -0.11177561 -0.35879424 -0.3659731 -0.33051613
0002a0 0e 31 e4 bc 93 1d 31 be 20 64 76 3b 56 bb 32 3e
       -0.027855422 -0.17296438 0.00375963 0.17454275
0002b0 7a 49 4b 3d cc 24 d7 3d d6 65 46 be e4 9e 7f 3d
       0.04963062 0.10505065 -0.19374785 0.06240739
0002c0 36 47 2f 3d 2e fe 7b bd 3b 5e 47 3d eb fc 8d 3c
       0.04279252 -0.0615217 0.04867385 0.017332515
0002d0 7a 29 a1 3e 84 6b 0e 3d cc f3 93 3d d2 7c 34 bd
       0.31476957 0.034770504 0.07224235 -0.04406435
0002e0 98 79 0a be e1 77 32 be db 23 87 3e 01 4d 22 be
       -0.13522947 -0.17428543 0.26394543 -0.15849687
0002f0 50 5d ba bd 73 84 53 be 4b 54 41 3d c6 57 20 bc
       -0.09099829 -0.20655994 0.04719953 -0.009786552
000300 fb 62 a3 3d 26 04 42 be 3b 8c 14 be 15 fe 78 bc
       0.079778634 -0.18946895 -0.14506619 -0.015197297
000310 a8 33 91 3c 30 52 ad 3c e2 8e 48 3e f3 e4 84 be
       0.017724827 0.021157354 0.19585755 -0.25955924
000320 cd b1 1c 3c df 26 ee 3d c8 6a c5 bd e4 62 4a 3d
       0.009563875 0.11628508 -0.096395075 0.049410716
000330 7b 5e 13 bd cc 15 1b bc 2d 4c d5 ba d5 ba 4f be
       -0.035978775 -0.009465646 -0.0016273313 -0.20286115
000340 98 be f2 bb cc 0f b7 3e a8 6b 62 3e 1f d8 29 be
       -0.0074079745 0.3575424 0.2211138 -0.1658635
000350 3d c5 93 3e b3 0e 21 3f 2e bd c1 bd 2e 6b ee 3e
       0.28861418 0.62913054 -0.09459911 0.46566147
000360 02 92 c9 bd 12 2b 77 3e d2 43 24 be fc 2d c9 bc
       -0.09842302 0.24137524 -0.16041496 -0.02455806
000370 e6 ab 12 3d 59 8d 7e 3e bf da 17 3d 85 08 8c 3c
       0.035808466 0.24858607 0.037073847 0.017093906
000380 5a a6 b9 3e a2 d1 05 3d 30 29 20 bc 9e a1 32 bd
       0.3625973 0.032670625 -0.009775445 -0.04361116
000390 a4 64 1a 3e 1d 6e 06 bf 3b 64 46 3e 93 a4 b2 3c
       0.15077454 -0.5251177 0.19374172 0.02180699
0003a0 d2 85 05 bd 20 aa 82 3b f3 25 68 be 7b a7 00 3d
       -0.032598324 0.0039875656 -0.22670726 0.03140972
0003b0 3f cc d0 3e 9a 04 7f bd e7 d3 6f be a8 f6 ed bc
       0.40780827 -0.062260248 -0.23420678 -0.029048279
0003c0 b4 03 38 be 1a 15 02 bd 9c 8b d2 3c 16 1b b9 3d
       -0.17970163 -0.031758405 0.025701337 0.09038369
0003d0 25 1e c1 bc cc 9b 27 3d 9c ae 0f 3e 79 95 3b be
       -0.023573944 0.040920064 0.14031452 -0.18318738
0003e0 69 3a 3f 3d e0 11 00 bd 3d ae c5 3c 91 a1 24 3d
       0.046686564 -0.031267047 0.024130935 0.040193144
0003f0 b0 f8 3c 3e a8 4f 87 3e a4 8a 93 bc cb dc f4 3e
       0.18454242 0.2642796 -0.018010445 0.47824702

fc3.bias f4 [4]
000000 9b d5 89 3c 21 39 0d 3d 8c b2 10 3e c1 75 45 3d
       0.016825488 0.03447831 0.1413061 0.048208002
