csv_and_models/DDQN/trained_models/DDQN_lunar_main_900.pth (torch, 279296 bytes, 6 tensors)

fc1.weight f4 [256, 8]
000000 5f 85 3a bd 04 26 62 c0 59 c7 56 3c 0a d9 80 bf
       -0.04553735 -3.5335703 0.013109052 -1.0066235
000010 3c 9c ab 3e ab eb 43 3e c7 55 80 3e 57 b6 78 bf
       0.33517635 0.19132869 0.25065443 -0.9715323
000020 10 d8 11 3e b8 9c aa bf ef a4 92 3f 1e 98 0e 3f
       0.14242578 -1.3329077 1.1456584 0.5570086
000030 14 d6 8f bf 70 c5 17 3f c9 58 49 bf 4b f5 7d be
       -1.1237206 0.5928564 -0.786511 -0.24800603
000040 61 57 de bd 5d 06 1e be d7 6d d8 3f e4 9e 03 3f
       -0.1085651 -0.15432115 1.690852 0.5141432
000050 9d 41 e2 bd 81 8b 4b 3f b3 24 ba 3e 48 a2 10 3e
       -0.11047671 0.7950974 0.36356124 0.14124405
000060 da 79 7a be 31 0a 6b be 72 c0 a5 be 5a cf 8a 3e
       -0.24460545 -0.22953106 -0.32373387 0.27111322
000070 64 88 48 3f 0a eb 76 3f 46 50 e6 3e ae 21 36 be
       0.78333116 0.9645239 0.4498312 -0.17786285
000080 da 22 1d be 2c 76 ae 3e ff 78 72 be 61 60 54 bf
       -0.15345326 0.34074533 -0.23678969 -0.8295956
000090 73 14 87 3f 9d 0a 90 bc fd b2 9c 3c 88 d6 a2 bf
       1.0553116 -0.017583186 0.019128317 -1.272172
0000a0 fd 4c 83 3d f4 49 35 c0 3a 1e 80 be 23 3c 93 40
       0.06411169 -2.8326387 -0.2502306 4.601091
0000b0 29 2d fa be 24 ee 45 bf 6f 14 6e be 70 04 34 3e
       -0.4886258 -0.773165 -0.23249982 0.17579818
0000c0 9b d8 bc be 66 5b 90 be 20 82 3c bc 33 a8 b0 be
       -0.36884007 -0.2819473 -0.011505634 -0.34503326
0000d0 de 59 23 3f 79 b3 50 3e fa 46 f6 bc 64 1e f6 bf
       0.63809 0.20380963 -0.030063141 -1.9228024
0000e0 47 6a 35 3b b5 c7 a4 bd cd 32 c9 3f 46 22 7b 40
       0.0027681754 -0.080459036 1.5718628 3.923967
0000f0 b4 af 56 be 52 00 43 3e 06 87 83 bf b9 7f 0d 3e
       -0.20965463 0.19043091 -1.0275581 0.13818254
000100 db f8 62 bf 7a 7a 89 be d9 6f 59 3e 61 72 9f 3e
       -0.88660973 -0.26851255 0.21234073 0.31141952
000110 dc 0c 78 bf 43 28 aa 3f d0 38 73 bf 13 ce 7b ba
       -0.9689462 1.3293537 -0.95008564 -0.00096055976
000120 b3 c2 71 3d 51 b9 25 3e 15 49 e0 be e7 07 80 3f
       0.05902357 0.16183974 -0.43805757 1.0002412
000130 48 78 1a 3f 18 dc 8e bd 4d 88 50 bf 86 e2 02 3f
       0.60339785 -0.06975573 -0.8145798 0.511269
000140 97 94 4f bf 76 ee a3 be 35 13 37 bf ac 17 8a 3f
       -0.81086105 -0.3201787 -0.7151368 1.0788474
000150 b0 28 86 bf 2d 84 4b 3e 05 3e 5b 3e 0b 97 de be
       -1.0481167 0.1987464 0.21410377 -0.43474612
000160 dc 31 df 3e 76 93 cb be 15 8b 60 bf a4 b6 05 40
       0.43592727 -0.3976094 -0.8771222 2.0892725
000170 65 fd 35 3f bc 70 8d bf 23 13 a2 be b9 2d 6a bf
       0.71089774 -1.1050029 -0.31655225 -0.9147602
000180 98 4f 3f 3d 14 48 35 3c b1 29 1b be 4f a6 41 bf
       0.046706766 0.011064548 -0.15152623 -0.7564439
000190 af bc a1 bf 4a e7 3b 3e 91 d0 b2 be ca 30 42 bf
       -1.2635707 0.18349949 -0.3492475 -0.75855696
0001a0 1e cb f2 bd 6a 7e 99 be bc 34 9f 3f 96 68 14 3f
       -0.11855148 -0.2997926 1.2437968 0.57972085
0001b0 34 b4 32 3f e6 8f f7 bd e5 d0 35 bf 20 30 f3 be
       0.6980622 -0.12087993 -0.7102187 -0.47497654
0001c0 f6 ae 46 3e be 7d a6 bf d5 31 82 be 72 92 05 bf
       0.1940268 -1.3007123 -0.25428644 -0.5217658
0001d0 fc e7 f5 bd 61 5f a3 bf 5e 28 74 bf c9 84 3b bf
       -0.12007138 -1.2763482 -0.95374095 -0.7324949
0001e0 f3 8a 1d 3f 54 ec 2d bd 1d fd c1 3f 2d dc b8 3f
       0.61540145 -0.04246171 1.5155369 1.4442192
0001f0 c3 a1 3a bf d3 63 98 3f 9f 84 a0 3e 74 00 79 3e
       -0.7290308 1.1905464 0.31351182 0.24316579
000200 ac 47 c6 3f dc 6b 72 be da 2c f4 bf 8b c0 21 3f
       1.5490623 -0.23673958 -1.9076188 0.6318442
000210 87 4b 40 3d 74 f5 c0 be e9 eb 01 3f ef b0 5d bf
       0.04694703 -0.37687266 0.50750595 -0.86598104
000220 0a 37 9c bd 0a 9e 36 bf 34 12 8e bd 3f 5b 66 3d
       -0.07627685 -0.713349 -0.06937066 0.056239363
000230 5a fd 9c bf 7a f5 1b 3f 51 db 8d bd 76 e7 b2 3e
       -1.2264817 0.6092144 -0.06926597 0.34942216
000240 6b f1 f0 3d cf 35 39 be 55 d4 4c be d6 2e 5d bf
       0.11764797 -0.18086933 -0.20002873 -0.8639959
000250 be e7 44 3f 03 df 20 bf b9 f5 02 bf f9 2a ac bd
       0.7691611 -0.6284029 -0.51156193 -0.08406634
000260 ba f6 18 3e a7 c8 2b bf 47 22 44 bf 2c 52 8b bf
       0.14937869 -0.67103046 -0.76614803 -1.0884452
000270 9d 6b 63 3d 08 1b 4c be 97 3b c5 be 3f 2b 05 3d
       0.05552255 -0.19932187 -0.38522026 0.032511946
000280 fe 20 f3 3f e2 f3 d3 3e a5 ed 24 3f 99 95 1b 3f
       1.8994443 0.41397005 0.64425117 0.6077514
000290 00 40 1d bf 90 2b c1 3e 9a 99 b7 3d bf dc fb bf
       -0.6142578 0.37728548 0.08964844 -1.9676741
0002a0 db 8e 8c bf d1 0d 1b bd fc ef 5e be a0 3e 93 3e
       -1.0981096 -0.037854973 -0.21771234 0.28758717
0002b0 36 64 51 be 9e 2a 72 bf b0 06 9e bc 11 58 8e 3e
       -0.20448384 -0.9459628 -0.019290298 0.27801564
0002c0 76 d4 09 be ee a0 9e 3d d9 4b 5d bf 62 5d 56 3e
       -0.13459954 0.07745539 -0.8644386 0.2093406
0002d0 99 26 d0 3f 0b 72 21 3d 76 18 f9 3e 32 fd 83 be
       1.6261779 0.0394154 0.48651475 -0.2577911
0002e0 91 f5 ca 3e c3 df db 3b 7e 8f 06 3e 4a 32 20 bf
       0.39640477 0.006710024 0.13140675 -0.62576735
0002f0 40 30 20 3f ef a0 20 be 48 bb 51 bf c3 f3 1d c0
       0.62573624 -0.15686391 -0.81926394 -2.468003
000300 ee 31 2b 3e d5 24 27 be bc 5b 13 bf dc 35 75 be
       0.16718265 -0.16322644 -0.5756185 -0.23946327
000310 db 15 82 bf 69 2a 92 be 66 9b f3 be e2 34 39 3f
       -1.016292 -0.2854798 -0.47579497 0.7234632
000320 82 cf 7d 3f a2 3f 7a 3e a5 9e c5 3e ab ec a8 be
       0.99144757 0.24438336 0.385976 -0.32993063
000330 01 32 1f bd d5 ed 9e bd af 67 28 bf bf be c4 bf
       -0.038866047 -0.077602066 -0.6578321 -1.5370711
000340 ef 84 5f 3b 96 d1 04 bc a2 96 8d bc 1c ab 00 3a
       0.0034106334 -0.00810661 -0.017283741 0.000490831
000350 8d 0a 73 c0 ae 29 44 3e 31 14 16 bb ad 6c 07 bb
       -3.797519 0.19156525 -0.0022900219 -0.002066414
000360 bf 3d 16 bc 9b 86 06 bb ff c8 8a 3c 22 d8 bc 3c
       -0.009169995 -0.0020527008 0.016941546 0.023052279
000370 0b f1 55 c0 83 44 1f bd 26 95 18 3d ca 63 26 bf
       -3.342837 -0.038883697 0.037251614 -0.64996016
000380 36 f2 b2 be eb 87 b9 3d c9 6c 8f bf 39 e6 6e bf
       -0.34950417 0.090591274 -1.1205074 -0.9332004
000390 90 34 55 be 41 1d 12 3e c0 fb b6 bf ab 58 d9 be
       -0.20820832 0.14268972 -1.4295578 -0.4245046
0003a0 e4 d0 b9 be 54 ae 28 3e 43 7f 86 bf c8 48 8c 3f
       -0.36292183 0.16472751 -1.0507587 1.0959711
0003b0 87 a8 e9 3b bc aa 57 3f 1d 12 16 3f 08 9c 4c bf
       0.0071306857 0.84244895 0.5862139 -0.79925585
0003c0 cd ac 52 bf e8 40 bd 3e bd 60 f8 be b7 c2 ac be
       -0.82294923 0.36963582 -0.48511305 -0.33742306
0003d0 45 10 40 bf 92 c3 4b 3f 5f 80 a4 bf 1c 6a fc 3e
       -0.75024825 0.7959529 -1.2851676 0.49299705
0003e0 4f dd 8c bf 6a 3a dc bf 33 f7 c6 bd b0 48 dc 3f
       -1.1005038 -1.7205327 -0.09715118 1.7209682
0003f0 c8 86 b3 3e 12 c8 8a bd e9 00 00 bf 9c 46 de 3e
       0.35063767 -0.06776442 -0.5000139 0.43413246

fc1.bias f4 [256]
000000 7d fb ce 3e 2d f4 82 be ec 18 27 3e a9 6c 81 3e
       0.40426245 -0.25576916 0.163181 0.25278214
000010 fd 1f 29 be 23 e6 35 3d 45 8f 89 bd 71 9c 3f bd
       -0.16516109 0.04440893 -0.067167796 -0.046780054
000020 22 cf 28 bc 18 45 96 3d 2b f6 62 be 18 6a 81 bf
       -0.010303291 0.07337397 -0.22164218 -1.0110502
000030 20 ae 6b bd 9b 16 2d be 0d db 8c bd 8b 64 64 be
       -0.057539105 -0.16903155 -0.06877718 -0.22303979
000040 01 6d 7e be 08 22 d6 bd 84 3b b2 bd 2c e9 11 bf
       -0.24846269 -0.1045571 -0.08702758 -0.5699642
000050 ff 0a 92 be aa 13 e0 be 67 af 34 be 75 e9 1b bd
       -0.28524014 -0.43765002 -0.17645036 -0.03806444
000060 c2 a2 09 be ff 23 ef be 3b ee 96 3b 7a b3 51 3c
       -0.13440993 -0.4670715 0.004606036 0.012799138
000070 94 40 29 be 3c bb 3a be 0c 5b 32 bf 42 38 0c 3e
       -0.16528541 -0.18235487 -0.69670177 0.13693336
000080 ff 92 17 bf 73 28 85 be f4 98 9e bd da a6 1c bf
       -0.59208673 -0.26007423 -0.07744017 -0.61192095
000090 39 e4 df 3e ee f0 e6 bb be 68 4e bc 22 25 52 be
       0.43728808 -0.007047764 -0.012598215 -0.20521978
0000a0 1c 86 0e bf a0 9f 8c 3d 33 08 61 bc ae 6b 0c bf
       -0.55673385 0.068663836 -0.013734865 -0.54851806
0000b0 de 4d ef bd 3c d7 25 3d 16 83 4e be 82 e2 fb be
       -0.11684774 0.040488467 -0.20167193 -0.4919625
0000c0 17 a2 a2 be a7 dc e5 3e cd 18 be be 30 8a 3a be
       -0.3176429 0.44894907 -0.37128296 -0.18216777
0000d0 5a 38 5a 3e 6d a8 d5 bd 85 a7 2a be 19 93 fa bc
       0.21310559 -0.10432515 -0.16665466 -0.03058772
0000e0 a2 7f 63 be c2 c7 18 bf 00 cc 11 bd ec 79 09 be
       -0.22216657 -0.59679806 -0.03559494 -0.13425416
0000f0 1a 12 34 be cc 31 52 bf 7d 97 a7 bc 29 e0 5f bf
       -0.1758503 -0.82107234 -0.020457977 -0.87451416
000100 93 59 76 bf 5f 94 b6 3c 53 91 9e be 6a ae e5 3e
       -0.9623043 0.022287546 -0.3097025 0.4485963
000110 f3 29 8f bd 6b 28 b1 be 36 70 11 be 94 9d e5 be
       -0.06990423 -0.3460115 -0.14202961 -0.44846785
000120 a7 aa 0e be 8b e9 18 3d 02 1b ce 3e 8a cf 0a be
       -0.13932286 0.0373321 0.4025498 -0.13555732
000130 47 5f 83 be 71 79 3a 3e c0 21 db bb 67 fe 81 bd
       -0.25658628 0.18210389 -0.006687373 -0.063473515
000140 d0 82 e9 3d f6 45 bb 3d 4d 57 17 3e b4 d3 90 3d
       0.11401904 0.09144203 0.14779396 0.07071629
000150 33 bc 5a 3d 86 e5 1b bf 01 80 16 bf 2d 92 3e bd
       0.053402137 -0.608971 -0.5878907 -0.046526123
000160 5b 0c b5 bd 25 af bc 3d 1d 2e 28 be 80 fd 8a be
       -0.08840247 0.09213094 -0.16423841 -0.2714653
000170 b0 83 d4 bd a5 d4 b1 be b3 4f 12 be 88 3d 21 bf
       -0.1037668 -0.34732547 -0.14288215 -0.62984514
000180 11 67 38 3c f7 b0 90 bd 2e eb 46 3e 7a 70 1c be
       0.011255042 -0.07065003 0.19425651 -0.15277281
000190 09 31 c0 be de 30 1a bf 6d ca 2f bf 10 9a db bd
       -0.3753741 -0.60230815 -0.6866825 -0.107227445
0001a0 e1 ce a5 bd 49 cb 86 3c 0b 01 92 3d e6 c3 48 bf
       -0.080961 0.016454356 0.07129105 -0.7842392
0001b0 35 63 c2 3d 53 4d 1f 3d 2d 95 72 bf 77 85 d7 bc
       0.094915785 0.0388921 -0.94758874 -0.026308758
0001c0 18 bd c9 3d bc e0 7a be 03 ec e2 be 56 42 9c bb
       0.0985052 -0.24499792 -0.44320688 -0.00476865
0001d0 74 30 90 be a3 9e 9f be e1 bf 27 bc e3 20 3b bf
       -0.28161967 -0.31175718 -0.010238619 -0.73097056
0001e0 50 23 a3 be c7 20 5d bf 2e a9 3a bf 8d 0e 00 3d
       -0.3186288 -0.8637814 -0.729144 0.031263877
0001f0 69 15 21 bf ef cc 04 bf 5d 4b 29 bf 8a f8 a2 be
       -0.62923294 -0.51875204 -0.6613062 -0.31830245
000200 d9 5e 2b 3e d8 f5 63 bf a3 b6 e7 3d f6 b9 c9 3c
       0.167354 -0.89047 0.11314132 0.024624806
000210 e5 4d bc 3c 97 a8 3f bf 92 ad 38 bf 2b 01 91 be
       0.022986362 -0.7486662 -0.7213985 -0.28321204
000220 03 07 12 3d a6 a3 9d be a7 55 30 bf c6 13 e2 3c
       0.03565122 -0.30788916 -0.68880695 0.02759732
000230 2d 9f 10 bf 0a 6a b9 bb da fa 41 bf 12 10 a6 bf
       -0.5649288 -0.005658393 -0.75773394 -1.2973654
000240 9d de aa 3d b8 66 89 be 0b f6 8e be 70 e5 b7 be
       0.08343241 -0.2683618 -0.2792209 -0.35917234
000250 38 a2 73 be 0c d2 2f 3c 22 53 26 bf 16 a4 d8 3d
       -0.2379235 0.010731231 -0.649706 0.10578172
000260 1b 2e 98 bd 68 ca 8f be 7b ec b0 be 2d 3c 42 be
       -0.07430669 -0.2808411 -0.3455542 -0.18968268
000270 0c 2b f0 3e 93 bc 84 bf e5 cf 25 be 96 fa 0e be
       0.46907842 -1.0370048 -0.16192587 -0.13962778
000280 2e 60 76 3e f5 51 d0 3d 3a 35 fd bc 66 b5 29 be
       0.24060127 0.10171882 -0.03090917 -0.16573104
000290 9a 30 90 be 15 40 1b bf 7c 07 3c 3c 44 b1 11 be
       -0.2816208 -0.60644656 0.011476394 -0.14227778
0002a0 3a 81 36 bf fd 27 dc bd 6f 08 36 bf a7 47 f2 bd
       -0.71290934 -0.10749815 -0.7110662 -0.11830073
0002b0 a7 20 84 be 89 25 0e bf 83 b5 b7 3e b4 18 f2 bd
       -0.25806162 -0.55526024 0.3588067 -0.11821118
0002c0 33 37 f7 bd 58 84 55 bf 12 4e aa bd e5 bd 8f 3e
       -0.12071075 -0.83405066 -0.08315672 0.28074566
0002d0 59 13 7f 3d f0 a6 36 bf 64 d7 05 3c ce 0b 05 bf
       0.06227431 -0.71348476 0.008169029 -0.5197114
0002e0 a3 c3 c1 3c 11 5a 4c bc b4 b7 6c 3c 17 d1 d0 be
       0.023652857 -0.012472645 0.014448095 -0.40784523
0002f0 a3 8e 30 be f4 8a a5 3e cd 0e c7 3d 47 4e b8 be
       -0.17241912 0.32332575 0.0971962 -0.3599722
000300 b8 0d 00 be 01 21 93 be 20 f9 79 be 1f 92 00 bf
       -0.12505233 -0.28736117 -0.2441144 -0.50222963
000310 62 c7 f6 3d 65 d8 84 be 8a 53 79 be 1c cb 9c 3d
       0.12049748 -0.25946346 -0.24348274 0.076559275
000320 88 c4 8a 3d 8c ce 87 bd 0a 75 f9 be 27 ec a0 be
       0.067757666 -0.066311926 -0.48722106 -0.3143017
000330 fc 6f 9c bf 9a e1 03 be e3 29 9c bd 04 a1 c5 be
       -1.2221675 -0.12879029 -0.07625177 -0.38599408
000340 e2 57 01 bf bb b3 8d 3e 65 9f d7 3a b8 6e 85 be
       -0.50524724 0.27676186 0.0016450702 -0.26061034
000350 c5 a1 ad be aa b7 2f bf 5e 16 16 bf 18 4d 32 be
       -0.33912483 -0.68639624 -0.5862788 -0.17412221
000360 f9 cf 33 3c 03 b9 86 3e ec db 02 bf a8 6b ab 3e
       0.0109748775 0.26313028 -0.51116824 0.33480573
000370 06 9d dd be 4a 5b 28 bf 41 fe 25 bf bd 8b ed bd
       -0.43283862 -0.65764296 -0.64841086 -0.115989186
000380 7d f3 35 bf f1 1e b8 bd df 79 06 3e a7 63 31 3c
       -0.7107466 -0.089902766 0.13132428 0.010826982
000390 5d 33 84 3d 13 34 eb bd b4 40 12 be b9 e3 51 be
       0.06455109 -0.11484542 -0.14282495 -0.20497026
0003a0 f2 0b 3e be 6f b6 00 bd e9 2d 35 bf 67 5b 70 3d
       -0.18559244 -0.031423982 -0.7077318 0.058680918
0003b0 27 47 1d bd ee c8 85 3e f9 da 8b be a9 e7 a9 be
       -0.038397934 0.2612986 -0.273155 -0.33184555
0003c0 0b f6 35 bf 7a 33 e8 be 8f 57 30 3d 9b dc bf be
       -0.71078557 -0.45351774 0.043052252 -0.37472996
0003d0 e9 1c f9 be 0d b5 0e be ea c8 7a 3e 32 d9 4c be
       -0.4865487 -0.13936253 0.24490705 -0.20004728
0003e0 dc 2d 8f 3e 1b fe 9d bd 62 fd fe 3d 39 b3 bc 3b
       0.27964675 -0.077144824 0.12450673 0.0057586697
0003f0 52 bb 75 be 0c 77 04 3e 28 24 67 be 66 56 cc be
       -0.23997238 0.12936038 -0.22572386 -0.39909667

fc2.weight f4 [256, 256]
000000 7e 3c d0 3e 78 69 72 be 06 2c 6e 3f db 2f 6d be
       0.40671152 -0.23673046 0.93035924 -0.23162787
000010 d3 21 81 3d 51 71 16 3f 3c 49 b3 bd 26 e5 31 be
       0.063052796 0.5876666 -0.08754203 -0.1737257
000020 c8 55 d3 bd 04 5f 87 3e 22 99 14 3f 65 19 bf be
       -0.10319096 0.2643968 0.5804616 -0.37324062
000030 db b1 c8 3d 49 80 72 be 41 9d 87 3d a4 c6 c2 bd
       0.09799548 -0.2368175 0.06621791 -0.09510544
000040 d6 9f 73 3f 9e 11 c1 bc aa 28 b9 3d 96 0a 64 3c
       0.95165765 -0.02356797 0.09040959 0.0139185395
000050 e2 6d 82 3f 49 e9 f9 3e 76 b3 b9 be f0 98 4b 3e
       1.0189784 0.48810795 -0.3626973 0.1988256
000060 63 dc d2 3d 43 f0 85 be 6f e1 91 3e 77 c6 78 3e
       0.10295942 -0.26159868 0.28492305 0.24294458
000070 88 c2 a5 3e 43 f6 82 bf 79 54 70 bf b5 6f 19 3f
       0.32374978 -1.0231403 -0.93878895 0.59936076
000080 c4 a1 9b bf 2f 5f 3b 3e fa 8f 54 3e 28 5f 16 bf
       -1.2158742 0.18298028 0.20758048 -0.58738947
000090 1a 2d b1 3d ca 6a 01 3f 13 97 9d 3e 78 02 a8 bd
       0.086511806 0.5055357 0.30779323 -0.08203596
0000a0 14 b8 80 be 9a 78 0f bf 26 51 90 3e ca 1f ee be
       -0.2514044 -0.560434 0.2818691 -0.46508628
0000b0 ad 6d 04 3f 06 b7 1a bf fc e3 cd 3e 07 44 cd 3e
       0.5172985 -0.6043552 0.40213 0.40090963
0000c0 7b da 91 3d 5b 2a 98 3f a5 31 fd be 40 3b 81 3e
       0.0712175 1.1887926 -0.49451938 0.25240517
0000d0 ed e5 2f 3f 99 9f 8b 3e 2f e0 57 bf 11 0e 90 3c
       0.68710214 0.272702 -0.8432645 0.017584832
0000e0 04 3d 4d 3d 6b 26 9f 3e 69 0a 21 3e 8d 59 89 3e
       0.050107017 0.31083998 0.15726627 0.26826134
0000f0 77 7b e9 3e e7 80 d3 bf bb ac 37 3e 6b 58 2d 3f
       0.4560201 -1.6523713 0.17936985 0.6771304
000100 f6 06 98 bf 35 8e a6 3f 21 db 49 bf ef fd bd 3e
       -1.1877124 1.3012148 -0.7884999 0.37107798
000110 de 20 30 3f be 33 ee be 63 67 83 be ef 0a 2c be
       0.6880015 -0.4652385 -0.25664815 -0.16801046
000120 b5 e3 78 bd 9e 9a 32 3f 88 74 e7 3e 6f 8d f2 3e
       -0.060764033 0.6976718 0.45206094 0.4737353
000130 56 f4 a8 be 4a ca 96 3e 46 16 12 bf 47 c5 c5 bd
       -0.32998914 0.2945121 -0.57065237 -0.09656768
000140 e9 9f 4b be a7 07 17 3d 00 45 4c be 8b 86 20 3f
       -0.1988522 0.036872532 -0.19948196 0.62705296
000150 9e 4e 90 be 67 be f7 3e 74 7c 74 bf 1b da 37 3f
       -0.2818498 0.48387453 -0.955024 0.7181718
000160 ad a7 6d 3e e0 9c d3 be b5 50 3d bf 78 d0 9b 3e
       0.23208494 -0.41330624 -0.73951274 0.30432487
000170 25 cc cc 3e 22 e1 f9 be bd 52 a4 bd 5f 5c 2d be
       0.399995 -0.48804575 -0.080235936 -0.16929768
000180 54 8f 7b 3f cf f0 3a 3e 68 8a cc 3e 5f 49 2a 3e
       0.98265576 0.18255924 0.39949346 0.16629551
000190 e2 d1 a2 be 86 aa 57 3f dd 4f c6 bf f1 b1 af bf
       -0.31800753 0.84244573 -1.5493122 -1.3726178
0001a0 9e fc 15 bf 9d a9 02 3d fb 54 fd 3e eb 94 22 3e
       -0.5858859 0.031900037 0.49478897 0.1587712
0001b0 db 21 7d 3d 8d 3f 1a 3f 5f df 2f bf 12 f6 b3 be
       0.061799865 0.6025322 -0.6870021 -0.35148674
0001c0 65 63 46 3f 83 30 f4 3e dc a4 9e 3e 5a 07 64 3e
       0.77495414 0.47693262 0.30985153 0.2226843
0001d0 1c c6 06 3e 11 c2 47 bf 85 6a fc 3d 40 f8 f4 bf
       0.1316151 -0.78030497 0.123250045 -1.913826
0001e0 36 b5 cb be 6a d4 0b be d1 4d b6 3e 4d 6d cd be
       -0.3978669 -0.13655248 0.35606244 -0.40122452
0001f0 71 d6 95 be 20 f7 c1 3e fb 22 37 bf 95 84 85 bf
       -0.29265168 0.37883854 -0.7153775 -1.0431086
000200 77 df ce b9 4b 9c 90 3f 0e ea b2 3e cd d4 1a 3f
       -0.00039457876 1.1297697 0.34944195 0.6048096
000210 2c 0e 8b be 61 d9 71 bf bb 68 b5 be d6 2b 26 3f
       -0.2715925 -0.9447232 -0.35431466 0.6491064
000220 90 72 08 bf f7 04 ae be 45 74 b6 bf a1 10 e1 bf
       -0.5329981 -0.33988163 -1.4254233 -1.75832
000230 ac 1c a2 be 6b fc 02 3f 47 8a d3 be 83 c9 76 be
       -0.316625 0.5116641 -0.41316435 -0.24100308
000240 33 d3 92 be af 99 84 3d 55 49 d8 bd 8a fc 9d 3e
       -0.28676757 0.06474625 -0.10560862 0.30856735
000250 97 f0 8c bf eb 20 17 bf 44 d5 5f bf 8c 77 db be
       -1.1010922 -0.59034604 -0.8743479 -0.42864645
000260 3e 22 a7 bb 9e c0 ce bd 4e 14 4a bf 5c f1 d8 bd
       -0.0051005175 -0.100953326 -0.7893723 -0.10592911
000270 b8 c7 01 3e df 11 80 be 8a 9c f1 3e 61 6a d8 be
       0.12673843 -0.25013635 0.47189742 -0.4226866
000280 e4 cd cc bf a1 8e 18 bf d1 71 79 3e 95 d8 af be
       -1.6000333 -0.59592634 0.24359824 -0.34344926
000290 be ae bf 3e 50 74 2b be 06 5a 35 be b6 a7 42 3f
       0.37438005 -0.16743588 -0.17710122 0.76037157
0002a0 5e 7b 8b bf 9e 3d 0d bf 2a 4c 81 bf 59 ae 99 be
       -1.0897024 -0.55172145 -1.0101368 -0.3001583
0002b0 40 26 5b bb 3d 87 a3 3f 39 77 7e 3f 34 2c ee bd
       -0.0033439547 1.2775646 0.9940067 -0.11629525
0002c0 76 8e ec bd f6 42 16 bf 5b 85 1a 3e 05 31 0a 3e
       -0.1155061 -0.58695924 0.15089934 0.13495262
0002d0 27 ae 30 bf 3f a9 ac bf c9 04 87 3d b4 36 46 3f
       -0.69015735 -1.348915 0.065927096 0.7742722
0002e0 b8 07 05 3e 5f e8 91 3d ba af 09 bf 62 7f 2c 3d
       0.12991226 0.071243994 -0.5378376 0.04211367
0002f0 01 11 b3 be fd 1a 2c 3e a3 3b 60 3e d4 42 0a 3f
       -0.3497391 0.1680717 0.2189775 0.5400822
000300 93 4b 06 bf 7a ae 90 3e a9 f7 89 3e 82 f6 de 3e
       -0.5245907 0.28258115 0.26946762 0.43547446
000310 9a 0c 93 be 0e 3b cf be 8c db 6f 3e cf 3a 06 bf
       -0.28720552 -0.40474743 0.23423594 -0.52433485
000320 b3 ff 5d be f2 23 35 bc 30 0f 3d bf 81 31 27 3e
       -0.21679573 -0.011055933 -0.738513 0.16327478
000330 88 73 b8 3f 1b 3c 8f be 59 1f de be c0 43 df be
       1.4410257 -0.27975544 -0.4338329 -0.43606377
000340 ff fb 4c 3e a5 67 72 3f 99 54 05 3f 33 94 ab bf
       0.20018004 0.946894 0.5208221 -1.3404602
000350 50 34 0a be f6 1f 98 3f 3a af 0d 3f ce ae 95 be
       -0.13496518 1.1884754 0.553455 -0.29234928
000360 f5 c2 a9 3e 9a 07 b9 be 47 3d 01 3e f9 84 d2 3e
       0.33156553 -0.36138612 0.12621032 0.41117075
000370 9c 74 fb be 92 eb 9a bf 49 93 11 bd 19 6f 93 bd
       -0.49112403 -1.210314 -0.035540853 -0.071989246
000380 b0 3b 19 bf 35 11 ba 3e 3b 6b ad 3e a6 f9 3b bf
       -0.598567 0.36341253 0.33870873 -0.7342781
000390 b7 51 99 3e d0 83 0f be 47 a5 8d bd e2 03 c7 be
       0.29945156 -0.14015126 -0.0691629 -0.3887015
0003a0 ac d2 03 bf b8 84 22 3f 05 3d fd bc 7a 1a ae bf
       -0.51493335 0.6348376 -0.030912885 -1.360183
0003b0 3f 0d a0 3e 72 5c e5 3e 41 dc 12 3f bf 53 3a 3f
       0.31260106 0.44797093 0.5736733 0.72784036
0003c0 ab b0 36 bf 8c 08 43 bf 68 e3 68 be 70 cd c3 3e
       -0.71363324 -0.76184916 -0.22742999 0.38242674
0003d0 36 33 6c 3c 6f d1 b3 3e 79 60 4c 3f fe 19 3e 3e
       0.0144165065 0.35120723 0.79834706 0.18564603
0003e0 1e 9c 0c be 45 77 c3 3e 51 a9 19 3f a9 cb 31 bd
       -0.13731429 0.38176933 0.6002398 -0.043407116
0003f0 45 ca 8b bc 1b f1 40 3e 38 19 35 be 4f 67 6a 3f
       -0.017064223 0.18841974 -0.17685401 0.91563886

fc2.bias f4 [256]
000000 30 2f c2 3e 07 19 44 3e 8b 70 39 bd b9 25 38 3d
       0.37926626 0.19150172 -0.045273345 0.04495785
000010 21 a0 9a 3e 33 ad 24 3e a2 ff 00 bd bf e5 83 3e
       0.30200294 0.16081695 -0.03149379 0.2576122
000020 bd cc ac bc c3 14 22 ba ea 12 c4 3e 34 46 53 bd
       -0.02109372 -0.00061829033 0.3829568 -0.051580623
000030 05 a9 4a 3d 80 a2 92 3e 71 d7 89 bf 71 41 e7 3c
       0.049477596 0.28639603 -1.0768872 0.028229447
000040 34 39 f0 3d 19 a1 e4 3e 6b d5 19 bf 59 56 d5 3e
       0.11729661 0.44654158 -0.60091275 0.4166744
000050 b9 b8 b4 3c 92 93 8e 3e 5d 0c 98 3c 8d 0f b4 bd
       0.022060739 0.27846962 0.018560583 -0.087920286
000060 0e d5 94 bd 75 fa a8 ba ef d7 df bd 69 ed 59 be
       -0.072671995 -0.0012892025 -0.10929858 -0.21281971
000070 3e 64 78 bd ad a9 98 3e 9c b0 ad bd 3b 40 ad bd
       -0.060642473 0.29816952 -0.08480951 -0.084595166
000080 b1 4d 8c 3e 2a a5 9a 3d 9b 07 1d bd cd 4b bc bc
       0.27403024 0.07551034 -0.03833733 -0.022985363
000090 b7 aa a3 bf 0a 89 e1 3c ac 3d 73 3c 5e 0a c4 bc
       -1.2786473 0.027531166 0.014846247 -0.023930725
0000a0 84 bc bf bc 07 4d a6 3e 07 6a e1 bc 0d 8a 13 bd
       -0.023405321 0.32480642 -0.027516378 -0.036020327
0000b0 3d 9e 57 bd 2c 91 e5 be 4e 2d ef be 67 1b b7 bd
       -0.052641142 -0.4483732 -0.46714252 -0.089407735
0000c0 59 26 95 bd 4a 3c 10 be 63 e1 1b 3f 20 98 63 bd
       -0.07282705 -0.14085498 0.6089079 -0.055565
0000d0 24 9c 09 bf 39 5a ab bd df 54 4d bc 87 4d 05 3f
       -0.53753877 -0.08366818 -0.012532442 0.5207142
0000e0 7f 20 a3 bc 7c 66 83 bd 04 15 bc be 37 df a2 be
       -0.019912956 -0.06416032 -0.36734784 -0.31810924
0000f0 40 86 bc 3e fe 5d a8 bd 4c fc ae be 1a b6 dc bc
       0.36821175 -0.082210526 -0.34176862 -0.026942302
000100 9c 59 70 bb e0 13 e8 be a3 8f 3d 3d b7 01 2e bd
       -0.0036674505 -0.45327663 0.04627956 -0.042482104
000110 f8 7c ee 3e 75 d2 ac 3e 27 07 1b bd 8f 24 87 bf
       0.4657972 0.33754316 -0.037848618 -1.0558032
000120 c0 32 2a bd f9 1d 2d 3c b1 63 a7 bd 46 fa 5c bc
       -0.041552305 0.010566228 -0.081733115 -0.013487404
000130 13 17 ca bd a6 93 19 bf 3c d7 4b 3e 67 22 bd bd
       -0.09867682 -0.5999092 0.19906324 -0.09235077
000140 65 35 d5 bd c2 13 b7 3e 88 13 af bc 22 f8 ee 3e
       -0.10410575 0.35757262 -0.021371618 0.46673685
000150 c4 af 62 3d 79 5b 90 bc 6d 06 99 bd 1a a2 50 bd
       0.055343404 -0.017621743 -0.07471929 -0.050935842
000160 b1 46 f0 bb c2 ef 30 be 72 06 67 3c 6c 9a 14 bc
       -0.007332646 -0.1727896 0.014100658 -0.00907002
000170 37 74 ca bd 5a 22 58 bc 38 b6 03 bf 59 8e fb 3e
       -0.098854475 -0.013191784 -0.5144992 0.4913204
000180 59 67 bb 3e 6f fa 10 be 13 50 12 bd 3b 17 8b 3d
       0.36602286 -0.14158033 -0.035720896 0.0679154
000190 e0 89 03 3f ca 61 0c bd d8 20 af bb 08 ea 3a bd
       0.51382256 -0.034272946 -0.0053444915 -0.045633346
0001a0 bd 02 59 bd 18 a5 66 bd b8 c8 e5 bd 5b a4 71 3e
       -0.052981127 -0.05630979 -0.11219925 0.23597853
0001b0 fd ac 86 bd 51 0f fc bb a7 7a f4 3d 97 8d ab 3e
       -0.06575964 -0.0076922555 0.119374566 0.33506462
0001c0 e4 8b 62 bd 7d 9b cd be 6b b0 91 3d 5f 99 ee 3e
       -0.05530919 -0.4015769 0.07113727 0.46601388
0001d0 1a 14 69 bf 06 a2 0a bd b8 4e e3 bd 43 fc 9b 3e
       -0.910463 -0.033845924 -0.11098999 0.30465898
0001e0 b8 f1 0f bd c2 6a f5 bd e4 21 61 bd c0 cb 80 bd
       -0.03514263 -0.11983253 -0.05496396 -0.06288862
0001f0 fe 51 30 bd 09 66 c5 3e 60 a6 bb bd aa 3a 9b bd
       -0.043046944 0.3855441 -0.09162593 -0.07579549
000200 77 e6 99 bd 67 e0 97 bd dc 92 49 bd ed 0c cb 3e
       -0.07514661 -0.07415848 -0.04921232 0.396583
000210 69 7d 87 3e f4 b1 54 bc ae a1 46 bd 28 ac 2b be
       0.26462868 -0.01298188 -0.048494034 -0.16764891
000220 47 57 04 bd 57 26 5d be 69 c8 25 be 3f 0e 9e bd
       -0.032309797 -0.21596657 -0.16189732 -0.07717561
000230 99 05 80 bd b8 61 91 3d b8 42 bf bb 4b 81 5f be
       -0.06251068 0.070987165 -0.005836811 -0.21826665
000240 6c 37 0e 3f 39 9e e0 bd b5 95 00 bd dc 1a 30 bc
       0.5555332 -0.109676786 -0.03139277 -0.010748591
000250 6f 64 06 3f 96 fc af bd 74 65 7d bd f9 f9 32 bc
       0.52497 -0.08593099 -0.06186433 -0.010923856
000260 d9 8a 72 bd 08 65 f1 be 34 0d 4f 3d 89 03 b9 bd
       -0.059214447 -0.47147393 0.0505497 -0.090338774
000270 46 6f bd 3d c2 11 26 be eb 56 02 3a 19 b2 5d bd
       0.09249739 -0.16217712 0.0004972058 -0.054124925
000280 57 7b a5 be a2 67 39 3e 74 f0 10 be 8f a5 cd 3e
       -0.32320663 0.18105939 -0.14154226 0.40165374
000290 a6 f3 8f 3e a0 dd ab be 97 09 8e be a0 bf 4b 3e
       0.28115577 -0.33567524 -0.2774169 0.19897318
0002a0 f2 b2 fe bd cb 1e 1a be a7 00 b8 bd ca 64 24 3d
       -0.12436475 -0.15050809 -0.089844994 0.040135182
0002b0 c5 33 fd 3b fb 69 bd 3e 49 87 ef be 22 15 9d 3b
       0.0077271187 0.3699492 -0.46782902 0.004793779
0002c0 1f a4 ee bb a2 e1 e0 3d d9 d9 ca 3c 4e 63 b3 bd
       -0.0072827484 0.10980536 0.024762081 -0.08759175
0002d0 ce 40 16 3f da b1 c0 bd a2 4b 81 be 75 f3 54 bf
       0.58692634 -0.094089225 -0.25253016 -0.83183986
0002e0 d7 4d 6e 3e b9 74 a7 3e 81 7f 20 3e d3 55 80 be
       0.23271881 0.3270624 0.15673639 -0.2506548
0002f0 65 00 05 bf 9f cf b8 be f2 20 98 bd d5 dc d8 bc
       -0.51953727 -0.36095902 -0.07428159 -0.026472488
000300 5a 28 de 3e ae e4 a7 be 20 f9 9b bd cd 23 29 bd
       0.4339016 -0.32791656 -0.07615876 -0.041293908
000310 0e d1 a9 bd e2 d4 98 bb 14 8d 41 3e 37 48 8d 3d
       -0.08291827 -0.0046640495 0.18901473 0.068985395
000320 d4 52 1a bd da 55 c4 3d f5 13 f8 3e e9 c4 c1 bc
       -0.037676647 0.095866874 0.48452726 -0.023653464
000330 10 f5 05 bc 72 c0 1b 3d 90 32 85 3e d7 99 e7 3d
       -0.008176103 0.038025327 0.2601514 0.113086395
000340 ab 08 bf bb e8 89 03 3f cb 77 b1 3e 1e 66 41 3d
       -0.0058298907 0.51382303 0.34661707 0.047216527
000350 58 d6 67 be ea 41 df 3e 17 cc c6 3e 2f 99 0d 3e
       -0.2264036 0.43604976 0.38827583 0.13827966
000360 99 c6 9c be 55 39 f6 3d e2 c8 09 3e e0 ab 7b bd
       -0.30620268 0.12022654 0.13455537 -0.06144321
000370 61 5d 8d 3e 87 96 16 3e e1 73 29 bd d9 eb 5b bc
       0.27610305 0.14705859 -0.041370276 -0.01342293
000380 d0 ee 80 3e 20 1b 3f 3e fc c2 96 bd dc 86 2b 3c
       0.251822 0.18662691 -0.07361409 0.010469165
000390 fb 49 67 3e bc 6e b7 be 18 40 dd 3e b0 21 c4 bd
       0.22586815 -0.3582667 0.43212962 -0.09576738
0003a0 f0 ce 36 bd 89 18 13 bd 9c 8d b9 be 77 fb 85 3d
       -0.044630945 -0.03591207 -0.36240852 0.06542104
0003b0 0b e6 46 3e f5 6e a0 bd 22 7e d8 be 9a d7 7a bd
       0.19423692 -0.078336634 -0.42283732 -0.06124077
0003c0 f6 2d 20 3e f4 ed 2f bd a4 3d 35 bb 47 8c 11 bd
       0.15642533 -0.04295154 -0.002765515 -0.03553417
0003d0 e7 42 9c bd 62 b6 95 bd 70 b3 cf 3d d0 50 be bd
       -0.07629948 -0.073101774 0.10141647 -0.092927575
0003e0 f7 42 f4 3b dd 46 c4 bc 3e 5a 48 bd 38 10 ae bd
       0.007454272 -0.023959571 -0.048914187 -0.08499187
0003f0 51 b0 29 3e 0c bb a2 3c 49 37 67 bd e8 63 ca 3e
       0.16571166 0.019864582 -0.05644921 0.39529347

fc3.weight f4 [4, 256]
000000 23 d1 07 3f da 59 43 3f 44 7d ba bc 0c ac 16 bf
       0.5305349 0.7630898 -0.02276481 -0.5885627
000010 da 88 2b 3f a3 e2 95 3f 1f a7 d5 be a0 ec 13 3e
       0.67005694 1.1709789 -0.41729066 0.14445734
000020 3f ae 31 bd 58 78 34 3c eb be 1a 3e 00 40 df 3a
       -0.043379065 0.01101502 0.15111892 0.0017032623
000030 ab 13 76 bd e1 9f a4 3f 5d 11 a1 be d8 1e 51 bf
       -0.06007735 1.2861291 -0.3145856 -0.8168769
000040 17 bd 73 bf d6 5c be 3e 7d 08 86 bf f4 44 3a 3f
       -0.95210403 0.37180203 -1.047134 0.72761464
000050 4b 5c d1 bb 91 c3 ec 3e 58 21 ce 3c 72 28 9c 3d
       -0.006389176 0.46242955 0.025162384 0.07624902
000060 0a 5f 82 bf c9 34 86 3c f2 f2 16 bf 3b 57 83 bf
       -1.0185254 0.016382592 -0.58964455 -1.0260996
000070 31 18 08 bd 64 80 40 3e 37 08 53 bc 22 a4 e3 bb
       -0.033226196 0.18798977 -0.012880377 -0.0069470564
000080 f0 8b 27 3f 7b c0 58 3f 27 9b b8 bc 98 c0 af 3c
       0.654479 0.846687 -0.02253492 0.02145414
000090 35 84 5b bf 04 2c 93 3c 06 e3 6a 3d 39 05 6a 3c
       -0.85748607 0.017965324 0.057345413 0.014283472
0000a0 5a 61 0e 3d f0 83 88 3e dc c2 21 bd a7 c1 c3 bf
       0.03476081 0.2666316 -0.039492473 -1.5293473
0000b0 e1 90 cc 3c 9d a4 ab 3e 57 4a bb be 71 de 8a ba
       0.024971427 0.33524027 -0.36580154 -0.0010594857
0000c0 f5 d9 19 3c cb f2 3e bf 25 aa 18 3e 3f 62 07 3d
       0.009390344 -0.7458922 0.14908655 0.03305268
0000d0 03 ad a1 3f ad 8a 12 3d 04 92 a0 3e ad aa 07 3f
       1.2630924 0.035776783 0.313614 0.52994806
0000e0 85 7d 5b 3d 99 bf c2 3b ed 51 b1 bf 41 c2 e8 3b
       0.0535865 0.0059432504 -1.3853127 0.007103235
0000f0 06 d1 90 3e c4 9a 78 3d 25 b9 f6 be 56 1b cc 3c
       0.28284472 0.06069447 -0.4818813 0.024915379
000100 f5 22 00 bf 9d d9 c4 be a3 3d 87 be c0 c7 b5 bc
       -0.5005334 -0.38447276 -0.26414213 -0.022189975
000110 67 06 fd 3e 44 6d 21 3e b7 de f3 bc 07 b6 92 bf
       0.49418947 0.15764338 -0.029769285 -1.14618
000120 03 e8 00 bf 43 34 44 3d 6a 02 40 3a 30 8f 4d 3c
       -0.5035402 0.047901403 0.00073245785 0.012546346
000130 f2 ea 9c bd d0 4c df 3e e8 2d 11 bf 03 2f e7 bb
       -0.07662 0.4361329 -0.5671067 -0.007055165
000140 e9 78 88 3c 7b d9 2d bd 80 49 12 3d e6 58 d7 3e
       0.016659217 -0.042443734 0.035714626 0.42060012
000150 60 60 15 3f bd 46 96 3c d9 85 62 3d 45 20 09 3d
       0.5835018 0.018344278 0.05530343 0.03347804
000160 fe 95 6e 3d 88 64 90 be 80 a3 e0 bc 16 31 80 3c
       0.058248512 -0.282017 -0.027421713 0.015648406
000170 f9 e2 7f 3c e0 26 de 3c 07 09 e9 bd 4e ea e2 3e
       0.015618079 0.027118146 -0.11378675 0.44319385
000180 20 6d 0a 3e 50 3a 94 be 40 96 a3 ba 8c 89 dd be
       0.1351819 -0.2895074 -0.0012480691 -0.43269002
000190 a9 38 20 3f c6 41 aa bc 3d dc a0 bd 72 53 1e 3c
       0.62586457 -0.020783316 -0.07854507 0.00966345
0001a0 7f df 83 bd 87 f2 b1 3d 4b ea 93 be 85 43 5b 3e
       -0.06439113 0.086888365 -0.2888969 0.21412475
0001b0 70 2b 73 bd 55 a6 a5 bc 90 83 6b bf 53 75 d6 3e
       -0.059367597 -0.020220915 -0.91997623 0.41886386
0001c0 da 50 3e 3d 0c 12 4a 3e 24 39 be 3e 7d 0d e8 3e
       0.046463825 0.19733447 0.3715297 0.4532279
0001d0 40 ce b8 3e 06 f5 af 3c 61 cc ed bd c7 27 92 3e
       0.36094856 0.021479141 -0.11611248 0.28545973
0001e0 3b 10 6f 3f 24 89 ce 3c 67 70 44 bb f1 4c 40 bf
       0.9338414 0.025211878 -0.0029974224 -0.75117403
0001f0 a1 80 90 3f 4a ef 8d 3e e0 3d e1 bb c1 20 22 3c
       1.1289254 0.27721626 -0.006873831 0.009895504
000200 0a 4a 11 3f 70 32 66 bd 8a 46 c7 bb 69 df 3a 3f
       0.567536 -0.056200445 -0.006081407 0.72997147
000210 eb fc a6 3e 4c 43 6b 3d da 9c 18 3c 79 6b 62 be
       0.32614836 0.057437226 0.00931474 -0.2211131
000220 bc f4 92 ba b6 a3 de bf e0 fd 81 be 29 18 2a 3c
       -0.0011211853 -1.7393711 -0.25389004 0.010381737
000230 74 7b 09 bb 8d 4f 1f bf 61 14 46 3d 35 4d b8 bc
       -0.0020978125 -0.6223076 0.04835928 -0.022497753
000240 74 c8 26 3f d8 f7 54 3d 9f c8 10 3d 52 82 b9 bb
       0.6514962 0.051994175 0.035347577 -0.0056612873
000250 ff 41 21 3f c0 82 0b bd 88 17 88 3d 84 cd a0 3b
       0.6299133 -0.03406024 0.06645113 0.004907312
000260 fe be b7 3b 4c 44 24 3f cf 1e bf bf a6 34 0a bd
       0.005607485 0.6416671 -1.4931277 -0.033741616
000270 82 8b a4 3e 09 9c 91 3f fe e9 d4 3a 37 06 c1 3b
       0.32137686 1.1375743 0.0016244052 0.0058906334
000280 92 b6 39 be 65 7e 7c bf dd e3 33 3f ed 03 5a bf
       -0.18136051 -0.9863036 0.70269567 -0.8516224
000290 7e 47 3d bf 8e c6 05 c0 dd ad 26 bf 87 26 52 bf
       -0.73937213 -2.0902438 -0.65109044 -0.8209004
0002a0 6e 35 80 3b 3d 8c ec be 20 64 76 3b 0d f2 cf 3e
       0.0039126193 -0.46200743 0.00375963 0.40614358
0002b0 45 bc 92 3c fb c6 26 3e 0d b5 26 bf 5d e2 fc 3c
       0.01791204 0.16286843 -0.6512001 0.030869657
0002c0 36 47 2f 3d 1c 00 d3 be 3b 5e 47 3d 8a 14 f4 3c
       0.04279252 -0.4121102 0.04867385 0.02979495
0002d0 ae bf 17 3f 82 94 7d 3d 5d 84 0d 3f ba b6 6f bf
       0.59276855 0.061909206 0.55280095 -0.93638194
0002e0 66 c5 04 bf b7 c9 4d bf 46 5a 2f 3e d9 94 cc be
       -0.51863706 -0.8038592 0.1712428 -0.39957312
0002f0 b0 de 35 3f c3 21 05 be 0b 33 80 3c c6 57 20 bc
       0.7104292 -0.1300116 0.01564934 -0.009786552
000300 33 c9 1a 3f c0 8d 06 bf af b1 5e 3f 15 fe 78 bc
       0.60463256 -0.52560043 0.86989874 -0.015197297
000310 a8 33 91 3c d9 86 57 3d 4e c9 e1 3e 41 34 56 3f
       0.017724827 0.052618835 0.44098896 0.83673483
000320 cd b1 1c 3c 9e 6c 8e be ca a7 f0 bf 3f 5f 91 3c
       0.009563875 -0.27817243 -1.8801205 0.017745612
000330 39 b4 8f bb cc 15 1b bc c3 af 3a 3d 6b 56 60 3d
       -0.004385498 -0.009465646 0.045577776 0.054769915
000340 53 a8 85 bc ab f7 fe 3e 90 b2 a6 3e 65 0a 25 3f
       -0.016315615 0.4979833 0.32558107 0.64468986
000350 90 55 07 3f 17 b8 54 3f 46 ff 96 bc 1a 3c e8 3e
       0.52864933 0.830934 -0.01843227 0.45358354
000360 10 f3 a2 be 7c ff b9 3e 64 b8 28 bf fc 2d c9 bc
       -0.31826067 0.36327732 -0.6590636 -0.02455806
000370 8a a0 41 3e aa 1d 3c 3e 02 7d ad bc 4b f6 65 3d
       0.18908897 0.18370691 -0.021177772 0.056143086
000380 ee 23 d7 3e b0 38 8c 3e 30 29 20 bc e1 4e a5 bc
       0.420196 0.27387 -0.009775445 -0.020179214
000390 ea 49 ce 3e a8 bf 66 bf fe 0e 50 3e ab 2c 3c bc
       0.40290767 -0.90136194 0.20318219 -0.011485259
0003a0 d2 85 05 bd c4 4c 2f bd af f1 24 bf f6 a8 1b 3f
       -0.032598324 -0.04279782 -0.6443128 0.6080469
0003b0 05 3f df 3e 07 8b 80 bc 5b bb 0b c0 a8 f6 ed bc
       0.43602768 -0.015691293 -2.1833103 -0.029048279
0003c0 38 03 07 bf 32 89 5c ba 9c 8b d2 3c d0 cc 42 3e
       -0.52739286 -0.00084127777 0.025701337 0.19023442
0003d0 25 1e c1 bc 22 29 4c 3c 33 df ae bf 9e 14 51 bf
       -0.023573944 0.012460979 -1.3661865 -0.81672084
0003e0 69 3a 3f 3d 79 24 a7 ba 3d ae c5 3c 91 a1 24 3d
       0.046686564 -0.0012751959 0.024130935 0.040193144
0003f0 a6 0c 22 3d 10 81 9c 3e a4 8a 93 bc 04 d2 12 3f
       0.039562844 0.30567217 -0.018010445 0.5735171

fc3.bias f4 [4]
000000 23 53 23 3f 7b 8a 21 3f 65 fc 0e 3f 2f 7b 2e 3f
       0.6379873 0.6310193 0.55853873 0.68156713
