csv_and_models/DDQN/trained_models/DDQN_lunar_main_1200.pth (torch, 279306 bytes, 6 tensors)

fc1.weight f4 [256, 8]
-0.066747144 -2.6983347 -0.15231916 -1.6056018 0.5527945 0.13574666 0.19562139 -1.1642748
0.03536895 -1.4498186 1.2723405 0.5001872 -1.2926157 0.60186553 -0.8622009 -0.24054009
-0.17559852 -0.20655331 1.6856296 0.84500784 -0.25264195 0.5051437 0.30693778 0.22952329
-0.35352015 -0.47396392 -0.27691653 0.21632224 0.7442843 0.66388446 0.40626156 -0.47530627
-0.36906123 0.39473033 -0.21226378 -0.6801546 0.98163366 0.2527122 -0.2533822 -0.6298433
0.27837536 -2.7328293 -0.225068 4.4674134 -0.07503983 -0.79675394 -0.16082118 0.22640896
-0.66866493 -0.42523244 -0.0049182633 -0.14434354 1.1575483 0.30993786 0.31430516 -1.954567
-0.07711586 -0.5578153 1.3205024 3.9791436 0.00055573444 -0.021314247 -1.264729 0.16732025
-1.1461897 -0.6976548 0.02383588 -0.015370144 -0.997014 1.224505 -0.82589287 -0.7828373
0.06591999 0.012215654 -0.30803376 1.5854381 0.32445583 -0.01924526 -0.71872455 0.5109583
-1.0590719 -1.1454685 -0.9292897 1.2164881 -0.86678 0.115902774 0.32891297 -0.26984552
1.0775626 -0.28069007 -1.1985444 1.8302445 0.67235625 -1.5683312 -0.67165977 -0.37476552
0.0131439 0.0581021 -0.3202161 -0.6845234 -1.3045285 -0.39292523 -1.5660689 -0.5261472
-0.2142566 -0.33538038 1.2312073 0.7060527 0.938769 0.19949685 -0.7540475 -0.7995649
-0.20376185 -1.5602673 -0.871074 -0.7247969 0.4294965 -1.2965981 -0.77864426 -0.6564115
0.20110194 -0.1216267 1.5974422 1.5075462 -1.5679408 -0.019320967 0.15775971 0.37612635
1.9432429 -0.4964494 -1.9660753 0.41017187 0.35754946 -0.48848414 0.31597707 -0.4166602
0.21225356 -1.2052364 -0.16165505 0.020048516 -1.6841416 0.56250244 -0.024928482 0.06457514
0.25045717 -0.023507927 -0.1627479 -0.9168858 0.8362916 -0.4544146 -0.73032427 0.13298963
-0.09804235 -0.8488171 -0.73475546 -1.1652541 -0.3439189 -0.5259642 -0.48839277 -0.10877386
1.9755579 0.5216685 0.67870796 0.6358259 -1.2927822 0.012837204 0.16747278 -1.7851532
-1.3426553 0.23870973 0.29894236 0.336615 -0.2861623 -0.7543106 -0.00611877 0.116881445
-0.37110507 0.1318319 -0.90133053 0.03486471 1.8397429 0.36928827 0.6248301 -0.29888138
0.6761382 0.078087695 0.08241607 -0.5735714 0.5683278 -0.18574318 -0.99440455 -2.468003
0.5216729 -0.10153488 -0.54924464 -0.36052978 -0.7037484 -0.21407428 -0.37751535 0.94296074
1.1830435 0.31976736 0.5449723 -0.2091928 0.13804668 0.18417814 -0.8682407 -1.5370711
-0.011880911 -0.003918684 0.011519838 -0.0039760647 -4.3042574 0.13403995 -0.0032604227 0.0016538927
0.09772992 0.009121389 -0.0061836066 -0.0064052474 -3.5036507 0.011344747 0.024257233 -0.19717102
-0.2239732 0.100548014 -1.0543886 -0.9793211 -0.10153371 0.5447127 -1.2706285 -0.7631144
-0.80971056 0.28451633 -0.9494014 1.8280463 -0.3460478 0.4952733 0.37447986 -0.726298
-0.75259733 0.295451 -0.52657616 -0.3274451 -0.891012 0.62326634 -1.2269737 0.37259325
-1.6955898 -2.315511 -0.18940479 1.256365 0.2694403 -0.023590185 -0.54854536 0.3241332
00000000: bab2 88bd 84b1 2cc0 8ef9 1bbe 5c84 cdbf
00000010: f183 0d3f 2c01 0b3e f950 483e f506 95bf
00000020: 08df 103d a893 b9bf 0edc a23f 450c 003f
00000030: 6e74 a5bf dc13 1a3f 33b9 5cbf 2450 76be
00000040: 19d0 33be b682 53be b6c2 d73f 6f52 583f
00000050: 495a 81be 1951 013f f326 9d3e 2708 6b3e
00000060: 9800 b5be 66ab f2be 01c8 8dbe 9483 5d3e
00000070: 6a89 3e3f 55f4 293f 8401 d03e 585b f3be
00000080: 98f5 bcbe 181a ca3e ad5b 59be 9d1e 2ebf
00000090: 584c 7b3f 7e63 813e 50bb 81be 693d 21bf
000000a0: 3787 8e3e ade6 2ec0 3a78 66be 0df5 8e40
000000b0: 7bae 99bd 11f8 4bbf 4fae 24be c0d7 673e
000000c0: a02d 2bbf 11b8 d9be 6229 a1bb cbce 13be
000000d0: 8b2a 943f 2db0 9e3e 9bec a03e 402f fabf
000000e0: ecee 9dbd fccc 0ebf 3906 a93f 4aaa 7e40
000000f0: b5ae 113a 379b aebc a4e2 a1bf 0056 2b3e
00000100: 58b6 92bf 8199 32bf 7743 c33c 0ed3 7bbc
00000110: 4f3c 7fbf 94bc 9c3f b76d 53bf 0668 48bf
00000120: 0f01 873d 2b24 483c 9ab6 9dbe a3ef ca3f
00000130: 131f a63e 3ca8 9dbc 55fe 37bf 2ace 023f
00000140: ab8f 87bf b69e 92bf eee5 6dbf e2b5 9b3f
00000150: 4be5 5dbf 6f5e ed3d 4867 a83e 3129 8abe
00000160: 92ed 893f 9cb6 8fbe e769 99bf 7445 ea3f
00000170: 8a1f 2c3f 14bf c8bf e5f1 2bbf 44e1 bfbe
00000180: 8359 573c 78fc 6d3d 5df3 a3be ed3c 2fbf
00000190: cafa a6bf 7f2d c9be f274 c8bf 95b1 06bf
000001a0: 1566 5bbe fab6 abbe 3398 9d3f dfbf 343f
000001b0: 2a53 703f e748 4c3e 4209 41bf 49b0 4cbf
000001c0: f2a6 50be d7b6 c7bf b5fe 5ebf 4a8c 39bf
000001d0: f7e6 db3e edf6 a5bf 3b55 47bf 960a 28bf
000001e0: abed 4d3e 6b17 f9bd fc78 cc3f 46f7 c03f
000001f0: 49b2 c8bf 0147 9ebc c38b 213e a293 c03e
00000200: 2fbc f83f 9e2e febe 5ba8 fbbf 0c02 d23e
00000210: b910 b73e 981a fabe bfc7 a13e 7c54 d5be
00000220: ff58 593e 3045 9abf e788 25be c93c a43c
00000230: f491 d7bf 2900 103f d136 ccbc f93f 843d
00000240: ec3b 803e b293 c0bc 63a7 26be 07b9 6abf
00000250: 3517 563f 08a9 e8be 88f6 3abf 6f2e 083e
00000260: 6dca c8bd 144c 59bf ef18 3cbf 0c27 95bf
00000270: 2316 b0be 97a5 06bf 9e0e fabe d4c4 debd
00000280: 15df fc3f 118c 053f cebf 2d3f 7cc5 223f
00000290: e379 a5bf 2353 523c fc7d 2b3e e67f e4bf
000002a0: 21dc abbf 5370 743e f90e 993e cd58 ac3e
000002b0: dd83 92be 801a 41bf f77f c8bb 8a5f ef3d
000002c0: 7c01 bebe f1fe 063e 99bd 66bf 4cce 0e3d
000002d0: b27c eb3f 5a13 bd3e def4 1f3f fb06 99be
000002e0: 6517 2d3f 71ec 9f3d c2c9 a83d 93d5 12bf
000002f0: ee7d 113f 7633 3ebe 4c91 7ebf c3f3 1dc0
00000300: 5b8c 053f 85f1 cfbd 4c9b 0cbf 5c97 b8be
00000310: db28 34bf 4a36 5bbe b149 c1be e065 713f
00000320: f86d 973f 8cb8 a33e 4e83 0b3f a336 56be
00000330: 1c5c 0d3e 3299 3c3e 0645 5ebf bfbe c4bf
00000340: 27a8 42bc 4e68 80bb b4bd 3c3c a649 82bb
00000350: 7abc 89c0 c541 093e d1ac 55bb 6ec7 d83a
00000360: a026 c83d e171 153c da9f cabb 1ce3 d1bb
00000370: d03b 60c0 51df 393c 1bb7 c63c 33e7 49be
00000380: 3b59 65be 1eec cd3d 35f6 86bf cab4 7abf
00000390: e8f0 cfbd 4b72 0b3f f4a3 a2bf 775b 43bf
000003a0: 3149 4fbf 20ac 913e f80b 73bf 6cfd e93f
000003b0: 2d2d b1be 7694 fd3e d3bb bf3e aaee 39bf
000003c0: 38aa 40bf 5a45 973e b2cd 06bf e2a6 a7be
000003d0: 5d19 64bf 628e 1f3f 790d 9dbf 8bc4 be3e
000003e0: 1609 d9bf 5531 14c0 54f3 41be 91d0 a03f
000003f0: 14f4 893e 3440 c1bc 786d 0cbf c9f4 a53e

fc1.bias f4 [256]
0.50519943 -0.15196882 0.34672928 0.24844582 -0.29749826 0.1674229 -0.21383545 -0.025186067
0.16480307 0.22776665 -0.38899264 -0.75862384 -0.09602344 -0.22035882 0.13501304 -0.11180171
-0.31896883 -0.14564152 0.01395006 -0.6482059 -0.2497164 -0.6805615 -0.2671297 -0.1295419
-0.17214912 -0.6066256 0.0018840928 -0.010271242 -0.19301468 -0.35462216 -0.9753196 0.4755084
-0.8320055 -0.38684425 -0.14256583 -0.8359373 0.41246194 -0.20744948 -0.00061323744 -0.20966232
-0.5762178 0.09890876 0.030174261 -0.7477138 -0.084352165 0.09039648 -0.24503514 -0.4998593
-0.357876 0.43738255 -0.06746142 -0.06844294 0.35727426 -0.031517014 -0.15884927 -0.0034686273
-0.24883807 -0.6378585 0.43977907 -0.13654155 -0.33353403 -1.1063521 -0.03852635 -0.9383676
-1.2738496 -0.0038379293 -0.52067125 0.46268877 -0.33328494 -0.28871185 -0.023264088 -0.5041168
-0.29679444 0.0018836675 0.37009513 -0.29786137 -0.16750741 0.21431331 -0.045469724 -0.15159196
0.096603364 -0.3402993 0.10491204 0.05086063 0.12835276 -0.6395393 -0.47944087 -0.33458152
-0.24208207 0.05896298 -0.15609036 -0.116217904 -0.11714407 -0.6095813 -0.26475218 -0.78704906
-0.030194234 -0.048249196 0.26112175 -0.19457373 -0.40146565 -0.48533258 -0.43306825 0.08695333
-0.15419057 -0.015755815 0.37194923 -1.1693331 -0.008008374 0.117777914 -1.1032586 -0.30442214
0.049711615 -0.30517328 -0.33622992 -0.08897484 -0.5125496 -0.42498797 0.048362654 -0.78184795
-0.37050724 -0.63117266 -0.6871008 0.13303071 -0.6823418 -0.6457331 -0.7042601 -0.6751945
0.3230338 -0.8796667 0.12156936 0.13845967 -0.103827044 -0.91036147 -0.759559 -0.50731975
0.07067086 -0.5798343 -0.8469103 0.07205104 -0.67834115 -0.045183096 -0.83388036 -1.4199884
0.1876384 -0.40059692 -0.30563214 -0.098933674 -0.34978524 0.07103723 -0.82905096 0.13952255
-0.07541963 -0.3938599 -0.61796427 -0.29901385 0.35937735 -0.99383384 -0.021840278 -0.28923833
0.4501164 0.070965596 0.12606071 -0.2323471 -0.34074304 -0.575772 0.087571435 -0.28961453
-0.6805162 0.055665225 -0.9812516 -0.10609629 -0.28952265 -0.3755699 0.54625666 -0.23433772
-0.113379285 -0.92155904 -0.040985946 0.26073447 -0.08522023 -0.8170486 0.017133754 -0.781268
0.006765607 -0.014131981 -0.042556107 -0.42468134 -0.23260848 0.3584807 0.101508886 -0.2547858
-0.11596087 -0.34728134 0.019526586 -0.7401866 0.31407067 -0.11581498 -0.2690138 0.23885708
-0.1926697 -0.25674433 -0.55746645 -0.4457557 -1.278521 -0.08445592 -0.03291234 -0.6270409
-0.61017674 0.27272165 -0.025034128 -0.1715122 -0.38177794 -0.8931154 -0.7320821 -0.2765327
-0.10031903 0.29012743 -0.56746376 0.47984242 -0.65291303 -1.072286 -0.7129111 -0.24042971
-0.81222063 -0.06796086 0.21915227 -0.12703854 0.07224106 -0.07397555 -0.34532645 -0.15757017
-0.17884773 0.001951492 -0.60101134 0.22961353 -0.059452534 0.28979775 -0.20388596 -0.36725885
-0.7481572 -0.6405207 0.029890528 -0.3313573 -0.81306845 -0.20053534 0.32253382 -0.28286403
0.28728694 -0.12001826 0.15279362 -0.024404025 -0.2622694 0.13816005 -0.1718981 -0.39570323
00000000: c054 013f b79d 1bbe 8086 b13e 9568 7e3e
00000010: b151 98be e970 2b3e aef7 5abe 0353 cebc
00000020: 23c2 283e a93b 693e 0b2a c7be 2c35 42bf
00000030: f0a7 c4bd bea5 61be dc40 0a3e 4cf8 e4bd
00000040: e24f a3be 0d23 15be cb8e 643c d2f0 25bf
00000050: a8b5 7fbe 4739 2ebf 39c5 88be a2a6 04be
00000060: dc47 30be d14b 1bbf aaf3 f63a b648 28bc
00000070: a4a5 45be 0991 b5be 8cae 79bf d675 f33e
00000080: 50fe 54bf 7310 c6be c7fc 11be fdff 55bf
00000090: 362e d33e a36d 54be abc1 20ba b8b1 56be
000000a0: 0283 13bf ad90 ca3d 0330 f73c 2c6a 3fbf
000000b0: d4c0 acbd ca21 b93d 7eea 7abe 8fed ffbe
000000c0: 863b b7be 9bf0 df3e 3729 8abd d02b 8cbd
000000d0: a7ec b63e fc17 01bd 62a9 22be e951 63bb
000000e0: 68cf 7ebe b24a 23bf b92a e13e 8cd1 0bbe
000000f0: f9c4 aabe f29c 8dbf cecd 1dbd dc38 70bf
00000100: 810d a3bf c585 7bbb b64a 05bf 8be5 ec3e
00000110: 53a4 aabe 0ad2 93be 5494 bebc cc0d 01bf
00000120: 71f5 97be 65e5 f63a 1c7d bd3e 4981 98be
00000130: 1087 2bbe f374 5b3e 763e 3abd ec3a 1bbe
00000140: fcd7 c53d b63b aebe 20dc d63d 3c53 503d
00000150: e86e 033e d9b8 23bf 4679 f5be 454e abbe
00000160: 5de4 77be 2a83 713d 27d6 1fbe a703 eebd
00000170: 3be9 efbd 850d 1cbf 998d 87be 0c7c 49bf
00000180: e659 f7bc f3a0 45bd c0b1 853e 563e 47be
00000190: e88c cdbe 837d f8be 1fbb ddbe 9614 b23d
000001a0: 22e4 1dbe 5712 81bc 2170 be3e b5ac 95bf
000001b0: 8e35 03bc 8c35 f13d 9437 8dbf 38dd 9bbe
000001c0: 689e 4b3d ac3f 9cbe 5426 acbe 7138 b6bd
000001d0: 7336 03bf 0698 d9be eb17 463d 3027 48bf
000001e0: 20b3 bdbe 8894 21bf d7e5 2fbf 3439 083e
000001f0: f4ad 2ebf c44e 25bf 644a 34bf 8cd9 2cbf
00000200: b064 a53e d631 61bf 5bf9 f83d 5fc8 0d3e
00000210: 46a3 d4bd 730d 69bf 7572 42bf b5df 01bf
00000220: e2bb 903d 0570 14bf 1dcf 58bf 7f8f 933d
00000230: c4a7 2dbf e911 39bd 2f79 55bf 2ec2 b5bf
00000240: 4824 403e 0a1b cdbe d17b 9cbe bd9d cabd
00000250: 0d17 b3be f87b 913d af3c 54bf 00df 0e3e
00000260: 9b75 9abd 01a8 c9be e832 1ebf 5818 99be
00000270: 4f00 b83e e56b 7ebf 62ea b2bc 0c17 94be
00000280: a875 e63e 6956 913d 0f16 013e 66ec 6dbe
00000290: df75 aebe cb65 13bf a758 b33d 5b48 94be
000002a0: 4f36 2ebf 3801 643d 4e33 7bbf 0349 d9bd
000002b0: 503c 94be b34a c0be 7ad7 0b3f 3af6 6fbe
000002c0: 6633 e8bd 4beb 6bbf e1e0 27bd fd7e 853e
000002d0: f287 aebd 192a 51bf 165c 8c3c 2e01 48bf
000002e0: 06b2 dd3b d389 67bc 504f 2ebd d56f d9be
000002f0: eb30 6ebe c88a b73e e4e3 cf3d 4973 82be
00000300: e57c edbd dcce b1be 38f6 9f3c de7c 3dbf
00000310: dfcd a03e 6730 edbd 2dbc 89be f396 743e
00000320: 354b 45be fe73 83be 1fb6 0ebf 173a e4be
00000330: 93a6 a3bf 3af7 acbd 17cf 06bd c185 20bf
00000340: 8b34 1cbf 2ca2 8b3e 5f14 cdbc e5a0 2fbe
00000350: 6678 c3be 36a3 64bf bc69 3bbf b295 8dbe
00000360: 1074 cdbd 958b 943e 4e45 11bf e8ad f53e
00000370: 4f25 27bf ab40 89bf 5881 36bf 3533 76be
00000380: b1ed 4fbf 102f 8bbd 7469 603e 6416 02be
00000390: 1ff3 933d 7e80 97bd a1ce b0be 135a 21be
000003a0: dc23 37be 35c9 ff3a e1db 19bf cf1f 6b3e
000003b0: 8084 73bd 5f60 943e 7bc7 50be 5a09 bcbe
000003c0: 3b87 3fbf 2af9 23bf fbdc f43c aaa7 a9be
000003d0: 4125 50bf 2359 4dbe 2723 a53e 8ed3 90be
000003e0: 4617 933e 22cc f5bd ee75 1c3e f3ea c7bc
000003f0: 2d48 86be d479 0d3e 0e06 30be 9d99 cabe

fc2.weight f4 [256, 256]
0.42370734 -0.19632503 0.9278834 -0.24997944 0.07740757 0.8684116 0.26332095 -0.26671568
-0.23626144 0.28914925 -0.2887199 -0.5534745 0.14886935 -0.25793394 0.02825376 -0.054793153
1.0642798 -0.03573589 0.09451178 0.057239816 0.82804996 0.20526281 -0.24263309 0.1529621
-0.28004408 -0.369898 0.7770242 0.51759195 0.38606098 -0.62887776 -0.8955449 0.4304225
-1.4621364 -0.043483388 0.3631159 -0.63330203 0.1241163 0.34212458 0.32183766 -0.19609769
0.0023910385 -0.51968575 0.32042223 -0.5204683 0.5044644 -0.6821571 0.18053435 0.5587453
-0.124939404 1.1773012 -0.32499602 -0.097998284 0.7250785 0.270007 -0.862142 0.023974134
0.08379233 0.40048456 0.31473526 0.16760722 0.3270977 -1.4018312 0.23318039 0.48049372
-1.1788708 1.4100591 -0.8736265 0.36391434 0.54081804 -0.655764 -0.33723244 -0.15278229
-0.05214828 0.7637506 0.36231378 0.4761632 -0.73867077 0.31676298 -0.7665106 -0.08910831
-0.15741019 0.09238783 -0.27273327 0.7708099 -0.4369157 0.9411125 -0.9472251 0.7438444
0.37071273 -0.3111697 -0.70501906 0.49116418 0.30219817 -0.6774942 -0.018956177 0.12094685
1.0335774 0.15047617 0.53763944 0.17577317 -0.25475937 0.9298439 -1.1692398 -1.0909233
-0.38026956 0.085734114 0.46928015 0.22047836 -0.0005565688 0.6480533 -0.7587073 -0.4010763
0.78378123 0.15684913 0.7355488 0.2432812 0.20686087 -0.61913115 0.8634598 -1.8674945
-0.4777975 -0.2192491 -0.17582801 -0.41127494 -0.4089939 0.6889474 -0.90051854 -1.1827848
-0.20798858 1.2978199 0.40426743 0.68454134 -0.47813714 -0.7890197 0.37971166 0.76244587
-0.4362871 -0.31818065 -1.4491181 -1.6535338 -0.42712113 0.5882673 -0.32007134 -0.7434962
-0.34600347 0.08231821 -0.30719316 0.48345804 -0.83220845 -0.5425759 -0.6386508 -0.47235453
0.31119537 -0.1291347 -0.64523137 -0.10207156 -0.058173336 -0.012683289 0.37974513 -0.98948485
-1.5929381 -0.6810555 0.33320048 -0.405822 0.30893734 0.014367935 -0.13208382 0.8212403
-1.0807399 -0.45043916 -0.8768731 -0.23640616 -0.0033439547 1.0217644 0.79371876 -0.11536196
-0.1295576 -1.3245274 0.15251857 0.11348512 -0.729858 -1.5784413 0.039736215 0.74514353
-0.16517709 0.1809248 -0.39425376 0.00968655 -0.44884014 0.07562997 0.23186368 0.6590196
-0.7800217 0.23684564 0.43369898 0.59101945 -0.52609503 -0.6249247 0.3671922 -0.9347703
-0.32166672 0.31092685 -0.812318 -0.0939622 1.6005665 -0.15673502 -0.86916554 -0.6909957
0.056196988 0.83275783 0.4982068 -1.452321 -0.078703225 1.3074867 0.4882949 -0.49934846
0.5220773 -0.19156162 0.36445126 0.22056165 -0.5392663 -1.153614 0.20344672 0.07692346
-0.30909544 0.15089394 0.21500814 -1.3122597 0.2797305 -0.10498069 -0.09357541 -0.30115837
-0.47294176 0.33549565 -0.87685853 -1.5620446 0.23315959 0.43106088 0.52824366 0.82600945
-0.2315341 -0.95057905 -0.23479573 0.29055655 0.5949122 0.34974903 0.79992634 0.1819674
-0.035913244 0.42792034 0.5949244 -0.026233625 -0.1140689 0.17881258 0.008275754 0.6808863
00000000: 2bf0 d83e 6e09 49be c489 6d3f 9cfa 7fbe
00000010: dc87 9e3d 3950 5e3f 01d2 863e f58e 88be
00000020: 85ee 71be 5f0b 943e 18d3 93be 81b0 0dbf
00000030: 3571 183e eb0f 84be 6e74 e73c c96e 60bd
00000040: 523a 883f cc5f 12bd 648f c13d 4c74 6a3d
00000050: 15fb 533f 6a30 523e cf74 78be 19a2 1c3e
00000060: f061 8fbe 4563 bdbe 0feb 463f e880 043f
00000070: c9a9 c53e 22fe 20bf 6e42 65bf 5760 dc3e
00000080: 4927 bbbf a31b 32bd 54ea b93e 1520 22bf
00000090: b030 fe3d f42a af3e e8c7 a43e d5cd 48be
000000a0: f8b2 1c3b 200a 05bf 620e a43e 693d 05bf
000000b0: 9424 013f d9a1 2ebf ffdd 383e ef09 0f3f
000000c0: 3be0 ffbd ceb1 963f e165 a6be 53b3 c8bd
000000d0: bf9e 393f 5c3e 8a3e 57b5 5cbf 6765 c43c
000000e0: 509b ab3d 500c cd3e fb24 a13e 3aa1 2b3e
000000f0: 5a79 a73e 346f b3bf d7c6 6e3e 4603 f63e
00000100: 3de5 96bf d17c b43f fca5 5fbf fb52 ba3e
00000110: 0d73 0a3f 26e0 27bf bba9 acbe f672 1cbe
00000120: 6f99 55bd 2985 433f 3181 b93e aacb f33e
00000130: 8719 3dbf c22e a23e 0a3a 44bf 6b7e b6bd
00000140: 2330 21be d535 bd3d b2a3 8bbe cc53 453f
00000150: 6ab3 dfbe c0ec 703f 587d 72bf 966c 3e3f
00000160: 0fce bd3e a351 9fbe 217c 34bf df79 fb3e
00000170: b8b9 9a3e 4370 2dbf fc49 9bbc fbb2 f73d
00000180: 444c 843f 6d16 1a3e bda2 093f e2fd 333e
00000190: d26f 82be 400a 6e3f a6a9 95bf 60a3 8bbf
000001a0: b1b2 c2be 5e95 af3d 7d45 f03e 14c5 613e
000001b0: b3e6 11ba d2e6 253f a43a 42bf df59 cdbe
000001c0: e3a5 483f 0f9d 203e ed4c 3c3f b51e 793e
000001d0: 56d3 533e 617f 1ebf b40b 5d3f 0f0a efbf
000001e0: e0a1 f4be d682 60be 420c 34be a192 d2be
000001f0: a667 d1be db5e 303f 6288 66bf 7e65 97bf
00000200: f5fa 54be f61e a63f 24fc ce3e 1a3e 2f3f
00000210: 64ce f4be 32fd 49bf 9169 c23e a72f 433f
00000220: 0661 dfbe 93e8 a2be b47c b9bf ffa6 d3bf
00000230: 9faf dabe b098 163f 64e0 a3be c455 3ebf
00000240: 5e27 b1be 7396 a83d 6c48 9dbe d087 f73e
00000250: 9d0b 55bf 41e6 0abf 9e7e 23bf 74d8 f1be
00000260: 0055 9f3e e33b 04be e22d 25bf e50a d1bd
00000270: 2a47 6ebd 92cd 4fbc f46d c23e e14e 7dbf
00000280: 65e5 cbbf a759 2ebf 4199 aa3e e7c7 cfbe
00000290: 092d 9e3e 7d67 6b3c fb40 07be ce3c 523f
000002a0: af55 8abf f69f e6be c17a 60bf 7514 72be
000002b0: 4026 5bbb 2dc9 823f 2731 4b3f e442 ecbd
000002c0: bfaa 04be 1d8a a9bf d42d 1c3e e36a e83d
000002d0: f9d7 3abf 5d0a cabf 71c2 223d bac1 3e3f
000002e0: 2f24 29be 5a44 393e a1db c9be 56b4 1e3c
000002f0: 60ce e5be e3e3 9a3d ac6d 6d3e 82b5 283f
00000300: 81af 47bf aa87 723e cb0d de3e 0d4d 173f
00000310: 2aae 06bf 11fb 1fbf 9e00 bc3e 1b4d 6fbf
00000320: 80b1 a4be ce31 9f3e 13f4 4fbf 416f c0bd
00000330: 5ddf cc3f 257f 20be a281 5ebf 18e5 30bf
00000340: d02e 663d 9e2f 553f f614 ff3e a8e5 b9bf
00000350: 282f a1bd b95b a73f ca01 fa3e 9aaa ffbe
00000360: dca6 053f bb28 44be 5b99 ba3e eada 613e
00000370: 5b0d 0abf a0a9 93bf 5654 503e 0c8a 9d3d
00000380: c241 9ebe f183 1a3e 182b 5c3e 20f8 a7bf
00000390: d638 8f3e 1e00 d7bd 77a4 bfbd 6e31 9abe
000003a0: 6c25 f2be 16c6 ab3e cd79 60bf 14f1 c7bf
000003b0: 63c1 6e3e 03b4 dc3e fa3a 073f 5b75 533f
000003c0: 4617 6dbe 2659 73bf 4b6e 70be d4c3 943e
000003d0: 2a4c 183f 4e12 b33e f9c7 4c3f a955 3a3e
000003e0: c419 13bd 6018 db3e f74c 183f e6e7 d6bc
000003f0: f59c e9bd a51a 373e 0797 073c 914e 2e3f

fc2.bias f4 [256]
0.34742433 0.32381386 -0.045273345 -0.013755957 0.36132303 0.22057518 -0.048850384 0.26040196
-0.02109372 -0.00061829033 0.44570252 -0.051580623 -0.11517146 0.4469232 -1.2262063 0.015396791
0.27664325 0.50572217 -0.7270287 0.52909875 0.022060739 0.33950177 0.018560583 -0.087920286
-0.14446747 -0.0012892025 -0.10929858 -0.43879408 -0.060642473 0.36572388 -0.08480951 -0.084595166
0.3765689 0.14783944 -0.03833733 -0.022985363 -1.3306452 0.32190573 0.014846247 -0.023930725
-0.023405321 0.37513065 -0.027516378 0.13970867 -0.052641142 -0.46263596 -0.6001052 -0.089407735
-0.07282705 -0.13027366 0.76916337 -0.055565 -0.53753877 -0.08366818 0.026046608 0.6379503
-0.019912956 -0.06416032 -0.61272997 -0.549185 0.36695087 -0.082210526 -0.37353256 -0.026942302
-0.008913713 -0.45327663 0.20356476 -0.042482104 0.5744009 0.37797886 -0.037848618 -1.1245965
0.0008996382 0.010566228 -0.081733115 -0.013487404 -0.24431732 -0.6926749 0.16979744 -0.09235077
-0.10410575 0.40686664 -0.021371618 0.57637614 0.20543928 -0.017621743 -0.07471929 -0.050935842
-0.007332646 -0.19653885 0.014100658 -0.00907002 -0.098854475 -0.044816375 -0.5144992 0.59179544
0.4102082 -0.1724715 -0.035720896 0.16481215 0.56659096 -0.034272946 -0.0053444915 -0.045633346
-0.3675483 -0.05630979 -0.26724732 0.15369609 -0.06575964 -0.0076922555 0.1847273 0.435902
-0.05530919 -0.4015769 -0.060568985 0.5276558 -0.9739891 -0.033845924 -0.06586462 0.39132646
-0.09421097 -0.11983253 -0.05496396 0.05279954 0.06159533 0.46112564 -0.09162593 -0.07579549
-0.2427503 -0.07415848 -0.04921232 0.46392602 0.35039335 -0.01298188 -0.048494034 -0.1571059
-0.032309797 -0.386724 -0.2708924 -0.07717561 -0.06251068 -0.06317528 -0.005836811 -0.21826665
0.66094947 -0.109676786 -0.03139277 -0.010748591 0.59123266 -0.08593099 -0.06186433 -0.010923856
-0.059214447 -0.47147393 -0.07978444 -0.090338774 0.21010782 -0.112769306 0.0004972058 -0.054124925
-0.32320663 0.32685405 -0.033228986 0.3066344 0.42650568 -0.15431508 -0.3964726 0.16516174
-0.12436475 -0.15050809 -0.089844994 0.096397996 0.0077271187 0.33711293 -0.56639075 0.004793779
-0.0072827484 0.15655373 0.024762081 -0.08759175 0.70755166 -0.094089225 -0.23147249 -0.8503536
0.3275627 0.5318543 0.108828336 -0.37216854 -0.51953727 -0.36095902 -0.07428159 -0.026472488
0.44587916 -0.32791656 -0.26495674 -0.041293908 -0.08291827 -0.0046640495 0.34985426 0.112892635
-0.037676647 0.011261731 0.6404748 -0.023653464 -0.008176103 0.038025327 0.11855412 0.2309809
-0.0058298907 0.57244796 0.4763031 0.18337639 -0.2264036 0.5585816 0.4346335 0.10415425
-0.28582862 0.19654182 0.14047822 -0.06144321 0.41112533 0.10993369 -0.041370276 -0.01342293
0.29035828 0.023877632 -0.07361409 0.010469165 0.30853134 -0.33700877 0.5190171 -0.09576738
-0.044630945 -0.03591207 -0.53884786 0.17018524 0.09647294 -0.078336634 -0.4724668 -0.06124077
0.13967948 -0.04295154 -0.002765515 0.06113747 -0.07629948 -0.073101774 0.32343802 -0.092927575
0.007454272 -0.023959571 -0.048914187 -0.08499187 0.14629102 0.05971208 -0.05644921 0.47357267
00000000: 9ae1 b13e eeca a53e 8b70 39bd aa60 61bc
00000010: 55ff b83e 76de 613e 5717 48bd 6853 853e
00000020: bdcc acbc c314 22ba 1f33 e43e 3446 53bd
00000030: 04df ebbd 1ed3 e43e 54f4 9cbf d242 7c3c
00000040: 2fa4 8d3e 0277 013f 8e1e 3abf 0473 073f
00000050: b9b8 b43c 2dd3 ad3e 5d0c 983c 8d0f b4bd
00000060: 48ef 13be 75fa a8ba efd7 dfbd 9ea9 e0be
00000070: 3e64 78bd 2940 bb3e 9cb0 adbd 3b40 adbd
00000080: a4cd c03e 3963 173e 9b07 1dbd cd4b bcbc
00000090: 9552 aabf d4d0 a43e ac3d 733c 5e0a c4bc
000000a0: 84bc bfbc 2011 c03e 076a e1bc ca0f 0f3e
000000b0: 3d9e 57bd 9fde ecbe 7fa0 19bf 671b b7bd
000000c0: 5926 95bd 7566 05be e4e7 443f 2098 63bd
000000d0: 249c 09bf 395a abbd b25f d53c b650 233f
000000e0: 7f20 a3bc 7c66 83bd dfdb 1cbf 6397 0cbf
000000f0: fce0 bb3e fe5d a8bd a93f bfbe 1ab6 dcbc
00000100: d20a 12bc e013 e8be 4873 503e b701 2ebd
00000110: f00b 133f 7286 c13e 2707 1bbd c7f2 8fbf
00000120: b3d5 6b3a f91d 2d3c b163 a7bd 46fa 5cbc
00000130: 522e 7abe 2453 31bf 61df 2d3e 6722 bdbd
00000140: 6535 d5bd d350 d03e 8813 afbc 638d 133f
00000150: ad5e 523e 795b 90bc 6d06 99bd 1aa2 50bd
00000160: b146 f0bb 7b41 49be 7206 673c 6c9a 14bc
00000170: 3774 cabd 6091 37bd 38b6 03bf e87f 173f
00000180: cf06 d23e 5e9c 30be 1350 12bd 84c4 283e
00000190: 1b0c 113f ca61 0cbd d820 afbb 08ea 3abd
000001a0: 4a2f bcbe 18a5 66bd a4d4 88be 8262 1d3e
000001b0: fdac 86bd 510f fcbb 2729 3d3e 8c2e df3e
000001c0: e48b 62bd 7d9b cdbe 2f17 78bd 7314 073f
000001d0: 5a57 79bf 06a2 0abd 08e4 86bd f15b c83e
000001e0: aef1 c0bd c26a f5bd e421 61bd 5544 583d
000001f0: 624b 7c3d a918 ec3e 60a6 bbbd aa3a 9bbd
00000200: 8993 78be 67e0 97bd dc92 49bd b687 ed3e
00000210: c266 b33e f4b1 54bc aea1 46bd 5ee0 20be
00000220: 4757 04bd b000 c6be 69b2 8abe 3f0e 9ebd
00000230: 9905 80bd 0b62 81bd b842 bfbb 4b81 5fbe
00000240: fc33 293f 399e e0bd b595 00bd dc1a 30bc
00000250: 065b 173f 96fc afbd 7465 7dbd f9f9 32bc
00000260: d98a 72bd 0865 f1be 0666 a3bd 8903 b9bd
00000270: 8126 573e 98f3 e6bd eb56 023a 19b2 5dbd
00000280: 577b a5be 6a59 a73e 1e1b 08bd 2fff 9c3e
00000290: f45e da3e c604 1ebe 75fe cabe 2920 293e
000002a0: f2b2 febd cb1e 1abe a700 b8bd 506c c53d
000002b0: c533 fd3b 119a ac3e fcfe 10bf 2215 9d3b
000002c0: 1fa4 eebb 9f4f 203e d9d9 ca3c 4e63 b3bd
000002d0: 1b22 353f dab1 c0bd 2007 6dbe c6b0 59bf
000002e0: 4cb6 a73e 9a27 083f 64e1 de3d e08c bebe
000002f0: 6500 05bf 9fcf b8be f220 98bd d5dc d8bc
00000300: 464a e43e aee4 a7be 69a8 87be cd23 29bd
00000310: 0ed1 a9bd e2d4 98bb 1920 b33e 4134 e73d
00000320: d452 1abd 2083 383c 28f6 233f e9c4 c1bc
00000330: 10f5 05bc 72c0 1b3d 81cc f23d 4286 6c3e
00000340: ab08 bfbb f38b 123f 00de f33e 05c7 3b3e
00000350: 58d6 67be 34ff 0e3f 4888 de3e d34e d53d
00000360: 2158 92be 4242 493e 86d9 0f3e e0ab 7bbd
00000370: 057f d23e ea24 e13d e173 29bd d9eb 5bbc
00000380: d7a9 943e 069b c33c fcc2 96bd dc86 2b3c
00000390: d2f7 9d3e 6a8c acbe 4ede 043f b021 c4bd
000003a0: f0ce 36bd 8918 13bd eff1 09bf 0a45 2e3e
000003b0: 9b93 c53d f56e a0bd 2be7 f1be 9ad7 7abd
000003c0: 2308 0f3e f4ed 2fbd a43d 35bb 496b 7a3d
000003d0: e742 9cbd 62b6 95bd ab99 a53e d050 bebd
000003e0: f742 f43b dd46 c4bc 3e5a 48bd 3810 aebd
000003f0: 50cd 153e a794 743d 4937 67bd 1e78 f23e

fc3.weight f4 [4, 256]
0.5014149 0.4065209 -0.02276481 -0.65913105 0.550099 1.5748333 -0.22339505 0.08455198
-0.043379065 0.01101502 0.15585592 0.0017032623 0.20487869 1.3523871 -0.28282025 -0.5918637
-1.1000993 0.3506896 -1.0900964 0.6966269 -0.006389176 0.43938985 0.025162384 0.07624902
-1.0185254 0.016382592 -0.58964455 -1.7499212 -0.033226196 0.20467657 -0.012880377 -0.0069470564
0.99231815 0.725651 -0.02253492 0.02145414 -0.85748607 -0.5896972 0.057345413 0.014283472
0.03476081 0.27781567 -0.039492473 -1.1127304 0.024971427 0.043389928 -1.061897 -0.0010594857
0.009390344 -0.6537185 0.16787903 0.03305268 1.2630924 0.035776783 0.37987643 0.57440686
0.0535865 0.0059432504 -1.7098905 0.052731283 0.19906631 0.06069447 -0.4818813 0.024915379
-1.1890289 -0.38447276 -0.010221615 -0.022189975 0.52225524 0.13952702 -0.029769285 -1.1614349
-0.5270461 0.047901403 0.00073245785 0.012546346 0.2740588 0.81406474 -0.6565119 -0.007055165
0.016659217 -0.046504788 0.035714626 0.4363217 0.41468698 0.018344278 0.05530343 0.03347804
0.058248512 -0.40436786 -0.027421713 0.015648406 0.015618079 -0.0037408988 -0.11378675 0.44895193
0.13423859 -0.029275652 -0.0012480691 0.15974148 0.5103155 -0.020783316 -0.07854507 0.00966345
0.07624667 0.086888365 -0.72525036 -0.15672056 -0.059367597 -0.020220915 -0.75943416 0.4100536
0.046463825 0.19733447 0.7056626 0.31251198 0.3291834 0.021479141 -0.4230651 0.23066631
1.4178022 0.025211878 -0.0029974224 -0.60479444 0.9698469 0.28857452 -0.006873831 0.009895504
0.7956781 -0.056200445 -0.006081407 0.603788 0.3565062 0.057437226 0.00931474 -0.35933653
-0.0011211853 -1.44078 -0.46563646 0.010381737 -0.0020978125 -0.45748168 0.04835928 -0.022497753
0.7163834 0.051994175 0.035347577 -0.0056612873 0.61586374 -0.03406024 0.06645113 0.004907312
0.005607485 0.6416671 -1.214277 -0.033741616 0.31615338 1.2263181 0.0016244052 0.0058906334
-0.18136051 -0.8156761 1.2520896 -1.1489228 -0.36872667 -2.0902438 -0.54048824 -0.6188337
0.0039126193 -0.46200743 0.00375963 0.57040155 0.01791204 0.159841 -0.50988454 0.030869657
0.04279252 -0.599302 0.04867385 0.02979495 0.7229048 0.061909206 0.32165304 -1.342923
-0.51618093 -0.9185346 0.03552218 -0.8261385 0.7104292 -0.1300116 0.01564934 -0.009786552
0.49080697 -0.52560043 1.0012528 -0.015197297 0.017724827 0.052618835 0.4643736 0.5873256
0.009563875 -0.5733298 -2.0579798 0.017745612 -0.004385498 -0.009465646 0.008696869 0.22540809
-0.016315615 0.4667182 0.35987693 0.6292138 0.52864933 0.8846271 -0.0036828166 0.51264864
-0.37480766 0.40762952 -0.59146607 -0.02455806 0.2834487 0.21380958 -0.021177772 0.056143086
0.33571208 0.24154563 -0.009775445 -0.020179214 0.35904175 -0.800581 0.19698526 -0.011485259
-0.032598324 -0.04279782 -0.4713262 0.5741639 0.5339271 -0.015691293 -1.9271137 -0.029048279
-0.46623105 -0.00084127777 0.025701337 1.4852341 -0.023573944 0.012460979 -1.4525093 -0.81672084
0.046686564 -0.0012751959 0.024130935 0.040193144 0.07246579 0.3713322 -0.018010445 0.46643505
00000000: ba5c 003f 8223 d03e 447d babc d0bc 28bf
00000010: 4ad3 0c3f 2394 c93f acc1 64be 9729 ad3d
00000020: 3fae 31bd 5878 343c b298 1f3e 0040 df3a
00000030: b8cb 513e 051b ad3f d1cd 90be 6184 17bf
00000040: 0ed0 8cbf 968d b33e 4788 8bbf 2456 323f
00000050: 4b5c d1bb b5f7 e03e 5821 ce3c 7228 9c3d
00000060: 0a5f 82bf c934 863c f2f2 16bf 6bfd dfbf
00000070: 3118 08bd bc96 513e 3708 53bc 22a4 e3bb
00000080: 9008 7e3f 44c4 393f 279b b8bc 98c0 af3c
00000090: 3584 5bbf 65f6 16bf 06e3 6a3d 3905 6a3c
000000a0: 5a61 0e3d db3d 8e3e dcc2 21bd f36d 8ebf
000000b0: e190 cc3c a3b9 313d 3eec 87bf 71de 8aba
000000c0: f5d9 193c 185a 27bf 7be8 2b3e 3f62 073d
000000d0: 03ad a13f ad8a 123d 2a7f c23e 540c 133f
000000e0: 857d 5b3d 99bf c23b b1dd dabf c2fc 573d
000000f0: 0ad8 4b3e c49a 783d 25b9 f6be 561b cc3c
00000100: 1932 98bf 9dd9 c4be 9078 27bc c0c7 b5bc
00000110: 85b2 053f 2ce0 0e3e b7de f3bc e6a9 94bf
00000120: 7eec 06bf 4334 443d 6a02 403a 308f 4d3c
00000130: 6f51 8c3e 8c66 503f 2a11 28bf 032f e7bb
00000140: e978 883c ce7b 3ebd 8049 123d 8f65 df3e
00000150: da51 d43e bd46 963c d985 623d 4520 093d
00000160: fe95 6e3d 4e09 cfbe 80a3 e0bc 1631 803c
00000170: f9e2 7f3c de29 75bb 0709 e9bd 07dd e53e
00000180: d775 093e 7ed3 efbc 4096 a3ba 4593 233e
00000190: 09a4 023f c641 aabc 3ddc a0bd 7253 1e3c
000001a0: 3727 9c3d 87f2 b13d 02aa 39bf 5b7b 20be
000001b0: 702b 73bd 55a6 a5bc 476a 42bf 8cf2 d13e
000001c0: da50 3e3d 0c12 4a3e 4ea6 343f 9201 a03e
000001d0: ba8a a83e 06f5 af3c fd9b d8be ca33 6c3e
000001e0: 8b7a b53f 2489 ce3c 6770 44bb cfd3 1abf
000001f0: e347 783f 0ac0 933e e03d e1bb c120 223c
00000200: 8fb1 4b3f 7032 66bd 8a46 c7bb da91 1a3f
00000210: fb87 b63e 4c43 6b3d da9c 183c f5fa b7be
00000220: bcf4 92ba 7b6b b8bf e767 eebe 2918 2a3c
00000230: 747b 09bb 0a3b eabe 6114 463d 354d b8bc
00000240: e764 373f d8f7 543d 9fc8 103d 5282 b9bb
00000250: 3fa9 1d3f c082 0bbd 8817 883d 84cd a03b
00000260: febe b73b 4c44 243f 6e6d 9bbf a634 0abd
00000270: dbde a13e fef7 9c3f fee9 d43a 3706 c13b
00000280: 92b6 39be 26d0 50bf 7944 a03f e70f 93bf
00000290: bec9 bcbe 8ec6 05c0 705d 0abf e36b 1ebf
000002a0: 6e35 803b 3d8c ecbe 2064 763b d605 123f
000002b0: 45bc 923c 5cad 233e cb87 02bf 5de2 fc3c
000002c0: 3647 2f3d db6b 19bf 3b5e 473d 8a14 f43c
000002d0: 4a10 393f 8294 7d3d b5af a43e e7e4 abbf
000002e0: 6f24 04bf 1525 6bbf b57f 113d d07d 53bf
000002f0: b0de 353f c321 05be 0b33 803c c657 20bc
00000300: 0d4b fb3e c08d 06bf 0d29 803f 15fe 78bc
00000310: a833 913c d986 573d 60c2 ed3e f85a 163f
00000320: cdb1 1c3c bec5 12bf f1b5 03c0 3f5f 913c
00000330: 39b4 8fbb cc15 1bbc 507d 0e3c 61d1 663e
00000340: 53a8 85bc b0f5 ee3e ca41 b83e 2814 213f
00000350: 9055 073f ec76 623f 695b 71bb f13c 033f
00000360: cae6 bfbe d1b4 d03e 526a 17bf fc2d c9bc
00000370: 3020 913e e6f0 5a3e 027d adbc 4bf6 653d
00000380: 74e2 ab3e bd57 773e 3029 20bc e14e a5bc
00000390: 52d4 b73e e0f2 4cbf 81b6 493e ab2c 3cbc
000003a0: d285 05bd c44c 2fbd ab51 f1be 68fc 123f
000003b0: 72af 083f 078b 80bc a9ab f6bf a8f6 edbc
000003c0: d6b5 eebe 3289 5cba 9c8b d23c 271c be3f
000003d0: 251e c1bc 2229 4c3c d3eb b9bf 9e14 51bf
000003e0: 693a 3f3d 7924 a7ba 3dae c53c 91a1 243d
000003f0: f268 943d 411f be3e a48a 93bc 93d0 ee3e

fc3.bias f4 [4]
0.7282138 0.811126 0.7256758 0.71511585
00000000: 386c 3a3f f4a5 4f3f e4c5 393f d511 373f
