csv_and_models/Duelling_DDQ_PER/trained models/duelling_double_PER_lunar_600.pth (torch, 17316 bytes, 5 tensors)

fc1.weight f4 [256, 8]
-0.007230301 -0.7849512 -0.1215849 -1.1012098 0.94767547 3.483482 -3.078033 -0.57147586
-0.09063316 0.07085325 -0.2284467 0.468376 -0.28904775 0.0067667775 -0.057766885 0.53208554
0.4671428 -0.18904454 -0.29099572 1.0831879 1.0216597 2.1442637 1.7920421 1.5389777
-0.0684475 0.785197 1.2366866 -0.3122138 2.6920006 1.0261315 1.6138085 -6.317262
1.1916802 0.1338734 -0.31114128 -1.0849414 1.8056668 1.6320348 -0.9132498 -0.65169376
-0.7541467 -0.04900695 -0.12932162 -0.035669465 -0.75480497 -1.6292228 -3.6874125 0.03385878
0.28596264 -0.5112884 -2.4903522 2.0893571 -0.70198345 -1.3969493 -0.6164076 -1.9889172
0.40060645 -6.435795 3.1118448 -2.3754714 1.9044616 2.0895565 0.14335582 -1.6534393
-0.20447955 -1.4192102 -0.11646876 7.449651 -0.12810853 0.0765025 0.5074637 0.35380518
-1.1801515 0.5511933 0.044845387 -0.44025686 0.3172474 2.9867036 0.21373045 -0.18475369
-0.04647582 -1.0338752 -0.3138872 -1.2970319 0.5567973 1.881296 0.39265734 1.1487117
-0.10521521 -0.48138237 1.765764 -2.0897124 0.70381254 -1.3986437 0.066776246 -0.25841308
-2.0038667 0.3563891 -0.87882274 0.9503714 -1.1899238 -0.38707536 1.6753347 -0.36220482
-0.077837065 0.79571813 -0.37712306 0.23255363 1.7119737 2.2539659 1.992997 0.57752764
0.573955 -0.78143865 1.7185647 0.81637603 -3.7222447 -0.0057320637 -1.1363021 1.4811426
-0.061668407 0.38328746 1.1479127 0.7176032 -1.7626203 -2.6842823 -0.697545 -3.5258853
-1.8866742 -0.17684388 0.9896356 -0.21106999 1.8542119 -0.33123684 -2.7171903 0.81108016
-0.084643595 0.44985867 -0.41327265 0.3699478 -1.0770203 4.668647 -1.3302803 -6.4850664
-0.48978525 -0.41136995 0.90605426 -2.0172246 1.0706835 0.09258949 1.1646241 1.1413522
-0.67618746 0.546803 -0.43796134 -0.6866032 -4.1291065 -0.03729924 -4.922381 -0.20427257
0.24824435 0.1134721 0.06918031 0.38835827 -1.6029227 -4.0718036 -0.55686057 -5.725898
-0.23118049 -0.24339111 1.5015347 0.0712098 1.2152314 0.6278639 -1.9682114 -0.47999138
-0.35085094 0.7446869 1.0704077 -0.7063537 -0.11329141 -2.0337362 -1.0490825 -0.3875623
-0.61041284 0.39545852 -1.1042496 -0.693818 0.13116868 -1.1900983 1.1787013 0.60332936
-3.420181 -1.1295869 -1.6430104 -1.6411141 -0.6697687 0.21614963 -0.12868482 -2.2216067
0.22811173 -3.2140665 -0.257569 -2.9690704 1.0945258 2.2894099 -0.075025424 -0.032397073
0.13540769 -0.0010880381 -0.027459098 0.087777294 -4.675625 0.6960593 1.2114781 -0.05706332
1.5406741 -1.1326716 2.6018944 -1.4749855 0.992053 -0.8793898 0.046776168 -0.4532974
-0.8111758 -1.8229907 3.1363194 0.20822495 -0.56942 -1.9366194 1.3226033 -0.88676643
-0.57376796 -0.16228203 1.3362917 -2.0749476 2.0124688 -0.5657046 0.33685791 -0.02483687
-1.8237557 0.3161673 -0.19480678 0.40780905 2.2593942 -0.28220075 -2.071578 -0.55856675
0.23730762 -0.28586873 0.83501166 -1.5320203 -1.6414732 -0.97876745 0.31456357 1.5302118
00000000: 29ec ecbb 90f2 48bf 8101 f9bd 71f4 8cbf
00000010: dc9a 723f 5ef1 5e40 7efe 44c0 3e4c 12bf
00000020: e19d b9bd 821b 913d efed 69be fbce ef3e
00000030: 11fe 93be d8bb dd3b f89c 6cbd c236 083f
00000040: 572d ef3e e494 41be 64fd 94be e7a5 8a3f
00000050: bfc5 823f 9e3b 0940 a361 e53f 39fd c43f
00000060: 342e 8cbd ac02 493f bf4b 9e3f 7dda 9fbe
00000070: bd49 2c40 4758 833f 4791 ce3f 0327 cac0
00000080: fa88 983f 1c16 093e e94d 9fbe 5cdf 8abf
00000090: 1720 e73f 84e6 d03f bdca 69bf 67d5 26bf
000000a0: c20f 41bf 83bb 48bd e36c 04be 251a 12bd
000000b0: e63a 41bf 5f8a d0bf 91fe 6bc0 81af 0a3d
000000c0: b269 923e cce3 02bf ee61 1fc0 07b8 0540
000000d0: 30b5 33bf 3ccf b2bf e3cc 1dbf d794 febf
000000e0: 4a1c cd3e 08f2 cdc0 7728 4740 b907 18c0
000000f0: 66c5 f33f 4bbb 0540 decb 123e e6a3 d3bf
00000100: 1663 51be aea8 b5bf 2c87 eebd 8a63 ee40
00000110: e22e 03be 58ad 9c3d 24e9 013f f425 b53e
00000120: 340f 97bf 011b 0d3f ccaf 373d 5969 e1be
00000130: 406e a23e 2726 3f40 28dc 5a3e 1230 3dbe
00000140: 6e5d 3ebd 0656 84bf d3b5 a0be 2405 a6bf
00000150: 458a 0e3f 4fce f03f 620a c93e fc08 933f
00000160: 127b d7bd c077 f6be 8e04 e23f d9bd 05c0
00000170: 0f2d 343f c206 b3bf fcc1 883d b84e 84be
00000180: 5a3f 00c0 a278 b63e 87fa 60bf 8a4b 733f
00000190: 6c4f 98bf be2e c6be 5e71 d63f e972 b9be
000001a0: 0a69 9fbd 2fb4 4b3f 4616 c1be 8a22 6e3e
000001b0: f421 db3f fa40 1040 871a ff3f dad8 133f
000001c0: b7ee 123f 5d0c 48bf eef9 db3f 05fe 503f
000001d0: 4239 6ec0 09d4 bbbb 5972 91bf 1596 bd3f
000001e0: 0398 7cbd 413e c43e ceee 923f d8b4 373f
000001f0: 8b9d e1bf 48cb 2bc0 4f92 32bf 1ba8 61c0
00000200: 8a7e f1bf 9016 35be c258 7d3f bb22 58be
00000210: d156 ed3f e097 a9be 72e6 2dc0 f3a2 4f3f
00000220: 9f59 adbd e053 e63e 7998 d3be cc69 bd3e
00000230: cddb 89bf 8e65 9540 a046 aabf aa85 cfc0
00000240: 22c5 fabe 159f d2be 2cf3 673f 351a 01c0
00000250: 280c 893f 8f9f bd3d 6712 953f d417 923f
00000260: 9f1a 2dbf 48fb 0b3f 783c e0be 3ac5 2fbf
00000270: a421 84c0 16c7 18bd 2584 9dc0 d42c 51be
00000280: c433 7e3e 0f64 e83d 68ae 8d3d e5d6 c63e
00000290: 922c cdbf 374c 82c0 6a8e 0ebf 8e3a b7c0
000002a0: 94ba 6cbe 853b 79be 4a32 c03f 72d6 913d
000002b0: b48c 9b3f b0bb 203f 5aee fbbf 6ec1 f5be
000002c0: bca2 b3be cda3 3e3f 1f03 893f 99d3 34bf
000002d0: 5405 e8bd bc28 02c0 5648 86bf 916e c6be
000002e0: 0444 1cbf 8a79 ca3e 0d58 8dbf 0e9e 31bf
000002f0: 1551 063e 2455 98bf afdf 963f cb73 1a3f
00000300: 3fe4 5ac0 4e96 90bf 2a4e d2bf 0710 d2bf
00000310: f675 2bbf 5456 5d3e f4c5 03be ce2e 0ec0
00000320: 1f96 693e 44b3 4dc0 15e0 83be 4005 3ec0
00000330: 6c19 8c3f b185 1240 eea6 99bd cbb2 04bd
00000340: 50a8 0a3e 809c 8eba e7f1 e0bc 95c4 b33d
00000350: b89e 95c0 f130 323f b711 9b3f 3abb 69bd
00000360: cf34 c53f 62fb 90bf 7085 2640 53cc bcbf
00000370: 2ff7 7d3f b11f 61bf 5e98 3f3d 9916 e8be
00000380: 38a9 4fbf c257 e9bf 75b9 4840 ec38 553e
00000390: 82c5 11bf 25e3 f7bf 114b a93f 2003 63bf
000003a0: 75e2 12bf 432d 26be 9b0b ab3f f1cb 04c0
000003b0: 4acc 0040 04d2 10bf a478 ac3e b176 cbbc
000003c0: d470 e9bf aee0 a13e 6e7b 47be 59cc d03e
000003d0: ea99 1040 9e7c 90be bc94 04c0 3bfe 0ebf
000003e0: c500 733e 635d 92be 53c3 553f 3e19 c4bf
000003f0: cb1b d2bf 8190 7abf 7a0e a13e fbdd c33f

fc1.bias f4 [256]
-0.4403848 -0.7703103 -0.3378527 -0.8046329 -0.49354774 0.516709 0.618445 -0.6356373
0.6660869 -0.014871481 -0.102297276 0.30528134 0.25120205 0.00076752406 0.35653389 0.44250885
0.13880889 0.4923182 0.12624682 -0.29476875 0.9969608 0.23168704 0.6442756 -0.06301835
0.09416557 -0.47424117 0.054953262 -0.42358154 -0.60489935 0.15849192 -0.12649438 0.08997965
0.10543305 -0.0863049 -0.1339511 -0.35267746 0.06449187 -0.76831186 0.45806444 -0.263595
0.0993664 0.04655003 0.09958972 -0.8450746 0.4491863 0.21654347 0.09950815 -0.06413076
0.046441104 0.2859545 -0.15165237 0.62656254 0.97088134 0.6991605 0.7494441 -0.05593733
-0.01284613 0.22437418 -0.4627546 0.028147396 0.29398942 -0.8341775 0.62744 -0.2682365
-0.37739927 -0.30625132 -1.6686807 0.3563157 -0.45214885 -0.45920673 -0.344971 -0.31208727
-2.207694 -0.11783201 -0.9803452 0.07028837 -0.1279851 0.41963455 -0.75806874 0.12853265
0.1761748 0.22650385 0.17107858 0.3972236 0.8694505 0.6867295 0.7354674 0.5550333
0.5399772 -0.08706809 0.071238264 -0.8466228 -0.2680628 0.1955225 0.3602277 0.6149005
0.24896541 0.6664915 -0.51438224 -0.07638802 0.8051785 0.035298575 -0.16444583 -0.97624433
0.27151796 0.25265244 -0.99714285 0.42478284 -0.19011627 0.4117195 -0.6072075 -0.3530494
-0.44465595 -0.2865067 0.00583152 0.067533836 0.28157407 -0.59912926 0.6015236 0.23998962
-0.28223327 0.36848667 0.29222012 -0.07729746 0.94687515 -0.7522184 0.6897715 0.015604052
-0.0064713596 -0.18735524 -0.3271595 -0.3588272 0.02879989 -0.07142687 0.6611286 -0.11742319
-0.006356082 0.61889845 0.4283265 0.39512956 0.0826888 0.12183218 0.025954757 1.1448401
-0.19916175 -1.5316486 -0.034061275 0.60857433 -0.27098748 0.15747519 0.718899 0.67510486
-0.3548769 -0.88304734 0.19165573 0.66159004 -0.540417 0.39650166 0.404362 0.40212283
-0.02748871 0.3003269 -0.03312029 -0.053769786 -0.5144951 0.036043704 -0.19388984 0.18365487
0.37747866 0.013878298 -0.081734605 0.43944788 -0.17400643 -0.013885697 0.1720919 -0.036648825
0.2451448 -0.7355955 -0.7035597 -0.2146799 -0.18040942 -0.36350897 0.9203765 0.5277937
-0.008208758 0.28501725 -0.6101811 0.41081974 0.29590634 0.006965032 -0.32428586 1.0642236
0.60901177 0.5078842 0.11237355 -0.86671 0.06491906 0.39866513 -0.098382026 0.1765484
-0.037315622 -1.0606134 -0.36442578 0.021747043 -0.5853803 0.6338388 0.49766418 -0.47164947
0.42216584 0.8463295 0.5347351 -0.73121905 0.36727872 -0.63037163 -0.36524886 -0.5428097
0.69079155 0.4068731 0.4008745 0.18764916 0.24009593 0.009780046 0.39035714 0.091365226
0.109855756 0.51379865 -0.45389014 0.31980798 0.053000156 -0.07997168 0.8960805 0.6785377
0.0099569885 -0.106904574 -0.121276714 -0.54833204 0.2010355 -0.16288042 0.0895929 0.47316092
0.56990683 0.90082777 -0.38439748 -0.048001226 0.19293769 -0.33573332 -0.23136872 0.2080092
-1.29031 0.10087977 0.4412215 0.435027 0.44651553 -0.035202023 -0.260994 0.048091553
00000000: 1e7a e1be 0e33 45bf 07fb acbe 6cfc 4dbf
00000010: 4ab2 fcbe 0b47 043f 6952 1e3f 20b9 22bf
00000020: ac84 2a3f 83a7 73bc 3c81 d1bd d64d 9c3e
00000030: 8e9d 803e ab33 493a 9c8b b63e 8590 e23e
00000040: eb23 0e3e 2211 fc3e d946 013e eeeb 96be
00000050: d338 7f3f 5e3f 6d3e 3fef 243f c40f 81bd
00000060: e1d9 c03d bdcf f2be ac16 613d aedf d8be
00000070: afda 1abf b54b 223e be87 01be 4047 b83d
00000080: 48ed d73d a0c0 b0bd 7a2a 09be 2492 b4be
00000090: 5014 843d 16b0 44bf 6c87 ea3e edf5 86be
000000a0: 9c80 cb3d 3fab 3e3d b2f5 cb3d cf56 58bf
000000b0: bffb e53e 92bd 5d3e eeca cb3d fd56 83bd
000000c0: 0739 3e3d a168 923e c24a 1bbe 6766 203f
000000d0: ae8b 783f 2ffc 323f 92db 3f3f 8b1e 65bd
000000e0: 9378 52bc 58c2 653e 2cee ecbe 5e95 e63c
000000f0: c885 963e a88c 55bf e89f 203f 4b56 89be
00000100: 7a3a c1be f9cc 9cbe 5497 d5bf 036f b63e
00000110: 0e80 e7be 251d ebbe 0aa0 b0be e7c9 9fbe
00000120: dc4a 0dc0 e951 f1bd e7f7 7abf 59f3 8f3d
00000130: 870e 03be 57da d63e cb10 42bf 109e 033e
00000140: 2b67 343e a0f0 673e 392f 2f3e e460 cb3e
00000150: 4f94 5e3f 81cd 2f3f 9747 3c3f aa16 0e3f
00000160: f23b 0a3f c150 b2bd 5ee5 913d 46bc 58bf
00000170: 873f 89be 0d37 483e c46f b83e 1f6a 1d3f
00000180: caf0 7e3e 309f 2a3f 8eae 03bf 5271 9cbd
00000190: 2e20 4e3f 3d95 103d 7d64 28be 26eb 79bf
000001a0: 6704 8b3e a95b 813e c144 7fbf 237d d93e
000001b0: d7ad 42be e6cc d23e f371 1bbf e4c2 b4be
000001c0: f2a9 e3be 02b1 92be 5616 bf3b 2e4f 8a3d
000001d0: 7a2a 903e 8960 19bf 73fd 193f d7bf 753e
000001e0: e180 90be 49aa bc3e e09d 953e 214e 9ebd
000001f0: 6966 723f 6391 40bf dd94 303f 23a8 7f3c
00000200: b30d d4bb 0dda 3fbe 7381 a7be 33b8 b7be
00000210: bfed eb3c 4048 92bd b93f 293f 927b f0bd
00000220: ae46 d0bb 2170 1e3f 9c4d db3e 6c4e ca3e
00000230: bf58 a93d 2683 f93d 129f d43c 1f8a 923f
00000240: 0ff1 4bbe 100d c4bf d683 0bbd 87cb 1b3f
00000250: dfbe 8abe 2d41 213e c409 383f acd3 2c3f
00000260: 6db2 b5be 640f 62bf 6641 443e f75d 293f
00000270: c558 0abf 4402 cb3e 8908 cf3e 0be3 cd3e
00000280: 0130 e1bc 73c4 993e 24a9 07bd b53d 5cbd
00000290: f3b5 03bf 90a2 133d 0f8b 46be 0610 3c3e
000002a0: e244 c13e cd61 633c 7964 a7bd 50ff e03e
000002b0: be2e 32be d680 63bc dc38 303e 141d 16bd
000002c0: 3d07 7b3e fd4f 3cbf 7d1c 34bf 0cd5 5bbe
000002d0: 3fbd 38be d91d babe cb9d 6b3f 7d1d 073f
000002e0: 077e 06bc c8ed 913e d434 1cbf f756 d23e
000002f0: 0981 973e ec3a e43b cc08 a6be 7b38 883f
00000300: 32e8 1b3f b304 023f 1b24 e63d b5e0 5dbf
00000310: 49f4 843d d61d cc3e 847c c9bd 1bc9 343e
00000320: 44d8 18bd 2ec2 87bf 0496 babe db26 b23c
00000330: 7cdb 15bf 4243 223f d7cd fe3e 0a7c f1be
00000340: 1f26 d83e 0da9 583f 66e4 083f 2c31 3bbf
00000350: f50b bc3e 0960 21bf e601 bbbe 94f5 0abf
00000360: b7d7 303f ac51 d03e 6c3f cd3e 1a27 403e
00000370: b5db 753e 7c3c 203c e4dc c73e b11d bb3d
00000380: 0efc e03d 4f88 033f 4a64 e8be dfbd a33e
00000390: b116 593d 31c8 a3bd 8865 653f a6b4 2d3f
000003a0: a322 233c c9f0 dabd ed5f f8bd 7d5f 0cbf
000003b0: 40dc 4d3e 20ca 26be 7b7c b73d 2642 f23e
000003c0: 6ae5 113f a69c 663f bfcf c4be ef9c 44bd
000003d0: 7591 453e 3de5 abbe eceb 6cbe 5d00 553e
000003e0: e128 a5bf 0e9a ce3d c9e7 e13e dcbb de3e
000003f0: af9d e43e ff2f 10bd 01a1 85be a6fb 443d

fc_value.weight f4 [1, 256]
2.1673899 0.29110575 -1.7887294 0.31459317 1.355468 0.8725874 3.887381 6.1478295
-2.8142023 1.3879405 0.75377476 2.1076458 -1.6650201 -1.4830891 -2.148079 -2.1186032
-0.6127436 -3.1383905 1.9953974 2.7766287 -2.3817227 1.110847 1.3552611 0.42393312
-3.7121713 -4.9004235 3.368119 -3.3717115 2.4129348 2.3151321 -1.9477473 1.4441713
1.8264884 -1.971885 1.709078 3.0137377 7.0500093 -6.533734 1.6327462 2.2345314
1.6931664 -0.95008767 1.310196 -1.0981933 -1.8079072 0.6994015 -3.194649 5.59829
0.5578263 4.6300874 -2.9395032 1.466216 1.0903211 -1.343094 -1.3923372 -2.035511
3.4322426 -3.4219997 1.5274757 -2.3760223 1.8685328 5.035967 -1.690719 4.4783316
-2.9115417 -2.8734052 3.1170752 2.4134598 -4.3356338 -0.04826693 1.0553418 -1.7128297
5.219759 -2.4866889 -2.9816263 1.8934972 -4.1854897 -1.6931978 -4.1878276 -1.5699513
-2.0751061 0.37394485 1.84943 0.5887751 -2.556856 1.6630623 1.3609746 0.07885601
1.4180673 -2.5030246 -2.0436678 -3.021971 3.083319 -1.3703163 4.404434 -2.4534757
4.848868 2.266862 -3.291382 1.7582071 1.157207 0.05988318 1.846574 2.9947507
0.5336789 1.1198514 -4.3177323 0.6353436 -5.348027 -2.7871046 -5.0442524 3.0553744
2.0700588 2.356483 4.695568 2.064295 3.1082292 -1.887334 -1.5066271 -2.1288462
6.100214 4.7694736 3.0160966 -1.0020993 3.6891825 7.7274814 1.4528759 1.9281223
-1.2061871 -0.4153402 -3.0822265 -2.6607583 2.1566958 -3.1724741 -2.9907432 -1.074733
-3.3203802 1.9576801 0.7254952 0.7560924 3.5262754 2.1360943 1.7823843 1.2517967
-5.058632 9.837168 2.6060343 -2.6442285 -2.69237 1.8051299 -1.7210519 0.9076299
-4.486228 -4.505047 2.9950807 -1.2169988 -3.6358159 -1.411983 1.4761381 0.566731
-2.2603729 1.6899203 1.5978132 1.6582129 -0.3432729 2.1477358 -1.8241265 -2.2047644
-1.171151 2.553715 1.1423444 0.6387176 -1.8698704 2.2050893 0.9994967 0.4957132
1.9003283 -2.4883199 -3.074401 3.6750736 -2.278901 -2.0986667 1.0840034 1.0296082
0.58694345 -2.2599604 0.11585247 1.9039193 -1.8561158 -3.2407615 0.2588071 1.9049566
1.3273927 2.8901947 -3.4180238 -7.2621527 3.8576505 -3.347565 1.254299 1.1074545
-3.1284652 -3.3208525 3.8096218 2.7231352 1.7831763 1.2211587 2.1978283 0.72019917
0.43854344 -2.233117 1.8614063 2.4938626 -0.055606484 -2.884114 0.75808483 5.320581
4.3006306 -1.8016386 0.55417174 1.9900606 0.9429867 0.24087112 2.654337 -0.4309128
2.981789 1.1584816 -4.297719 -1.663404 -1.7562394 -0.49880892 1.41472 1.5174817
-2.8791537 0.7227597 1.5840569 -3.9333057 0.8503231 -1.3609971 1.046156 -2.4138193
0.65910965 -2.3821824 -2.2517111 1.8235798 -2.5784357 2.7741404 2.3291132 3.9888237
-5.1742506 0.32334742 -1.3024071 3.3800552 -1.4836603 2.5937266 2.925405 -3.1635327
00000000: 84b6 0a40 d00b 953e 16f5 e4bf 5b12 a13e
00000010: fa7f ad3f e361 5f3f daca 7840 05bb c440
00000020: e41b 34c0 09a8 b13f 62f7 403f abe3 0640
00000030: 611f d5bf ddd5 bdbf 207a 09c0 3297 07c0
00000040: c4dc 1cbf 64db 48c0 2f69 ff3f 49b4 3140
00000050: 256e 18c0 3c30 8e3f 3279 ad3f c30d d93e
00000060: 3794 6dc0 45d0 9cc0 438f 5740 1fca 57c0
00000070: 866d 1a40 202b 1440 c94f f9bf 9bda b83f
00000080: 5fca e93f ba66 fcbf 11c3 da3f 14e1 4040
00000090: ad99 e140 5914 d1c0 d4fd d03f 9002 0f40
000000a0: adb9 d83f f238 73bf 81b4 a73f 9991 8cbf
000000b0: 8169 e7bf fa0b 333f 2175 4cc0 3125 b340
000000c0: b4cd 0e3f ad29 9440 d220 3cc0 f7ac bb3f
000000d0: a48f 8b3f 81ea abbf 1b38 b2bf d045 02c0
000000e0: dda9 5b40 0b02 5bc0 5384 c33f c010 18c0
000000f0: 152c ef3f a426 a140 7b69 d8bf 7e4e 8f40
00000100: b356 3ac0 dfe5 37c0 297e 4740 2076 1a40
00000110: 83bd 8ac0 8bb3 45bd 7115 873f 013e dbbf
00000120: 4408 a740 e925 1fc0 f7d2 3ec0 1e5e f23f
00000130: 88ef 85c0 b5ba d8bf af02 86c0 2af4 c8bf
00000140: 8ace 04c0 b375 bf3e 1fba ec3f f7b9 163f
00000150: 87a3 23c0 3adf d43f 6a34 ae3f 437f a13d
00000160: 3b83 b53f 8e31 20c0 74cb 02c0 f967 41c0
00000170: 1955 4540 8666 afbf 20f1 8c40 bf05 1dc0
00000180: ed29 9b40 4414 1140 01a6 52c0 ee0c e13f
00000190: 5c1f 943f 1148 753d 895c ec3f ffa9 3f40
000001a0: 2e9f 083f 4a57 8f3f dd2a 8ac0 e1a5 223f
000001b0: 0a23 abc0 ec5f 32c0 846a a1c0 418b 4340
000001c0: d87b 0440 9ed0 1640 1842 9640 691d 0440
000001d0: 3aed 4640 2994 f1bf 28d9 c0bf 043f 08c0
000001e0: f434 c340 879f 9840 ba07 4140 ca44 80bf
000001f0: 911b 6c40 8747 f740 d6f7 b93f b6cc f63f
00000200: 5764 9abf 78a7 d4be 3343 45c0 dd49 2ac0
00000210: 4e07 0a40 d109 4bc0 5668 3fc0 da90 89bf
00000220: 1c81 54c0 4395 fa3f 0eba 393f 468f 413f
00000230: 7fae 6140 c5b5 0840 2b25 e43f e03a a03f
00000240: 50e0 a1c0 0a65 1d41 44c9 2640 0a3b 29c0
00000250: ca4f 2cc0 7f0e e73f 6e4b dcbf 6f5a 683f
00000260: 2e8f 8fc0 5829 90c0 67af 3f40 9ec6 9bbf
00000270: 35b1 68c0 dcbb b4bf 18f2 bc3f 4815 113f
00000280: f3a9 10c0 4f4f d83f 2585 cc3f 5240 d43f
00000290: 77c1 afbe 8174 0940 fa7c e9bf dc1a 0dc0
000002a0: 47e8 95bf 1170 2340 5738 923f ff82 233f
000002b0: ea57 efbf 2f20 0d40 04df 7f3f 1fce fd3e
000002c0: f53d f33f a240 1fc0 fcc2 44c0 6834 6b40
000002d0: 84d9 11c0 8e50 06c0 a0c0 8a3f 34ca 833f
000002e0: ed41 163f 31a3 10c0 0f44 ed3d a1b3 f33f
000002f0: 3495 edbf a368 4fc0 5d82 843e 9ed5 f33f
00000300: 01e8 a93f f3f8 3840 e7c0 5ac0 8e63 e8c0
00000310: bfe3 7640 813e 56c0 df8c a03f 12c1 8d3f
00000320: c638 48c0 d988 54c0 d8d0 7340 d947 2e40
00000330: 1f3f e43f ee4e 9c3f 38a9 0c40 f95e 383f
00000340: c488 e03e 64eb 0ec0 9042 ee3f 729b 1f40
00000350: a0c3 63bd 5395 38c0 d911 423f 3342 aa40
00000360: c49e 8940 189c e6bf 33de 0d3f 4eba fe3f
00000370: 9467 713f eba6 763e a8e0 2940 9aa0 dcbe
00000380: a2d5 3e40 2049 943f ea86 89c0 6cea d4bf
00000390: 74cc e0bf e263 ffbe 8c15 b53f d73c c23f
000003a0: 0e44 38c0 c806 393f 60c2 ca3f 48bb 7bc0
000003b0: c6ae 593f 2735 aebf 71e8 853f 047c 1ac0
000003c0: 69bb 283f ad75 18c0 091c 10c0 106b e93f
000003d0: 1705 25c0 848b 3140 3110 1540 e348 7f40
000003e0: 7693 a5c0 cb8d a53e 47b5 a6bf d352 5840
000003f0: 95e8 bdbf 9eff 2540 d639 3b40 5277 4ac0

fc_advantage.weight f4 [4, 256]
-1.2024218 0.37507007 -0.10913291 0.062235612 -0.13211778 0.21087314 0.0019998227 0.57755816
0.09029128 -0.7613008 -0.092646606 -0.21773997 -0.18780845 -0.116602376 0.22759707 -0.304686
-1.197371 0.38849318 0.41130254 0.6891628 -0.14839949 -1.1257596 0.24829298 0.05736049
-0.0521792 -0.15757905 -0.360026 -0.16746731 0.9117935 0.12493547 0.18640788 -0.15909395
-0.01915902 0.4106501 0.08760813 -0.1374235 0.08494617 0.85226226 -0.27362216 -0.19319615
-0.7730417 0.01895691 -0.14802893 0.048371714 -0.696247 0.0896262 0.5070146 -0.14322482
0.12281325 -0.38668245 -0.2841075 -0.18544707 0.4710883 0.08185772 0.0073994794 -0.19475086
-0.09584051 -0.35214385 0.10584488 -0.6729861 0.57768273 0.4750447 0.14685984 -0.025667887
0.11651784 -0.1746123 1.9947386 0.6695404 -0.030392544 0.08030272 -0.17744283 -0.2398268
0.75961703 -0.24773003 0.06504846 -0.42893216 0.6212609 0.08291484 -0.003127412 -0.048512384
-0.051085133 -0.39892194 -0.042280942 -0.049270302 0.2839043 0.5247945 0.22294788 -0.0032837985
0.29758048 -0.150982 0.44730535 1.0737627 -0.10875279 0.08452471 0.30186027 0.16215128
0.07010441 -0.3596266 1.8347678 -0.0031205344 0.09838822 0.76614726 0.50895494 0.3365062
-0.13926879 -0.5306489 1.9296242 0.10476 -0.5731647 -0.054161556 -1.911639 -0.068920635
-0.62549245 0.33781904 0.5408532 -0.100303344 -0.07844977 0.5783404 -0.09212463 -0.076538324
0.6607391 0.45851907 0.10484474 0.17355716 -0.021031098 -0.5969583 -0.45332685 -0.15734434
-0.43969983 -0.6932658 -0.133275 0.2814559 0.013187059 0.27990267 -0.374477 0.077244334
0.623302 0.20890324 0.00926468 0.4268244 0.0791207 -0.05127583 -0.3947461 0.598495
-2.637338 3.2574875 0.20037632 -0.29530504 -0.06302001 0.11349851 0.17459355 0.09181035
-0.1166653 0.5480925 -0.09009888 -0.46606562 -0.19717723 -0.2747243 -0.58966154 0.73267454
-0.11010635 -0.4389907 -0.122374706 -0.56852096 0.95844436 0.2639697 0.10306288 -0.110501915
-0.1860674 1.2113509 -0.18113247 -0.122583814 0.27842978 0.7411843 0.14746493 0.013524058
-0.37109303 0.16682994 -0.36071497 -0.11086352 -0.048840016 0.27015325 0.124659576 -0.022563536
0.13753588 -0.27986303 -0.87191063 0.069401674 -0.3714197 0.30462524 -0.21856476 0.12034261
0.27303138 0.6413135 -0.574441 0.57324636 0.2954109 -0.44915444 0.3054829 0.008729111
0.20375217 3.6410904 -0.32966405 0.64976937 -0.00807019 0.16407242 0.017757917 1.5050795
-0.009497625 0.49653643 0.06460909 -0.62047553 -0.51085246 0.24165638 -0.17395088 -0.0068751937
0.3362109 -0.045990933 0.00467158 0.46874365 0.24684002 -0.06550377 0.18229873 0.24444933
0.1476755 0.1649918 0.898813 -0.2828076 0.12436239 0.34431148 0.38540903 -0.31164488
-0.0005870194 -0.07919163 0.56304616 -0.91816616 -0.2560885 0.69228864 -0.11295013 -0.049370255
-0.052692007 0.23289585 0.10641145 -0.40461555 0.017378742 -0.5500014 0.046799272 -0.4301763
3.0011072 0.30744508 0.34872806 -0.3205081 -0.31324902 0.41897982 0.60134333 -1.383369
00000000: f5e8 99bf 2f09 c03e 1381 dfbd c5ea 7e3d
00000010: e249 07be 21ef 573e 750f 033b dada 133f
00000020: a2ea b83d 9ce4 42bf 81bd bdbd 3af7 5ebe
00000030: dc50 40be 3acd eebd 350f 693e ceff 9bbe
00000040: 7443 99bf 94e8 c63e 3f96 d23e f96c 303f
00000050: 09f6 17be e418 90bf 8440 7e3e d5f2 6a3d
00000060: dbb9 55bd 675c 21be 5455 b8be 8d7c 2bbe
00000070: 4c6b 693f 2bde ff3d b5e1 3e3e 86e9 22be
00000080: 61f3 9cbc bb40 d23e e46b b33d bfb8 0cbe
00000090: 42f8 ad3d dc2d 5a3f 3418 8cbe 36d5 45be
000000a0: 10e6 45bf 864b 9b3c e594 17be 6b21 463d
000000b0: 3e3d 32bf f18d b73d b5cb 013f 87a9 12be
000000c0: 8385 fb3d 3efb c5be 8a76 91be d6e5 3dbe
000000d0: 7c32 f13e 05a5 a73d 5577 f23b c56c 47be
000000e0: 0848 c4bd 334c b4be 33c5 d83d d148 2cbf
000000f0: 04e3 133f 0f39 f33e 6d62 163e 7645 d2bc
00000100: e8a0 ee3d 91cd 32be 9853 ff3f 0067 2b3f
00000110: c9f9 f8bc c175 a43d 93b3 35be 2895 75be
00000120: 4376 423f f1ac 7dbe 2138 853d ff9c dbbe
00000130: f40a 1f3f 41cf a93d 44f5 4cbb ecb4 46bd
00000140: a53e 51bd 7f3f ccbe c82e 2dbd a8cf 49bd
00000150: e85b 913e ef58 063f 734c 643e ff34 57bb
00000160: 785c 983e 079b 1abe 3505 e53e 0e71 893f
00000170: c8b9 debd 4b1b ad3d 6e8d 9a3e fc0a 263e
00000180: e792 8f3d fa20 b8be acd9 ea3f e181 4cbb
00000190: c37f c93d 3a22 443f df4a 023f 8a4a ac3e
000001a0: 7a9c 0ebe 9bd8 07bf edfd f63f 698c d63d
000001b0: ecba 12bf 82d8 5dbd 96b0 f4bf 4326 8dbd
000001c0: 4620 20bf 9ef6 ac3e 5b75 0a3f d76b cdbd
000001d0: 46aa a0bd 1e0e 143f d7ab bcbd 20c0 9cbd
000001e0: 3326 293f 03c3 ea3e d7b8 d63d f8b8 313e
000001f0: 6949 acbc 42d2 18bf 751a e8be e01e 21be
00000200: 5620 e1be de79 31bf 3e79 08be fd1a 903e
00000210: 890e 583c 674f 8f3e 73bb bfbe 4732 9e3d
00000220: b890 1f3f bbea 553e e2ca 173c ba88 da3e
00000230: 090a a23d 9b06 52bd 291c cabe f836 193f
00000240: 25ca 28c0 ad7a 5040 732f 4d3e 3932 97be
00000250: a310 81bd e871 e83d a7c8 323e 1107 bc3d
00000260: 38ee eebd ca4f 0c3f c385 b8bd 27a0 eebe
00000270: d4e8 49be aaa8 8cbe 0ff4 16bf 8f90 3b3f
00000280: 707f e1bd 64c3 e0be 979f fabd 978a 11bf
00000290: 9c5c 753f 0927 873e a212 d33d d44e e2bd
000002a0: 7488 3ebe 8c0d 9b3f ca7a 39be 390d fbbd
000002b0: 598e 8e3e 41be 3d3f 0c01 173e 0394 5d3c
000002c0: e8ff bdbe 78d5 2a3e a2af b8be 6a0c e3bd
000002d0: 780c 48bd 8751 8a3e 854d ff3d 2ad7 b8bc
000002e0: 35d6 0c3e 354a 8fbe 8935 5fbf 7722 8e3d
000002f0: b92a bebe d7f7 9b3e 71cf 5fbe 3076 f63d
00000300: c5ca 8b3e 1f2d 243f 910e 13bf 46c0 123f
00000310: 1940 973e 92f7 e5be 4168 9c3e 8c04 0f3c
00000320: 69a4 503e a007 6940 bac9 a8be 4957 263f
00000330: d538 04bc 9a02 283e 0d79 913c 72a6 c03f
00000340: ed9b 1bbc 063a fe3e c551 843d 7cd7 1ebf
00000350: 3ac7 02bf c574 773e 2e20 32be 4e49 e1bb
00000360: d623 ac3e fd60 3cbd 0e14 993b 2bff ef3e
00000370: a1c3 7c3e d726 86bd 85ac 3a3e ed50 7a3e
00000380: 3f38 173e 9cf3 283e 9c18 663f 28cc 90be
00000390: b5b1 fe3d 9849 b03e 5554 c53e eb8f 9fbe
000003a0: 35e2 19ba 392f a2bd cb23 103f f00c 6bbf
000003b0: 081e 83be d439 313f 6652 e7bd 7738 4abd
000003c0: 93d3 57bd 407c 6e3e 3fee d93d c529 cfbe
000003d0: dd5d 8e3c e4cc 0cbf 98b0 3f3d 1140 dcbe
000003e0: 2412 4040 7169 9d3e 7c8c b23e a319 a4be
000003f0: 2d62 a0be 8684 d63e a3f1 193f 3c12 b1bf

fc_advantage.bias f4 [4]
0.099317014 -0.23082551 0.2861062 -0.26335162
00000000: b866 cb3d 865d 6cbe 837c 923e 06d6 86be
