csv_and_models/Duelling_DDQ_PER/trained models/duelling_double_PER_lunar_900.pth (torch, 17316 bytes, 5 tensors)

fc1.weight f4 [256, 8]
00000000: e766 a0bd 59ed 51bf 4b51 7cbe 5c8b 9fbf
00000010: 1e43 b43f ab46 4f40 f53c 2dc0 9bbb c6bf
00000020: e19d b9bd 821b 913d efed 69be fbce ef3e
00000030: 11fe 93be d8bb dd3b f89c 6cbd c236 083f
00000040: 8892 c33d cc9d 24bf 1090 89bf 6ebe 4a40
00000050: 4244 ca3e 8ffa 2740 9823 dd3f b4fa ad3f
00000060: efc7 86bf 45cf 523f ea2d f53f 2717 10bf
00000070: 2dda cb3f c06f 623f a73e d43f 0327 cac0
00000080: 48a0 ad3f 7506 9d3e 398a e0be bfb8 7dbf
00000090: e156 a63f cb55 1440 8222 a6bf d4ca 83bf
000000a0: e435 d7be 175f 113d 16b8 563d 2ca3 b23c
000000b0: 87ec 99bf c150 03c0 91fe 6bc0 4a82 8abe
000000c0: b4d3 3c3f a248 d1be 5ed9 20c0 a8d6 eb3f
000000d0: f3b9 a6bd ff00 b7bf 9f01 d8bf c905 babf
000000e0: 0eb7 813f 234d a1c0 d471 4040 596c 0bc0
000000f0: 3cec ab3a 0394 2940 cab0 f33e f41e 48c0
00000100: 0f70 b9bf 99ce 08c0 7874 13be 1601 cf40
00000110: 78ad e5be 6ca5 4d3f 943d 6e3f 9565 813d
00000120: 73bb d5bf f0ab db3e 1286 373d ec1e 17be
00000130: 8927 543f 7f8a 6340 04dc 623e 87a9 19be
00000140: 0d39 c33e 12bc 52bf f62a 4cbf 51d9 b8bf
00000150: 963e 983f 327f 0240 5312 cc3e 4e05 923f
00000160: 548d f8be 2a9b 90be 451d d43f f359 0ac0
00000170: ad03 f43d 7607 e0bf 45fa b6bd 1b1f 11be
00000180: 9db1 24c0 1f93 b13e c087 44bf 9c05 923f
00000190: 0536 8ebf 074e 55be 6af1 c23f 5832 90be
000001a0: 2c34 383c ae1f 543f 5e97 c7be a8df 5e3e
000001b0: 2bb2 9c3f 0ae9 0340 99be 0340 3e6c 133f
000001c0: 8d75 223e c948 1dbf 2a87 2a3e 0b16 033f
000001d0: 033f 95c0 8f9b 62be ebe9 a5bf 9dcb ab3f
000001e0: 88f8 8ebd c5b3 a73e 420b 8e3f 44f7 1e3f
000001f0: de1c e9bf 9618 35c0 37c1 63c0 1ba8 61c0
00000200: 63e0 e0bf cf63 dcbe 9537 843f 7244 263d
00000210: e5b8 a53f 6a87 c93b 72e6 2dc0 ea09 803f
00000220: 0e9f c23e 355c d73e 51fe d7be fa2c 873e
00000230: 2a25 f8bf cd15 8940 2862 e8bf 44b1 ccc0
00000240: e013 52bf 4ae5 3abe 649a 0f3f e4ee 11c0
00000250: 96ad 2f3f 4734 bfbd 8e00 8e3f 46e3 8d3f
00000260: 1b10 e9bc d68b e93e 8dec 3fbf 34b3 0abe
00000270: 1d05 b5c0 d818 283e 2584 9dc0 8aaf 873e
00000280: 056d 203f 67a8 223e 1d6f b13d be6a b83e
00000290: 8205 8dbf a691 8ac0 05ec 11bf 7121 65c0
000002a0: 8894 33bf 5af4 81be 7e6b 0340 5a79 89be
000002b0: 8b43 df3f 1652 913e 018b 00c0 4a78 46be
000002c0: b35b d2be dc43 453f 333c a33f db73 13bf
000002d0: 298e 96be 3448 e9bf 323b a0bf 3b17 8ebe
000002e0: ea44 96bf 2fcd bb3e 5ec3 cbbf 6970 f4be
000002f0: f493 fd3d 4fb9 4cbf ac5c 633f 670e 8c3e
00000300: 3853 88c0 2dd8 e3be ccca febf 609b c5bf
00000310: d7c8 73bf c65b 24be 4e2c db3b e9ff 02c0
00000320: fbd2 213f 7058 5dc0 37b6 4cbd 99cf 65c0
00000330: eada 793f 029b 3b3f cfef c9be 60f1 fb3e
00000340: 887f bf3e b325 01be ea16 46be a638 ea3d
00000350: 4d56 b3c0 376e 0f3f 4973 a93f 459d 263e
00000360: 2359 8a3f 98ec 5bbf bd5f 3840 6a0f edbf
00000370: 1c1e a33f 73f9 af3e e81c 873e 53be 2bbe
00000380: adb0 00bd 02c2 30c0 ef47 8640 1b7d f83e
00000390: 053c b3be dcfa 61c0 64b9 5f3f 1977 e6be
000003a0: 32cb 88be 1d22 bdbd fe79 a33f d017 09c0
000003b0: dec9 2940 04d8 abbc 745d ff3e 999e 19bc
000003c0: 340e 2ac0 bf58 b9bd fb5f b0be 191c c13d
000003d0: 6ee9 923f 471c 18bf 4b1e 04c0 346b c23e
000003e0: 4078 31bc 6618 24be 0f9f 3d3f 48ce c5bf
000003f0: ad20 efbf 85b4 41bf f776 913e 76a9 bf3f
-0.07832127 -0.8200279 -0.24640386 -1.2464404 1.4082983 3.2386882 -2.7068455 -1.5526003
-0.09063316 0.07085325 -0.2284467 0.468376 -0.28904775 0.0067667775 -0.057766885 0.53208554
0.09549433 -0.6430328 -1.0747089 3.167873 0.39505202 2.624668 1.7276487 1.3592134
-1.0529765 0.8234752 1.9154637 -0.5628533 1.5925957 0.88451767 1.658162 -6.317262
1.3564539 0.3066899 -0.43855456 -0.99110025 1.2995263 2.3177364 -1.2979281 -1.0296273
-0.42033303 0.035491075 0.05242165 0.021806322 -1.2025307 -2.0518038 -3.6874125 -0.27052528
0.73760533 -0.40875727 -2.513267 1.8424883 -0.08140936 -1.4297179 -1.6875495 -1.4533015
1.0133989 -5.040666 3.0069475 -2.178488 0.0013116668 2.649659 0.47595817 -3.1268892
-1.4487323 -2.1376097 -0.14399898 6.4688826 -0.4485891 0.8033054 0.9306271 0.06318203
-1.669783 0.42904615 0.044805594 -0.1475789 0.82872826 3.5553281 0.22154242 -0.15006076
0.38129464 -0.8231822 -0.79753053 -1.444132 1.18941 2.0390134 0.3985773 1.1407869
-0.48545325 -0.2824338 1.6571432 -2.16174 0.119147636 -1.7502277 -0.08934454 -0.14172022
-2.5733407 0.34682557 -0.7676964 1.1407962 -1.1110235 -0.20830546 1.5229924 -0.2816341
0.0112429075 0.8286084 -0.38982671 0.21765006 1.2241873 2.0610986 2.0585082 0.5758704
0.15865155 -0.61439186 0.16653123 0.5120551 -4.663942 -0.22129653 -1.2962011 1.3421513
-0.06980997 0.3275434 1.1097186 0.6209605 -1.8211935 -2.8296256 -3.558668 -3.5258853
-1.7568477 -0.43044898 1.0329462 0.04059262 1.294705 0.006150176 -2.7171903 1.0003026
0.38011974 0.42062536 -0.42186216 0.26401502 -1.9386342 4.283911 -1.8154955 -6.396639
-0.82061577 -0.1825153 0.56094956 -2.2802057 0.68624246 -0.09336143 1.1093919 1.1084983
-0.028450062 0.456145 -0.7497032 -0.13544923 -5.656874 0.16415727 -4.922381 0.26501113
0.6266635 0.15884553 0.08663771 0.36018938 -1.1017306 -4.3302794 -0.5700076 -3.580166
-0.70148516 -0.25381738 2.0534358 -0.26850396 1.7442487 0.2838294 -2.0084841 -0.19381824
-0.41085586 0.7705667 1.2752746 -0.57598656 -0.29405335 -1.822516 -1.2518065 -0.27752098
-1.1739781 0.3667998 -1.5918996 -0.47742012 0.123817354 -0.7997026 0.8881328 0.27354738
-4.2601585 -0.44500867 -1.9905639 -1.5438042 -0.9522833 -0.16050634 0.006688631 -2.0468695
0.63212556 -3.4585228 -0.04997846 -3.5907958 0.9759966 0.732834 -0.39440772 0.49207592
0.37401986 -0.12612037 -0.19344679 0.11436586 -5.604285 0.5602755 1.3238307 0.16270931
1.0808452 -0.8590789 2.8808434 -1.8520329 1.2743564 0.34370002 0.2638924 -0.16771822
-0.03141849 -2.7618413 4.196281 0.48532948 -0.3500673 -3.5309362 0.8739226 -0.4501274
-0.26717526 -0.09235022 1.2771604 -2.1420784 2.652946 -0.020977028 0.49875987 -0.0093761915
-2.657117 -0.0905013 -0.34448227 0.09429187 1.1477487 -0.5941815 -2.064349 0.37972414
-0.0108318925 -0.16024932 0.7407083 -1.5453577 -1.8681847 -0.75666076 0.28411075 1.497359

fc1.bias f4 [256]
00000000: 4f05 21bf 0e33 45bf e4cd fdbe 57e0 83bf
00000010: 129c 43bf cfec 993e 90a1 1a3f ce1d 27be
00000020: 50dc 3f3f ec79 bcbc 6741 b4be bdb4 173e
00000030: d03e 883e c8d0 2a3e 57d4 203f 9d7e c13e
00000040: 07d8 813e a26a fd3e 701f 463e 8128 41be
00000050: c91b 973f 075e f23c 91e7 503f 72f4 97be
00000060: 3e14 3fbe d92f 88bf c0ae 043e 8f23 61bf
00000070: 736c e0be 925f 283e 62a0 3a3d 1209 02bd
00000080: 14fe 6ebd 4976 9fbe deee b1bd 0f4f f4be
00000090: 8d38 303d 04de b6bf 3db6 033f 4642 56bd
000000a0: e2bd 7f3d d53f 27be 2447 913e 8128 57bf
000000b0: 72f1 e4bc 1032 9f3e 6939 183e d712 48be
000000c0: f7c7 6ebe dd5e 153e 6c88 8bbe a235 1a3f
000000d0: c591 673f 4b60 5d3f 4460 3f3f 330c 5ebe
000000e0: 1b8b 16bc bf54 eb3e 3846 79bf 7d6a 51bd
000000f0: a8f6 ff3d 8ca7 36bf 72bb 253f 2ae9 8ebe
00000100: 64a0 8dbe 9912 23be a685 0bc0 45ea e33e
00000110: daef 3bbf 251d ebbe 3078 0cbe 1be5 fdbe
00000120: 6331 0ec0 e679 8c3c 347f 98bf 8380 1f3e
00000130: dbc8 11be 4cb8 f83e abcd 29bf 6540 a7bd
00000140: 9455 2dbe afd3 783e fea3 3b3e 955d d23e
00000150: d5ac 843f f4ff 473f 1641 323f 2749 583f
00000160: 0096 863e 9d41 ddbc 794b 203e 0c39 5bbf
00000170: e36c a2be b5f2 633d 3e89 693e 20bf 343f
00000180: d262 433d 1197 033f 283f 6ebf 8cc0 74bc
00000190: 16f6 3b3f 5423 4c3d b978 4abe b8e9 6dbf
000001a0: d6e1 173e 828d ce3d 7ee0 bdbf 991c ec3b
000001b0: 9493 95be 9fa4 153f 90cd 87bf ae41 d7be
000001c0: 334b 21bf c04e 52be 15ce 603e 08d1 3dbd
000001d0: 6045 773e d3e4 99bf 773a c83e 2a8d 0f3e
000001e0: 5310 ffbe 6393 023f 4fab 893e c4ec a03c
000001f0: fd86 7b3f 4c9a 61bf d68d 2d3f d7a8 463e
00000200: a423 e73d b906 cabe 9a10 85be 285e d4be
00000210: 94c0 48bd 14f7 50be 7d9c 8b3f fddb 26be
00000220: b6e5 143d 7d3c 2f3f 80b7 4e3e be60 dc3e
00000230: 4dc5 c73c 6df7 b63c 4010 e2be f135 783f
00000240: e187 24be 8582 d8bf 39bf 55bd fd4b 513f
00000250: 48bf 2bbe 53b9 19bd 8b29 563f 6bf9 143f
00000260: fdc4 b7be 5b92 40bf 41bd ca3d c322 133f
00000270: d27a 4ebf 42d9 153f 1f07 923d f6fb d43e
00000280: c344 18be 2657 553e 3102 dfbc d55c 02bf
00000290: ff7a e1be e903 3a3e 6218 5cbe 5af1 c7bc
000002a0: 348e c03e c988 203d 909a a3be 42a7 1c3f
000002b0: e84e dabe 4233 ae3d 7fbb 3e3d 85c1 743d
000002c0: 7bc2 243e be60 3cbf 936f 10bf f604 083d
000002d0: e6d6 7cbe 3842 97bd 0c60 783f acc3 1a3f
000002e0: cd4a 1fbe 58ed 073f ce3c 7dbf 161b e83e
000002f0: 1eec 2d3e 00c0 0fbe f88c 9cbf 5322 833f
00000300: 52cd 2d3f fb3a 0b3f 83b3 7abe 5bb3 cdbf
00000310: 209c 653d 5daa de3e 082d 3bbe 2dc8 e0bd
00000320: 096a 1e3e 5f18 e7bf f32f 9dbe 3176 433c
00000330: 0f0b 45bf 1c35 363f 31cb 0b3f ef94 8dbe
00000340: aff3 f93e 25e4 5d3f 7fec 0b3f 4b10 44bf
00000350: 7fc6 a9bb 40e3 47bf 4c3a 6fbe 4216 5bbf
00000360: 70a9 6d3f 28e0 073f b3c0 103f 02f5 7d3e
00000370: c9f8 043e fc14 86bc 3edb 003f 6144 833e
00000380: de6f 5b3e 8a31 163f eadf fcbe c3db 983e
00000390: 0bef cfbc 9943 f9be fde7 673f 8374 203f
000003a0: 877d af3d eb25 5fbe de37 4fbd 7f41 5cbe
000003b0: 2fcd 6fbc 0b14 17bd 3169 f9bd a61c cb3e
000003c0: 6d78 183f 4ade 693f 4649 38bf b214 4fbe
000003d0: cf38 e63d 5ddb c6be 54ec 69be 08ee a03e
000003e0: 72a6 8abf 512e 2d3e 62be fb3e edcc 0c3f
000003f0: 4ac2 f13e 9bd5 e43d f8ab a1be 0713 33bc
-0.62898725 -0.7703103 -0.49571145 -1.0302838 -0.7641002 0.30063483 0.60402775 -0.16319963
0.74945545 -0.023007356 -0.35206148 0.1481504 0.26610422 0.16681206 0.62824005 0.3779191
0.25360128 0.49495417 0.1934793 -0.18863107 1.1805354 0.029585851 0.8160334 -0.29678684
-0.18660066 -1.0639602 0.12957287 -0.87944883 -0.4383274 0.16442707 0.04556311 -0.03174693
-0.058347777 -0.31144932 -0.086881384 -0.47716567 0.04302268 -1.4286504 0.5144995 -0.052309297
0.062436946 -0.16332944 0.28374588 -0.8404618 -0.027947161 0.31092882 0.1486565 -0.19538437
-0.23318468 0.14586969 -0.2725252 0.6023809 0.904568 0.86475056 0.74756265 -0.21684341
-0.009188439 0.45963094 -0.9737277 -0.051126946 0.12498218 -0.71349406 0.64739144 -0.27912265
-0.2766143 -0.15925063 -2.1800323 0.4451467 -0.7341286 -0.45920673 -0.13717723 -0.49588856
-2.2217643 0.01714797 -1.1913819 0.15576367 -0.14236777 0.48578107 -0.6632945 -0.08166579
-0.16927177 0.24299501 0.18324277 0.41087022 1.0365244 0.7812493 0.69630563 0.8448662
0.26286316 -0.027008826 0.1565379 -0.8563392 -0.317237 0.055651385 0.2280626 0.70604134
0.047701664 0.51402384 -0.9306512 -0.014938485 0.7342237 0.04983838 -0.19772615 -0.9293475
0.14832243 0.10085584 -1.4834135 0.0072055575 -0.29214156 0.58454317 -1.0609608 -0.42042297
-0.6300537 -0.20537853 0.21953614 -0.046341926 0.24147558 -1.2022957 0.39107105 0.14018694
-0.49817142 0.51006144 0.2688851 0.019644149 0.9825285 -0.88126063 0.6779455 0.19400345
0.11286095 -0.39458254 -0.25989228 -0.41478086 -0.04901178 -0.20406753 1.0907131 -0.16294856
0.036351882 0.6845167 0.20187187 0.43042558 0.024386073 0.022334779 -0.44153023 0.9695731
-0.16067459 -1.6914831 -0.052184317 0.81756574 -0.16772187 -0.037530255 0.8365714 0.5819308
-0.35892478 -0.7522332 0.098993786 0.5747492 -0.8065616 0.58534634 0.071302645 0.4159848
-0.1486998 0.20834026 -0.027222725 -0.509229 -0.4403915 0.18165554 -0.21493676 -0.024407078
0.37608492 0.03919295 -0.3195386 0.61192715 -0.42638326 0.085058704 0.04656553 0.059754867
0.16089813 -0.73585117 -0.5642025 0.033207856 -0.24691352 -0.07385677 0.97021556 0.6045482
-0.15555878 0.5309653 -0.98920906 0.45333165 0.16984603 -0.14038086 -1.223052 1.024485
0.6789142 0.5438687 -0.24482541 -1.607036 0.056057096 0.43489352 -0.18278897 -0.109756805
0.15470137 -1.8054312 -0.30700645 0.0119300345 -0.7697 0.7117479 0.5460692 -0.2765269
0.48818728 0.86676246 0.5465774 -0.7658736 -0.0051811333 -0.7808113 -0.23362082 -0.8558084
0.92836666 0.5307641 0.56544036 0.24800494 0.12985529 -0.016367428 0.5033454 0.25638106
0.21429393 0.5866934 -0.49389583 0.29855165 -0.02538254 -0.48684385 0.9058836 0.6267778
0.08568864 -0.21791808 -0.05059039 -0.2150936 -0.014636322 -0.03688435 -0.12178267 0.39670295
0.59558755 0.9135481 -0.71986806 -0.20222738 0.11241304 -0.38839236 -0.22844058 0.31431603
-1.0832045 0.169122 0.49168688 0.5500019 0.47218543 0.111735545 -0.31576514 -0.010929829

fc_value.weight f4 [1, 256]
00000000: 4267 1e40 d00b 953e 34c6 dbbf 0b6f c5bd
00000010: 4c11 c03f ebcd 4b3f df28 6440 6dd7 9240
00000020: a323 3fc0 bd18 d83f c3da 3e3f 35da 0140
00000030: 249c d1bf ec98 bbbf 821e 19c0 d90a 04c0
00000040: 7f76 91be a054 3ec0 7f1d 0040 4706 5240
00000050: 87b2 1cc0 1197 c13f 6781 b53f e53c af3e
00000060: d37a 7dc0 52cd d1c0 df7e 7440 00bd 7cc0
00000070: 409e 1b40 1ef9 1b40 6e30 0dc0 ebfa b13f
00000080: f488 1040 dc31 f9bf 01f2 f13f e495 8440
00000090: cfc3 e840 2aa6 adc0 97f5 f33f 94af 1840
000000a0: 3753 e73f fbba 5fbf 56fb b43f 8c48 a8bf
000000b0: 1f0d edbf 396d 323f eb6a 46c0 81a5 a140
000000c0: b5a1 2e3f ccd0 a140 02c7 41c0 dda3 c43f
000000d0: 5938 8c3f 4449 afbf 9e4f b5bf e65a fdbf
000000e0: 8483 8d40 d3f3 66c0 7d03 2f40 4cc6 33c0
000000f0: 1ef6 f93f e18a bc40 7f52 d4bf 3e2f 8f40
00000100: 3810 48c0 9084 47c0 524f 4240 b1ef 1b40
00000110: 7c27 98c0 8bb3 45bd 11c8 773f e57b 04c0
00000120: bf24 bc40 caf5 16c0 f97e 55c0 21e3 e63f
00000130: 9e42 96c0 908f e2bf 5d0f 89c0 465d cdbf
00000140: 0b73 f9bf 3107 b93e 1fd5 ee3f d5d8 df3e
00000150: bec6 21c0 677d e23f 4c93 c13f 6a23 493d
00000160: bcd8 933f 9ccb 21c0 5132 00c0 cf99 61c0
00000170: 1afa 2e40 ed84 b0bf a1c8 9a40 e169 16c0
00000180: 3c12 a040 043b 0d40 efed 62c0 ce6f 1440
00000190: cbd0 8c3f 4349 543e 0505 0840 cc88 4940
000001a0: b090 d03e fb99 a13f 1e6d c3c0 0e4e 283f
000001b0: 2439 9cc0 83a1 31c0 2933 b0c0 649a 5440
000001c0: 0cf1 2640 4b0b 2340 6407 8740 a606 ff3f
000001d0: 274f 5440 932a a6bf 7fe4 b9bf dc4c 0bc0
000001e0: e29e cd40 a80f a940 c889 3f40 409b 72bf
000001f0: dd66 6c40 ec45 0541 2dcd ba3f 1248 ec3f
00000200: 78e4 a2bf 24c2 77be b397 69c0 085e 41c0
00000210: 6dca 0d40 8ef4 4cc0 7937 44c0 c2ab 9fbf
00000220: 6107 61c0 80d4 0240 9675 1e3f 3f5d 653f
00000230: 322b 5640 0875 2140 04c4 0740 426f 913f
00000240: fbfd adc0 8497 1841 85a9 4e40 507b 2bc0
00000250: 0964 31c0 e5b9 f63f 66e7 d0bf 8fbb 623f
00000260: 66f5 b1c0 0f48 b2c0 4975 4840 db10 a2bf
00000270: e294 53c0 dca8 b0bf 62c0 a53f 7681 1d3f
00000280: d93a 10c0 770b e33f acf2 f03f 4e47 f23f
00000290: 16d7 37be 229b 1740 5994 06c0 27e1 25c0
000002a0: 1678 9abf 31f1 4640 b93a 833f 8de4 2a3f
000002b0: 81ca f7bf d62d 1740 112c 7b3f 1b22 d43e
000002c0: 54d8 1540 1338 34c0 6fe7 55c0 a763 7240
000002d0: 8c46 0ac0 652d 2ec0 32e7 883f d096 613f
000002e0: 7a65 303f d3fa 05c0 983a cc3d 14e0 ef3f
000002f0: 0b2d eebf 791c 4dc0 1ee1 753c 357b ef3f
00000300: f6a7 bc3f 8683 3640 27b7 56c0 b269 3ec1
00000310: a455 2540 bb06 4bc0 f52e a83f b742 903f
00000320: c8d6 45c0 2c04 07c1 6c13 6440 ae9b 6140
00000330: adee f33f 5c89 a73f 31e2 0c40 1824 543f
00000340: ae0d d13e 1c34 17c0 caa7 ea3f 4dc7 1540
00000350: 9fa6 9bbd efb0 3bc0 26ff 8d3f 26e3 a240
00000360: 6328 8e40 c617 e9bf e890 063f 5f19 0840
00000370: d49e 4a3f 60f3 9abc be58 3440 6b51 80be
00000380: 5720 4140 90c3 9e3f 2829 a2c0 1ebb d2bf
00000390: 3b85 e6bf b9c3 ebbe fae2 c03f e4e4 c93f
000003a0: 8810 36c0 f20a 493f 51c2 d93f 2041 8ac0
000003b0: c2b6 483f 89a8 a1bf 37f3 933f 9ce6 14c0
000003c0: 2345 223f ef1d 18c0 8604 28c0 4bd4 ec3f
000003d0: c6ac 1ec0 724d 3b40 2d75 0a40 9f5b 8240
000003e0: acb0 f5c0 720c 813e 8a22 aabf cd70 6440
000003f0: 0c52 bdbf a222 2540 7fad 3840 92da 40c0
2.4750524 0.29110575 -1.7169862 -0.096403204 1.5005279 0.7961108 3.5649946 4.588797
-2.98655 1.688255 0.74552554 2.0289433 -1.6375775 -1.4656043 -2.392487 -2.063162
-0.28410718 -2.973915 2.0018003 3.2816331 -2.4483964 1.5124227 1.4180115 0.34226146
-3.9606216 -6.5563135 3.8202436 -3.9490356 2.4315338 2.43708 -2.206081 1.3904699
2.258359 -1.9468341 1.8901979 4.143297 7.2739024 -5.4265337 1.9059323 2.3857164
1.807227 -0.87394685 1.4139202 -1.314714 -1.8519629 0.6969791 -3.1002758 5.051453
0.68215495 5.056738 -3.0277715 1.5362507 1.0954696 -1.3694234 -1.4164922 -1.9793365
4.422304 -3.6086318 2.734588 -2.808978 1.9528234 5.891953 -1.6587676 4.474517
-3.12599 -3.117466 3.0360913 2.4365046 -4.75482 -0.04826693 0.9678965 -2.070062
5.8794856 -2.3587518 -3.3358748 1.8038064 -4.695632 -1.7700062 -4.2831254 -1.604409
-1.9488233 0.361383 1.8658789 0.43720117 -2.5277553 1.769452 1.5123076 0.04910604
1.1550517 -2.5280523 -2.003071 -3.5250127 2.734015 -1.3790566 4.836991 -2.3502123
5.002226 2.206727 -3.5457723 2.319324 1.1001219 0.20731072 2.1253064 3.1489744
0.40735388 1.2625116 -6.10707 0.657441 -4.881975 -2.775483 -5.506245 3.3219233
2.6084623 2.5475643 4.219652 1.9923904 3.317331 -1.2981743 -1.4522856 -2.1765661
6.425645 5.283161 2.9927845 -0.9476814 3.6937783 8.329571 1.4593865 1.8459494
-1.2725973 -0.24195153 -3.649884 -3.0213642 2.21548 -3.2024264 -3.0658858 -1.2474291
-3.5160754 2.04422 0.6189817 0.8959541 3.3463864 2.522768 2.1213388 1.1362078
-5.4372535 9.536991 3.2290967 -2.6794014 -2.7717307 1.927548 -1.6320617 0.8856744
-5.561206 -5.571296 3.1321585 -1.2661394 -3.305962 -1.3801532 1.2949336 0.61525667
-2.2535918 1.7737874 1.8824058 1.892801 -0.17953143 2.3688436 -2.1028044 -2.5918672
-1.2067897 3.1084712 1.0252296 0.6675499 -1.9358674 2.3621726 0.98114115 0.4143227
2.3413286 -2.8159225 -3.3422506 3.7873323 -2.1605558 -2.7215207 1.0695555 0.88120747
0.6890484 -2.093434 0.09972113 1.8740258 -1.8607496 -3.2048628 0.015007285 1.8709475
1.4738758 2.8517776 -3.3549287 -11.9008045 2.583352 -3.1722858 1.313933 1.127036
-3.0912342 -8.438519 3.5636854 3.525127 1.9057213 1.3088794 2.2013056 0.82867575
0.4083075 -2.3625555 1.8332455 2.3402894 -0.0760014 -2.9326742 1.109349 5.090228
4.44243 -1.821038 0.5256486 2.1265485 0.791486 -0.018914878 2.8179164 -0.25062117
3.0175989 1.2403431 -5.067524 -1.6463354 -1.8009409 -0.46047762 1.5069268 1.5772977
-2.844759 0.78532326 1.7012426 -4.32045 0.78403866 -1.2629558 1.1558598 -2.3265753
0.63386744 -2.376827 -2.625276 1.8502287 -2.4792953 2.926602 2.1634018 4.073684
-7.6778164 0.25204808 -1.329179 3.5693848 -1.4790664 2.5802388 2.8855894 -3.0133405

fc_advantage.weight f4 [4, 256]
00000000: c2ff 76be 2f09 c03e 1e13 12be 8604 2bbf
00000010: 1d9f 8cbf 37e2 a43e 5a45 833e d637 c13f
00000020: e8b9 6a3e 0ad5 69bf 2301 ccbd 5c93 9abd
00000030: 49b5 61be 6f4d 40be dd79 ad3e 45cd 9cbe
00000040: 4a56 8abf b6f4 0b3f a862 bd3e 4628 263f
00000050: 8c2f e13d 9365 a0bf 167c e43d 354d 1dbd
00000060: 7865 7c3d 6cfd ff3d 96cb 09bf 4900 b8ba
00000070: ce3d 803f 9be1 c0bd 8f6c c53e 0adf 22be
00000080: 4c37 1dbe 90e7 cc3e 4499 6abc 953e 123e
00000090: d640 96be 7b9d acbe b130 46be 8a23 c23d
000000a0: fb71 3abf ae85 c6bd b63f a3be 6dc7 443e
000000b0: 4370 0fbf 48e0 8a3d f5b8 b43e c9b3 91be
000000c0: 5d14 4bbe dacc 233e 3986 40be ceee a9be
000000d0: b49d b43e d703 fb3d f9f8 b43d 876b e4bd
000000e0: b6e4 54be 73ff bbbe 8915 f03d ba3e 6bbf
000000f0: 0434 573f 9858 693e 7156 b13d 890c 5abd
00000100: a19f c53e a4d0 473d 62c9 0e3f 94b7 263f
00000110: 405d f5be c175 a43d 936b 57be cdf7 09be
00000120: 21f1 2740 2900 e4be f113 7639 6689 24bf
00000130: fc7e 8b3f cf9d 40bd 4ded 383f 81c5 6abd
00000140: a0d7 5c3e 9e74 d1be e54b 9cbd 8a00 66be
00000150: f810 9cbe f3e8 003f 0b79 e93d e54d d2bc
00000160: ff66 c03e 9b33 07be 071b ef3e 4854 203f
00000170: b9f5 e0bd d820 4a3e 8cec a9be 29d7 7b3e
00000180: 9e47 ae3c 3a68 cabe 1276 2c3f 514b 9a3e
00000190: 27e1 cc3d c52f 163f a03b b73e 4418 013e
000001a0: 3495 9cbd 35ad eebe 8de6 9b40 1ec8 003d
000001b0: 22f6 e63e ca42 10bc 8e88 d6bf e1f2 78be
000001c0: 5ee6 02bf b87c 863e 40a2 1a3f f3bf 0bbe
000001d0: 3e58 78be 336f 3fc0 a255 25be 085f 1ebd
000001e0: cc5f 86bd 056d 4a3e 1f4d c13e fc44 603c
000001f0: 80c6 46bc 6833 b2bf 5cce 03bf c7c7 01be
00000200: 44b0 cfbe e0e4 95bf 8af0 f3be b442 0fbd
00000210: c1e0 173c 19d3 633e eff5 2ebd fc73 783e
00000220: 664b c13e 2732 9c3d e471 c73b 6ab0 c03e
00000230: 5a67 3fbd 7d28 ca3d 778a 67bf 1c89 053f
00000240: 6b01 d6bf 81a3 e93f d7e9 be3e 54a0 2bbe
00000250: d503 733e c73d c63e da7d 3c3d 46fc 8f3d
00000260: 9a63 86be ff4a e9bc d533 03bf 7306 e3be
00000270: 894f 46bf 256c e0be 5fe5 b1be 2470 133f
00000280: 9d22 91be 7450 e4be 399b 02be 4c8b 0fbf
00000290: d32d 473f 8145 683e 500a 763e 4581 553d
000002a0: bfe2 01bf edb8 783f ff78 72be aeb3 5abe
000002b0: a575 48be ca67 633f e2a7 803e 93f6 f1bc
000002c0: e605 c9be f730 3a3d cbf5 153d f04a 26be
000002d0: 62f6 4bbe 4f36 9b3e ed0b cc3d 2bce 223d
000002e0: 2f37 943e f824 943d 7cad 79bf 1456 323d
000002f0: b70f ffbe 8829 ab3e 681c b4bd 75c8 123e
00000300: 961e 783d fd9a 183f 2c70 43bf 9554 c83f
00000310: 430d afbe 4136 d3be f7f9 103e 06df 6ebd
00000320: 5c13 4f3e 1c77 1540 87cf 0bbf f0c3 a23e
00000330: 5be6 1cbc a78d 3b3e cb44 0fbc ec9a db3f
00000340: e25a d2bd a0e7 173f 1c2a 303d 7bff 473d
00000350: 737d 45be 2c0a 233c dd08 ddbd bb1e f53e
00000360: bb26 783e 8e15 f6bc 59ae 65bb 7594 513f
00000370: 4221 8a3e 7494 573e 5972 1f3e 552e 263f
00000380: d91d cb3c 30e9 c23d f70a 253f 597e 6bbe
00000390: eafd 1f3d 3349 d73e 148b 803e 6d89 b0be
000003a0: 00bc 873d ca1e 3ebe 8428 273f bf15 14be
000003b0: 4877 a6be 22b8 0f3f a81c 84be d83f 74be
000003c0: f3c4 08bd f18d 943e f6b4 1b3e fa75 1abe
000003d0: e7c0 a13e cd28 12bf 46f9 9d3e 807c 06bf
000003e0: 04a6 d53f be67 b03e 3a95 bc3e 95ba d3be
000003f0: 6fba 31be b0ee 163f 0ffc 1b3f 25d2 9ebf
-0.24121001 0.37507007 -0.14265105 -0.6680378 -1.0986058 0.32203838 0.2563885 1.5095165
0.2292248 -0.91340697 -0.09961154 -0.07547638 -0.22041811 -0.18779539 0.33882037 -0.30625358
-1.0807583 0.54670274 0.3698933 0.649052 0.10995397 -1.2530998 0.1115648 -0.03840371
0.061620206 0.12499508 -0.5382627 -0.0014038171 1.0018861 -0.09418031 0.38559386 -0.15905395
-0.15353125 0.40020418 -0.014318768 0.14281686 -0.2934634 -0.33713898 -0.19354512 0.09479435
-0.7283017 -0.09693466 -0.31884545 0.192167 -0.5603067 0.067810595 0.3529736 -0.28457478
-0.19831987 0.15996113 -0.18801202 -0.33190006 0.35276568 0.12256592 0.0883655 -0.11153322
-0.20790371 -0.3671833 0.117228575 -0.9189259 0.84063745 0.22787702 0.086590655 -0.05323461
0.3859835 0.04878296 0.55776036 0.6512387 -0.47922707 0.08030272 -0.2103713 -0.13473435
2.6240923 -0.44531372 0.00023467817 -0.64272153 1.0898128 -0.047025498 0.7223709 -0.05731726
0.2156663 -0.40909284 -0.07631663 -0.22461143 -0.30481696 0.5035545 0.1140004 -0.025671909
0.3757858 -0.1320328 0.46700308 0.62628603 -0.10984368 0.19739091 -0.33188283 0.24593796
0.021274384 -0.39532644 0.6736766 0.30135587 0.10003882 0.5866664 0.35787678 0.12606913
-0.07645646 -0.4661652 4.8718934 0.031440847 0.4510966 -0.008804986 -1.6760423 -0.24311401
-0.5113276 0.26267028 0.60403824 -0.13647442 -0.24252412 -2.991162 -0.16145948 -0.038664848
-0.065612406 0.1976815 0.3775415 0.013688322 -0.012132287 -1.3921938 -0.51486754 -0.12673865
-0.40564167 -1.1710472 -0.47644454 -0.034975722 0.009269894 0.22248496 -0.04271501 0.24262995
0.37752837 0.07626753 0.006086575 0.37634593 -0.046729423 0.09871004 -0.90445656 0.5216234
-1.6719183 1.8253022 0.3728778 -0.16760379 0.2373193 0.38719007 0.04601846 0.07030539
-0.26247865 -0.028478144 -0.51250964 -0.44340858 -0.7746511 -0.43832508 -0.3474531 0.5759299
-0.2834672 -0.4459263 -0.12754525 -0.56071925 0.778043 0.22682764 0.24027371 0.052125234
-0.5073661 0.97157174 -0.23678969 -0.21357605 -0.19576128 0.88830245 0.25128084 -0.029536521
-0.39262313 0.045456853 0.03661136 -0.16239524 -0.19918206 0.30314872 0.09963212 0.0397474
0.28948352 0.07233614 -0.9753034 0.04353912 -0.49816677 0.33430123 -0.087944806 0.14334281
0.060576044 0.59611493 -0.76343036 1.5650812 -0.34189805 -0.4125233 0.14157854 -0.05831816
0.20222229 2.3353949 -0.54613537 0.31790113 -0.009576405 0.18315755 -0.008744429 1.7156653
-0.10271241 0.59337807 0.04300891 0.04882763 -0.19286136 0.009951156 -0.10792706 0.47875008
0.24233525 -0.030039575 -0.0035046546 0.8186715 0.269785 0.21052724 0.15570964 0.6491445
0.024794506 0.09517133 0.64469856 -0.22997417 0.03906051 0.42048034 0.25106108 -0.34479848
0.06627655 -0.18566433 0.65296197 -0.1446142 -0.3251288 0.5614034 -0.25803113 -0.2385248
-0.03339095 0.29014543 0.1520575 -0.15084067 0.31592485 -0.5709351 0.30854243 -0.5253372
1.6691289 0.3445415 0.368326 -0.41353288 -0.17356275 0.5895796 0.60931486 -1.2407881

fc_advantage.bias f4 [4]
00000000: 18be ee3d f772 99be b9eb a63e c039 88be
0.11657351 -0.29970524 0.32601717 -0.2660656
