csv_and_models/Duelling_DDQ_PER/trained models/duelling_double_PER_lunar_1400.pth (torch, 17326 bytes, 5 tensors)

fc1.weight f4 [256, 8]
-0.3508575 -1.3135275 -0.012275756 -1.7375962 1.6171207 3.1368861 -1.8057612 -2.4984019
-0.09063316 0.07085325 -0.2284467 0.468376 -0.28904775 0.0067667775 -0.057766885 0.53208554
-0.064997256 -1.8315839 -1.5438011 3.1078165 0.057898626 2.6775892 1.7351912 1.1171829
-0.6271605 0.08585711 2.0187173 -0.5390352 1.505042 0.6177946 2.1067872 -6.317262
1.3787068 -0.46810275 -1.1221752 0.02908698 1.41897 1.5720898 -1.2658001 -0.66305166
-0.33482713 -0.1575992 -0.73025966 -0.41385698 -1.1559578 -2.3922658 -2.7122467 0.7478385
1.144689 -0.66325533 -2.2589703 1.9225717 0.56301504 -1.4204078 -2.268751 -0.25123015
0.8313035 -3.2363553 2.636459 -2.9588456 -1.7717141 1.9356593 0.114676885 -4.3525543
-1.0928375 -2.5731163 -0.393034 1.3100414 0.078538515 -0.0883112 0.97938824 0.14298844
-2.0549412 0.5018898 0.06964938 0.103434235 0.97953856 3.1533415 0.4746673 0.21959823
0.07707878 -0.74012965 0.33231816 -0.9522805 0.9022144 1.7599467 0.2201721 1.1370779
0.06460601 -0.16360094 1.8249606 -2.3726265 0.12733822 -2.5666869 -0.22236048 0.21136312
-2.8677747 -0.08415019 -0.8438207 0.8218081 -0.65735507 -0.17775926 1.6043005 -0.037815332
0.022783041 0.8031892 -0.8856274 0.3065927 1.0800672 2.1097734 2.019155 0.41766885
0.6464081 -0.5631698 -0.22663794 0.37871194 -4.8072014 -0.18028797 -1.4084662 1.3257383
-0.13980325 0.4741581 1.1705585 0.56717134 -1.2052648 -3.2887046 -3.313993 -1.6514808
-2.4891963 -0.37311804 0.7843579 0.4272612 -0.9345872 -0.36816528 -2.6183865 1.6907516
0.57233256 0.2988493 -0.2954357 0.16377373 -2.1588037 3.6171217 -1.1381599 -6.679615
-0.7869595 -0.27423778 0.4386807 -2.5054917 0.33251655 -0.023044745 1.0791947 1.0825582
0.0010326852 0.3614614 -0.7552467 0.045624476 -5.1759925 -0.27601734 -4.922381 0.18394962
0.48478347 0.24151568 0.20913902 0.3410058 -0.97363275 -4.2635884 -2.0675268 -2.4716675
-1.6045322 -0.045345113 2.0864027 -0.2600557 1.1034218 1.5974989 -1.7397516 -0.7980022
-0.97264194 0.8212767 1.5370518 -0.6390777 -0.21494019 -1.2995744 -1.1913103 -0.68865234
-0.8577034 0.056554276 -1.4387954 -1.1093143 0.61069524 -2.0616693 -0.05135645 0.2816234
-4.7318883 -0.06611905 -2.3805444 -0.9003778 -1.8366019 -0.83260816 -0.2585943 -2.769126
1.1917505 -3.7897003 0.15845688 -3.3316379 0.10985734 -0.21114965 -2.8274918 0.32048273
0.34545186 0.080235556 0.02892049 0.15204935 -5.5417776 -0.1431343 1.3941921 0.23438512
0.8494261 0.015011354 2.9038568 -1.3845006 -0.823895 0.072264016 -0.93728435 -0.28477123
0.16659927 -4.0463915 4.9404464 0.84141344 -0.33108914 -3.868918 0.8417497 -0.11797597
-0.12068705 0.43456742 1.0914855 -2.3423157 2.2705998 0.6984956 0.5068111 -0.16246903
-3.2214792 -0.14663066 -0.23256624 0.2520971 1.09851 -0.50965255 -2.3081355 0.05638839
-0.15669164 0.02140725 1.0522469 -1.4461533 -2.2948747 -0.832498 -0.025208546 1.5044851
00000000: 98a3 b3be ab21 a8bf 4120 49bc 8d69 debf
00000010: d0fd ce3f bec2 4840 2f23 e7bf d1e5 1fc0
00000020: e19d b9bd 821b 913d efed 69be fbce ef3e
00000030: 11fe 93be d8bb dd3b f89c 6cbd c236 083f
00000040: 481d 85bd 5771 eabf 469b c5bf 77e6 4640
00000050: 1c27 6d3d 9f5d 2b40 bf1a de3f d9ff 8e3f
00000060: 978d 20bf dad5 af3d aa32 0140 36fe 09bf
00000070: 37a5 c03f c927 1e3f 9ad5 0640 0327 cac0
00000080: 7779 b03f 2aab efbe 70a3 8fbf d147 ee3c
00000090: cfa0 b53f 3d3a c93f bd05 a2bf c1bd 29bf
000000a0: 766e abbe af61 21be 4cf2 3abf 10e5 d3be
000000b0: 6df6 93bf e21a 19c0 7395 2dc0 5872 3f3f
000000c0: 2b85 923f 1acb 29bf f892 10c0 d416 f63f
000000d0: c121 103f eccf b5bf 3733 11c0 3da1 80be
000000e0: 4ed0 543f 7220 4fc0 bfbb 2840 ba5d 3dc0
000000f0: 87c7 e2bf afc3 f73f b7db ea3d 2048 8bc0
00000100: 19e2 8bbf f0ad 24c0 c13b c9be 70af a73f
00000110: cdd8 a03d 81dc b4bd 30b9 7a3f 906b 123e
00000120: 2884 03c0 da7b 003f 56a4 8e3d 54d5 d33d
00000130: 0ac3 7a3f 59d0 4940 9807 f33e 5cde 603e
00000140: 7bdb 9d3d 2379 3dbf 9b25 aa3e a8c8 73bf
00000150: 86f7 663f ef45 e13f cc74 613e c58b 913f
00000160: 2850 843d 0187 27be 4f98 e93f 1dd9 17c0
00000170: f364 023e 9944 24c0 77b2 63be 936f 583e
00000180: 9f89 37c0 ef56 acbd a204 58bf 0462 523f
00000190: 6c48 28bf 8606 36be b859 cd3f 40e4 1abd
000001a0: 80a3 ba3c cf9d 4d3f 7ab8 62bf b8f9 9c3e
000001b0: a43f 8a3f 8706 0740 d639 0140 b1d8 d53e
000001c0: 007b 253f e52b 10bf c713 68be 88e6 c13e
000001d0: 98d4 99c0 699d 38be 9f48 b4bf cbb1 a93f
000001e0: 9528 0fbe dac4 f23e dcd4 953f 2432 113f
000001f0: 1e46 9abf 237a 52c0 7618 54c0 b963 d3bf
00000200: fe4e 1fc0 5409 bfbe aecb 483f fbc1 da3e
00000210: 1b41 6fbf 2980 bcbe a593 27c0 8c6a d83f
00000220: 6384 123f c702 993e 5943 97be 4db4 273e
00000230: d729 0ac0 ec7e 6740 39af 91bf 68bf d5c0
00000240: 2e76 49bf e568 8cbe c29a e03e fa59 20c0
00000250: 9c3f aa3e 55c8 bcbc 0d23 8a3f 4491 8a3f
00000260: 2a5b 873a 7811 b93e d957 41bf bbe0 3a3d
00000270: bba1 a5c0 2552 8dbe 2584 9dc0 4a5d 3c3e
00000280: 8a35 f83e e34f 773e 8a28 563e 5098 ae3e
00000290: ff3f 79bf 516f 88c0 5c52 04c0 cd2f 1ec0
000002a0: 5061 cdbf ccbb 39bd 9f87 0540 0526 85be
000002b0: ed3c 8d3f d87a cc3f 2eb0 debf df49 4cbf
000002c0: 10ff 78bf 313f 523f 1dbe c43f 999a 23bf
000002d0: 4819 5cbe 7458 a6bf db7c 98bf 854b 30bf
000002e0: 7392 5bbf 75a5 673d 732a b8bf 03fe 8dbf
000002f0: 8656 1c3f 64f2 03c0 245b 52bd f130 903e
00000300: a16b 97c0 6d69 87bd d75a 18c0 297f 66bf
00000310: c515 ebbf cf25 55bf 7966 84be 5c39 31c0
00000320: 488b 983f 738a 72c0 8542 223e 8e39 55c0
00000330: e3fc e03d 9d37 58be a0f5 34c0 5016 a43e
00000340: 11df b03e 8a52 a43d aaea ec3c d3b2 1b3e
00000350: 3e56 b1c0 cc91 12be e374 b23f a702 703e
00000360: fd73 593f 2ff2 753c cad8 3940 5137 b1bf
00000370: c8ea 52bf 28ff 933d def1 6fbf 89cd 91be
00000380: 0099 2a3e 0a7c 81c0 2318 9e40 df66 573f
00000390: 8484 a9be 5a9c 77c0 e97c 573f 639d f1bd
000003a0: c62a f7bd 9f7f de3e ccb5 8b3f 80e8 15c0
000003b0: 8251 1140 9cd0 323f 5fbe 013f 485e 26be
000003c0: b72c 4ec0 5926 16be d825 6ebe df12 813e
000003d0: fa9b 8c3f 9778 02bf 7eb8 13c0 83f7 663d
000003e0: c673 20be 425e af3c 07b0 863f 8d1b b9bf
000003f0: 3adf 12c0 971e 55bf 2782 cebc f892 c03f

fc1.bias f4 [256]
-0.7957179 -0.7703103 -0.68098354 -0.6312408 -1.6444442 0.15991464 1.1183853 0.5707318
1.4429774 0.05656581 -0.6706681 0.0025741274 0.36008385 0.08487059 0.70617247 0.33243018
0.0027694898 0.6937059 0.25774324 -0.47184485 1.1895804 0.10755051 0.72871894 -0.40126956
-0.39822802 -0.25726882 -0.052231327 -1.3280456 -0.7214397 0.30132094 -0.08760414 -0.24171343
-0.22941175 -0.38743567 -0.021357741 -0.50159776 -0.31675336 -1.447214 0.47559363 0.026483802
-0.14088872 -0.1560944 0.10363493 -1.0074546 -0.026072562 0.23082049 0.19906215 -0.13267796
-0.7515383 0.1652245 -0.3445624 0.7122196 0.92241603 0.92192703 0.7670615 -0.50029814
-0.071934365 0.6019205 -1.4295615 -0.13812873 -0.19812196 -0.66374046 0.62216794 -0.2594261
-0.07105859 -0.17373522 -1.6818063 0.5815202 -1.054077 -0.45920673 -0.32038754 -0.66922283
-2.0095093 -0.3341299 -1.4372429 -0.054041125 -0.21451195 0.38452756 -0.6013077 -0.2308673
0.18683283 0.41076323 0.3666306 0.11248529 1.2925048 0.75668615 0.48044017 0.6991288
0.7174974 0.071344316 0.5105375 -1.1050763 -0.16170168 -0.18026769 0.036336944 0.84893674
0.0072189113 0.8025946 -1.0233918 -0.08537817 0.60519177 -0.053897105 -0.16103853 -0.9791177
-0.3484296 0.26053107 -1.15544 -0.011584354 -0.14506795 0.7517843 -1.2743077 -0.88830036
-0.93802565 -0.45566103 0.5098745 -0.012033597 0.29204544 -1.4100386 0.25611734 0.2143539
-0.5406373 0.9264518 0.059919607 -0.14391714 1.1297468 -0.84212446 0.83074665 0.1410306
0.17066161 -0.43800694 0.11862053 -0.39656562 -0.28785062 -0.27305898 1.3262924 0.073019035
0.08777689 0.8630552 0.20310326 0.53056073 0.14793853 -0.08040442 -0.76697356 0.5477734
0.5936027 -1.603315 -0.11149884 1.0506487 -0.18651557 0.0011933845 0.8906234 0.5014214
-0.6810123 -0.76486105 0.07968807 0.5692127 -1.1144845 0.79062223 0.49770698 0.48735666
-0.018963229 0.27448618 0.16127442 -1.1446424 -1.1372092 0.025061402 -0.373865 -0.027425637
-0.076009326 -0.24638842 -0.5917605 0.72700083 -0.74526215 -0.107679054 -0.05725005 -0.43690178
0.45401394 -0.7314248 -0.660199 0.26637036 -0.20002559 0.1317496 0.82354575 0.7871835
-0.34577122 0.63089657 -1.1113392 0.43557784 0.15394069 0.032830775 -1.3329583 1.0324924
0.687748 0.6083308 -0.64487755 -1.8970104 0.42657048 0.35647324 -0.5944854 -0.106794566
-0.39378214 -1.63529 -0.4028986 0.45853034 -0.77132106 0.76608104 0.6088342 -0.08030724
0.38761285 1.0678114 0.5234884 -1.1490513 0.22405805 -1.2119617 -0.21234259 -1.0203677
1.4852115 0.26839942 0.6326471 0.31099358 0.082009435 -0.20217349 0.83737266 0.26650217
0.24240696 0.6246284 -0.25526223 0.15588656 0.3819198 -0.54098034 0.75616294 0.83780414
0.14543582 0.08064218 -0.085742034 -0.6488768 -0.22528021 0.06545397 -0.22005495 0.5790593
0.6051882 0.8899519 -0.64196634 -0.45273474 0.15709898 -0.20855163 -0.61415416 0.36976323
-0.92211753 0.22004351 0.4822965 1.0006226 0.49366167 0.14535788 -0.23392344 -0.08268505
00000000: 2bb4 4bbf 0e33 45bf f054 2ebf ff98 21bf
00000010: 267d d2bf aac0 233e 4027 8f3f 7b1b 123f
00000020: 7cb3 b83f 8db1 673d e8b0 2bbf b1b2 283b
00000030: e95c b83e a2d0 ad3d b8c7 343f 4a34 aa3e
00000040: 5480 353b b696 313f ecf6 833e a695 f1be
00000050: 2c44 983f 7143 dc3d 538d 3a3f 3473 cdbe
00000060: 8be4 cbbe bdb8 83be 84f0 55bd 66fd a9bf
00000070: 46b0 38bf bd46 9a3e cd69 b3bd ba83 77be
00000080: eaea 6abe f85d c6be 6ef6 aebc b668 00bf
00000090: 7f2d a2be 4f3e b9bf 0281 f33e 8ff4 d83c
000000a0: 2245 10be 36d7 1fbe 8d3e d43d 46f4 80bf
000000b0: 2096 d5bc 355c 6c3e f3d6 4b3e bbdc 07be
000000c0: d064 40bf 9c30 293e 7c6a b0be 0654 363f
000000d0: 7523 6c3f 6903 6c3f 245e 443f 8a13 00bf
000000e0: 5352 93bd 7617 1a3f dffb b6bf 9e71 0dbe
000000f0: 7ce0 4abe e5ea 29bf 6646 1f3f 7fd3 84be
00000100: 2b87 91bd a5e7 31be 6e45 d7bf 82de 143f
00000110: ffeb 86bf 251d ebbe d609 a4be 3052 2bbf
00000120: cd9b 00c0 1313 abbe 93f7 b7bf 3a5a 5dbd
00000130: 05a9 5bbe cce0 c43e 4def 19bf 7a68 6cbe
00000140: 1b51 3f3e 8f4f d23e 02b7 bb3e b05e e63d
00000150: cc70 a53f 2fb6 413f 41fc f53e 1bfa 323f
00000160: e9ad 373f f81c 923d 96b2 023f 2473 8dbf
00000170: 2095 25be 1898 38be 0cd6 143d eb53 593f
00000180: 9e8c ec3b d776 4d3f 81fe 82bf c0da aebd
00000190: d9ed 1a3f 36c3 5cbd 49e7 24be 75a7 7abf
000001a0: 5d65 b2be 5464 853e 75e5 93bf 4dcc 3dbc
000001b0: b18c 14be f074 403f 841c a3bf a767 63bf
000001c0: 7322 70bf 674c e9be 2387 023f 9028 45bc
000001d0: fb86 953e 257c b4bf d021 833e 977f 5b3e
000001e0: 3567 0abf f22b 6d3f 436e 753d 045f 13be
000001f0: 8b9b 903f 7895 57bf d0ab 543f 536a 103e
00000200: ebc1 2e3e 7242 e0be 52ef f23d a60a cbbe
00000210: 2861 93be 63ce 8bbe f3c3 a93f 018b 953d
00000220: 5fc4 b33d 30f1 5c3f 4dfa 4f3e d4d2 073f
00000230: 337d 173e 13ab a4bd 6158 44bf e13a 0c3f
00000240: 59f6 173f 6d39 cdbf 8159 e4bd a87b 863f
00000250: f0fd 3ebe 576b 9c3a e5ff 633f 275d 003f
00000260: d256 2ebf efcd 43bf 8033 a33d ecb7 113f
00000270: 6ea7 8ebf 3866 4a3f 73d3 fe3e d086 f93e
00000280: c658 9bbc 7489 8c3e 1f25 253e a483 92bf
00000290: 1290 91bf 924d cd3c 3c6b bfbe bbab e0bc
000002a0: c7aa 9bbd 3f4d 7cbe 9e7d 17bf ba1c 3a3f
000002b0: 80c9 3ebf d686 dcbd 077f 6abd 97b1 dfbe
000002c0: 8474 e83e a83e 3bbf cd02 29bf b261 883e
000002d0: 82d3 4cbe 5ee9 063e e5d3 523f dc84 493f
000002e0: ed08 b1be 7082 213f 5d40 8ebf 0f04 df3e
000002f0: a1a2 1d3e 9079 063d 619e aabf b628 843f
00000300: 4110 303f 91bb 1b3f b216 25bf 3dd1 f2bf
00000310: 7267 da3e a983 b63e 3230 18bf 1cb7 dabd
00000320: d09d c9be 2f51 d1bf ba48 cebe 7dc4 ea3e
00000330: 4c75 45bf e31d 443f 8fdc 1b3f 1f78 a4bd
00000340: 3175 c63e 0bae 883f 5603 063f 1d14 93bf
00000350: 796f 653e 9021 9bbf 5670 59be 699b 82bf
00000360: 691b be3f a66b 893e 29f5 213f 8d3a 9f3e
00000370: 90f4 a73d 9106 4fbe 0e5e 563f f972 883e
00000380: 8839 783e a6e7 1f3f bbb1 82be baa0 1f3e
00000390: fe8a c33e b07d 0abf e593 413f 557a 563f
000003a0: 21ed 143e ba27 a53d 8599 afbd ca1c 26bf
000003b0: dbaf 66be bb0c 863d 1656 61be 3b3d 143f
000003c0: 9ded 1a3f e3d3 633f e857 24bf d9cc e7be
000003d0: 8ede 203e 8f8e 55be 3539 1dbf 9b51 bd3e
000003e0: e50f 6cbf 1653 613e 91ef f63e 6714 803f
000003f0: 39c1 fc3e b2d8 143e a089 6fbe c856 a9bd

fc_value.weight f4 [1, 256]
2.8073225 0.29110575 -1.6902186 -0.028891161 2.0480497 0.8214493 3.9241219 3.3403363
-2.86167 1.764411 0.79143333 2.2740242 -1.7044266 -1.4076573 -2.5421793 -1.6103796
0.13327993 -2.6775846 2.0150933 2.7748792 -2.2620668 1.8912193 1.467774 0.038528528
-4.102835 -6.05784 3.7921321 -3.3476439 3.252442 2.4610581 -2.491279 1.426208
2.4240663 -1.747859 1.803436 4.143939 6.1469545 -5.407761 1.8996065 2.8513992
1.955687 -0.85852945 1.4682366 -1.0717322 -1.774627 0.69392633 -3.0678103 4.226877
0.6388313 5.2002306 -2.9698315 1.4007384 1.0725886 -1.3044626 -1.3449886 -1.9787611
5.614887 -3.4798224 3.3535662 -3.0374005 1.9032478 5.78602 -1.5943743 4.572883
-3.1374502 -3.4728518 4.304712 2.4407833 -4.7469935 -0.04826693 0.9648264 -2.202872
4.3188148 -1.7799602 -3.0505168 1.71561 -4.8132615 -1.7726142 -4.707778 -1.5402797
-1.8699546 0.3582159 1.8822018 0.15443666 -2.1216297 1.6755409 1.4002595 0.22182514
1.3170625 -2.9110136 -2.0999122 -3.5513823 3.166263 -1.283452 5.378365 -2.1501393
5.213629 2.1636443 -4.6830297 2.7393477 0.9561406 0.4233804 2.1305902 3.1746008
0.17841832 2.0541048 -7.2638197 0.7008925 -4.6018515 -2.5442045 -5.3175645 3.2445838
2.6238096 2.534036 3.8263311 1.9709549 3.0335865 -2.1283193 -1.3333019 -2.0806735
5.2576604 5.226637 3.364177 -0.7519832 3.7282734 7.5171347 1.6800001 1.8451433
-1.2462122 -0.34897026 -3.6140573 -3.009582 2.4138677 -3.1891482 -2.9818208 -1.241468
-3.6687906 1.8100863 0.47482124 0.81634766 3.2580624 2.9553084 2.1878488 0.75667334
-5.1053686 8.034798 3.7904124 -2.576932 -2.6327322 1.7097563 -1.5410813 0.8664188
-5.488799 -5.205995 2.8386385 -1.2050731 -3.611817 -1.4252388 1.8066647 0.7163063
-2.3130996 1.7411147 1.9510748 1.7247344 -0.13614638 2.538741 -2.2532902 -3.0165443
-1.2239617 2.9833279 0.8757759 0.63231874 -2.4237509 2.7096925 0.9024758 0.3382142
2.130994 -2.6688807 -3.2222955 3.798709 -2.087906 -2.695165 1.0160276 0.8104981
1.1753654 -1.8349855 -0.23948061 1.8194201 -1.9344715 -3.1270463 -0.62575287 1.6481605
1.5109876 2.8012824 -3.3465056 -9.349484 2.1631608 -2.7074237 1.2253605 1.2093216
-2.9569588 -8.345529 3.6535566 4.19695 1.8979774 1.2973421 2.1495378 1.0040048
0.3506632 -2.3941755 1.738653 4.512444 -0.20942344 -2.737177 1.1972275 5.306083
4.1610775 -1.7919658 0.2580942 2.1900985 0.6509794 0.027044937 2.6944385 0.037334614
2.9782662 1.2008173 -4.8884935 -1.5578294 -1.6983174 -0.42981273 1.4681898 1.5971049
-2.8716424 0.79717255 1.6716806 -4.4816737 0.74159175 -1.3085054 1.3774921 -2.187376
1.6145091 -2.2718291 -2.5850742 2.1974285 -2.3992279 2.8488595 1.9190745 3.84144
-7.364752 0.24661887 -1.2344304 3.450303 -1.3661137 2.59158 2.911458 -3.06638
00000000: 2cab 3340 d00b 953e 1559 d8bf 28ad ecbc
00000010: 3f13 0340 804a 523f d024 7b40 12c8 5540
00000020: 9a25 37c0 38d8 e13f 609b 4a3f 9d89 1140
00000030: a72a dabf 1d2e b4bf 11b3 22c0 eb20 cebf
00000040: 897a 083e 8c5d 2bc0 4af7 0040 9f97 3140
00000050: b4c5 10c0 7913 f23f 05e0 bb3f 17d0 1d3d
00000060: 6d4a 83c0 d3d9 c1c0 4bb2 7240 cc3f 56c0
00000070: 0228 5040 fa81 1d40 1d71 1fc0 fc8d b63f
00000080: e723 1b40 d8b9 dfbf fed6 e63f 269b 8440
00000090: dab3 c440 610c adc0 4e26 f33f 537d 3640
000000a0: f453 fa3f 96c8 5bbf 2def bb3f 852e 89bf
000000b0: fa26 e3bf 28a5 313f 0157 44c0 9442 8740
000000c0: 738a 233f 4a68 a640 b811 3ec0 654b b33f
000000d0: 954a 893f a1f8 a6bf 9628 acbf 0b48 fdbf
000000e0: 28ad b340 69b5 5ec0 d4a0 5640 c564 42c0
000000f0: a09d f33f 1327 b940 7514 ccbf 0f55 9240
00000100: fccb 48c0 3443 5ec0 33c0 8940 cb35 1c40
00000110: 5fe7 97c0 8bb3 45bd ddfe 763f dbfb 0cc0
00000120: bb33 8a40 bcd5 e3bf ab3b 43c0 1c99 db3f
00000130: 3d06 9ac0 06e5 e2bf 1ea6 96c0 e327 c5bf
00000140: ac5a efbf 1368 b73e fdeb f03f a524 1e3e
00000150: c8c8 07c0 2078 d63f b43b b33f 2126 633e
00000160: 8195 a83f 0c4e 3ac0 f664 06c0 d949 63c0
00000170: 0ea4 4a40 2848 a4bf 911b ac40 e29b 09c0
00000180: 0cd6 a640 2679 0a40 61db 95c0 7951 2f40
00000190: a1c5 743f 51c5 d83e 975b 0840 a92c 4b40
000001a0: 4bb3 363e 7476 0340 3671 e8c0 b16d 333f
000001b0: 5e42 93c0 3fd4 22c0 7d29 aac0 43a7 4f40
000001c0: 7fec 2740 a52d 2240 9ce2 7440 4048 fc3f
000001d0: 4826 4240 6236 08c0 a3a9 aabf c129 05c0
000001e0: c13e a840 9c40 a740 ad4e 5740 f981 40bf
000001f0: 089c 6e40 5e8c f040 3e0a d73f a82d ec3f
00000200: e283 9fbf 3bac b2be b74c 67c0 fe9c 40c0
00000210: cf7c 1a40 011b 4cc0 27d6 3ec0 6ce8 9ebf
00000220: 77cd 6ac0 e8b0 e73f c51b f33e 29fc 503f
00000230: 1884 5040 c623 3d40 b705 0c40 58b5 413f
00000240: 2e5f a3c0 888e 0041 1e96 7240 74ec 24c0
00000250: af7e 28c0 4bd9 da3f 2742 c5bf 9fcd 5d3f
00000260: 3ea4 afc0 8397 a6c0 41ac 3540 d63f 9abf
00000270: 0228 67c0 3a6e b6bf ca40 e73f da5f 373f
00000280: d309 14c0 d9dc de3f d2bc f93f 19c4 dc3f
00000290: f569 0bbe bc7a 2240 e835 10c0 100f 41c0
000002a0: c7aa 9cbf d8ee 3e40 d932 603f a4df 213f
000002b0: bc1e 1bc0 9a6b 2d40 a708 673f 692a ad3e
000002c0: 3562 0840 f1ce 2ac0 173a 4ec0 0c1e 7340
000002d0: 40a0 05c0 957d 2cc0 310d 823f ce7c 4f3f
000002e0: 6072 963f cee0 eabf 683a 75be c2e2 e83f
000002f0: c39c f7bf 8721 48c0 5731 20bf ecf6 d23f
00000300: 0b68 c13f 3648 3340 262d 56c0 7d97 15c1
00000310: 3a71 0a40 6e46 2dc0 9dd8 9c3f 0dcb 9a3f
00000320: d03e 3dc0 4987 05c1 dfd3 6940 6a4d 8640
00000330: ecf0 f23f 4e0f a63f 0792 0940 3b83 803f
00000340: 208a b33e 2c3a 19c0 2e8c de3f f165 9040
00000350: 1973 56be e82d 2fc0 c03e 993f 6fcb a940
00000360: 8c27 8540 235f e5bf ec24 843e 932a 0c40
00000370: 96a6 263f 588d dd3c ae71 2c40 2eec 183d
00000380: ea9b 3e40 62b4 993f 8a6e 9cc0 f466 c7bf
00000390: 7762 d9bf 6a10 dcbe a5ed bb3f ef6d cc3f
000003a0: fdc8 37c0 8013 4c3f a1f9 d53f df69 8fc0
000003b0: f5d8 3d3f 1b7d a7bf a951 b03f f8fd 0bc0
000003c0: 3ca8 ce3f a665 11c0 db71 25c0 aba2 0c40
000003d0: f38c 19c0 b753 3640 3ca4 f53f 27da 7540
000003e0: 0cac ebc0 a889 7c3e d101 9ebf c4d1 5c40
000003f0: d0dc aebf 72dc 2540 5455 3a40 923f 44c0

fc_advantage.weight f4 [4, 256]
1.1189735 0.37507007 0.12168745 -0.45525602 -0.99042046 0.50615096 -0.050903596 1.0162644
0.2621837 -0.17571405 -0.026399208 -0.06311076 -0.22200273 -0.13676696 0.29854396 -0.7694702
-1.0701932 0.21418649 0.33703017 -0.16627373 0.044954523 -0.59209114 0.098256454 0.5306854
0.2860956 -0.61762 -0.46285096 -0.34209055 1.3140796 -0.1563783 -0.2962145 -0.23045735
-0.18546681 0.41318995 0.2108139 -0.11711366 -0.11510674 -0.3582132 -0.11234562 -0.37795827
-0.4541619 -0.3369957 0.005816351 0.5284162 -0.20346488 0.5715728 0.18047772 0.28441712
-0.3965317 0.28784323 -0.27267957 -0.41049483 0.29462394 0.16476032 0.14064135 -0.24245405
-0.08540496 -0.074371964 -0.62143964 -0.054073147 1.2112733 -0.27260542 0.16553569 0.43498272
0.47677162 0.014249397 -0.72316206 0.5722975 -0.67922145 0.08030272 -0.29422665 0.10183735
1.8361024 -0.21516475 0.13550581 -0.42925704 0.63194406 0.17766032 1.1857157 -0.014018186
-0.03296498 -0.3906265 -0.1685218 -0.09778971 -0.45657957 0.5824566 -0.399296 0.036544327
0.9141797 -0.756221 0.61491895 1.2057705 0.18532647 0.22768156 0.09904682 0.018251846
0.09012628 -0.39761046 1.5242381 0.29565975 0.07535775 0.13851309 0.36902073 0.20594594
-0.49473977 -0.50321937 1.8771163 -0.06403998 0.23297477 -0.20504548 -0.69162256 -0.18728033
-0.2063495 0.00986064 0.22290693 -0.15202563 -0.083124295 -2.077977 -0.06004241 -0.06798653
1.3072636 0.126165 0.65260756 0.27991843 0.1538238 -0.07545402 -0.23267668 -0.1178237
-0.37911534 -1.5320584 -0.3721388 0.046796132 0.19316226 0.09157752 -0.0076912153 0.22543564
0.045744482 -0.0758371 0.045473304 0.12586991 -0.2509655 -0.008819719 -0.23349452 0.6180428
-0.68551016 3.3204474 0.08312182 -0.17187832 0.7989807 0.40816715 0.098880656 -0.076113604
-0.23825853 -0.28974676 -0.58860224 -0.11840088 1.1202496 -0.38282964 0.0798229 0.6329197
-0.41344908 -0.45910034 0.011509601 -0.13251337 0.6744887 0.50946426 0.14337724 0.00809239
-0.09571067 0.7772755 -0.3190442 -0.20525439 -0.4153035 0.8522734 0.2285364 -0.53256667
-0.45007458 0.5248541 0.19299214 -0.20328957 -0.0075504384 0.1545523 0.089754306 0.025715249
0.65642583 -0.3075257 -1.0527563 0.0642869 -0.4157064 0.2365404 0.06453818 0.25732565
-0.14808974 0.5132614 -0.4731898 -1.4054356 0.025753392 -0.42938465 0.47161454 -0.31214535
0.13356711 2.2238855 -0.5485016 0.8576013 -0.2937379 0.3480068 -0.0002292539 1.8112727
-0.106246315 0.8291899 -0.06529352 0.06679867 -0.06412195 -0.77676815 0.11800409 0.25815576
0.62626857 0.09596485 -0.09606749 0.83307284 0.26905856 0.62267953 -0.00032575105 0.35296324
-0.05147938 -0.13592434 1.0447501 -0.17563696 -0.02771429 0.16334888 0.06079529 -0.54678124
-0.07014943 -0.36468473 0.88565946 1.3458582 -0.25953358 0.37689453 -0.8383687 -0.26079795
0.24145018 0.2887205 0.8778745 -0.3986079 -0.025132809 -0.6020816 0.047691792 -0.25002325
1.2269137 0.3458912 0.3709616 -0.3446872 -0.20590745 0.77988136 0.5299861 -0.8313647
00000000: 863a 8f3f 2f09 c03e 4537 f93d 5117 e9be
00000010: 328c 7dbf 1c93 013f 4a80 50bd f414 823f
00000020: f13c 863e 62ee 33be 2743 d8bc 3740 81bd
00000030: af54 63be a30c 0cbe c1da 983e 00fc 44bf
00000040: 17fc 88bf b453 5b3e 388f ac3e a943 2abe
00000050: 3c22 383d 4993 17bf ae3a c93d 00db 073f
00000060: 1f7b 923e 581c 1ebf cdfa ecbe 7e26 afbe
00000070: c333 a83f a221 20be 6da9 97be 03fd 6bbe
00000080: 03eb 3dbe a28d d33e 99df 573e 49d9 efbd
00000090: 15bd ebbd b867 b7be 7615 e6bd bf83 c1be
000000a0: e987 e8be b38a acbe 1797 be3b 4946 073f
000000b0: 1959 50be 9852 123f 27cf 383e 1f9f 913e
000000c0: 3406 cbbe 3060 933e a89c 8bbe 612c d2be
000000d0: f3d8 963e eeb6 283e 4904 103e e045 78be
000000e0: cce8 aebd 5450 98bd ab16 1fbf ce7b 5dbd
000000f0: 010b 9b3f f092 8bbe 3082 293e 0eb6 de3e
00000100: 691b f43e 4e76 693c 2621 39bf 1782 123f
00000110: 75e1 2dbf c175 a43d e0a4 96be 1a90 d03d
00000120: 6705 eb3f 2654 5cbe 09c2 0a3e 94c7 dbbe
00000130: 16c7 213f 96ec 353e 88c5 973f 89ac 65bc
00000140: 4906 07bd 3200 c8be fb90 2cbe f945 c8bd
00000150: ccc4 e9be e01b 153f 8670 ccbe 81af 153d
00000160: ae07 6a3f b397 41bf 546b 1d3f b056 9a3f
00000170: 39c6 3d3e 5b25 693e 0fd9 ca3d e584 953c
00000180: 2194 b83d 9993 cbbe 3c1a c33f b760 973e
00000190: 2a55 9a3d 60d6 0d3e 49f0 bc3e 7ee3 523e
000001a0: 884e fdbe fcd2 00bf 5945 f03f 6527 83bd
000001b0: f090 6e3e 71f7 51be 2d0e 31bf 6ac6 3fbe
000001c0: 494d 53be 868e 213c b741 643e 9bac 1bbe
000001d0: 123d aabd 93fd 04c0 08ef 75bd 863c 8bbd
000001e0: 6a54 a73f 6631 013e 4a11 273f 7851 8f3e
000001f0: fc83 1d3e a387 9abd cc42 6ebe 8d4d f1bd
00000200: 681b c2be 7d1a c4bf fa88 bebe 4dad 3f3d
00000210: 54cc 453e ff8c bb3d 9706 fcbb 9ad8 663e
00000220: 915e 3b3d 7b50 9bbd 3742 3a3d 0be4 003e
00000230: 8d7e 80be 9580 10bc 3019 6fbe 0e38 1e3f
00000240: 987d 2fbf 3682 5440 c63b aa3d df00 30be
00000250: 008a 4c3f 49fb d03e f181 ca3d 73e1 9bbd
00000260: 0bfa 73be b059 94be a3ae 16bf 297c f2bd
00000270: 5764 8f3f 3f02 c4be 307a a33d 0707 223f
00000280: 99af d3be 330f ebbe c492 3c3c 96b1 07be
00000290: 4bab 2c3f 406c 023f 7cd1 123e f295 043c
000002a0: f503 c4bd 87fb 463f c359 a3be 352e 52be
000002b0: a9a2 d4be 972e 5a3f 7205 6a3e 4a56 08bf
000002c0: 2d70 e6be d75c 063f bb9f 453e 242b 50be
000002d0: ab69 f7bb f542 1e3e 1bd1 b73d c9a8 d23c
000002e0: 860b 283f 0274 9dbe b8c0 86bf daa8 833d
000002f0: 78d7 d4be a637 723e 982c 843d 30c0 833e
00000300: d6a4 17be 1965 033f ef45 f2be 50e5 b3bf
00000310: c7f8 d23c 4ed8 dbbe 7677 f13e 84d1 9fbe
00000320: d1c5 083e 2454 0e40 9a6a 0cbf c28b 5b3f
00000330: d064 96be f32d b23e e063 70b9 c9d7 e73f
00000340: ab97 d9bd ca45 543f 9cb8 85bd becd 883d
00000350: 5e52 83bd 47da 46bf 21ac f13d fe2c 843e
00000360: 2353 203f 3889 c43d 08bf c4bd 4344 553f
00000370: 0bc2 893e ed67 1f3f 91c9 aab9 99b7 b43e
00000380: 0bdc 52bd c02f 0bbe 5fba 853f 2dda 33be
00000390: 1409 e3bc ee44 273e 7b04 793d dbf9 0bbf
000003a0: 81aa 8fbd f5b7 babe 94ba 623f 1545 ac3f
000003b0: 96e1 84be 52f8 c03e 559f 56bf 4f87 85be
000003c0: b73e 773e 2cd3 933e 62bc 603f 5616 ccbe
000003d0: 52e3 cdbc 0522 1abf 7858 433d 0c03 80be
000003e0: 820b 9d3f a718 b13e aeee bd3e d77a b0be
000003f0: 67d9 52be 4ea6 473f 2bad 073f 51d4 54bf

fc_advantage.bias f4 [4]
0.11334758 -0.36573425 0.4590843 -0.357599
00000000: c722 e83d 8541 bbbe 190d eb3e 3717 b7be
