csv_and_models/Duelling_DDQ_PER/trained models/duelling_double_PER_lunar_1100.pth (torch, 17326 bytes, 5 tensors)

fc1.weight f4 [256, 8]
-0.54401493 -1.1260424 -0.85988903 -1.8030751 1.9054255 3.2139628 -2.523923 -1.6966721
-0.09063316 0.07085325 -0.2284467 0.468376 -0.28904775 0.0067667775 -0.057766885 0.53208554
0.085441224 -0.8859295 -1.1707991 3.502469 0.3497209 2.6787114 1.6977342 1.2988029
-1.2363394 0.55298096 1.9591985 -0.5219683 1.1154836 0.23852517 1.8983746 -6.317262
1.5468107 0.12638886 -0.8359532 -0.91996837 0.7851773 1.9747927 -0.6983445 -1.4849316
-0.8073788 0.03289533 -0.23992287 -0.0039667673 -0.8610197 -2.3166406 -3.6874125 -0.001857669
0.81824726 -0.5671899 -2.1946795 2.145511 0.091899835 -1.4046491 -1.568019 -0.8652941
0.66644615 -4.858861 2.3826098 -2.277784 -0.50889784 2.64049 0.80923617 -2.6624858
-1.3220437 -1.8008723 -0.37200618 3.5316975 -0.2402245 0.4781731 1.0098422 0.18034114
-1.4932289 0.40458456 0.1456263 -0.04307595 1.0827062 3.6938512 0.36802503 0.074621655
-0.14239773 -1.5585037 -0.36763853 -1.2390074 1.0030618 1.7799343 0.33742177 1.104265
-0.12339225 -0.21725813 1.8501205 -2.255344 0.17927353 -2.1711743 -0.11571614 0.21506488
-2.3854468 0.031373102 -0.67867714 1.1695077 -0.69813347 0.09481578 1.6608001 -0.18656334
-0.114176884 0.7238153 -0.6876566 0.39767665 1.3065219 1.8584495 2.035215 0.53834015
0.005164893 -0.52545595 0.023761975 0.30038586 -4.902924 0.097989485 -1.3346847 1.4087667
-0.41804504 0.39682487 1.3357289 0.50744486 -1.7358818 -2.678589 -4.203678 -3.3911192
-2.2034366 -0.25620398 0.8407182 0.43002886 -0.29832202 -0.41509476 -2.5651479 0.649989
0.26549536 0.35378224 -0.3368839 0.23409435 -2.3419983 4.0984373 -1.508862 -6.679615
-0.6972663 -0.2098755 0.7116032 -2.4323647 0.79623586 -0.093741745 1.0992882 1.1106646
0.0019563073 0.39308867 -0.6911879 0.04254557 -5.363049 -0.46497568 -4.922381 0.083499365
0.46228772 0.2279365 0.09792958 0.32844198 -0.71657497 -4.5097 -0.97207683 -2.9404447
-0.9576571 -0.35840413 2.0145395 -0.16518319 1.995484 1.5874242 -1.4782641 -0.14120346
-0.5793868 0.80055606 1.455283 -0.6290631 -0.08781603 -1.8031743 -1.0186889 -0.5726701
-1.4305911 0.17110364 -1.6682533 -0.24136648 -0.34280992 -1.1968589 0.45328593 0.24663256
-4.560582 -0.16186075 -2.3714874 -1.2201607 -1.2932388 -0.07453352 0.17016332 -2.2307422
1.3572303 -3.8279655 0.2702865 -3.4004924 0.20727643 0.3893447 -1.6611629 -0.29573098
0.048933584 0.021083282 -0.028428268 0.0035872671 -5.461624 0.33449334 1.4439716 0.27813616
0.5998852 -0.35711065 2.808869 -1.7119164 0.42166153 0.48073155 -1.4405135 0.9250703
-0.006252325 -3.5903811 4.23527 1.3095181 -0.5933999 -3.7730317 0.8071671 -0.2879365
-0.26104134 0.040575042 1.2908852 -2.346384 2.3436022 0.13860899 0.48833454 0.012381307
-2.9727468 0.05419922 -0.18216707 0.060124557 1.0011364 -0.6883106 -2.1321096 -0.40179577
0.081500664 -0.051496778 1.1748698 -1.5763278 -2.0900552 -0.54488397 0.11310604 1.5038494
00000000: 9044 0bbf 2822 90bf b021 5cbf 2acb e6bf
00000010: fce4 f33f 91b1 4d40 f487 21c0 8d2c d9bf
00000020: e19d b9bd 821b 913d efed 69be fbce ef3e
00000030: 11fe 93be d8bb dd3b f89c 6cbd c236 083f
00000040: cffb ae3d 47cc 62bf bfdc 95bf 7428 6040
00000050: 9e0e b33e 0270 2b40 5b4f d93f 2c3f a63f
00000060: 5f40 9ebf 2990 0d3f 04c7 fa3f b79f 05bf
00000070: 2bc8 8e3f f13f 743e f0fd f23f 0327 cac0
00000080: e5fd c53f 156c 013e 0701 56bf 0c83 6bbf
00000090: 6101 493f 02c6 fc3f b5c6 32bf 3d12 bebf
000000a0: 61b0 4ebf 41bd 063d 57ae 75be a8fb 81bb
000000b0: c96b 5cbf d743 14c0 91fe 6bc0 077d f3ba
000000c0: a778 513f 5b33 11bf a175 0cc0 0d50 0940
000000d0: fb35 bc3d 8bcb b3bf d9b4 c8bf ea83 5dbf
000000e0: 379c 2a3f ca7b 9bc0 ae7c 1840 37c7 11c0
000000f0: 2147 02bf cafd 2840 1a2a 4f3f 2b66 2ac0
00000100: ba38 a9bf fc82 e6bf 9877 bebe 5507 6240
00000110: 69fd 75be 1bd3 f43e 8242 813f 59ab 383e
00000120: 2022 bfbf b525 cf3e 101f 153e 6870 30bd
00000130: 1e96 8a3f 0f68 6c40 c76d bc3e 3dd3 983d
00000140: b6d0 11be 0d7d c7bf 1e3b bcbe cb97 9ebf
00000150: 5464 803f e3d4 e33f 8cc2 ac3e 8e58 8d3f
00000160: 13b5 fcbd ea78 5ebe c0d0 ec3f 8e57 10c0
00000170: 7b93 373e 85f4 0ac0 95fc ecbd f839 5c3e
00000180: 29ab 18c0 1581 003d c9bd 2dbf 6eb2 953f
00000190: e0b8 32bf c72e c23d 1995 d43f 760a 3fbe
000001a0: 92d5 e9bd f64b 393f 430a 30bf 469c cb3e
000001b0: 1c3c a73f ace1 ed3f f640 0240 a9d0 093f
000001c0: 433e a93b 4884 06bf 79a8 c23c 2dcc 993e
000001d0: c1e4 9cc0 b6ae c83d f3d6 aabf 7852 b43f
000001e0: 000a d6be a12c cb3e 2af9 aa3f e8e7 013f
000001f0: 6031 debf 016e 2bc0 8884 86c0 1908 59c0
00000200: 1b05 0dc0 2b2d 83be 4f39 573f be2c dc3e
00000210: aabd 98be 4d87 d4be 622b 24c0 ae65 263f
00000220: 02ef 873e f222 b53e 0c7c acbe 6eb6 6f3e
00000230: 4de3 15c0 6626 8340 6422 c1bf 68bf d5c0
00000240: 0b80 32bf 9ae9 56be a12b 363f ddab 1bc0
00000250: 1dd6 4b3f acfb bfbd 7ab5 8c3f 422a 8e3f
00000260: 6435 003b eb42 c93e b1f1 30bf 4344 2e3d
00000270: 199e abc0 4b11 eebe 2584 9dc0 b701 ab3d
00000280: fab0 ec3e 3068 693e 4e8f c83d 8c29 a83e
00000290: 7571 37bf 764f 90c0 07da 78bf 3f30 3cc0
000002a0: 0429 75bf bf80 b7be 37ee 0040 c825 29be
000002b0: 056c ff3f b730 cb3f c237 bdbf a497 10be
000002c0: b152 14bf 3ef1 4c3f b746 ba3f 480a 21bf
000002d0: e4d8 b3bd 6ace e6bf 6664 82bf 829a 12bf
000002e0: 9c1d b7bf cb35 2f3e 5389 d5bf c628 77be
000002f0: c884 afbe ac32 99bf 1815 e83e 3f8d 7c3e
00000300: 4af0 91c0 d3be 25be 73c6 17c0 3a2e 9cbf
00000310: d988 a5bf 08a5 98bd 4b3f 2e3e 7bc4 0ec0
00000320: b9b9 ad3f 63fd 74c0 fe62 8a3e aba1 59c0
00000330: 4640 543e 3058 c73e fca0 d4bf 0d6a 97be
00000340: 956e 483d d9b6 ac3c 66e2 e8bc 5b18 6b3b
00000350: a0c5 aec0 b642 ab3e 10d4 b83f dd67 8e3e
00000360: 1492 193f 35d7 b6be 82c4 3340 1420 dbbf
00000370: 05e4 d73e 7222 f63e bf62 b8bf 68d1 6c3f
00000380: 4ee0 ccbb cec8 65c0 5587 8740 4a9e a73f
00000390: 0ee9 17bf 5a79 71c0 81a2 4e3f 6a6c 93be
000003a0: 36a7 85be 0432 263d ba3b a53f 282b 16c0
000003b0: 94fd 1540 84ef 0d3e fc06 fa3e f7da 4a3c
000003c0: 7c41 3ec0 0000 5e3d 018a 3abe 2b45 763d
000003d0: 3d25 803f 2035 30bf 7c74 08c0 2db8 cdbe
000003e0: d2e9 a63d 49ee 52bd 2262 963f 1cc5 c9bf
000003f0: 77c3 05c0 847d 0bbf 24a4 e73d 237e c03f

fc1.bias f4 [256]
-0.9793818 -0.7703103 -0.4886894 -0.785395 -0.9332668 0.1629075 0.88851863 0.009688097
1.0952681 -0.036952928 -0.7035008 0.10834954 0.31022987 0.12794769 0.68935 0.31256396
-0.19110925 0.5913552 0.30922022 -0.41451803 1.1162003 -0.021913031 0.8293339 -0.4202961
-0.2046546 -1.051343 -0.017860873 -1.1682751 -0.5272889 0.19102065 0.012252418 -0.05630708
-0.22092925 -0.39422885 -0.09298648 -0.2786937 -0.106186785 -1.447214 0.57115245 0.020137833
-0.1925946 -0.21499124 0.19157767 -0.93385524 -0.16450804 0.25540817 0.0663974 -0.16214053
-0.4939872 0.23731227 -0.3516333 0.6567603 1.031997 0.96504694 0.7411831 -0.47604796
-0.025362128 0.4863752 -1.2030529 -0.10821644 0.029080072 -0.7128004 0.66843355 -0.27211654
-0.11845477 -0.13269067 -1.872781 0.473009 -0.85389215 -0.45920673 -0.23488528 -0.66366756
-2.0609274 -0.11753135 -1.2495096 0.011167828 -0.2060315 0.50042874 -0.6093589 -0.12646854
0.07532149 0.23228502 0.33062035 0.41451928 1.2233955 0.9323553 0.6843364 0.6393552
0.44189152 -0.0019817273 0.26161176 -0.98940307 -0.20695333 0.021652287 0.16161779 0.81019497
0.0017010658 0.6447225 -1.1101207 0.05517429 0.7451202 -0.12966691 -0.10876739 -1.0237566
0.05552648 0.101591945 -1.2482803 0.07286726 -0.5144104 0.68186647 -1.1401979 -0.71103144
-0.7747829 -0.34177867 0.26864785 0.024201076 0.21857879 -1.4536663 0.5444749 0.18504359
-0.6401843 0.81927663 0.045875967 0.1462769 1.0717431 -0.80266476 0.7049485 0.23081273
0.154426 -0.5001618 -0.21794696 -0.56592536 -0.08370506 -0.19133371 1.1917002 0.040316354
0.10547031 0.6972138 0.22858874 0.5578971 0.07610227 0.12088688 -0.633335 0.74657065
0.2857312 -2.271124 0.01414467 0.9630661 -0.15578666 0.122601174 0.96465516 0.5735758
-0.35771567 -0.84967476 -0.10350182 0.41442922 -0.9677279 0.7293318 0.33683416 0.46091378
-0.10915835 0.23403442 0.06929678 -0.74565715 -0.6175522 -0.10519386 -0.26665956 0.07497653
0.09606831 -0.1566122 -0.5131996 0.56324434 -0.6432389 0.042629257 0.051489953 0.008414475
0.30091214 -0.8281611 -0.49756637 0.19529155 -0.24616998 0.01326097 0.9839585 0.7162379
-0.21162033 0.55845183 -1.1081933 0.4779591 0.07580532 -0.116135895 -1.4187472 1.100068
0.6849126 0.55721194 -0.5422424 -1.7697452 0.022107238 0.40247536 -0.48321438 -0.07028018
-0.14235465 -1.6030377 -0.32962587 0.11605664 -0.598237 0.7424803 0.6324042 -0.25100076
0.6328987 0.99041003 0.53079426 -0.8541691 -0.07301808 -0.9843081 -0.2851137 -0.98013896
1.0422679 0.43063322 0.59057504 0.41209993 0.079994634 -0.056113575 0.5468305 0.30333358
0.16036604 0.5728171 -0.15901801 0.27569395 0.07700361 -0.5589665 0.9537923 0.7555777
0.04170319 -0.14013061 -0.099072255 -0.32056862 -0.080747694 -0.04012578 -0.19180018 0.5665038
0.73826617 0.8600663 -0.72686845 -0.36883911 0.043186814 -0.37850505 -0.32263687 0.36428046
-1.0127894 0.16946416 0.4723898 0.6845926 0.44601038 0.16759482 -0.27658254 -0.08426184
00000000: c4b8 7abf 0e33 45bf 7f35 fabe a60f 49bf
00000010: 93ea 6ebf 39d1 263e f575 633f d3ba 1e3c
00000020: bf31 8c3f f45b 17bd a118 34bf 5de6 dd3d
00000030: 73d6 9e3e b804 033e 3e79 303f 6208 a03e
00000040: 25b2 43be 0e63 173f 1d52 9e3e b53b d4be
00000050: a7df 8e3f f582 b3bc 3a4f 543f 0d31 d7be
00000060: fa90 51be 6892 86bf f750 92bc 0a8a 95bf
00000070: 68fc 06bf eb9a 433e 5ebe 483c 41a2 66bd
00000080: 473b 62be 5dd8 c9be b26f bebd f1b0 8ebe
00000090: 7578 d9bd 4f3e b9bf 0c37 123f 19f8 a43c
000000a0: 8537 45be aa26 5cbe f02c 443e 2311 6fbf
000000b0: cc74 28be dcc4 823e 5cfb 873d 2b08 26be
000000c0: e4eb fcbe fd01 733e 4809 b4be 7121 283f
000000d0: 7a18 843f 510d 773f 2dbe 3d3f 8fbc f3be
000000e0: 3dc4 cfbc 2c06 f93e a3fd 99bf 95a0 ddbd
000000f0: 5539 ee3c 167a 36bf 761e 2b3f dc52 8bbe
00000100: 6a98 f2bd 10e0 07be 4ab7 efbf 3c2e f23e
00000110: ad98 5abf 251d ebbe c485 70be 1ee6 29bf
00000120: 3ce6 03c0 47b4 f0bd eeef 9fbf 44f9 363c
00000130: ecf9 52be 191c 003f f2fe 1bbf f880 01be
00000140: 2742 9a3d 20dc 6d3e 1247 a93e df3b d43e
00000150: 3998 9c3f d6ae 6e3f ac30 2f3f c8ac 233f
00000160: 9b3f e23e dedf 01bb faf1 853e 8549 7dbf
00000170: 93eb 53be 2360 b13c 227f 253e f068 4f3f
00000180: 4cf6 de3a 890c 253f 6f18 8ebf 70fe 613d
00000190: 33c0 3e3f 67c7 04be 70c1 debd 750a 83bf
000001a0: bc6f 633d 700f d03d a6c7 9fbf 6e3b 953d
000001b0: 66b0 03bf cd8e 2e3f 01f2 91bf 2806 36bf
000001c0: 2c58 46bf 9dfd aebe 368c 893e 5641 c63c
000001d0: 1ed3 5f3e bd11 babf b562 0b3f 117c 3d3e
000001e0: 1ee3 23bf 1dbc 513f 70e8 3b3d 9dc9 153e
000001f0: e12e 893f 707b 4dbf 8177 343f 2c5a 6c3e
00000200: d921 1e3e 9b0a 00bf 7d2d 5fbe 7ce0 10bf
00000210: 8f6d abbd fcec 43be a289 983f c322 253d
00000220: d100 d83d 9b7c 323f 2b13 6a3e 58d2 0e3f
00000230: 82db 9b3d 8a93 f73d 3e22 22bf 411f 3f3f
00000240: 5c4b 923e 185a 11c0 0cbf 673c 808b 763f
00000250: 8a86 1fbe 5316 fb3d a4f3 763f ddd5 123f
00000260: 8226 b7be 4984 59bf c3f8 d3bd 1130 d43e
00000270: 04bd 77bf 7db5 3a3f 8775 ac3e e4fc eb3e
00000280: 6a8e dfbd b8a6 6f3e 78eb 8d3d 63e3 3ebf
00000290: e717 1ebf e16f d7bd 9a87 88be 4c8d 993d
000002a0: 76bf c43d f35e 20be 0d61 03bf c830 103f
000002b0: 4eab 24bf 049c 2e3d 21e7 523d dedc 093c
000002c0: 2811 9a3e 5e02 54bf 05c1 febe 82fa 473e
000002d0: fc13 7cbe 8a44 593c b4e4 7b3f 5e5b 373f
000002e0: 00b3 58be b3f6 0e3f 47d9 8dbf 0eb7 f43e
000002f0: d23f 9b3d a8d8 edbd 8299 b5bf 07cf 8c3f
00000300: 6f56 2f3f 71a5 0e3f 66d0 0abf 0387 e2bf
00000310: 3d1a b53c 4011 ce3e e067 f7be 0eef 8fbd
00000320: 6bc5 11be 5730 cdbf b9c4 a8be 1baf ed3d
00000330: 0f26 19bf 3013 3e3f 3ee5 213f 2c83 80be
00000340: a605 223f 838b 7d3f 22e2 073f d3aa 5abf
00000350: 818a 95bd 9efb 7bbf 6cfa 91be 63ea 7abf
00000360: 0969 853f f57b dc3e ed2f 173f c3fe d23e
00000370: 3ad4 a33d 59d7 65bd 15fd 0b3f 8a4e 9b3e
00000380: ff36 243e 24a4 123f 9ed5 22be c227 8d3e
00000390: 12b4 9d3d 6e18 0fbf bb2b 743f 8a6d 413f
000003a0: f7d0 2a3d 667e 0fbe 65e6 cabd 9221 a4be
000003b0: 0c5f a5bd ee5a 24bd 4467 44be 6506 113f
000003c0: 03ff 3c3f 4e2d 5c3f 0d14 3abf 7bd8 bcbe
000003d0: a8e4 303d 6acb c1be a930 a5be f882 ba3e
000003e0: 15a3 81bf 0388 2d3e 13dd f13e 7641 2f3f
000003f0: 795b e43e fa9d 2b3e 3a9c 8dbe 7991 acbd

fc_value.weight f4 [1, 256]
2.9382083 0.29110575 -1.6955134 -0.018416785 1.5972396 0.83060104 3.6842978 4.0593038
-2.8915184 1.8362054 0.8034878 2.1666145 -1.6705077 -1.4274614 -2.5085137 -1.9710504
0.13056009 -2.948994 2.041704 3.0440814 -2.3365905 1.7959443 1.4761323 0.33084378
-4.0480814 -6.47127 3.846383 -3.5841985 2.7407005 2.480912 -2.3632088 1.4627374
2.406083 -1.8672667 1.8362719 4.4208093 6.318677 -5.407761 1.8850627 2.7255583
1.8686754 -0.88183707 1.4485232 -1.2190073 -1.8547299 0.8714829 -3.0073893 5.0144873
0.59317905 5.099518 -2.9584463 1.4949539 1.1230631 -1.3264291 -1.3647833 -1.9747155
5.0589986 -3.500461 2.7403839 -2.9812496 1.9218985 5.9457006 -1.6501994 4.548307
-3.1528504 -3.3091855 4.190407 2.4537122 -4.763624 -0.04826693 0.86316466 -2.0827262
5.4159083 -1.955427 -3.0327227 1.6762606 -4.8050404 -1.7628264 -4.3283715 -1.5674938
-1.8641357 0.4265108 1.9007697 0.32704931 -2.3404005 1.7286717 1.4625436 0.04126012
1.1688744 -2.8386874 -1.9952967 -3.3422394 3.1931713 -1.3800911 5.1184287 -2.3073018
5.1030283 2.2140028 -3.6953962 2.601582 1.063471 0.11489075 2.106236 3.1748343
0.32584834 1.6454291 -7.392327 0.69662404 -4.9781127 -2.6845794 -5.422021 3.3706512
2.7406 2.5656464 4.127736 1.983199 3.1306207 -1.3110349 -1.4124094 -2.161836
6.0514054 5.4725385 3.190742 -0.84543645 3.6279151 8.125556 1.5414641 1.8568392
-1.2673594 -0.30733526 -3.4335716 -2.9512582 2.327047 -3.1521804 -3.0259225 -1.3025666
-3.615971 1.9165282 0.60366994 0.91029185 3.329323 2.8046238 2.3700519 0.96372575
-5.2423186 8.928413 3.5371683 -2.621381 -2.6681874 1.8910718 -1.6123186 0.91942924
-5.0876055 -6.0562835 3.1442208 -1.1861824 -3.2919571 -1.4143623 1.9243225 0.7681423
-2.0538514 1.7873598 1.897421 1.9172639 0.024016185 2.4592931 -2.245097 -2.8766923
-1.2125674 3.1209326 0.9644528 0.67181116 -2.0311847 2.5631804 0.9935137 0.3405658
2.1845994 -2.7037637 -3.3499901 3.8331232 -2.1196334 -2.8987517 1.0463113 0.88125205
0.95609105 -1.9169488 0.02924028 1.8482915 -1.9313949 -3.136055 -0.626898 1.7591836
1.5112106 2.8192496 -3.437478 -10.974686 2.5358398 -2.91503 1.3140115 1.3066883
-2.9938831 -9.385635 3.6269283 4.711538 1.9210137 1.3169477 2.2062168 0.8366086
0.37366474 -2.4094503 1.7911866 3.8149002 -0.07249216 -2.8714774 1.1329153 4.993034
4.216001 -1.8044451 0.4344108 2.132092 0.7825407 0.020412108 2.852906 -0.019820722
2.9987571 1.1874496 -4.9179916 -1.621047 -1.76389 -0.4724619 1.5003312 1.5777633
-2.8245041 0.8337663 1.8222593 -3.3913019 0.77655095 -1.2819693 1.1452364 -2.3487709
0.9491404 -2.2721746 -2.6121523 2.0194044 -2.3569589 2.84198 2.034714 4.0017176
-7.7370353 0.29328015 -1.2533332 3.6082814 -1.3890283 2.5172179 2.9039056 -3.0188825
00000000: 9b0b 3c40 d00b 953e 9506 d9bf ccde 96bc
00000010: 5972 cc3f 45a2 543f 89cb 6b40 d1e5 8140
00000020: a30e 39c0 c708 eb3f 60b1 4d3f d0a9 0a40
00000030: 32d3 d5bf 0eb7 b6bf 7d8b 20c0 614b fcbf
00000040: 8bb1 053e 51bc 3cc0 47ab 0240 3bd2 4240
00000050: b38a 15c0 81e1 e53f e7f1 bc3f 5b64 a93e
00000060: e289 81c0 a514 cfc0 242b 7640 8263 65c0
00000070: a367 2f40 43c7 1e40 d03e 17c0 fb3a bb3f
00000080: 44fd 1940 9802 efbf f50a eb3f 4577 8d40
00000090: 9a32 ca40 610c adc0 bc49 f13f 8c6f 2e40
000000a0: c130 ef3f 13c0 61bf 3569 b93f 6e08 9cbf
000000b0: ca67 edbf 8119 5f3f 1179 40c0 ae76 a040
000000c0: 95da 173f 402f a340 2f57 3dc0 a65a bf3f
000000d0: 88c0 8f3f 6ec8 a9bf 38b1 aebf 7ac3 fcbf
000000e0: 51e3 a140 8e07 60c0 7362 2f40 cbcc 3ec0
000000f0: c500 f63f 2e43 be40 bc39 d3bf bb8b 9140
00000100: 4dc8 49c0 b2c9 53c0 d017 8640 9f09 1d40
00000110: 9c6f 98c0 8bb3 45bd 5cf8 5c3f 634b 05c0
00000120: 1f4f ad40 6f4b fabf 2118 42c0 b58f d63f
00000130: e4c2 99c0 4ca4 e1bf 0582 8ac0 a3a3 c8bf
00000140: 009c eebf a05f da3e 6c4c f33f 0273 a73e
00000150: 1fc9 15c0 1d45 dd3f a134 bb3f 5f00 293d
00000160: ad9d 953f 0ead 35c0 e265 ffbf 40e7 55c0
00000170: eb5c 4c40 d3a6 b0bf 2bca a340 d5aa 13c0
00000180: 024c a340 39b2 0d40 5f81 6cc0 5280 2640
00000190: d11f 883f d74b eb3d 92cc 0640 7c30 4b40
000001a0: 98d5 a63e 6c9d d23f f18d ecc0 f455 323f
000001b0: b34c 9fc0 26d0 2bc0 3281 adc0 c0b8 5740
000001c0: fe65 2f40 8d33 2440 6a16 8440 77d9 fd3f
000001d0: 175c 4840 fecf a7bf d5c9 b4bf 855b 0ac0
000001e0: 1da5 c140 091f af40 1e35 4c40 866e 58bf
000001f0: c32f 6840 4702 0241 b24e c53f e8ac ed3f
00000200: d538 a2bf 0c5b 9dbe a3bf 5bc0 6ae1 3cc0
00000210: 57ee 1440 53bd 49c0 b7a8 41c0 81ba a6bf
00000220: 126c 67c0 cc50 f53f 1d8a 1a3f e308 693f
00000230: a113 5540 f57e 3340 eeae 1740 bbb6 763f
00000240: 13c1 a7c0 c8da 0e41 f760 6240 b5c4 27c0
00000250: 95c3 2ac0 a40e f23f 7560 cebf b75f 6b3f
00000260: aacd a2c0 13cd c1c0 ea3a 4940 d3d4 97bf
00000270: 6daf 52c0 d309 b5bf 3350 f63f f9a4 443f
00000280: 4d72 03c0 35c8 e43f b1de f23f e768 f53f
00000290: 97bd c43c 0f65 1d40 abaf 0fc0 ba1b 38c0
000002a0: 6935 9bbf 5cbd 4740 61e6 763f d1fb 2b3f
000002b0: eefe 01c0 260b 2440 ea56 7e3f a45e ae3e
000002c0: 7ad0 0b40 770a 2dc0 3d66 56c0 e451 7540
000002d0: 13a8 07c0 2685 39c0 87ed 853f bc99 613f
000002e0: 62c2 743f 945e f5bf 5089 ef3c d194 ec3f
000002f0: f337 f7bf 20b5 48c0 637c 20bf ee2c e13f
00000300: 596f c13f 966e 3440 a4ff 5bc0 5098 2fc1
00000310: 334b 2240 da8f 3ac0 8731 a83f 9041 a73f
00000320: c89b 3fc0 902b 16c1 981f 6840 ebc4 9640
00000330: c7e3 f53f be91 a83f a832 0d40 fb2b 563f
00000340: fc50 bf3e 6f34 1ac0 9a45 e53f 5327 7440
00000350: c576 94bd 49c6 37c0 5e03 913f efc6 9f40
00000360: 7be9 8640 0ff8 e6bf 186b de3e 3274 0840
00000370: 9654 483f 4b37 a73c 0396 3640 115f a2bc
00000380: a3eb 3f40 59fe 973f 3060 9dc0 787e cfbf
00000390: 26c7 e1bf 87e6 f1be da0a c03f 26f4 c93f
000003a0: adc4 34c0 b571 553f cb3f e93f 170b 59c0
000003b0: 0bcc 463f 9217 a4bf 1b97 923f 4352 16c0
000003c0: defa 723f 4f6b 11c0 812d 27c0 ec3d 0140
000003d0: 6ad8 16c0 00e3 3540 c138 0240 120e 8040
000003e0: cb95 f7c0 d128 963e 396d a0bf 15ee 6640
000003f0: aecb b1bf 191a 2140 97d9 3940 5f35 41c0

fc_advantage.weight f4 [4, 256]
0.35771236 0.37507007 -0.08227797 -0.23471308 -0.8227325 0.3611617 0.22965275 1.1222073
0.22561918 -0.65016085 -0.15099312 -0.18860681 -0.1706938 -0.19018166 0.5457702 -0.67604375
-0.7247788 0.483607 0.40413937 0.34233317 -0.0641078 -0.91426325 0.108509496 -0.21176326
0.19078483 -1.8510307 -0.50922215 0.31661245 0.9330037 -0.074687526 0.12263397 -0.17500368
-0.42422485 0.40716502 0.08540484 -0.06878791 1.8094392 -0.3582132 -0.25196654 -0.31870076
-0.57031167 -0.1651033 -0.20641027 0.27325195 -0.39839134 -0.093802206 0.19846617 0.00828754
-0.40791684 0.14204837 -0.21876381 -0.47784987 0.31669232 0.123479955 0.09543247 -0.12687248
-0.17779446 -0.24785848 0.6749559 -0.5062641 0.94177806 -0.30736044 0.08111785 0.2370322
0.39060646 0.10439973 -1.2322187 0.6421988 0.09784913 0.08030272 -0.16154115 0.09425684
2.6551838 -0.06525219 -0.077443436 -0.6895258 0.68333787 -0.018211097 1.0469345 -0.10049218
0.06903287 -0.3757967 -0.03317016 -0.19557387 -0.32046774 0.48624176 -0.03409813 0.049890805
0.7456077 -0.8599009 0.58432794 0.9778406 0.20863046 0.17998599 0.13374132 0.075199686
-0.026066767 -0.35499334 0.5074513 0.32629406 0.0863757 0.37875444 0.35414633 0.11304677
-0.11213148 -0.37211806 4.0034976 -0.05458654 0.3054998 -0.0010273856 -1.1555755 -0.074961625
-0.41838416 0.15610647 0.40298903 -0.07873903 -0.20250821 -2.4563107 -0.12377848 -0.02268246
1.1514059 0.3775501 0.6805751 0.11071102 0.14359027 -0.38569257 -0.4281753 -0.11862299
-0.42897183 -1.41419 -0.52673644 0.12666085 0.1494967 0.1625077 -0.06810507 0.22938347
0.38080126 -0.013921935 -0.009579507 0.30839357 -0.17117774 0.007029436 -0.60655046 0.5054638
-0.73232913 2.5514274 0.34105885 -0.18023466 0.7059183 0.42473027 0.06998857 -0.11756423
-0.024051696 0.41417992 -0.52021986 -0.28093982 0.6133127 -0.37998566 -0.33535215 0.5542046
-0.33631507 -0.39207056 -0.13369663 -0.44350538 0.81658566 0.3649758 0.29688197 -0.18060608
-0.5308433 0.7771587 -0.2498408 -0.20496899 -0.12927149 0.9923148 0.26534882 -0.30229676
-0.43603486 0.18697207 0.008826951 -0.24304563 -0.10436869 0.017045569 0.10788824 0.04985855
0.50552917 -0.056631625 -0.98194826 0.0654567 -0.4118542 0.28088427 0.12806252 0.21532018
-0.06405222 0.58841276 -1.2129862 -0.23598592 -0.42163667 -0.56201017 0.20549771 -0.19995669
0.08864345 2.102424 -0.5814085 1.2546468 -0.15844004 0.1816413 0.00024362419 1.7526456
-0.09194445 0.8202259 0.020658782 0.18297969 -0.20642146 -0.09561988 0.17431623 0.46867508
0.43588802 0.017619586 -0.10945271 0.9867011 0.1420794 0.5673169 0.0752275 0.55152196
-0.04042308 -0.06318663 0.87550926 -0.20993483 -0.025760025 0.40075463 0.10503119 -0.4844179
-0.00032870736 -0.23063017 0.7251264 -0.20821616 -0.3389755 0.50757676 -0.41678643 -0.28053683
0.23734361 0.30460554 0.42234838 -0.37592447 0.2807368 -0.6154414 0.12718594 -0.3986767
1.5788288 0.5025919 0.3520793 -0.4099699 -0.17679271 0.70359015 0.58025956 -1.5628588
00000000: 1326 b73e 2f09 c03e 5a81 a8bd a058 70be
00000010: 999e 52bf 30ea b83e 172a 6b3e 7da4 8f3f
00000020: b708 673e f170 26bf f19d 1abe 2522 41be
00000030: 5bca 2ebe fbbe 42be 99b7 0b3f 3411 2dbf
00000040: 1a8b 39bf 569b f73e 5beb ce3e 4b46 af3e
00000050: f34a 83bd 280d 6abf 3a3a de3d 78d8 58be
00000060: 195d 433e 93ee ecbf 625c 02bf 071b a23e
00000070: 55d9 6e3f c6f5 98bd 8527 fb3d 2a34 33be
00000080: 0034 d9be ef77 d03e bce8 ae3d ade0 8cbd
00000090: b49b e73f b867 b7be c201 81be bf2c a3be
000000a0: f2ff 11bf d710 29be 375d 53be aee7 8b3e
000000b0: f3f9 cbbe 5f1b c0bd b73a 4b3e 76c8 073c
000000c0: 7ada d0be 2175 113e 9f03 60be bda8 f4be
000000d0: 7f25 a23e 0fe3 fc3d 1972 c33d dcea 01be
000000e0: c00f 36be 9dce 7dbe e9c9 2c3f 869a 01bf
000000f0: 5e18 713f 595e 9dbe 1e21 a63d 92b8 723e
00000100: 92fd c73e 87cf d53d 58b9 9dbf 2467 243f
00000110: 2065 c83d c175 a43d 0b6b 25be bb09 c13d
00000120: 88ee 2940 f1a2 85bd aa9a 9ebd c384 30bf
00000130: 3bef 2e3f 702f 95bc f301 863f d8ce cdbd
00000140: 1b61 8d3d 6d68 c0be 6fdd 07bd 8444 48be
00000150: 5914 a4be aef4 f83e 7baa 0bbd 4d5a 4c3d
00000160: 25e0 3e3f 7722 5cbf 8496 153f c353 7a3f
00000170: 39a3 553e 3f4e 383e 7cf3 083e 4b02 9a3d
00000180: f989 d5bc b0c1 b5be 54e8 013f 0410 a73e
00000190: bee5 b03d 1aec c13e ab52 b53e 1185 e73d
000001a0: 30a5 e5bd 4286 bebe a71c 8040 2396 5fbd
000001b0: 786a 9c3e 57a9 86ba e6e9 93bf 7b85 99bd
000001c0: 7336 d6be 60da 1f3e 9454 ce3e ee41 a1bd
000001d0: 505e 4fbe 3234 1dc0 927f fdbd 91d0 b9bc
000001e0: 4561 933f 3f4e c13e 2b3a 2e3f 76bc e23d
000001f0: 5409 133e 7f79 c5be cb39 dbbe 9cf0 f2bd
00000200: 32a2 dbbe 2e04 b5bf 33d8 06bf 62b3 013e
00000210: aa15 193e 6b68 263e ac7a 8bbd 80e3 6a3e
00000220: 62f8 c23e d418 64bc 5df3 1cbc c3e5 9d3e
00000230: 3849 2fbe 2f57 e63b e446 1bbf 1366 013f
00000240: ec79 3bbf 964a 2340 449f ae3e 6f8f 38be
00000250: 10b7 343f 3f76 d93e 2b56 8f3d 84c5 f0bd
00000260: 1008 c5bc 640f d43e 212d 05bf 58d7 8fbe
00000270: 1002 1d3f 7b8d c2be 47b3 abbe 5ae0 0d3f
00000280: 7d31 acbe 79bd c8be c5e7 08be 2313 e3be
00000290: c20b 513f 1cde ba3e ea00 983e cdf0 38be
000002a0: 59e5 07bf dff3 463f 44d6 7fbe 64e3 51be
000002b0: bf5f 04be 5808 7e3f cddb 873e a4c6 9abe
000002c0: f63f dfbe 9b75 3f3e ea9e 103c f4e0 78be
000002d0: 40bf d5bd 26a3 8b3c 82f4 dc3d 7b38 4c3d
000002e0: 5c6a 013f 90f6 67bd f660 7bbf 2a0e 863d
000002f0: 8ede d2be 10d0 8f3e d222 033e e57c 5c3e
00000300: cf2d 83bd 38a2 163f 2243 9bbf 4ba6 71be
00000310: c3e0 d7be e6df 0fbf fe6d 523e 72c1 4cbe
00000320: b28a b53d 1d8e 0640 30d7 14bf 4498 a03f
00000330: 1b3e 22be 2d00 3a3e 5f75 7f39 b156 e03f
00000340: 5f4d bcbd 53fa 513f 9b3c a93c 075f 3b3e
00000350: 2660 53be 5bd4 c3bd f47f 323e 2ef6 ef3e
00000360: b72c df3e f356 903c be28 e0bd 7198 7c3f
00000370: 437d 113e ae3b 113f e010 9a3d 8b30 0d3f
00000380: ac92 25bd fe67 81bd 6021 603f 28f9 56be
00000390: b006 d3bc b62f cd3e 981a d73d 9f05 f8be
000003a0: 5b56 acb9 512a 6cbe e2a1 393f 9e36 55be
000003b0: 328e adbe 8df0 013f 0865 d5be 86a2 8fbe
000003c0: 340a 733e 42f5 9b3e 0c3e d83e 2c79 c0be
000003d0: bcbc 8f3e 918d 1dbf 083d 023e 5a1f ccbe
000003e0: 1017 ca3f dda9 003f bd43 b43e 93e7 d1be
000003f0: 2609 35be 7c1e 343f e48b 143f c20b c8bf

fc_advantage.bias f4 [4]
0.10486092 -0.37873158 0.43251193 -0.31270498
00000000: 52c1 d63d 1be9 c1be 3472 dd3e de1a a0be
