csv_and_models/Duelling_DDQ_PER/trained models/duelling_double_PER_lunar_1300.pth (torch, 17326 bytes, 5 tensors)

fc1.weight f4 [256, 8]
-0.4720298 -1.2524602 -0.08935442 -1.6247735 1.8057572 3.3196626 -1.3842137 -1.6490109
-0.09063316 0.07085325 -0.2284467 0.468376 -0.28904775 0.0067667775 -0.057766885 0.53208554
-0.034573022 -1.4269077 -1.185827 3.6653335 0.20793095 2.5875385 1.7641425 1.1456968
-0.63256943 0.16722132 2.1333344 -0.48626074 1.059531 0.3640427 2.1341922 -6.317262
1.4075462 -0.5083319 -1.1394374 -0.32059914 1.4531364 1.8662354 -0.9131073 -0.76529497
-0.69326067 -0.1768488 -0.5325162 -0.3567567 -1.325058 -2.1437004 -3.1989653 0.41237468
0.8460947 -0.6395544 -2.4448323 2.1438277 0.35382715 -1.4672722 -2.1155472 -0.3660112
0.8654573 -3.872468 2.4857438 -2.6741908 -1.3645889 2.3412693 0.1631336 -4.187505
-1.2845166 -2.1240144 -0.6843408 1.8910749 -0.02659185 0.24733965 0.99128056 0.14560166
-1.7346071 0.4995961 0.19103876 0.07223348 1.0506169 3.377803 0.47226724 0.24888642
0.0023355247 -0.94780296 0.29633376 -0.9022228 0.88866943 1.7850212 0.23930117 1.0977565
-0.059367146 -0.1548696 1.7728374 -2.3179114 -0.0048362603 -2.4567454 -0.15777607 0.16427524
-2.7887204 -0.009978819 -0.7351118 0.85993564 -0.72064066 0.0052124434 1.6077039 -0.045545653
-0.05756376 0.76879656 -0.89549804 0.32622975 1.2990229 2.4553366 1.9942352 0.4090161
0.43429124 -0.5053948 -0.09018264 0.344127 -4.6575637 -0.6939593 -1.3839746 1.4622278
-0.22301272 0.4943435 1.1868088 0.5014407 -1.3370348 -3.0558252 -4.050437 -2.2040193
-2.3536096 -0.30911922 1.0753182 0.513973 -1.0362898 -0.11789513 -2.7354057 1.2975401
0.44995153 0.33388695 -0.35447773 0.18301502 -1.9802427 3.902546 -1.3083092 -6.679615
-0.8254184 -0.24173264 0.40812933 -2.4735155 0.4678118 0.02974128 1.0872259 1.0950452
0.10542843 0.42431617 -0.7394975 0.08641145 -5.138803 -0.6836049 -4.922381 0.19436787
0.5535471 0.25338235 0.22052531 0.28388435 -1.0382103 -4.3720384 -1.7608865 -2.1392004
-1.5441872 -0.060743686 1.9827542 -0.18918963 1.2102206 1.5651852 -1.8119979 -0.68927175
-0.934358 0.8208312 1.5951587 -0.6087511 -0.01368968 -1.2236403 -0.8765515 -0.69731027
-1.438798 -0.19893394 -1.4543239 -0.6734305 0.27589858 -1.6827129 0.08546661 0.27962548
-4.6472387 -0.14930542 -2.3244925 -0.9419341 -1.9822259 -0.54370755 0.2547481 -2.746862
1.1667724 -4.0649743 -0.03210751 -3.2731035 0.18640748 -0.35975093 -2.1652145 0.32472402
0.05169037 -0.03157438 0.05181687 0.025029363 -5.543595 -0.1318343 1.4020765 0.38458076
0.6906927 -0.12421364 2.867022 -1.4570907 -0.74779516 0.42237934 -1.4405135 -0.5215411
-0.26590854 -3.8744848 4.5655518 1.4500124 -0.30890924 -3.834683 0.7880185 -0.072919235
-0.12247363 0.34736675 1.1556946 -2.363645 2.2762637 0.52372056 0.545727 -0.09481853
-3.3129628 -0.026488578 -0.120412946 0.07478621 1.079998 -0.47519428 -2.3081355 0.118364826
-0.025176493 0.0124138845 1.0009359 -1.5074703 -2.5047057 -0.7216761 -0.0118719395 1.4680604
00000000: e4ad f1be 9e50 a0bf 73ff b6bd 94f8 cfbf
00000010: 0d23 e73f 5a75 5440 ea2d b1bf ca12 d3bf
00000020: e19d b9bd 821b 913d efed 69be fbce ef3e
00000030: 11fe 93be d8bb dd3b f89c 6cbd c236 083f
00000040: 719c 0dbd e9a4 b6bf 2ec9 97bf d394 6a40
00000050: daeb 543e 3b9a 2540 6ccf e13f 31a6 923f
00000060: 12f0 21bf 113c 2b3e 8d88 0840 2bf7 f8be
00000070: b69e 873f ce63 ba3e 9b96 0840 0327 cac0
00000080: 792a b43f 0a22 02bf 16d9 91bf 9225 a4be
00000090: 6000 ba3f cde0 ee3f 66c1 69bf 5fea 43bf
000000a0: 8879 31bf da17 35be fb52 08bf d0a8 b6be
000000b0: 809b a9bf 6332 09c0 d9bb 4cc0 c622 d33e
000000c0: aa99 583f d6b9 23bf 2278 1cc0 7934 0940
000000d0: d528 b53e 93cf bbbf 2065 07c0 d265 bbbe
000000e0: 9c8e 5d3f 84d6 77c0 6d16 1f40 f125 2bc0
000000f0: d9aa aebf 5bd7 1540 7f0c 273e 0a00 86c0
00000100: 0a6b a4bf daef 07c0 f530 2fbf be0e f23f
00000110: 27d7 d9bc 9b46 7d3e 90c4 7d3f 9a18 153e
00000120: 9b07 debf 0fcb ff3e aa9f 433e 26ef 933d
00000130: 9d7a 863f ed2d 5840 03cd f13e 15dc 7e3e
00000140: 9a0f 193b 37a3 72bf 0fb9 973e 13f8 66bf
00000150: d77f 633f 937b e43f 5e0b 753e 4983 8c3f
00000160: f72a 73bd 2396 1ebe 56ec e23f a958 14c0
00000170: 7e79 9ebb 513b 1dc0 0d90 21be c537 283e
00000180: 657a 32c0 337e 23bc 4930 3cbf be24 5c3f
00000190: e87b 38bf 25cd aa3b 3ec9 cd3f 148e 3abd
000001a0: fac7 6bbd dacf 443f 5c3f 65bf 9607 a73e
000001b0: 6246 a63f 3c24 1d40 1943 ff3f 8f6a d13e
000001c0: 6c5b de3e 8e61 01bf adb1 b8bd 6a31 b03e
000001d0: c30a 95c0 51a7 31bf 1426 b1bf 482a bb3f
000001e0: 725d 64be 971a fd3e 5ae9 973f 6b5e 003f
000001f0: f523 abbf a492 43c0 2e9d 81c0 a70e 0dc0
00000200: 8aa1 16c0 e044 9ebe 07a4 893f bc93 033f
00000210: 25a5 84bf 0073 f1bd e310 2fc0 cb15 a63f
00000220: 0c60 e63e 3bf3 aa3e 1b7e b5be 4a68 3b3e
00000230: 9878 fdbf 50c3 7940 ad76 a7bf 68bf d5c0
00000240: 9f4e 53bf c388 77be 54f6 d03e 144e 1ec0
00000250: 0785 ef3e fca3 f33c 382a 8b3f 712a 8c3f
00000260: dcea d73d f83f d93e b54f 3dbf 7cf8 b03d
00000270: 1371 a4c0 bb00 2fbf 2584 9dc0 5f08 473e
00000280: 43b5 0d3f 55bb 813e 63d1 613e 4a59 913e
00000290: 13e4 84bf bde7 8bc0 bb64 e1bf a9e8 08c0
000002a0: eda7 c5bf 5fce 78bd e4ca fd3f edba 41be
000002b0: 82e8 9a3f fd57 c83f 8cef e7bf 1d74 30bf
000002c0: 1632 6fbf fe21 523f 292e cc3f 1dd7 1bbf
000002d0: ae4a 60bc 3fa0 9cbf ae65 60bf ed82 32bf
000002e0: 882a b8bf 57b5 4bbe 4927 babf f165 2cbf
000002f0: 9442 8d3e 2363 d7bf 1e09 af3d 122b 8f3e
00000300: 2eb6 94c0 85e3 18be 7cc4 14c0 9822 71bf
00000310: 94b9 fdbf 6b30 0bbf 586e 823e 96cc 2fc0
00000320: cc58 953f 4514 82c0 2a83 03bd 877a 51c0
00000330: 9ae1 3e3e 4631 b8be e092 0ac0 3a42 a63e
00000340: 48b9 533d 2354 01bd ed3d 543d 610a cd3c
00000350: 2165 b1c0 92ff 06be 3e77 b33f c5e7 c43e
00000360: 3dd1 303f b963 febd 4a7d 3740 f381 babf
00000370: 816f 3fbf 1b42 d83e bf62 b8bf b883 05bf
00000380: 2a25 88be 8ff7 77c0 0019 9240 029a b93f
00000390: 5a29 9ebe 726b 75c0 95bb 493f ae56 95bd
000003a0: 74d3 fabd 0eda b13e cded 933f f645 17c0
000003b0: 4eae 1140 8d12 063f c4b4 0b3f 3830 c2bd
000003c0: 9507 54c0 93fe d8bc 109b f6bd 8329 993d
000003d0: 603d 8a3f aa4c f3be 7eb8 13c0 4269 f23d
000003e0: ef3e cebc 9b63 4b3c ab1e 803f c9f4 c0bf
000003f0: 194d 20c0 c4bf 38bf 8682 42bc 67e9 bb3f

fc1.bias f4 [256]
-0.9643233 -0.7703103 -0.6519101 -0.6841472 -1.3540175 0.1018874 1.0667111 0.28937602
1.2891043 0.049912438 -0.7424168 -0.004567656 0.31763077 0.06954386 0.7243137 0.2858108
-0.0045061903 0.65356445 0.28276563 -0.40106288 1.1914095 -0.002471881 0.78124875 -0.6593978
-0.32841575 -0.5082598 0.06063001 -1.329576 -0.74348855 0.27028352 -0.017151117 -0.17394657
-0.22527301 -0.37292427 -0.03623486 -0.39639214 -0.41930205 -1.447214 0.5310341 0.060910147
-0.25696427 -0.053849198 0.002395095 -0.9735832 -0.026745988 0.341393 0.16205777 -0.18365619
-0.6609915 0.19080558 -0.4140829 0.66534984 1.0308733 0.92301124 0.7740904 -0.53743404
0.023349904 0.6457846 -1.5455139 -0.16822025 -0.16343385 -0.65848553 0.6070332 -0.23222981
-0.08088681 -0.15064184 -1.7379413 0.610998 -1.0503708 -0.45920673 -0.3435925 -0.66550785
-2.1328766 -0.27499852 -1.3927457 -0.12799507 -0.21098533 0.53746635 -0.5687036 -0.18643941
0.14874502 0.41859522 0.39744464 0.27761438 1.211317 0.81824666 0.5486878 0.69924635
0.6979832 0.09644156 0.37769893 -1.1311629 -0.14218673 -0.1283916 0.12140798 0.8381312
-0.03923818 0.76259583 -1.2163038 0.02247508 0.6705182 -0.25269946 -0.12546265 -0.9892805
-0.1632759 0.16538449 -1.0109125 0.012411559 -0.30272374 0.7156823 -1.2921478 -0.8313281
-0.9116855 -0.48182502 0.4568462 0.073992185 0.24796814 -1.6109091 0.37113553 0.14011519
-0.59509736 0.929502 0.019149382 -0.07242699 1.1184443 -0.68561596 0.79701716 0.11759722
0.14065078 -0.28892058 0.015799783 -0.44135785 -0.32334208 -0.21597476 1.3062676 0.038506743
0.06864303 0.78501797 0.21385038 0.5667022 0.12048463 0.0018611487 -0.8400358 0.6906612
0.50727636 -1.6848629 -0.001980813 0.99248457 -0.17360756 0.07382126 0.9141394 0.50661385
-0.57559377 -0.99063724 -0.0134397615 0.5516019 -1.0787411 0.77919936 0.43296278 0.5685672
-0.021447947 0.23044167 0.14090537 -1.0612786 -0.91418344 0.02701311 -0.24508046 0.087490946
-0.07675472 -0.27796876 -0.5536644 0.70121896 -0.61862004 -0.09166601 -0.06450761 -0.35751832
0.45077184 -0.77044094 -0.5859484 0.286718 -0.18276861 0.07670808 0.9142814 0.78288686
-0.34404194 0.63503456 -1.1285206 0.47848576 -0.019159159 -0.032990668 -1.3093632 1.1007577
0.69697434 0.5789189 -0.6351218 -2.0743504 0.32197076 0.3418657 -0.5924225 -0.14698523
-0.28853518 -1.5933039 -0.42514655 0.396962 -0.7575334 0.6743002 0.63550496 -0.22354163
0.40251812 1.0191754 0.48521802 -1.1610134 0.14321303 -1.094754 -0.15625566 -0.972614
1.3377694 0.28602678 0.59825826 0.32579523 0.11301014 -0.106052406 0.75473547 0.33232567
0.26941234 0.63253564 -0.21426246 0.10923556 0.34034014 -0.6497253 0.81107247 0.7929575
0.07381495 0.068214774 -0.16082832 -0.49186066 -0.1884291 0.02793068 -0.24402314 0.5292714
0.70334715 0.9077699 -0.6075955 -0.44735774 0.069927216 -0.2873685 -0.4360295 0.37866616
-0.8786465 0.27834925 0.46548206 0.9232049 0.42424738 0.12454142 -0.2107621 -0.09677439
00000000: e4dd 76bf 0e33 45bf 95e3 26bf 4524 2fbf
00000010: 7250 adbf 57aa d03d fd89 883f 1829 943e
00000020: 5f01 a53f fc70 4c3d 070f 3ebf 47ac 95bb
00000030: 80a0 a23e 036d 8e3d 9f6c 393f cb55 923e
00000040: aaa8 93bb 0050 273f a8c6 903e 1d58 cdbe
00000050: 1b80 983f 48ff 21bb ebff 473f 4bce 28bf
00000060: 1c26 a8be 501d 02bf 2c57 783d 8c2f aabf
00000070: 4455 3ebf 9a62 8a3e 8080 8cbc 0d1f 32be
00000080: f8ad 66be eeef bebe 016b 14bd e9f3 cabe
00000090: c2ae d6be 4f3e b9bf daf1 073f eb7c 793d
000000a0: d290 83be fa90 5cbd 07f7 1c3b c03c 79bf
000000b0: 671a dbbc 10cb ae3e 79f2 253e 5e10 3cbe
000000c0: bd36 29bf 8a62 433e ad02 d4be 5e54 2a3f
000000d0: a8f3 833f 774a 6c3f ca2a 463f 4795 09bf
000000e0: 4c48 bf3c 2452 253f 66d3 c5bf ee41 2cbe
000000f0: 345b 27be 8292 28bf 8766 1b3f a7cd 6dbe
00000100: fca7 a5bd db41 1abe dc74 debf 5d6a 1c3f
00000110: 8d72 86bf 251d ebbe 5beb afbe b95e 2abf
00000120: 0d81 08c0 9bcc 8cbe 7e45 b2bf 2411 03be
00000130: 8a0c 58be 6597 093f 8f96 11bf f9e9 3ebe
00000140: 9d50 183e 1d52 d63e dd7d cb3e 7923 8e3e
00000150: 6f0c 9b3f 9d78 513f ce76 0c3f cf01 333f
00000160: 07af 323f 2783 c53d c161 c13e f2c9 90bf
00000170: 6699 11be 1679 03be bfa4 f83d c48f 563f
00000180: 37b8 20bd 7b39 433f d8af 9bbf a91d b83c
00000190: 15a7 2b3f d361 81be 4879 00be 7d41 7dbf
000001a0: cc31 27be 8d5a 293e 9565 81bf da59 4b3c
000001b0: 9bfe 9abe f536 373f 1965 a5bf ebd1 54bf
000001c0: 3964 69bf c5b1 f6be bfe7 e93e 3789 973d
000001d0: 5ceb 7d3e 4532 cebf 7a05 be3e 5b7a 0f3e
000001e0: 4d58 18bf d8f3 6d3f 2adf 9c3c 9a54 94bd
000001f0: 2f29 8f3f 8784 2fbf 5109 4c3f d0d6 f03d
00000200: c206 103e 66ed 93be 8c6e 813c a8f9 e1be
00000210: 188d a5be 7d28 5dbe c733 a73f 3fb9 1d3d
00000220: b894 8c3d f0f6 483f 98fb 5a3e 6513 113f
00000230: a5c0 f63d caf1 f33a 960c 57bf 2ccf 303f
00000240: dddc 013f 96a9 d7bf 87d0 01bb 7813 7e3f
00000250: 2ec6 31be 9a2f 973d 0a05 6a3f 72b1 013f
00000260: 1d5a 13bf 679a 7dbf 7232 5cbc c835 0d3f
00000270: 3014 8abf 9c79 473f 4cad dd3e 9f8d 113f
00000280: 9bb3 afbc e7f8 6b3e 7f49 103e fad7 87bf
00000290: ed07 6abf 994a dd3c 5ff6 7abe 742e b33d
000002a0: 9431 9dbd ec51 8ebe f3bc 0dbf 1683 333f
000002b0: e25d 1ebf 64bb bbbd 911c 84bd a40c b7be
000002c0: 91cb e63e 9e3b 45bf b700 16bf b4cc 923e
000002d0: b227 3bbe 2019 9d3d 590e 6a3f 466b 483f
000002e0: 4426 b0be a091 223f 5d73 90bf 16fc f43e
000002f0: abf3 9cbc 3921 07bd 3799 a7bf a1e5 8c3f
00000300: e96c 323f 0734 143f 5897 22bf 28c2 04c0
00000310: 5ad9 a43e 0509 af3e 00a9 17bf 4c83 16be
00000320: e2ba 93be 62f1 cbbf cfac d9be 9a3e cb3e
00000330: b5ed 41bf f09e 2c3f 74b0 223f 19e8 64be
00000340: db16 ce3e 5774 823f 7f6e f83e 169c 94bf
00000350: 70a6 123e e620 8cbf 7c01 20be 3bfd 78bf
00000360: 073c ab3f 1a72 923e 7427 193f a2ce a63e
00000370: dc71 e73d 0132 d9bd 5836 413f 9726 aa3e
00000380: 6af0 893e dbed 213f 9e67 5bbe e5b6 df3d
00000390: 1041 ae3e 6654 26bf 72a2 4f3f 43ff 4a3f
000003a0: 4b2c 973d 30b4 8b3d 2eb0 24be 29d5 fbbe
000003b0: 8ff3 40be e2ce e43c 34e1 79be 557e 073f
000003c0: 8f0e 343f 9c63 683f 618b 1bbf 130c e5be
000003d0: 0036 8f3d f721 93be 423f dfbe 88e0 c13e
000003e0: faee 60bf cb83 8e3e aa53 ee3e 2857 6c3f
000003f0: f436 d93e 920f ff3d 05d2 57be a731 c6bd

fc_value.weight f4 [1, 256]
2.5419888 0.29110575 -1.7186265 0.08174554 1.9308519 0.8162135 4.027124 3.541772
-2.8307848 1.7958689 0.8124139 2.190099 -1.6784731 -1.413749 -2.5650234 -1.6823997
-0.009692743 -2.7531579 2.0201385 2.838392 -2.2394934 1.8335625 1.4704745 0.3537559
-4.056507 -6.089622 3.8181777 -3.4005346 3.1596334 2.4824185 -2.6160166 1.4408886
2.514211 -1.7713825 1.806595 4.0831194 6.399639 -5.407761 1.8810138 2.8514168
1.9173894 -0.91393876 1.4479122 -1.1272732 -1.7803608 0.88391924 -3.0163064 4.5599775
0.6138665 5.1622486 -2.9642038 1.4266816 1.0991081 -1.3116956 -1.3465695 -1.9835547
5.385427 -3.5161812 3.2826276 -3.019681 1.858627 5.8881173 -1.6153029 4.8330398
-3.1510022 -3.4387264 4.288808 2.457766 -4.798594 -0.04826693 0.9422857 -2.2100837
4.850958 -2.02165 -3.0998034 1.8114995 -4.8109455 -1.7922167 -4.646974 -1.552566
-1.8556714 0.38651785 1.8912843 0.17696618 -2.1352608 1.690785 1.4621013 0.16723481
1.30014 -2.9365022 -2.0825639 -3.2259648 3.601663 -1.3302414 5.1684895 -2.2117214
5.175256 2.180681 -4.2710576 2.7037501 0.9823126 0.18323475 2.1240823 3.1531363
0.25932583 1.9463154 -7.442283 0.7098085 -4.6286173 -2.5556939 -5.3286986 3.2722042
2.7237484 2.5496297 3.8974319 1.9857982 3.062048 -2.0699377 -1.3706402 -2.1107013
5.517476 5.423225 3.2773702 -0.77990043 3.6938927 7.578274 1.6298351 1.85509
-1.2562774 -0.2937526 -3.6694462 -2.8259804 2.395868 -3.1800833 -3.0148861 -1.276561
-3.6644218 1.8368503 0.52579063 0.8369918 3.2694595 2.9052846 2.4440334 0.8977628
-5.145935 8.413046 3.7198296 -2.5892165 -2.6038373 1.7277803 -1.5585928 0.86627686
-5.4579797 -5.1171308 2.8967736 -1.1752241 -3.5465903 -1.4137266 1.8831512 0.7248484
-2.2185085 1.728842 1.9283144 1.9105763 -0.25686923 2.4741802 -2.3242104 -2.9526463
-1.1335313 3.014613 0.8869272 0.6632095 -2.3022158 2.6685379 0.9153256 0.34708142
2.1399665 -2.724567 -3.3224466 3.8155208 -2.081906 -2.7086523 1.0193207 0.832681
1.2943035 -1.8763855 -0.21750535 1.8294759 -1.8846792 -3.089006 -0.59625494 1.6942996
1.4877106 2.8130894 -3.2299702 -9.159749 2.4014468 -2.8097057 1.3207563 1.2360513
-3.0305035 -8.5414915 3.6655824 4.2947083 1.8799788 1.3113265 2.1702566 0.9407097
0.3481188 -2.3944159 1.763245 4.426756 -0.17846015 -2.7403226 1.1443696 5.239382
4.152183 -1.7993356 0.31521007 2.157798 0.6624244 -0.03783401 2.7559452 0.052797858
2.9841533 1.2034104 -4.9173236 -1.5757184 -1.7122183 -0.4577328 1.4880017 1.5804654
-2.8639858 0.795879 1.7225039 -4.276792 0.7130975 -1.2835423 1.3022319 -2.252945
1.401516 -2.274298 -2.645575 2.1837797 -2.3854678 2.8353906 1.8975838 3.8814306
-7.482271 0.25501433 -1.24919 3.5304036 -1.3767658 2.5524707 2.9180226 -2.983962
00000000: f2af 2240 d00b 953e f4fb dbbf 356a a73d
00000010: 2826 f73f 5ef3 503f 33de 8040 64ac 6240
00000020: 942b 35c0 08df e53f 5bfa 4f3f 952a 0c40
00000030: 35d8 d6bf baf5 b4bf 5829 24c0 e058 d7bf
00000040: 50ce 1ebc bd33 30c0 f349 0140 37a8 3540
00000050: dc53 0fc0 2db2 ea3f 8238 bc3f 7e1f b53e
00000060: e8ce 81c0 2fde c2c0 065d 7440 5ca2 59c0
00000070: 6f37 4a40 f2df 1e40 d16c 27c0 0a6f b83f
00000080: d5e8 2040 a9bc e2bf 813e e73f eaa8 8240
00000090: d8c9 cc40 610c adc0 0fc5 f03f 9d7d 3640
000000a0: 046d f53f e4f7 69bf 3055 b93f 7d4a 90bf
000000b0: dde2 e3bf 8848 623f 2a0b 41c0 56eb 9140
000000c0: 5b26 1d3f 2431 a540 84b5 3dc0 819d b63f
000000d0: 93af 8c3f a4e5 a7bf 645c acbf 1fe5 fdbf
000000e0: 6b55 ac40 1d09 61c0 9216 5240 7442 41c0
000000f0: 7de7 ed3f 756b bc40 3fc2 cebf 43a8 9a40
00000100: 05aa 49c0 1814 5cc0 ea3d 8940 0a4c 1d40
00000110: 158e 99c0 8bb3 45bd a339 713f 0372 0dc0
00000120: 0c3b 9b40 b762 01c0 2e63 46c0 37df e73f
00000130: 44f3 99c0 5b67 e5bf 03b4 94c0 7cba c6bf
00000140: a486 edbf abe5 c53e 9b15 f23f 9f36 353e
00000150: 1da8 08c0 a56b d83f 2326 bb3f 9a3f 2b3e
00000160: fd6a a63f a7ef 3bc0 ba48 05c0 3576 4ec0
00000170: a681 6640 5a45 aabf 4464 a540 d88c 0dc0
00000180: b29b a540 4790 0b40 81ac 88c0 3e0a 2d40
00000190: d778 7b3f e4a1 3b3e f7f0 0740 fccc 4940
000001a0: 5bc6 843e dd20 f93f 2f27 eec0 03b6 353f
000001b0: a21d 94c0 7d90 23c0 b384 aac0 cb6b 5140
000001c0: e551 2e40 222d 2340 866f 7940 a32e fe3f
000001d0: 98f8 4340 dc79 04c0 2371 afbf bb15 07c0
000001e0: 2a8f b040 0f8b ad40 6fc0 5140 8ea7 47bf
000001f0: bd68 6c40 3881 f240 709e d03f 9773 ed3f
00000200: b3cd a0bf be66 96be 35d8 6ac0 dddc 34c0
00000210: e755 1940 7c86 4bc0 e5f3 40c0 5a66 a3bf
00000220: e385 6ac0 e91d eb3f 379a 063f 1845 563f
00000230: d33e 5140 2ff0 3940 0b6b 1c40 c8d3 653f
00000240: 80ab a4c0 d69b 0641 b011 6e40 b9b5 25c0
00000250: 45a5 26c0 e827 dd3f f87f c7bf 52c4 5d3f
00000260: c5a7 aec0 89bf a3c0 bd64 3940 be6d 96bf
00000270: 56fb 62c0 fef4 b4bf 190b f13f aa8f 393f
00000280: 0bfc 0dc0 b24a dd3f 02d3 f63f c48d f43f
00000290: 5d84 83be f858 1e40 ddbf 14c0 28f8 3cc0
000002a0: 8e17 91bf 6bef 4040 a90d 633f 19c8 293f
000002b0: 8157 13c0 53c9 2a40 c752 6a3f a8b4 b13e
000002c0: 36f5 0840 4e5f 2ec0 f7a2 54c0 7e31 7440
000002d0: f33d 05c0 8f5a 2dc0 1a79 823f 952a 553f
000002e0: bdab a53f 662d f0bf b9b9 5ebe 442c ea3f
000002f0: 2b3d f1bf 46b2 45c0 2aa4 18bf cfde d83f
00000300: 4d6d be3f a809 3440 d5b7 4ec0 558e 12c1
00000310: 4eb1 1940 38d2 33c0 8b0e a93f ee36 9e3f
00000320: c5f3 41c0 f3a9 08c1 e798 6a40 406e 8940
00000330: 25a3 f03f 8cd9 a73f 7ce5 0a40 5ad2 703f
00000340: a13c b23e 1c3e 19c0 03b2 e13f fca7 8d40
00000350: 42be 36be 7261 2fc0 b47a 923f 04a9 a740
00000360: afde 8440 a150 e6bf 3763 a13e 5d19 0a40
00000370: a594 293f d6f7 1abd 6861 3040 9142 583d
00000380: 5efc 3e40 5a09 9a3f b75a 9dc0 24b1 c9bf
00000390: f829 dbbf f45b eabe d776 be3f b14c ca3f
000003a0: 8b4b 37c0 babe 4b3f 027b dc3f 7bdb 88c0
000003b0: 8f8d 363f 1d4b a4bf 89af a63f 4030 10c0
000003c0: e064 b33f 198e 11c0 1a51 29c0 0cc3 0b40
000003d0: 81ab 18c0 0a77 3540 07e4 f23f 5c69 7840
000003e0: c46e efc0 3d91 823e 75e5 9fbf 22f2 6140
000003f0: dd39 b0bf ae5b 2340 e2c0 3a40 3cf9 3ec0

fc_advantage.weight f4 [4, 256]
1.2658232 0.37507007 0.09434918 -0.41085303 -0.7940747 0.4983623 -0.014751325 0.92324597
0.2845281 -0.39546987 -0.17410448 -0.106300294 -0.20045331 -0.19370478 0.4718585 -0.89503473
-0.73204464 0.29326785 0.35157454 -0.36501223 -0.043429714 -0.48171052 0.07242683 0.32846192
0.23889093 -1.0554901 -0.50683296 -0.23911998 0.89410555 -0.17729506 -0.19346859 -0.26173973
-0.35399327 0.42583206 0.10032947 -0.17053121 0.2868749 -0.3582132 -0.14006937 -0.4089287
-0.48280787 -0.19706385 0.036232896 0.50345707 -0.23864716 0.58516014 0.12145197 -0.21499462
-0.3203922 0.17390986 -0.2598746 -0.45074007 0.2707934 0.18065268 0.15916699 -0.113908924
-0.13927388 -0.10182245 -0.33087975 -0.29974324 1.1501502 -0.21047482 0.1554762 0.2284819
0.43784246 0.12308542 -1.1331619 0.571285 -0.26979443 0.08030272 -0.26939458 0.11085775
1.9486206 0.009935763 0.0767127 -0.4450654 0.64333576 0.11225986 1.2637701 -0.08390548
0.06878512 -0.4081341 -0.13595723 -0.058336716 -0.39031458 0.57541287 -0.35140517 0.072004244
0.9646789 -0.6909423 0.5525861 1.5803055 0.15178639 0.21932699 0.040473696 0.0993098
-0.03845945 -0.3960056 0.68965816 0.32497862 0.113214724 -0.049991414 0.37855148 0.18212847
-0.37848833 -0.54427975 2.592143 -0.0065740114 0.12731889 -0.1250006 -0.8425284 -0.2542541
-0.18747616 0.098309 0.4498744 -0.17081505 -0.0503813 -2.1304195 -0.031192064 -0.034368604
1.339483 0.43091613 0.67244923 0.24442588 0.17306882 -0.25611076 -0.2910966 -0.12283145
-0.3895386 -1.5412022 -0.25685996 -0.1345996 0.15818301 0.08575224 -0.0098201865 0.24496782
0.07929897 -0.010079669 0.0695218 0.22656853 -0.22725676 -0.045323513 -0.7668826 0.4823296
-0.67334723 2.6946955 0.17106776 -0.15759046 0.8136023 0.33160803 0.092836514 -0.13475549
0.08449554 -0.015830213 -0.557427 -0.2025903 1.1804553 -0.37224784 -0.33550394 0.556043
-0.3286622 -0.41273373 -0.0132147465 -0.013884931 1.1900879 0.5055084 0.2630815 -0.045682304
-0.25883237 0.74525124 -0.21735364 -0.17559879 -0.6035456 0.9056147 0.1392908 -0.493504
-0.3840656 0.4250022 0.037199307 -0.21605575 -0.036027286 0.20810781 0.08886903 0.05185625
0.8515874 -0.24378356 -0.9304396 0.08899922 -0.43850046 0.2358802 0.32789385 0.31088445
-0.09590637 0.5295607 -1.0202844 -1.566066 -0.2751656 -0.5474146 0.37896326 -0.35506567
0.13483804 1.1505477 -0.59121156 1.1303178 -0.19874822 0.2942489 -0.03038647 1.8854457
-0.09840506 0.890604 -0.0038416754 -0.072778076 0.14013673 -0.33720562 0.20011246 0.0018920349
0.5608252 0.11726342 0.057321284 0.8387436 0.21464086 0.6302672 -0.007347584 0.44075465
-0.068416186 -0.11774123 1.0947062 -0.21417247 -0.06575776 0.34557 0.058633156 -0.52182907
-0.128245 -0.33599034 0.8614611 1.1433693 -0.29350004 0.4000079 -0.62767124 -0.25345102
0.063879035 0.30472624 0.71832144 -0.31023428 0.101946905 -0.54458547 -0.09838718 -0.31010315
0.85250133 0.36259794 0.38025147 -0.37323537 -0.19016019 0.743803 0.53153133 -0.9782051
00000000: 7f06 a23f 2f09 c03e 253a c13d 545b d2be
00000010: 7b48 4bbf 5829 ff3e 8baf 71bc d959 6c3f
00000020: abad 913e 077b cabe 7248 32be f8b3 d9bd
00000030: a243 4dbe 8c5a 46be 7097 f13e ff20 65bf
00000040: 4767 3bbf 3427 963e 9401 b43e e2e2 babe
00000050: 5be3 31bd c3a2 f6be 8554 943d 292c a83e
00000060: d39f 743e 4d1a 87bf cebf 01bf dedb 74be
00000070: 1ae4 643f d68c 35be a11c 46be c002 86be
00000080: 9b3e b5be a906 da3e 8a79 cd3d bc9f 2ebe
00000090: 44e1 923e b867 b7be 586e 0fbe 1a5f d1be
000000a0: 9832 f7be 1bcb 49be f268 143d 90e2 003f
000000b0: ec5f 74be 0ecd 153f cfbb f83d 8d27 5cbe
000000c0: 720a a4be 6d15 323e 490e 85be 67c7 e6be
000000d0: 6fa5 8a3e 04fd 383e acfc 223e 1549 e9bd
000000e0: d09d 0ebe 4a88 d0bd 1269 a9be f277 99be
000000f0: 1f38 933f b686 57be 2735 1f3e 29f7 693e
00000100: e32c e03e 3514 fc3d 730b 91bf bc3f 123f
00000110: 7f22 8abe c175 a43d 16ee 89be 6309 e33d
00000120: 666c f93f 9cc9 223c 8c1b 9d3d 9ddf e3be
00000130: a7b1 243f 7fe8 e53d 38c3 a13f a3d6 abbd
00000140: 37df 8c3d f4f6 d0be 5f38 0bbe 7bf2 6ebd
00000150: 50d7 c7be 424e 133f 61eb b3be f676 933d
00000160: 32f5 763f 98e1 30bf 4876 0d3f 7347 ca3f
00000170: e46d 1b3e 4197 603e bfc7 253d f062 cb3d
00000180: a887 1dbd 3fc1 cabe 708d 303f 9963 a63e
00000190: 1fdd e73d ccc3 4cbd 80d1 c13e e37f 3a3e
000001a0: 39c9 c1be eb55 0bbf ace5 2540 ce6a d7bb
000001b0: e25f 023e 2800 00be f1af 57bf 982d 82be
000001c0: c0f9 3fbe 3b56 c93d f055 e63e 24ea 2ebe
000001d0: 9f5c 4ebd cb58 08c0 8086 ffbc 18c6 0cbd
000001e0: 2e74 ab3f 0aa1 dc3e a225 2c3f c74a 7a3e
000001f0: f438 313e f320 83be 9d0a 95be 0e8f fbbd
00000200: 9a71 c7be 1d46 c5bf 2683 83be 7ad4 09be
00000210: bafa 213e df9e af3d d9e4 20bc d8d8 7a3e
00000220: 8067 a23d 3225 25bc 7261 8e3d 9501 683e
00000230: ffb5 68be 26a5 39bd 6b52 44bf e8f3 f63e
00000240: 7c60 2cbf e475 2c40 632c 2f3e 655f 21be
00000250: 3e48 503f 87c8 a93e 1221 be3d 58fd 09be
00000260: ff0b ad3d 5dae 81bc 89b3 0ebf d573 4fbe
00000270: 2919 973f 4597 bebe 2cc7 abbe d658 0e3f
00000280: 6946 a8be d651 d3be aa82 58bc 9f7d 63bc
00000290: cd54 983f 0069 013f 9eb2 863e 5e1d 3bbd
000002a0: ad85 84be c9c8 3e3f f491 5ebe 2bd0 33be
000002b0: f781 1abf 5dd6 673f 3fa2 0e3e 8eac fcbe
000002c0: 3fa4 c4be e399 d93e 4d5e 183d b83d 5dbe
000002d0: 5991 13bd 371a 553e f700 b63d 3867 543d
000002e0: a201 5a3f 66a2 79be 4a31 6ebf 3945 b63d
000002f0: 2283 e0be 948a 713e b4e1 a73e 3f2c 9f3e
00000300: 8f6a c4bd 4a91 073f ae98 82bf da74 c8bf
00000310: 81e2 8cbe 5d23 0cbf 7907 c23e 2bcb b5be
00000320: fc12 0a3e 2645 933f a459 17bf 41ae 903f
00000330: a784 4bbe cba7 963e 0ced f8bc 4956 f13f
00000340: 9888 c9bd a0fe 633f 9ec4 7bbb ac0c 95bd
00000350: 0180 0f3e 37a6 acbe 48ea 4c3e 28fe f73a
00000360: 3e92 0f3f ce27 f03d b9c9 6a3d e7b7 563f
00000370: d0ca 5b3e 3159 213f 00c4 f0bb 98aa e13e
00000380: c91d 8cbd 5022 f1bd 551f 8c3f 0750 5bbe
00000390: 01ac 86bd 8dee b03e 5229 703d 9796 05bf
000003a0: a852 03be ed06 acbe b788 5c3f ed59 923f
000003b0: a345 96be d6cd cc3e 10af 20bf 55c4 81be
000003c0: 03d3 823d 1405 9c3e eae3 373f 07d7 9ebe
000003d0: 8ac9 d03d f469 0bbf 387f c9bd d7c5 9ebe
000003e0: 873d 5a3f 70a6 b93e 52b0 c23e b518 bfbe
000003f0: 5ab9 42be e069 3e3f 7012 083f a66b 7abf

fc_advantage.bias f4 [4]
0.13553682 -0.37858096 0.4122445 -0.31370455
00000000: 2aca 0a3e 5dd5 c1be b611 d33e e29d a0be
