csv_and_models/Duelling_DDQ_PER/trained models/duelling_double_PER_lunar_800.pth (torch, 17316 bytes, 5 tensors)

fc1.weight f4 [256, 8]
0.04053269 -0.7660759 -0.31511056 -1.3580014 1.1524975 2.8551245 -3.1371675 -1.3391963
-0.09063316 0.07085325 -0.2284467 0.468376 -0.28904775 0.0067667775 -0.057766885 0.53208554
0.032973878 -0.6630582 -1.1797376 2.9069989 0.5340246 2.5068355 1.7038541 1.415363
-0.99581635 0.60347486 1.7138276 -0.26592723 2.0217335 0.5628523 1.4820404 -6.317262
1.3192842 0.33310118 -0.27067506 -0.9543783 1.9262556 2.4160757 -1.5599086 -0.56027085
-0.657622 0.072674155 0.034513388 -0.028708652 -0.8575856 -1.6100984 -3.6874125 -0.23068891
0.67737806 -0.4028403 -2.6478665 1.9163417 -0.36348435 -1.4101329 -1.5335785 -1.6297927
0.7247301 -5.2282286 3.2928689 -2.1401432 0.93902445 2.9909935 0.60117424 -4.476131
-1.1223305 -2.3565001 -0.17577986 7.4092593 -0.21869664 0.5745923 0.5891795 0.2686276
-1.545965 0.43500012 -0.14093947 -0.20000936 0.4565906 3.4889894 0.0811695 -0.13539949
-0.071189255 -0.9347184 -0.9273276 -1.3121701 0.65110654 2.1529992 0.37649062 1.0493648
-0.47920534 -0.289551 1.7397829 -2.075678 0.33500412 -1.7066641 -0.043125108 -0.23217498
-2.554608 0.33353782 -0.89514226 0.917079 -1.010559 0.035608966 1.5437953 -0.31550053
0.025147129 0.7668623 -0.50469065 0.12966122 1.3383809 2.394871 2.0578232 0.6033819
0.22849624 -0.6347358 0.5254258 0.6520817 -4.353637 -0.17457654 -1.3245603 1.4423431
-0.31985608 0.33245456 1.0126249 0.647141 -1.9726113 -2.7433684 -3.3423088 -3.5258853
-1.8296752 0.011289777 1.0328151 -0.02410206 1.5031246 -0.18444352 -2.7171903 0.94565046
0.21876697 0.4395873 -0.5494524 0.4317645 -1.3115988 4.2342057 -2.6701312 -6.357109
-0.7111536 -0.14921002 0.47496957 -2.1945965 1.1163106 -0.1938673 1.1295427 1.1068572
-0.4367371 0.50226605 -0.57053494 -0.4523788 -5.2421722 0.30619708 -4.922381 0.031583887
0.46329328 0.092220336 -0.057870805 0.43259853 -1.5443333 -4.2516937 -0.7607832 -4.73991
-0.7183962 -0.26106864 2.0134165 -0.041559454 1.742116 0.56553084 -1.9682114 -0.048799336
-0.55044985 0.769824 1.2442937 -0.56531805 -0.4059332 -1.957719 -0.9344878 -0.5202707
-0.9572229 0.38775164 -1.3348879 -0.49348328 0.63182324 -0.7926582 1.0003031 0.50279355
-4.0527024 -0.734617 -2.059872 -1.660486 -0.9072789 -0.30464724 -0.22275716 -1.547769
0.2617719 -3.196712 -0.6703026 -3.488976 0.59212375 1.05508 -0.4194767 0.8206625
0.13243362 0.042036563 -0.036660723 0.0906361 -5.5398254 0.4769165 1.1818782 -0.029114667
1.4020389 -1.0167983 2.8030574 -1.6834593 0.84628457 0.22713877 0.47203013 -0.53649944
-0.28106037 -2.7844133 4.352104 -0.01062922 -0.31067857 -3.5105886 0.962956 -0.58547413
-0.4252348 -0.07029146 1.2880279 -2.0556173 2.6925926 -0.030661946 0.40873697 -0.025853034
-2.6266363 0.13331603 -0.33863252 0.29615718 1.0558248 -0.36007845 -2.071578 -0.11892325
-0.030046834 -0.18194251 0.7889181 -1.4752606 -1.8559841 -0.7069717 0.18167737 1.4946734
00000000: 9b05 263d 8d1d 44bf 2c56 a1be fdd2 adbf
00000010: 0a85 933f 5cba 3640 5ac7 48c0 c96a abbf
00000020: e19d b9bd 821b 913d efed 69be fbce ef3e
00000030: 11fe 93be d8bb dd3b f89c 6cbd c236 083f
00000040: 9e0f 073d 2fbe 29bf a401 97bf 450c 3a40
00000050: d6b5 083f fe6f 2040 e417 da3f 9d2a b53f
00000060: d2ed 7ebf 547d 1a3f b45e db3f 9d27 88be
00000070: 1564 0140 1717 103f 80b3 bd3f 0327 cac0
00000080: 4ede a83f 3d8c aa3e ec95 8abe 2352 74bf
00000090: 8b8f f63f fca0 1a40 16ab c7bf e96d 0fbf
000000a0: ea59 28bf 30d6 943d e95d 0d3d 682e ebbc
000000b0: bb8a 5bbf b417 cebf 91fe 6bc0 b739 6cbe
000000c0: a668 2d3f 1541 cebe a576 29c0 af4a f53f
000000d0: 9f1a babe 3c7f b4bf 4d4c c4bf 0c9d d0bf
000000e0: e987 393f a64d a7c0 5dbe 5240 1bf8 08c0
000000f0: e863 703f 706c 3f40 8ee6 193f 773c 8fc0
00000100: 87a8 8fbf e6d0 16c0 a3ff 33be a718 ed40
00000110: 03f2 5fbe 7b18 133f 78d4 163f 8f89 893e
00000120: 2ee2 c5bf 56b8 de3e 7052 10be 41cf 4cbe
00000130: 3ec6 e93e 9a4b 5f40 323c a63d 2aa6 0abe
00000140: accb 91bd b449 6fbf 5765 6dbf 31f5 a7bf
00000150: ebae 263f bdca 0940 61c3 c03e 9651 863f
00000160: 675a f5be 0740 94be 35b1 de3f e9d7 04c0
00000170: a985 ab3e f873 dabf f4a3 30bd 47bf 6dbe
00000180: b37e 23c0 78c5 aa3e 0b28 65bf b0c5 6a3f
00000190: ff59 81bf b5da 113d 169b c53f 4989 a1be
000001a0: 5a01 ce3c 1651 443f 6833 01bf e9c5 043e
000001b0: 1150 ab3f 9145 1940 60b3 0340 3c77 1a3f
000001c0: ebfa 693e 0c7e 22bf 4e82 063f d4ee 263f
000001d0: ff50 8bc0 31c4 32be 318b a9bf b39e b83f
000001e0: 2dc4 a3be 7c37 aa3e b19d 813f 08ab 253f
000001f0: 877e fcbf 5993 2fc0 63e8 55c0 1ba8 61c0
00000200: cc32 eabf c2f8 383c 4933 843f af71 c5bc
00000210: 6366 c03f c3de 3cbe 72e6 2dc0 2616 723f
00000220: 7304 603e 9611 e13e eaa8 0cbf 3d10 dd3e
00000230: 78e2 a7bf 9d7e 8740 6ee3 2ac0 706d cbc0
00000240: 2a0e 36bf 83ca 18be 362f f33e 4574 0cc0
00000250: 44e3 8e3f 2685 46be db94 903f 7fad 8d3f
00000260: 019c dfbe 8294 003f 940e 12bf 329e e7be
00000270: e0bf a7c0 ddc5 9c3e 2584 9dc0 1b5e 013d
00000280: c734 ed3e 04de bc3d f009 6dbd 8e7d dd3e
00000290: b7ac c5bf e00d 88c0 b0c2 42bf 58ad 97c0
000002a0: d0e8 37bf caaa 85be d1db 0040 3f3a 2abd
000002b0: a8fd de3f a1c6 103f 5aee fbbf d0e1 47bd
000002c0: 48ea 0cbf 3013 453f 0445 9f3f afb8 10bf
000002d0: 7ad6 cfbe 8996 fabf 983a 6fbf 7630 05bf
000002e0: 8f0c 75bf 6287 c63e 9bdd aabf d7a9 fcbe
000002f0: 2bbf 213f a6eb 4abf ef09 803f 14b7 003f
00000300: bdaf 81c0 dc0f 3cbf f1d4 03c0 ce8a d4bf
00000310: 6e43 68bf b9fa 9bbe 741a 64be 4b1d c6bf
00000320: f706 863e ee96 4cc0 f498 2bbf 624b 5fc0
00000330: 6c95 173f dd0c 873f a6c5 d6be f016 523f
00000340: ae9c 073e 882e 2c3d 8e29 16bd 6b9f b93d
00000350: 4046 b1c0 662e f43e c947 973f e281 eebc
00000360: 0376 b33f 7226 82bf 4b65 3340 987b d7bf
00000370: 1ba6 583f 1197 683e efad f13e 0758 09bf
00000380: 25e7 8fbe d433 32c0 7044 8b40 2e26 2ebc
00000390: 4311 9fbe 7cad 60c0 4984 763f a2e1 15bf
000003a0: 60b8 d9be f8f4 8fbd 19de a43f 3c8f 03c0
000003b0: 7053 2c40 c32e fbbc f945 d13e bec9 d3bc
000003c0: cf1a 28c0 ff83 083e 3e61 adbe eaa1 973e
000003d0: 4425 873f 345c b8be bc94 04c0 088e f3bd
000003e0: c724 f6bc 234f 3abe 89f6 493f 57d5 bcbf
000003f0: e390 edbf 19fc 34bf a209 3a3e 7551 bf3f

fc1.bias f4 [256]
-0.68251085 -0.7703103 -0.49085367 -1.2188277 -0.57499886 0.38209257 0.5134579 -0.38772744
0.5757076 0.064387575 -0.31731093 0.1894258 0.28700653 0.11623006 0.49582312 0.41518775
0.086243704 0.45345587 0.22293888 -0.30339706 1.0846058 0.21480545 0.73901916 -0.12335549
-0.09056122 -0.9027337 0.032938633 -0.72386825 -0.46422362 0.13598178 -0.0032368598 0.020734293
0.07305074 -0.16315916 -0.14344302 -0.49950093 0.009801974 -1.2545202 0.4944339 -0.112534635
0.1873844 -0.20242932 0.2201228 -0.8276849 0.21358317 0.21361618 0.2129666 -0.0740834
-0.22485435 0.22374691 -0.30715647 0.6892514 0.816868 0.8503799 0.7810844 -0.1949312
-0.07014202 0.4594963 -0.68343514 0.02678064 0.10648518 -0.69323874 0.6962204 -0.21417868
-0.35311002 -0.18139257 -1.8522469 0.36704135 -0.70088 -0.45920673 -0.14802438 -0.6903809
-2.2672715 -0.046277076 -1.144715 0.09601988 -0.2121821 0.36210385 -0.7574249 0.07468168
-0.0766922 0.19219905 0.187161 0.36799702 0.92265695 0.6962076 0.7007748 0.8748383
0.46677622 -0.006483493 0.16111194 -0.9284785 -0.39009053 0.08492555 0.26478648 0.6546441
0.14914657 0.57999796 -0.7771398 -0.018558612 0.6812331 0.06079937 -0.046242155 -0.89460117
0.22677277 0.24741744 -1.3763492 0.116705984 -0.25944 0.48405766 -1.0856441 -0.34682104
-0.63547194 -0.20074739 0.14164644 0.11205665 0.31134108 -1.2774597 0.38512376 0.19630729
-0.52460796 0.441562 0.19389008 -0.006236685 0.96675134 -0.6784122 0.6199867 0.091145374
0.084038794 -0.15834545 -0.2184924 -0.39684498 -0.11731277 -0.28966686 1.0307076 -0.1216383
-0.02946574 0.631091 0.2229983 0.41734853 0.051577263 0.0960841 -0.24210542 0.9104697
-0.20180778 -1.4706211 -0.009459576 0.7666969 -0.25093734 0.030107051 0.8786341 0.64619625
-0.4658651 -0.7055337 0.169529 0.49517727 -0.80953646 0.5660602 0.17504612 0.41183993
-0.04624804 0.30183905 -0.04039461 -0.2608715 -0.5319321 0.1588948 -0.3611144 -0.020748716
0.22552316 0.1168724 -0.19154866 0.5260842 -0.3168584 0.15567158 0.058651645 0.016321044
0.30398735 -0.6456839 -0.4789335 -0.056833666 -0.15446204 -0.39012572 0.88668066 0.5939721
-0.17833963 0.5659951 -0.9997639 0.4430508 0.17779699 -0.07166338 -0.76568264 1.0069882
0.72299355 0.5288706 -0.07525288 -1.6272025 0.1226795 0.36748922 -0.15924664 0.010732304
0.0485807 -1.658334 -0.31328356 -0.13768974 -0.8052139 0.6319582 0.5999917 -0.2543171
0.44601816 0.93536997 0.52970326 -0.5100858 0.30439153 -0.7132321 -0.13206273 -0.7287335
0.82399774 0.47265744 0.4592216 0.28895265 0.15033159 -0.05616551 0.45791593 0.16950493
0.11165829 0.533122 -0.43612304 0.32494512 0.08206917 -0.35029197 0.8435517 0.6433855
0.0028589 -0.10091973 -0.027617464 -0.17406501 0.08281417 -0.08196774 -0.21341777 0.4233142
0.6127945 0.93848133 -0.78675973 -0.20976432 0.02975148 -0.34604728 -0.36508444 0.3633727
-1.0295434 0.0390476 0.51271373 0.49587646 0.48315683 -0.018680021 -0.24977851 -0.03232341
00000000: 08b9 2ebf 0e33 45bf 2c51 fbbe 8c02 9cbf
00000010: 2033 13bf a3a1 c33e fa71 033f 3684 c6be
00000020: 9361 133f a2dd 833d 9476 a2be d6f8 413e
00000030: 85f2 923e 070a ee3d 87dc fd3e 7d93 d43e
00000040: 8aa0 b03d 5e2b e83e 174a 643e dc56 9bbe
00000050: 5dd4 8a3f f6f5 5b3e 5c30 3d3f cea1 fcbd
00000060: 2978 b9bd 8e19 67bf a9ea 063d 6e4f 39bf
00000070: b8ae edbe cf3e 0b3e 7f21 54bb f7da a93c
00000080: a09b 953d 3213 27be bae2 12be 96be ffbe
00000090: 7598 203c 1e94 a0bf 7126 fd3e 8f78 e6bd
000000a0: b2e1 3f3e a249 4fbe df67 613e 28e3 53bf
000000b0: 8cb5 5a3e 33be 5a3e eb13 5a3e 0ab9 97bd
000000c0: 3840 66be e91d 653e 9d43 9dbe c872 303f
000000d0: 431e 513f 7fb2 593f 26f5 473f 0b9c 47be
000000e0: 9fa6 8fbd 1943 eb3e 9bf5 2ebf 1363 db3c
000000f0: e714 da3d 1878 31bf 803b 323f a851 5bbe
00000100: d6ca b4be f9be 39be 6d16 edbf d8ec bb3e
00000110: df6c 33bf 251d ebbe b493 17be cdbc 30bf
00000120: fa1a 11c0 088d 3dbd 0586 92bf 12a6 c43d
00000130: 4446 59be ad65 b93e 99e6 41bf b5f2 983d
00000140: cd10 9dbd d4cf 443e 22a7 3f3e 1b6a bc3e
00000150: 3f33 6c3f a93a 323f fa65 333f 67f5 5f3f
00000160: 4bfd ee3e 7b73 d4bb 87fa 243e c4b0 6dbf
00000170: f2b9 c7be 72ed ad3d 1892 873e c196 273f
00000180: e1b9 183e bf7a 143f a2f2 46bf 3b08 98bc
00000190: 4b65 2e3f c308 793d 6a68 3dbd 9504 65bf
000001a0: 1f37 683e ff5a 7d3e 362c b0bf 8c03 ef3d
000001b0: 52d5 84be 68d6 f73e 63f6 8abf 8792 b1be
000001c0: 4aae 22bf b990 4dbe c40b 113e f57d e53d
000001d0: 1968 9f3e cd83 a3bf f12e c53e c704 493e
000001e0: b54c 06bf 6a14 e23e 1f8b 463e 1b5d ccbb
000001f0: 047d 773f 6cac 2dbf 73b7 1e3f 6daa ba3d
00000200: 881c ac3d 4f25 22be 79bc 5fbe 442f cbbe
00000210: ad41 f0bd 374f 94be 3aee 833f 801d f9bd
00000220: 2362 f1bc 2e8f 213f ab59 643e b5ae d53e
00000230: ae42 533d bec7 c43d 7cea 77be 8b14 693f
00000240: b3a6 4ebe 503d bcbf 56fc 1abc 3f46 443f
00000250: dc7a 80be 10a3 f63c 2aee 603f 1e6d 253f
00000260: df85 eebe db9d 34bf 0399 2d3e e087 fd3e
00000270: c83d 4fbf 52e9 103f 4a3f 333e afdc d23e
00000280: 966e 3dbd a68a 9a3e d274 25bd f390 85be
00000290: b42c 08bf 52b5 223e fde3 b8be 36f9 a9bc
000002a0: 8bef 663e cc5a ef3d 5525 44be 74ad 063f
000002b0: 443b a2be 5f68 1f3e b53c 703d b6b3 853c
000002c0: 3ba4 9b3e 8a4b 25bf c636 f5be 6bca 68bd
000002d0: 4c2b 1ebe 8fbe c7be 81fd 623f 8e0e 183f
000002e0: aa9e 36be 0ee5 103f 87f0 7fbf 8ed7 e23e
000002f0: 6a10 363e 40c4 92bd c703 44bf fde4 803f
00000300: 1b16 393f 1064 073f 2f1e 9abd 2c48 d0bf
00000310: 643f fb3d 8c27 bc3e 8d11 23be 8cd6 2f3c
00000320: 8efc 463d 4a44 d4bf b466 a0be 8afe 0cbe
00000330: 8022 4ebf 03c8 213f 0e99 193f da35 82be
00000340: 7e5c e43e 6874 6f3f a29a 073f fc94 02bf
00000350: 35d9 9b3e 6196 36bf 743b 07be 478e 3abf
00000360: 84f1 523f 2800 f23e 181f eb3e 9af1 933e
00000370: 86f0 193e ce0d 66bd f573 ea3e b392 2d3e
00000380: 1aad e43d af7a 083f 854b dfbe 355f a63e
00000390: e213 a83d 7859 b3be 01f3 573f eab4 243f
000003a0: 625c 3b3b 01af cebd 053e e2bc 193e 32be
000003b0: 7a9a a93d b4de a7bd 308a 5abe a4bc d83e
000003c0: 1ae0 1c3f 5040 703f 1669 49bf 75cc 56be
000003d0: 60b9 f33c 1c2d b1be 59ec babe fd0b ba3e
000003e0: 14c8 83bf 60f0 1f3d 3541 033f 85e3 fd3e
000003f0: 5560 f73e d806 99bc f0c5 7fbe 8d65 04bd

fc_value.weight f4 [1, 256]
2.7209144 0.29110575 -1.7118746 0.20907862 1.6003402 0.74122834 3.713601 5.1695127
-2.946929 1.5491543 0.7226957 2.010087 -1.6230607 -1.4951994 -2.3465052 -2.131724
-0.32469746 -3.0360715 1.9822875 3.113133 -2.4785593 1.4919127 1.3947859 0.35758078
-3.9536808 -6.0078354 3.6828759 -3.7492638 2.4810853 2.374678 -2.1832926 1.3581309
2.2118309 -1.9577928 1.8654917 3.6485596 6.919845 -5.763297 1.8836374 2.3311894
1.7882766 -0.8918502 1.3688228 -1.2415403 -1.8303851 0.75550616 -3.153787 5.0191455
0.61258143 5.203612 -3.051138 1.5023426 1.0816022 -1.3948147 -1.4456236 -2.021713
4.2227507 -3.6386974 2.5730069 -2.8394263 2.0315928 5.5797915 -1.6566684 4.2340107
-3.095979 -3.0788212 3.0341742 2.453015 -4.6091127 -0.04826693 0.95886576 -1.9652263
5.6802 -2.4510496 -3.253575 1.7933035 -4.7049217 -1.6871237 -4.4598413 -1.5987642
-2.1402583 0.3652976 1.847409 0.44147143 -2.4733765 1.711376 1.4512968 0.060114518
1.2611135 -2.7017357 -1.9856994 -3.5059216 2.879466 -1.4016923 4.6078215 -2.4315157
4.965536 2.2090871 -3.7149649 2.2343702 1.0878923 0.2383848 2.0684414 3.1293657
0.4284501 1.2384268 -6.0890837 0.6364515 -5.1912155 -2.8215227 -4.9171853 3.1545722
2.52188 2.50576 4.2321925 2.0235739 3.192596 -2.1066277 -1.4886926 -2.159903
6.616761 5.592774 3.1382496 -1.0218496 3.7149642 8.702261 1.4237461 1.8194076
-1.259919 -0.34325543 -3.3732066 -2.98674 2.256708 -3.2432175 -3.0883687 -1.2367915
-3.531902 2.1569664 0.6328312 0.8539157 3.3895133 2.3493786 1.7457757 1.1559439
-5.56594 9.710637 3.0470562 -2.6954145 -2.7151694 1.8664553 -1.6707791 0.87906444
-5.377518 -5.7948093 3.0407104 -1.2996374 -3.3821151 -1.383084 1.427869 0.5735887
-2.2528806 1.7368549 1.871669 1.8365067 -0.19340785 2.3085518 -2.1167357 -2.6102955
-1.3481253 2.8805697 1.048702 0.660351 -1.9825503 2.3262684 0.99041516 0.39732766
2.2526338 -2.7763298 -3.318971 3.77669 -2.1978984 -2.6961906 1.0572355 0.8944157
0.6528576 -2.2336318 0.21458246 1.8951799 -1.9610896 -3.2416885 0.11119859 1.8770481
1.4402416 2.8800144 -3.1780257 -10.902244 2.663081 -3.2214913 1.2830114 1.1578052
-3.0803201 -7.0626526 3.4853632 3.4488273 1.8891029 1.254401 2.1961696 0.872845
0.38863575 -2.3769593 1.8408856 1.9027137 0.0291257 -2.9292467 0.8482112 5.232246
4.4305186 -1.8224583 0.5371978 2.1350746 0.8120918 0.064048365 2.7830536 -0.21594495
3.011411 1.2320844 -4.695786 -1.6522362 -1.8019103 -0.4581439 1.4541137 1.5660138
-2.886219 0.7391234 1.6441966 -3.998238 0.8112011 -1.2947155 1.1372954 -2.3384311
0.57887346 -2.4062734 -2.641816 1.818655 -2.5999386 2.900147 2.1934133 4.030039
-6.715525 0.30355853 -1.359144 3.523734 -1.4725703 2.5226884 2.9070532 -3.0956335
00000000: 7623 2e40 d00b 953e b51e dbbf b518 563e
00000010: f3d7 cc3f 24c1 3d3f a4ab 6d40 a66c a540
00000020: 7c9a 3cc0 b04a c63f 9602 393f 44a5 0040
00000030: 74c0 cfbf b262 bfbf 242d 16c0 2b6e 08c0
00000040: bf3e a6be ff4e 42c0 99bb fd3f 923d 4740
00000050: b7a0 1ec0 fff6 be3f 5888 b23f d414 b73e
00000060: 1b09 7dc0 3040 c0c0 3db4 6b40 f0f3 6fc0
00000070: 1aca 1e40 b9fa 1740 11bb 0bc0 3cd7 ad3f
00000080: a38e 0d40 f498 fabf 6fc8 ee3f 0082 6940
00000090: 5f6f dd40 ee6c b8c0 081b f13f 3532 1540
000000a0: 3fe6 e43f 4b50 64bf 9635 af3f cbea 9ebf
000000b0: 0f4a eabf da68 413f a5d7 49c0 d79c a040
000000c0: 23d2 1c3f fd83 a640 d845 43c0 c34c c03f
000000d0: f171 8a3f 4a89 b2bf 320a b9bf bf63 01c0
000000e0: c620 8740 6be0 68c0 25ac 2440 29b9 35c0
000000f0: 9e05 0240 a78d b240 b60d d4bf 047d 8740
00000100: 8524 46c0 680b 45c0 e92f 4240 33fe 1c40
00000110: da7d 93c0 8bb3 45bd 3a78 753f 898c fbbf
00000120: 33c4 b540 ffdd 1cc0 933a 50c0 f88a e53f
00000130: b88e 96c0 abf3 d7bf 05b7 8ec0 4ea4 ccbf
00000140: fef9 08c0 4908 bb3e e677 ec3f 8b08 e23e
00000150: cd4b 1ec0 5e0e db3f 18c4 b93f a43a 763d
00000160: 2b6c a13f 3de9 2cc0 662b febf 0561 60c0
00000170: 2c49 3840 a76a b3bf 4673 9340 f49d 1bc0
00000180: ace5 9e40 af61 0d40 fcc1 6dc0 ecff 0e40
00000190: 0e40 8b3f 251b 743e 5861 0440 8747 4840
000001a0: d05d db3e c584 9e3f c6d9 c2c0 7cee 223f
000001b0: 701e a6c0 d493 34c0 9559 9dc0 83e4 4940
000001c0: 7b66 2140 5f5e 2040 1f6e 8740 3c82 0140
000001d0: 7e53 4c40 fdd2 06c0 7b8d bebf da3b 0ac0
000001e0: 82bc d340 01f8 b240 15d9 4840 f8cb 82bf
000001f0: f9c1 6d40 763c 0b41 503d b63f 59e2 e83f
00000200: 0745 a1bf 2dbf afbe 9ee2 57c0 c026 3fc0
00000210: e76d 1040 e090 4fc0 d5a7 45c0 2f4f 9ebf
00000220: af0a 62c0 bd0b 0a40 3a01 223f 389a 5a3f
00000230: c9ed 5840 385c 1640 9475 df3f f8f5 933f
00000240: 2e1c b2c0 c55e 1b41 f802 4340 ac81 2cc0
00000250: 56c5 2dc0 02e8 ee3f 17dc d5bf 5e0a 613f
00000260: a114 acc0 146f b9c0 009b 4240 855a a6bf
00000270: 9374 58c0 e608 b1bf 69c4 b63f b6d6 123f
00000280: 322f 10c0 4351 de3f da92 ef3f a712 eb3f
00000290: b50c 46be 50bf 1340 9978 07c0 150f 27c0
000002a0: 5f8f acbf 415b 3840 de3b 863f c30c 293f
000002b0: 35c4 fdbf 95e1 1440 d98b 7d3f 886e cb3e
000002c0: 272b 1040 63af 31c0 056a 54c0 4ab5 7140
000002d0: 5eaa 0cc0 638e 2cc0 7e53 873f 6df8 643f
000002e0: ad21 273f d3f3 0ec0 81bb 5b3e 4195 f23f
000002f0: fc04 fbbf d377 4fc0 16bc e33d 1d43 f03f
00000300: d659 b83f 2852 3840 c664 4bc0 976f 2ec1
00000310: eb6f 2a40 ea2c 4ec0 b839 a43f f632 943f
00000320: f723 45c0 4001 e2c0 3110 5f40 96b9 5c40
00000330: 20ce f13f 3690 a03f 0b8e 0c40 c572 5f3f
00000340: 44fb c63e 1a20 18c0 24a2 eb3f 1f8c f33f
00000350: 0599 ee3c c778 3bc0 5f24 593f 8f6e a740
00000360: cfc6 8d40 5046 e9bf cc85 093f 10a5 0840
00000370: 40e5 4f3f ca2b 833d 8d1d 3240 ac20 5dbe
00000380: f5ba 4040 f1b4 9d3f e143 96c0 7a7c d3bf
00000390: ffa4 e6bf d691 eabe 6620 ba3f 2473 c83f
000003a0: d0b7 38c0 3137 3d3f 0975 d23f 22e3 7fc0
000003b0: e0aa 4f3f 3db9 a5bf e592 913f dba8 15c0
000003c0: 0d31 143f 6200 1ac0 8313 29c0 b0c9 e83f
000003d0: 6565 26c0 029c 3940 e260 0c40 14f6 8040
000003e0: 95e5 d6c0 066c 9b3e 6ef8 adbf dc84 6140
000003f0: 2f7d bcbf ba73 2140 290d 3a40 dc1e 46c0

fc_advantage.weight f4 [4, 256]
-0.3302097 0.37507007 -0.12273898 -0.70018023 -0.5610335 0.31836212 0.26572242 1.8665558
0.17352028 -0.95799905 -0.036660388 -0.16014077 -0.20807914 -0.15933366 0.3560687 -0.21402147
-1.0430582 0.31322375 0.3855774 0.68320966 0.018772086 -1.3415661 0.10515811 -0.008034242
0.04749847 0.51520455 -0.4803826 0.06826621 0.82714605 -0.044232324 0.46009436 -0.14333656
0.07708491 0.38663575 0.100273095 0.091734365 0.9439929 -0.038357418 -0.21307969 -0.010932419
-0.7666296 -0.057881244 -0.3023579 -0.010222637 -0.54137844 -0.0078958925 0.41604543 0.967586
-0.16900806 -0.012954628 -0.19494894 -0.2786199 0.4211605 0.096097365 0.04819547 -0.17047
-0.31292275 -0.46836376 0.24564728 -0.92714596 0.78081334 -0.3722232 0.110674106 -0.05402414
0.2826505 0.16140288 0.89313287 0.67707485 0.22508702 0.08030272 -0.12963508 -0.07218997
2.6858523 -0.4984134 -0.076034345 -0.7839208 0.91058326 -0.10911152 0.5149568 -0.025243763
0.10178266 -0.36025542 -0.07476808 -0.23458388 -0.049555577 0.49866718 0.09777217 0.008407183
0.20548517 -0.12445547 0.48754248 0.67305654 -0.19960527 0.1825792 -0.38394517 0.13830236
-0.074635 -0.3481776 1.3532581 0.2516435 0.085091636 0.7432066 0.42475677 0.13587889
-0.09292686 -0.5678514 4.8524795 0.09403376 0.6404949 -0.026704825 -1.5603594 0.1187098
-0.68643063 0.3123128 0.43629512 -0.13886689 -0.19554411 -1.2304906 -0.16773733 -0.058778137
-0.04858076 0.19949336 0.25849527 0.055439144 -0.036164362 -1.4914526 -0.5566297 -0.14518185
-0.40537986 -0.957777 -0.1549799 -0.07719628 0.0011704239 0.26770586 -0.093135364 0.22037694
0.6252293 0.06142229 0.00789562 0.34099144 -0.04830613 0.034208834 -0.753875 0.55018044
-1.840675 2.298224 0.40316707 -0.18417825 0.15102045 0.2910633 0.0883918 0.08571033
-0.134135 0.39794892 -0.46249235 -0.4364243 -0.49718222 -0.38311657 -0.3848236 0.65660936
-0.2149764 -0.46963188 -0.119042374 -0.5573133 1.0211337 0.23686121 0.31397948 -0.038000654
-0.4842997 1.0754858 -0.23730145 -0.16140747 -0.11025743 0.8229059 0.2205139 -0.027359106
-0.40618685 0.07119527 -0.015168226 -0.1351415 -0.15043087 0.30970603 0.13855669 0.009047856
0.18435518 0.058989014 -1.0433403 0.047181636 -0.560046 0.39844128 -0.27664852 0.12788233
0.12113948 0.6410942 -0.13890754 1.5568781 0.6196749 -0.4377085 0.23262641 0.054211423
0.10701446 2.1223156 -0.32161322 0.51510143 -0.03820992 0.27851194 0.016213581 1.6706448
-0.05939539 0.6366553 0.062314756 -0.32772082 -0.3691891 -0.12999377 -0.039227057 0.36439484
0.29658723 -0.052623678 -0.03736427 0.78604 0.20215215 0.21950777 0.16053012 0.5151421
0.04916749 0.15374692 0.6141814 -0.23201801 0.10263044 0.36737844 0.26904482 -0.31189942
0.102541745 -0.1706999 0.7161744 0.17581841 -0.3630543 0.60262644 -0.22701216 -0.16677225
0.1653589 0.24254218 0.08862859 -0.21244335 0.18137857 -0.5753644 0.11129393 -0.45377597
2.3139284 0.29635668 0.37248522 -0.37699527 -0.22096696 0.63883686 0.61463886 -1.4720175
00000000: 3f11 a9be 2f09 c03e 935e fbbd 033f 33bf
00000010: e49f 0fbf 5c00 a33e c50c 883e 4deb ee3f
00000020: 4daf 313e 6d3f 75bf 3429 16bd f1fb 23be
00000030: b312 55be 5d28 23be a34e b63e 7228 5bbe
00000040: ee82 85bf dd5e a03e 676a c53e d4e6 2e3f
00000050: ebc7 993c 70b8 abbf 235d d73d 0ea2 03bc
00000060: c18d 423d 72e4 033f b5f4 f5be 28cf 8b3d
00000070: d8bf 533f f42c 35bd 7d91 eb3e d2c6 12be
00000080: b1de 9d3d 1ff5 c53e fb5b cd3d 3adf bb3d
00000090: 85a9 713f ab1c 1dbd 9031 5abe e41d 33bc
000000a0: d641 44bf e214 6dbd a8ce 9abe d97c 27bc
000000b0: c797 0abf c65d 01bc e803 d53e b7b3 773f
000000c0: 7310 2dbe a63f 54bc b2a0 47be 44a7 8ebe
000000d0: 59a2 d73e b2ce c43d 9d68 453d b08f 2ebe
000000e0: 6937 a0be 60cd efbe f68a 7b3e 7059 6dbf
000000f0: 62e3 473f 0a94 bebe 1ba9 e23d 6b48 5dbd
00000100: 91b7 903e cc46 253e 5ba4 643f c754 2d3f
00000110: 367d 663e c175 a43d 0fbf 04be 56d8 93bd
00000120: 01e5 2b40 0b30 ffbe e5b7 9bbd 09af 48bf
00000130: fc1b 693f dc75 dfbd 35d4 033f 02cc cebc
00000140: 6d73 d03d 6673 b8be 0220 99bd c236 70be
00000150: cafa 4abd 4e51 ff3e c73c c83d 48be 093c
00000160: b46a 523e 82e2 febd 2b9f f93e 6f4d 2c3f
00000170: 5365 4cbe 0bf6 3a3e 7694 c4be 229f 0d3e
00000180: 3cda 98bd 5644 b2be 9037 ad3f 6bd7 803e
00000190: 8644 ae3d ca42 3e3f b879 d93e d623 0b3e
000001a0: 7050 bebd b65e 11bf 8347 9b40 c694 c03d
000001b0: 79f7 233f 14c4 dabc dbb9 c7bf 201e f33d
000001c0: ebb9 2fbf 77e7 9f3e 1362 df3e 1f33 0ebe
000001d0: b73c 48be b780 9dbf 56c3 2bbe 58c1 70bd
000001e0: 9efc 46bd fd47 4c3e 7e59 843e 2814 633d
000001f0: 1521 14bd ebe7 bebf 497f 0ebf 8daa 14be
00000200: f38d cfbe e030 75bf 0db3 1ebe 1519 9ebd
00000210: e968 993a be10 893e c1bd bebd 7eaa 613e
00000220: 070f 203f f095 7b3d a15c 013c 6e96 ae3e
00000230: a6dc 45bd 901e 0c3d f4fd 40bf a0d8 0c3f
00000240: 3d9b ebbf 1a16 1340 ea6b ce3e 3999 3cbe
00000250: 1ba5 1a3e 4006 953e c306 b53d e688 af3d
00000260: af5a 09be f6bf cb3e cccb ecbe 0173 dfbe
00000270: ab8e febe db27 c4be 9907 c5be 8d17 283f
00000280: c622 5cbe 9773 f0be 7dcc f3bd 16ac 0ebf
00000290: 82b4 823f bf8b 723e ebc1 a03e 93a6 1bbd
000002a0: 21f6 f7be 85a9 893f 27ff 72be 0048 25be
000002b0: a6ce e1bd f6a9 523f 65ce 613e 3420 e0bc
000002c0: b9f7 cfbe d3ce 913d 2784 78bc 8962 0abe
000002d0: 8d0a 1abe ca91 9e3e cee1 0d3e 753d 143c
000002e0: 9bc7 3c3e 779e 713d 2d8c 85bf 8841 413d
000002f0: 2d5f 0fbf 7f00 cc3e e0a4 8dbe 96f3 023e
00000300: fa17 f83d c01e 243f c73d 0ebe c847 c73f
00000310: 04a3 1e3f 541b e0be 9e35 6e3e cc0c 5e3d
00000320: 662a db3d 05d4 0740 7daa a4be b0dd 033f
00000330: 0182 1cbd 1e99 8e3e 58d2 843c b0d7 d53f
00000340: 9548 73bd d7fb 223f c23d 7f3d 06cb a7be
00000350: 5b06 bdbe 161d 05be 8dac 20bd f691 ba3e
00000360: 48da 973e ed8b 57bd 470b 19bd eb39 493f
00000370: f900 4f3e a5c6 603e 0262 243e 5ae0 033f
00000380: da63 493d d56f 1d3e fe3a 1d3f 2196 6dbe
00000390: e82f d23d 0719 bc3e 3ec0 893e 48b1 9fbe
000003a0: 6801 d23d f4cb 2ebe 3557 373f be09 343e
000003b0: 41e2 b9be ba45 1a3f e075 68be 58c6 2abe
000003c0: d853 293e fa5c 783e e882 b53d c08a 59be
000003d0: 4ebb 393e 154b 13bf 12ee e33d 5355 e8be
000003e0: 6717 1440 10bc 973e 62b6 be3e 8605 c1be
000003f0: 2a45 62be d08a 233f f958 1d3f 126b bcbf

fc_advantage.bias f4 [4]
0.11215048 -0.22999468 0.30474606 -0.29693112
00000000: 27af e53d ba83 6bbe ad07 9c3e 5b07 98be
