csv_and_models/Duelling_DDQ_PER/trained models/duelling_double_PER_lunar_0.pth (torch, 17296 bytes, 5 tensors)

fc1.weight f4 [256, 8]
0	0xbe9088b2	-0.2822929
1	0x3e71e970	0.23624206
2	0xbe40564e	-0.18782923
3	0xbd558d68	-0.05213681
4	0x3e1aacde	0.15105006
5	0x3e6b3c5c	0.22972244
6	0xbe2bd495	-0.16780312
7	0xbea5aa0c	-0.32356298
8	0xbe53b07b	-0.2067279
9	0xbe8a5026	-0.27014273
10	0xbe8918bd	-0.26776686
11	0x3e2a41ad	0.16626616
12	0x3e19a3e6	0.15003929
13	0x3e520242	0.20508674
14	0xbd6c9cf8	-0.057766885
15	0x3e91797f	0.28413007
16	0x3eb97c10	0.36227465
17	0x3e4bbee6	0.1989704
18	0xbe4b94bf	-0.19880961
19	0xbe1b148b	-0.15144555
20	0xbe62c6f8	-0.22146213
21	0x3e8fcb69	0.28084877
22	0x3d2173a0	0.03941691
23	0x3eac8bd0	0.33700418
24	0xbd37afc7	-0.04484537
25	0x3e990be1	0.29891875
26	0x3e218323	0.15772681
27	0xbd2fe88b	-0.04294638
28	0xbe241f6e	-0.16027614
29	0x3e409eff	0.18810652
30	0x3ca063d0	0.019578844
31	0xbe370f04	-0.17876822
32	0x3e262274	0.1622408
33	0x3ca3ee43	0.020011073
34	0xbec91140	-0.39270973
35	0xbe84f00b	-0.25964388
36	0x3ec5aaa0	0.3860674
37	0x3e5d2077	0.21594416
38	0xbe741a2a	-0.23838106
39	0x3e8d6aec	0.27620637
40	0xbd267ea6	-0.040648125
41	0xbe91f0c2	-0.28503996
42	0x3d58065a	0.052740432
43	0xbe27813e	-0.16357896
44	0xbd9c9ff6	-0.07647698
45	0x3d5478c8	0.051873
46	0xbea4d9e5	-0.3219749
47	0x3c13e2f8	0.009026282
48	0x3eafe571	0.34354737
49	0x3e0bec27	0.13664304
50	0xba2ed5d0	-0.0006669434
51	0x3e7a3edc	0.24438041
52	0xbdc31b14	-0.09526649
53	0xbe197dc4	-0.14989382
54	0x3daf7070	0.085663676
55	0x3d198c78	0.037487477
56	0x3e0949a8	0.13407004
57	0xbdbe16ac	-0.09281668
58	0x3e92b959	0.28657034
59	0x3e72fb76	0.23728737
60	0xbe0dfcf2	-0.13866022
61	0x3df9fc98	0.122063816
62	0x3d563808	0.05229953
63	0x3e993f99	0.29931334
64	0x3ebd5182	0.36976248
65	0x3e6a6231	0.2288902
66	0x3e8b4307	0.27199575
67	0x3e259f3a	0.16174021
68	0xbe469f55	-0.19396718
69	0xbe713ab3	-0.23557548
70	0x3ea13cdd	0.31491747
71	0x3e192f36	0.14959416
72	0xbe57dc77	-0.21080194
73	0x3e077460	0.13227987
74	0xbd8c04a8	-0.068368256
75	0xbe995ed7	-0.2995517
76	0x3e9c27d1	0.30499128
77	0x3d521ddd	0.05129801
78	0x3e073ef6	0.13207611
79	0xbbaef33e	-0.0053390553
80	0xbe954cb0	-0.2916007
81	0x3eb2851d	0.34867182
82	0xbe1302e3	-0.1435657
83	0xbead8d3a	-0.3389681
84	0x3ea8dba0	0.3298006
85	0xbdc8eb2f	-0.09810483
86	0xbe41c029	-0.1892096
87	0x3e960f37	0.29308483
88	0x3e5518bc	0.20810217
89	0xbe30135e	-0.17194888
90	0xbd246289	-0.040133033
91	0xbe3b8e34	-0.18315965
92	0x3e8dfc48	0.27731538
93	0xbe80d894	-0.25165236
94	0xbe692afb	-0.22770302
95	0xbe0fbed6	-0.14037642
96	0xbe2e202e	-0.17004463
97	0x3ea1edb0	0.31626654
98	0xbe30e810	-0.17276025
99	0x3baaeee5	0.0052164667
100	0x3cbdd722	0.023173872
101	0xbd7a4c93	-0.061108183
102	0x3c8200a0	0.015869439
103	0xbd702826	-0.05863204
104	0xbeadfde2	-0.3398276
105	0x3e95b5a0	0.2924013
106	0xbe1e05c6	-0.1543189
107	0x3d3bd889	0.0458608
108	0x3e8685e4	0.26274025
109	0x3e2850e5	0.16437109
110	0xbe94e891	-0.29083684
111	0xbc04b8c9	-0.008100697
112	0x3e0c45d3	0.13698511
113	0x3e397702	0.18111804
114	0x3ea2e82a	0.31817752
115	0x3eba384d	0.3637108
116	0xbdad2942	-0.08455135
117	0x3e7bc160	0.24585485
118	0xbd9ea624	-0.077465326
119	0xbe35136c	-0.1768319
120	0xbdd9a442	-0.10627033
121	0x3eb29d00	0.34885406
122	0x3e448e49	0.19194902
123	0x3e080eee	0.13286945
124	0xbe37471b	-0.17898218
125	0xbe246557	-0.16054283
126	0x3b83a080	0.004016936
127	0x3d475d98	0.048673242
128	0xbe6a3cf8	-0.2287482
129	0x3e89ff01	0.26952365
130	0xbda9c8ec	-0.08290276
131	0xbd1a0404	-0.037601486
132	0xbe98ad03	-0.29819497
133	0xbcfc4c66	-0.030798148
134	0xbe27dd19	-0.16392936
135	0x3ea4c928	0.3218472
136	0x3ebc53c8	0.3678267
137	0x3da249f3	0.07924261
138	0xbde3e4c7	-0.1112762
139	0x3eb4be91	0.3530164
140	0x3e61a777	0.22036539
141	0x3eae93fb	0.34097275
142	0xbe8c0ad4	-0.2735201
143	0xbc7b72e0	-0.015347213
144	0xbd532604	-0.051549926
145	0xbd81221a	-0.063053325
146	0xbd40e9c4	-0.047097936
147	0x3ccd22a4	0.025040932
148	0x3ebb3b05	0.36568466
149	0xbebcce06	-0.36875933
150	0xbe979942	-0.29609114
151	0xbbdf29a3	-0.0068103834
152	0xbe7bfb07	-0.24607478
153	0x3c8b4cde	0.017004427
154	0xbe979b5f	-0.29610726
155	0xbec27bdc	-0.37985122
156	0x3dbcfc25	0.0922778
157	0xbd8831ee	-0.06650148
158	0x3de12db4	0.10995045
159	0x3e416b39	0.18888558
160	0xbdeaf12c	-0.11471781
161	0x3e429e94	0.19005805
162	0x3e38722c	0.18012303
163	0xbca25d17	-0.01981978
164	0xbe9c0337	-0.30471203
165	0xbe59f430	-0.21284556
166	0x3eb249ed	0.34822026
167	0xbe51bbd8	-0.20481813
168	0xbe863e8e	-0.262196
169	0xbe6d9682	-0.23201945
170	0x3e9568ab	0.29181418
171	0x3e039d34	0.12852937
172	0xbe5c994b	-0.21542852
173	0x3eb4aee1	0.35289672
174	0xbe8bfc15	-0.2734076
175	0xbeb01fe4	-0.3439933
176	0xbe6066d8	-0.21914232
177	0x3e3d48ac	0.18484753
178	0xbdc2fcfc	-0.09520909
179	0xbdb54d9c	-0.088526934
180	0xbe215413	-0.15754728
181	0xbe874c94	-0.26425612
182	0x3ead7d31	0.33884576
183	0xbb63239c	-0.0034658676
184	0xbd3bfc1a	-0.04589472
185	0x3eac8781	0.3369713
186	0xbe907b84	-0.28219235
187	0xbd9189f0	-0.071063876
188	0x3e98715c	0.29773986
189	0xbe88dc29	-0.2673047
190	0x3e089a8e	0.13340208
191	0xbe73d6b8	-0.23812377
192	0xbe8e89ee	-0.27839607
193	0xbe112877	-0.14175592
194	0xbe830172	-0.2558704
195	0xbdbf605a	-0.093445495
196	0xbe4e04c6	-0.20119008
197	0xbe289195	-0.16461785
198	0xbdd665a6	-0.10468607
199	0xbe1d4c51	-0.15361144
200	0xbe3b05d8	-0.18263948
201	0xbba739f3	-0.0051033436
202	0x3d5ea171	0.05435318
203	0xbdb282b6	-0.087163374
204	0xbe391841	-0.18075658
205	0x3e9179d4	0.2841326
206	0xbe8f55dd	-0.27995196
207	0x3e97ebda	0.29672128
208	0x3dba8f82	0.09109403
209	0xbdad969a	-0.084759906
210	0xbea04fa2	-0.31310755
211	0x3d4eda86	0.05050137
212	0xbe93b439	-0.28848436
213	0x3e85a27a	0.26100522
214	0xbb26aa00	-0.0025430918
215	0xbea0b55d	-0.3138837
216	0x3eb2c403	0.3491517
217	0x3d261a72	0.040552564
218	0x3e0bc121	0.13647892
219	0x3bd5847b	0.006516037
220	0x3e918139	0.28418902
221	0xbe5cd089	-0.21563925
222	0xbe7cfd0f	-0.24705909
223	0x3e4f1c06	0.20225534
224	0xbd75a4b0	-0.05997151
225	0x3d6a3090	0.05717522
226	0xbe8da4b0	-0.2766471
227	0x3e157ef0	0.14599204
228	0xbeb13a0e	-0.34614605
229	0xbce6b490	-0.02816227
230	0xbe14d2e4	-0.14533573
231	0xbea3d0be	-0.31995195
232	0x3d030d93	0.031995367
233	0xbc83082b	-0.015995106
234	0xbb536a70	-0.0032259487
235	0xbebeb4a9	-0.37247208
236	0x3eb9955e	0.3624677
237	0xbe8f9b53	-0.2804819
238	0xbe4ca705	-0.19985588
239	0xbe60e3ab	-0.21961848
240	0xbe7cb03e	-0.24676606
241	0x3e012d56	0.1261495
242	0xbde319a9	-0.11088879
243	0x3e63dde8	0.2225262
244	0x3d701fa2	0.058623917
245	0x3e9f86ff	0.3115768
246	0xbdcd6c20	-0.10030389
247	0xbde6115a	-0.11233778
248	0xbec2576a	-0.37957317
249	0x3b98bac6	0.004660937
250	0x3e984d35	0.29746404
251	0xbe949ea3	-0.2902728
252	0xbe4b77ba	-0.19869891
253	0x3e82c368	0.25539708
254	0x3e11145a	0.1416792
255	0x3e89d7e4	0.26922524

fc1.bias f4 [256]
0	0x3e629c48	0.22129929
1	0xbe5ec907	-0.21756373
2	0xbe558b63	-0.20853953
3	0x3e5c32ef	0.21503805
4	0x3bc8d7f5	0.0061292597
5	0x3ecc9330	0.39956045
6	0xbd28defb	-0.041228276
7	0xbe345251	-0.17609526
8	0xbe2ec9c3	-0.17069153
9	0x3d7fc828	0.062446743
10	0x3c87c6e0	0.016574323
11	0x3eb1222a	0.34596378
12	0xbd35a563	-0.04434718
13	0x3d49aa29	0.049234543
14	0x3eb35b96	0.35030812
15	0x3e8c783a	0.27435476
16	0x3e9e753c	0.30948818
17	0x3e9ec6f5	0.31011167
18	0xbd9f39d7	-0.07774704
19	0xbe55ec42	-0.20890906
20	0xbd23a2fb	-0.039950352
21	0xbe7df14f	-0.24799083
22	0x3e068386	0.1313611
23	0xbd787dcc	-0.060666844
24	0xbe4b43b6	-0.19850048
25	0xbe4f24d9	-0.202289
26	0x3eb1f079	0.3475378
27	0x3cbb7758	0.022884056
28	0xbea343bd	-0.31887618
29	0xbd9e192f	-0.07719647
30	0xbd7116c1	-0.05885959
31	0x3dcb307a	0.099213555
32	0x3eab1741	0.3341618
33	0xbe50d44d	-0.20393486
34	0xbe211fba	-0.15734759
35	0x3d4613ba	0.048358656
36	0xbdb98f4c	-0.09060535
37	0xbe8c65eb	-0.27421507
38	0x3dfeb227	0.124363236
39	0xbd65cda8	-0.056104332
40	0xbde41caa	-0.1113828
41	0xbd2e2362	-0.042514212
42	0x3da6598f	0.08122551
43	0xbe9fbcd4	-0.31198752
44	0x3dfef7d5	0.12449614
45	0x3e9215f3	0.2853237
46	0xbea78be7	-0.32723925
47	0xbe44947b	-0.19197266
48	0x3e6f468f	0.2336676
49	0xbdd31d67	-0.103083424
50	0xbe955fc9	-0.2917464
51	0x3e89ec27	0.26937982
52	0x3ea63744	0.3246404
53	0x3e470710	0.19436288
54	0x3e0c44bc	0.13698095
55	0x3d2aabf8	0.04166791
56	0x3e79af98	0.2438339
57	0xbe903e40	-0.28172493
58	0xbea69fc3	-0.32543764
59	0xbe884090	-0.26611757
60	0x3dc219b1	0.094775565
61	0x3e850a36	0.25984353
62	0xbdc4bd56	-0.096064255
63	0xbe40fe07	-0.18846904
64	0x3cf9369f	0.030421553
65	0x3de81193	0.11331477
66	0xbe42015e	-0.18945834
67	0x3d8f4899	0.06996269
68	0xbd92c7b3	-0.07166996
69	0xbe9fc751	-0.31206754
70	0x3e8404be	0.25784868
71	0x3e159adf	0.1460986
72	0xbd53a628	-0.05167213
73	0x3e099dc9	0.13439097
74	0xbe7ee7b1	-0.24893071
75	0x3e9a93d2	0.30190903
76	0xbe26d981	-0.16293909
77	0x3e912e11	0.28355458
78	0xbd50fc9f	-0.05102217
79	0x3e6f39d0	0.23361897
80	0x3d7a4173	0.061097573
81	0x3ea9818a	0.33106643
82	0xbe98fe32	-0.29881436
83	0x3e101640	0.14070988
84	0x3db76cdb	0.089563094
85	0xbce942cf	-0.02847424
86	0x3e44fc70	0.19236922
87	0x3ea2d055	0.3179957
88	0x3e7f17e1	0.24911453
89	0xbd989b88	-0.0745154
90	0x3dda8ee3	0.10671785
91	0xbead5301	-0.3385239
92	0xbe7f9cbc	-0.24962133
93	0xbe194d39	-0.14970864
94	0x3ecf0911	0.40436605
95	0x3d1970b8	0.037461013
96	0x3eab1caf	0.3342032
97	0xbda29a18	-0.07939547
98	0xbe723f2a	-0.23656908
99	0xbe43cadd	-0.19120355
100	0x3e728ed8	0.23687303
101	0xbd9801b2	-0.07422198
102	0xbe228384	-0.15870482
103	0xbe6f6bf4	-0.23381025
104	0x3ea9419f	0.33057877
105	0x3eae30d2	0.34021622
106	0xbe971bfa	-0.29513532
107	0x3e9037ee	0.2816767
108	0xbe0ad465	-0.13557585
109	0xbe3b4818	-0.1828922
110	0xbe76db71	-0.24107148
111	0xbe6df2fb	-0.23237221
112	0x3e8650d6	0.26233548
113	0xbe5878d7	-0.21139847
114	0xbe1e9ed2	-0.15490273
115	0x3ec4546f	0.38345668
116	0xbda0df69	-0.07855112
117	0xbe970fa1	-0.2950411
118	0x3eaf976a	0.34295207
119	0xbe0ef6cc	-0.13961333
120	0xbe6c0016	-0.23046908
121	0xbc2499ee	-0.010046465
122	0x3e6b3f8e	0.22973463
123	0x3de4b20f	0.111667745
124	0x3d246541	0.040135626
125	0xbe625261	-0.22101738
126	0x3e8f474e	0.2798409
127	0xbbf97dd8	-0.0076138787
128	0x3eaa60db	0.3327702
129	0x3e8ed699	0.278981
130	0xbcca805a	-0.024719406
131	0xbe3cd515	-0.1844066
132	0xbeab16e5	-0.33415905
133	0xbe8dbcfe	-0.27683252
134	0xbe0f177d	-0.13973804
135	0xbd6bd0b4	-0.05757208
136	0xbd352f30	-0.044234455
137	0x3ea010c5	0.31262794
138	0x3e58072b	0.21096484
139	0x3e92fcc3	0.28708467
140	0xbd846cc9	-0.064660616
141	0x3e5c0d43	0.21489434
142	0x3e1eed8d	0.15520306
143	0x3ea31a06	0.31855792
144	0xbe415df6	-0.188835
145	0xbe9f1f74	-0.31078684
146	0x3dc25879	0.09489531
147	0x3e7d7028	0.24749815
148	0x3e4ef939	0.20212258
149	0x3ddca629	0.1077388
150	0x3e833990	0.25629854
151	0x3e94bcd5	0.29050317
152	0x3d06aa80	0.032877445
153	0xbdf00e8c	-0.117215246
154	0x3e85e6ff	0.261528
155	0x3e97ed47	0.29673216
156	0xbe9dd98d	-0.3083004
157	0x3b939457	0.0045037675
158	0x3ea6b485	0.325596
159	0x3d0de4b1	0.034641925
160	0x3d6ae061	0.05734289
161	0x3ddccd03	0.107812904
162	0xbe859419	-0.26089552
163	0xbda3cedd	-0.079984404
164	0xbd79b1d1	-0.060960595
165	0x3e8c5a50	0.27412653
166	0x3daecda3	0.08535316
167	0x3ea4f469	0.3221772
168	0x3e9fb1d1	0.3119035
169	0x3eaea7b7	0.3411233
170	0xbe690157	-0.22754417
171	0x3eb02117	0.34400246
172	0xbe9cb352	-0.3060556
173	0xbd7a80e9	-0.061158095
174	0xbc39d10c	-0.011341345
175	0x3ea7530b	0.32680544
176	0x3eb796cc	0.35857236
177	0xbe8c0bf4	-0.2735287
178	0xbdeea070	-0.11651695
179	0xbe2eb49b	-0.17061083
180	0xbe01405c	-0.12622207
181	0x3e4467d0	0.19180226
182	0x3dadae2d	0.08480487
183	0x3eb31e53	0.34984073
184	0x3dabb74b	0.0838457
185	0x3e3b74e6	0.18306312
186	0xbe561860	-0.20907736
187	0x3e33ef9d	0.17571874
188	0xbe9fae16	-0.31187505
189	0xbeadd22b	-0.33949408
190	0x3e41bd48	0.18919861
191	0x3e7b34c5	0.24531849
192	0x3db57b45	0.088614024
193	0x3d65f9d9	0.056146476
194	0x3d98fa5c	0.07469627
195	0x3e238fd2	0.15972832
196	0xbdb6b000	-0.08920288
197	0x3e5a16fd	0.21297832
198	0x39f60b80	0.00046929345
199	0xbe0945ed	-0.13405581
200	0xbe7285b0	-0.2368381
201	0xbeb2324b	-0.34803995
202	0xbe922d12	-0.2855001
203	0xbd4fe438	-0.050754756
204	0xbea0eed6	-0.31432217
205	0x3d5c86af	0.05383938
206	0x3eaa0e36	0.33213967
207	0x3e0571a8	0.13031638
208	0x3eaa2b2d	0.33236066
209	0x3e897961	0.26850417
210	0x3e4cf209	0.20014204
211	0x3ca240db	0.019806316
212	0x3e1e89f7	0.15482317
213	0xbc27e39d	-0.010247138
214	0x3ea439d1	0.3207536
215	0xbdce0bd8	-0.10060853
216	0xbe828100	-0.25489044
217	0x3e91d89d	0.28485575
218	0x3e5bf40f	0.2147982
219	0x3e68fac4	0.2275191
220	0x3dce13c8	0.10062367
221	0x3db824b8	0.089913785
222	0xbe4be032	-0.19909742
223	0x3e8e8c35	0.27841344
224	0xbe53c109	-0.20679106
225	0x3e63d649	0.22249712
226	0xbd4c7d88	-0.049924403
227	0x3dc5b660	0.09653926
228	0x3d756b84	0.059916988
229	0x3d67ac4b	0.056560796
230	0x3e025800	0.12728882
231	0x3d52c5c8	0.05145815
232	0xbe75a20a	-0.23987594
233	0x3d48e58e	0.049047045
234	0xbc7cf5c2	-0.015439453
235	0xbdaab1e6	-0.08334713
236	0x3eb52a61	0.35383895
237	0xbe2ca200	-0.16858673
238	0x3d4f37b7	0.050590243
239	0x3baa7940	0.0052024424
240	0x3e0dc941	0.13846304
241	0x3e98dcc1	0.29855922
242	0xbe146fa1	-0.14495708
243	0xbe265f24	-0.16247231
244	0x3e936cb4	0.2879387
245	0xbdd2d35d	-0.102942206
246	0xbe93013c	-0.2871188
247	0x3e1dace4	0.15397984
248	0xbe5b2ba4	-0.21403366
249	0x3e7275dc	0.23677772
250	0xbd0dfe18	-0.03466615
251	0xbd6edbbb	-0.05831502
252	0x3d82713c	0.06369254
253	0x3e771e95	0.2413276
254	0xbcd620ef	-0.02613875
255	0x3e3d49d7	0.18485199

fc_value.weight f4 [1, 256]
0	0xbd46646c	-0.048435614
1	0x3d4af6a2	0.049551614
2	0xbdbe8858	-0.09303349
3	0xbcb81943	-0.022472983
4	0xbd569688	-0.05238965
5	0x3dcb665c	0.09931633
6	0x3cfe8334	0.031068422
7	0xbb31e720	-0.0027145818
8	0x3d95d22d	0.073154785
9	0xbc18dcf9	-0.009330028
10	0xbcd0425d	-0.02542227
11	0xbcf7f7f2	-0.030269597
12	0xbd0e542c	-0.03474824
13	0xbd91296c	-0.07087979
14	0x3cca37a9	0.024684744
15	0xbd619126	-0.055070065
16	0x3a540f3b	0.0008089428
17	0xbcc05cd1	-0.023481758
18	0x3c86fe02	0.016478542
19	0x3d9e91ab	0.07742628
20	0xbc0f747c	-0.008755799
21	0xb8de2000	-0.000105917454
22	0x3d2c86b1	0.04212064
23	0xbca4d775	-0.02012227
24	0x3bdd2cc6	0.006749722
25	0x3c380288	0.011231072
26	0xbd1eb559	-0.038747165
27	0x3c48e9f8	0.012262814
28	0x3d796538	0.060887545
29	0x3da6a6ec	0.081373066
30	0xbd011988	-0.03151849
31	0x3d743d4e	0.059628777
32	0xbd2d480b	-0.042305034
33	0x3d16deee	0.036833696
34	0xbd8551e8	-0.06509763
35	0xbb2ef461	-0.0026695954
36	0x3daba03f	0.08380174
37	0xbd35e904	-0.044411674
38	0x3dc6f03e	0.09713791
39	0x3d1e1604	0.038595214
40	0x3a310e48	0.0006754142
41	0xbadfee0c	-0.0017084493
42	0x3bebf6bb	0.0072010434
43	0xbd1092db	-0.035296302
44	0x3d2d5bed	0.042323995
45	0xbcb9c97c	-0.022679083
46	0xbd42863a	-0.04749129
47	0x3ca2660c	0.01982405
48	0xbd06377c	-0.032767758
49	0xbd4d15ec	-0.050069734
50	0xbcb9f0f6	-0.022697907
51	0x3c94305d	0.018089468
52	0x3ce5c8c1	0.028049828
53	0x3cb85c56	0.022504967
54	0xbc4b0128	-0.012390412
55	0xbd1ac319	-0.037783716
56	0x3d61cb0d	0.055125285
57	0xbd5712b2	-0.052508064
58	0x3c4c5e9a	0.012473727
59	0xbcb4afac	-0.022056423
60	0xbc17bb06	-0.009260898
61	0x3d0fd03a	0.03511069
62	0x3c937448	0.017999783
63	0x3d91c210	0.071170926
64	0xbd50f7f1	-0.051017705
65	0xbd0547d5	-0.032539207
66	0x3bd37e60	0.006454274
67	0x3d8a2a74	0.067463785
68	0xbc022fff	-0.0079460135
69	0xbcefe884	-0.029285677
70	0x3bdf0984	0.0068065543
71	0x3c2db754	0.010602791
72	0x3c728748	0.014802761
73	0xbc171206	-0.009220606
74	0xbd0bcabc	-0.03412889
75	0x3cd50e60	0.026007831
76	0xbd4e7ee2	-0.050413974
77	0xbc859f04	-0.016311176
78	0xbd1b144d	-0.037861157
79	0xbd7b9d11	-0.061429087
80	0xbcf11306	-0.029428016
81	0xbd55dd5b	-0.052213054
82	0x3df63e08	0.1202355
83	0x3d3c1e4b	0.045927327
84	0xbd8b9c61	-0.06816936
85	0xbd984c94	-0.07436481
86	0x3cfe1dc6	0.031020056
87	0xbd6347fa	-0.055488564
88	0x3d47803e	0.048706286
89	0x3c4c3608	0.012464054
90	0xbc79c931	-0.015245722
91	0xbd0fea50	-0.035135567
92	0x3d450561	0.048100833
93	0xbc1ff31b	-0.009762551
94	0x3d70e27d	0.058809746
95	0x3b8cdc50	0.0042987242
96	0x3a89da99	0.0010517418
97	0x3d4dd9c8	0.05025652
98	0xbce8201c	-0.028335623
99	0xbca98609	-0.020693796
100	0x3d6ce8bc	0.05783914
101	0xbc6a4792	-0.01429929
102	0xbc292083	-0.010322693
103	0x3cac4c86	0.021032583
104	0xbc0fc873	-0.008775818
105	0x3d9b51c4	0.07583955
106	0x3c988cec	0.018621884
107	0xbc833db7	-0.016020639
108	0x3ce594aa	0.02802499
109	0xbd22a280	-0.039705753
110	0xbd0c2b94	-0.034221247
111	0x3da051e4	0.078281194
112	0x3d8ffe98	0.07030982
113	0x3d4f49fa	0.05060766
114	0x3d5a20de	0.053254
115	0x3d40ffde	0.047119014
116	0x3d1e1257	0.03859171
117	0xbd01720a	-0.031602897
118	0xbd3ff699	-0.046866033
119	0xbd5c0ca2	-0.053722985
120	0x3d86d524	0.06583622
121	0x3ceceb71	0.028920861
122	0x3b39eef3	0.0028371185
123	0xbd4ec66f	-0.05048221
124	0x3cea31da	0.028588224
125	0x3c9f7199	0.019463347
126	0x3b54ce66	0.0032471656
127	0x3dca62b4	0.098821074
128	0xbd833008	-0.064056456
129	0x3c9aeadf	0.018910823
130	0xbc2b61bd	-0.010460314
131	0x3d2eaa58	0.04264292
132	0x3c47e46c	0.012200456
133	0xbbb3bf42	-0.005485446
134	0xbc9adaf3	-0.018903231
135	0xbd4c1f7b	-0.04983471
136	0xbceb4e98	-0.028724
137	0x3d84183e	0.06449936
138	0xbbee55bd	-0.0072734044
139	0xbc2cecd0	-0.010554507
140	0x3c34512a	0.011005679
141	0x3a1d6bcd	0.0006005138
142	0xbd040d87	-0.032239463
143	0xbc933de1	-0.017973842
144	0xbc4cbab0	-0.012495682
145	0x3cdf0400	0.027223587
146	0x3c627d55	0.013823827
147	0x3ccf2200	0.025284767
148	0xbc91f93b	-0.017819038
149	0x3c2aac57	0.010417066
150	0x3be2c484	0.006920399
151	0x3d3b6f85	0.04576065
152	0xbd4a1d78	-0.04934451
153	0xbd0c707b	-0.034286957
154	0x3d91cd6e	0.07119261
155	0x3cd5b288	0.026086107
156	0x3d06308c	0.03276114
157	0x3d168313	0.036746096
158	0xbb4241b0	-0.0029641204
159	0x3da39dbc	0.0798907
160	0xbd60b836	-0.054863177
161	0x3a9a3481	0.0011764915
162	0x3d8c4124	0.06848362
163	0x3d05d1ae	0.03267067
164	0x3d750209	0.059816394
165	0x3d7c2faa	0.061568893
166	0xbd635821	-0.05550397
167	0xbd393be9	-0.04522315
168	0xbd1c07d6	-0.03809341
169	0xbd4929e6	-0.049112223
170	0xbc1f43f2	-0.009720789
171	0xbd638b27	-0.055552628
172	0xbcb7794c	-0.022396706
173	0x3cf1b225	0.029503891
174	0x3d84b3df	0.0647962
175	0xbcaed851	-0.021343382
176	0x3e052ada	0.13004628
177	0xb93a5600	-0.0001777038
178	0xbd1e32d2	-0.038622685
179	0x3d81e0f5	0.06341735
180	0xbdd4951c	-0.10380003
181	0xbc4b16e1	-0.0123955915
182	0x3d0950d2	0.033524342
183	0xbd8087af	-0.062758796
184	0xbd7a3934	-0.06108971
185	0xbd830e2a	-0.06399186
186	0x3d5ead8c	0.054364726
187	0x3c9b52aa	0.018960316
188	0xbd79887e	-0.060921185
189	0xbcfa37dc	-0.030544214
190	0xbd5db1ed	-0.05412476
191	0x3cf9f997	0.030514522
192	0x3c12a4e8	0.0089504495
193	0x3dbe5a9a	0.092946246
194	0x3cb3ab04	0.021932133
195	0x3d71fe12	0.05908019
196	0x3cfce010	0.03086856
197	0xbacc2c3c	-0.0015577148
198	0xbd72a403	-0.059238445
199	0xbcb4fd78	-0.02209352
200	0xbd940eee	-0.0722941
201	0xbc272f30	-0.0102041215
202	0xbce65746	-0.028117787
203	0xbcb3845f	-0.021913705
204	0x3d75502d	0.059890915
205	0x3c9d4efc	0.019202702
206	0x3a3861ec	0.00070336345
207	0x3de15e7f	0.11004352
208	0xbd80cbd8	-0.0628888
209	0xbb86ec26	-0.0041175066
210	0x3d471eab	0.04861323
211	0x3d5b8901	0.053597454
212	0xbd184a99	-0.037180517
213	0x3d01c34c	0.03168039
214	0x3c37ddc5	0.011222308
215	0xbc80f7f0	-0.015743226
216	0xbcb6fa30	-0.022336096
217	0xbd84c424	-0.06482723
218	0xbad2afee	-0.001607416
219	0x3de1b62f	0.11021077
220	0x3d14ae9b	0.03629933
221	0xbd045309	-0.03230575
222	0x3c650ec8	0.013980575
223	0xbd294795	-0.04132803
224	0xbcf95c3c	-0.030439489
225	0xbc7bb055	-0.015361865
226	0xbcf7c260	-0.030244052
227	0xbd5e6815	-0.05429848
228	0xbb2de785	-0.0026535701
229	0xbd1a5d89	-0.03768686
230	0xbb6e34f2	-0.0036347476
231	0x3d0fb918	0.03508863
232	0x3d15836b	0.036502283
233	0xbc9aa808	-0.018878952
234	0x3cf2ea64	0.029652782
235	0x3c81f012	0.015861545
236	0x3c17175a	0.009221876
237	0xbd84bab6	-0.06480925
238	0xbd5578f8	-0.052117318
239	0x3d127e58	0.035765022
240	0xbd01739d	-0.031604398
241	0x3c8be045	0.017074713
242	0x3d614748	0.05499962
243	0x3ccd3bda	0.025052954
244	0xbc0f7016	-0.008754751
245	0x3db4b12f	0.088228576
246	0x3d6619da	0.056176998
247	0x3d3e58f1	0.04647154
248	0xbca984c8	-0.020693198
249	0xbd116aa1	-0.03550208
250	0x3d76cfc6	0.060256742
251	0x3c278541	0.010224641
252	0xbd09af81	-0.03361464
253	0x3df356cd	0.1188179
254	0x3dc03be9	0.09386427
255	0xbd18d9e3	-0.037317168

fc_advantage.weight f4 [4, 256]
0	0xbd8fc10f	-0.07019245
1	0x3d4f8a47	0.05066898
2	0xbc1c4474	-0.009537805
3	0xbcb04231	-0.021515938
4	0xbce3f878	-0.02782844
5	0xbd37a637	-0.04483625
6	0x3dce2571	0.10065735
7	0x3d520bc4	0.05128075
8	0x3d59d481	0.053181175
9	0xbb8c03dd	-0.0042729215
10	0xbd031350	-0.03200084
11	0xbc6dcd75	-0.014514317
12	0xbd119101	-0.035538677
13	0xbc6bc1b5	-0.014389445
14	0x3d6db8f7	0.058037724
15	0x3d8d3833	0.06895485
16	0xbc6c438e	-0.014420403
17	0x3cacb4b3	0.021082258
18	0xbc128d1f	-0.008944779
19	0xbdb362f8	-0.08759111
20	0x3d69be2f	0.05706614
21	0x3b0e81c0	0.0021744817
22	0x3ca73f2a	0.020415861
23	0xbd0abaeb	-0.033869665
24	0x3d552060	0.05203283
25	0x3d44b8f9	0.048027966
26	0xbd0a2148	-0.033723146
27	0xbd351b9f	-0.044215795
28	0xbc873f34	-0.01650963
29	0xbd5c22a3	-0.05374397
30	0x3dbe963d	0.093059994
31	0xbc9f5c4d	-0.019453192
32	0xbd87561e	-0.066082224
33	0xbd0498c0	-0.032372236
34	0xbdbd2481	-0.09235478
35	0xbbb2ac3a	-0.00545266
36	0x3d993544	0.07480863
37	0xbd53287a	-0.051552273
38	0xbdb0fc98	-0.086419284
39	0xbcf5544c	-0.029947422
40	0xbc6b5888	-0.014364369
41	0xbc13a4ba	-0.009011442
42	0x3bf3f9f7	0.0074455696
43	0xbdb4e495	-0.08832661
44	0x3b2f14c3	0.0026715256
45	0x3c85d84b	0.016338488
46	0x3a493880	0.00076759607
47	0x3d3fa734	0.046790317
48	0xbdb5078b	-0.08839329
49	0x3c828513	0.015932595
50	0xbd4485c7	-0.047979143
51	0xbd1f67e2	-0.03891743
52	0xbd9c032b	-0.07617792
53	0x3d5885e4	0.052862063
54	0x3c81f8c4	0.015865691
55	0xbcc5ecf7	-0.024160845
56	0xbd31a550	-0.043370545
57	0x3c342370	0.010994777
58	0xbcf043b6	-0.029329162
59	0x3c75a1d8	0.0149922
60	0xbcda1b6f	-0.02662441
61	0xbd5d6d26	-0.05405917
62	0xbd4d47b3	-0.050117206
63	0x3d09e282	0.03366328
64	0xbd26975f	-0.040671702
65	0x3ac56b63	0.0015061911
66	0x3d1f9952	0.038964577
67	0x3d22c0a3	0.039734494
68	0xbd8410b7	-0.064485006
69	0xbcd59848	-0.02607359
70	0xbd1ef67b	-0.03880928
71	0xbd918625	-0.07105664
72	0x3d56cc42	0.05244089
73	0xbbce90d5	-0.0063038864
74	0xbb795080	-0.0038042367
75	0xbd7aa193	-0.061189245
76	0xbc101310	-0.008793607
77	0x3d66d9e3	0.056360137
78	0x3ccced1a	0.025015403
79	0xbcfdd99b	-0.030987551
80	0xbd57ca1e	-0.05268299
81	0xbd89113f	-0.066927426
82	0xbdc0814c	-0.093996614
83	0x3b6e025d	0.0036317327
84	0x3d3cbae7	0.04607668
85	0x3bf11f9c	0.0073585045
86	0xbd41ccdf	-0.04731452
87	0xbca6dbde	-0.020368513
88	0x3c190f1b	0.00934198
89	0xbb74f9e0	-0.0037380382
90	0x3d4219f4	0.047388032
91	0x3d73efec	0.05955498
92	0xbd9e65b2	-0.077342406
93	0xbd81b928	-0.06334144
94	0x3d931904	0.07182506
95	0xbcc70dac	-0.024298511
96	0x3d87108c	0.06594953
97	0x3d1a9fd4	0.03775008
98	0xbc020c10	-0.007937446
99	0xbdba6bcc	-0.09102592
100	0x3d20521a	0.0391408
101	0x3d0bd9d3	0.03414328
102	0x3b88df04	0.004176976
103	0xbd0fd35c	-0.035113677
104	0xbda767d7	-0.08174103
105	0xbc92f30a	-0.017938156
106	0x3cf34d3c	0.029699914
107	0xbcb47d35	-0.02203236
108	0x3c9af166	0.018913936
109	0x3c886b8c	0.016652845
110	0xbd60cc64	-0.054882422
111	0x3cd623f7	0.026140196
112	0xbd60258e	-0.054723315
113	0xbc6b8f08	-0.014377363
114	0x3d56b19e	0.052415483
115	0x3d947cf9	0.07250399
116	0x3d7e1d9f	0.062039968
117	0x3c805630	0.015666097
118	0x3d348378	0.04407069
119	0xbd69f1de	-0.05711543
120	0xbd6adb25	-0.0573379
121	0x3d20cdb5	0.039258678
122	0x3d4dc164	0.05023326
123	0x3cde406b	0.027130326
124	0xbc8c9972	-0.017163012
125	0xbc80590c	-0.01566746
126	0x3d4bc82a	0.04975144
127	0xbd254a63	-0.040354144
128	0x3cb6a68c	0.022296213
129	0x3a2cf130	0.0006597219
130	0x3dead5e3	0.11466577
131	0xbd05d47f	-0.032673355
132	0xbd4c5269	-0.04988328
133	0xbd088b15	-0.033335764
134	0x3c8010fe	0.015633103
135	0xbcfb822f	-0.030701725
136	0xbd648662	-0.05579222
137	0xbd097f1d	-0.03356849
138	0xbd341dee	-0.043973856
139	0xbd95812b	-0.073000275
140	0x3cbc60d6	0.022995394
141	0xbd955f32	-0.07293548
142	0xbdac9a65	-0.08427886
143	0x3d696c47	0.056988027
144	0x3d6ba7ac	0.05753295
145	0x3d67dc20	0.056606412
146	0xb9f5ec4c	-0.00046906096
147	0x3d1ff053	0.03904755
148	0x3a200f48	0.00061057927
149	0xbdb9100e	-0.09036265
150	0x3db1e401	0.086860664
151	0xbdd968c9	-0.10615689
152	0xbd36452e	-0.04449957
153	0x39354fe8	0.00017291273
154	0x3d3f30c1	0.046677355
155	0x3d71cdbe	0.0590341
156	0x3cd6d4f4	0.02622459
157	0x3b1bdb0d	0.0023781687
158	0xbcdefc4d	-0.027219916
159	0xbd1e302b	-0.038620155
160	0xbc20f034	-0.009822894
161	0xbc636dd5	-0.013881166
162	0x3cdf085b	0.027225664
163	0xbddb3b7b	-0.107047044
164	0xbd6bafbb	-0.057540637
165	0x3d09b5de	0.033620708
166	0x3cf288d7	0.029606266
167	0x3cfc91f8	0.030831322
168	0xbcd5bce7	-0.026091052
169	0xbcbbb523	-0.022913521
170	0xbd674d2b	-0.056470077
171	0x3d6307da	0.05542741
172	0x3d3caf6e	0.04606574
173	0xbd734429	-0.059391174
174	0xbd2b10eb	-0.04176418
175	0xbdd83abc	-0.10558078
176	0xbdbc0653	-0.09180894
177	0x3c6dfa98	0.014525078
178	0x3d102da6	0.035199784
179	0x3c67cc6f	0.014147862
180	0xbdb31503	-0.08744242
181	0x3cecfe79	0.028929936
182	0x3da72e15	0.08163086
183	0xbd9adcc0	-0.07561636
184	0xbc0ac747	-0.008470363
185	0x3d81f237	0.06345027
186	0xbd0896ce	-0.033346944
187	0x3d29f637	0.041494574
188	0xbb48ab00	-0.0030619502
189	0xbc21ef02	-0.009883644
190	0xbd583917	-0.05278882
191	0x3d23ddac	0.040006325
192	0x3ca91a8b	0.02064254
193	0x3defdfca	0.11712606
194	0x3d349ef4	0.044096902
195	0x3bdaddc0	0.0066792667
196	0x3d588ba8	0.05286756
197	0xbc88a3ee	-0.01667973
198	0xbdcca7cd	-0.09992943
199	0x3d7ef772	0.0622477
200	0xbce204fd	-0.02759027
201	0x3cf28e80	0.029608965
202	0x3d93156c	0.0718182
203	0xbd1d1e39	-0.0383589
204	0x3d9ba0b2	0.075990096
205	0xbd5773da	-0.05260072
206	0x3d8898fa	0.06669803
207	0xbd7981dd	-0.060914863
208	0xbd7cc1f7	-0.061708417
209	0x3b50a147	0.003183441
210	0xba36638e	-0.0006957584
211	0x3bfe89c2	0.007767887
212	0xbcab9593	-0.020945346
213	0x3bf166b7	0.007366981
214	0xbc941c32	-0.01807985
215	0xbd07def8	-0.033171624
216	0xbceeb74c	-0.029140137
217	0xbd8eda69	-0.06975252
218	0xbca6407b	-0.020294419
219	0xbdbbf73b	-0.09178015
220	0xbc8d870a	-0.017276306
221	0xbdd9194d	-0.10600529
222	0xbcffd848	-0.03123106
223	0x3d12a8b4	0.03580542
224	0xbd49e190	-0.04928738
225	0x3d06d96e	0.0329222
226	0xbd22ccb8	-0.039746016
227	0xb9deff6b	-0.0004253344
228	0x3ced44a1	0.028963389
229	0x3b624d16	0.003453081
230	0xbc897f13	-0.016784227
231	0xbd9a8935	-0.075457014
232	0xbd39bab2	-0.045344062
233	0xbcb01598	-0.021494672
234	0x3ca6ae9f	0.020346938
235	0x3d13b4b4	0.036061004
236	0xbd5d4fd1	-0.054031197
237	0xbd157afc	-0.03649424
238	0xbda12075	-0.07867519
239	0x3cc9ea88	0.024647966
240	0xbb6805d8	-0.0035403874
241	0x3b42f221	0.002974637
242	0xbd500c96	-0.050793253
243	0x3cb39efb	0.021926394
244	0x3b927da3	0.0044705435
245	0x3c54aaf9	0.012980216
246	0x3d4e3800	0.050346375
247	0xbc6e2ed7	-0.014537535
248	0xbd6a42ca	-0.0571926
249	0xbd31dc31	-0.04342288
250	0xbcb89cc8	-0.022535697
251	0x3c8b7552	0.017023716
252	0xbd013fa0	-0.03155482
253	0x3dd05c71	0.10173882
254	0x3d7e0313	0.06201465
255	0xbba7700b	-0.005109792

fc_advantage.bias f4 [4]
0	0x3d46f83f	0.04857659
1	0x3cd76cc7	0.026296986
2	0xbc8805b0	-0.016604275
3	0xbcd470a0	-0.02593261
