csv_and_models/Duelling_DDQ_PER/trained models/duelling_double_PER_lunar_1200.pth (torch, 17326 bytes, 5 tensors)

fc1.weight f4 [256, 8]
000000 92 4e 08 bf 23 ca 99 bf fa 7f 7b be 11 0e dc bf
       -0.5324489 -1.2014812 -0.24560538 -1.7191793
000010 23 02 d3 3f 4a 63 62 40 38 3a 0f c0 23 df b9 bf
       1.6485027 3.5373101 -2.2379284 -1.4521221
000020 e1 9d b9 bd 82 1b 91 3d ef ed 69 be fb ce ef 3e
       -0.09063316 0.07085325 -0.2284467 0.468376
000030 11 fe 93 be d8 bb dd 3b f8 9c 6c bd c2 36 08 3f
       -0.28904775 0.0067667775 -0.057766885 0.53208554
000040 93 ff 3f 3c 16 b8 6a bf e8 4a 98 bf 62 c5 72 40
       0.0117186485 -0.9168714 -1.189786 3.7932973
000050 30 9a e0 3e a1 f7 43 40 93 b7 da 3f 68 77 90 3f
       0.43867636 3.061989 1.7087272 1.128644
000060 a3 73 8e bf 8e 6d 8b 3e 2f 2e 02 40 75 86 26 bf
       -1.112904 0.2723202 2.0340688 -0.65048915
000070 09 23 93 3f 43 32 a8 3e 07 b4 0b 40 03 27 ca c0
       1.1495067 0.32850847 2.182863 -6.317262
000080 7e 6d ae 3f 98 f0 e7 bd 6d fa 83 bf 83 c6 13 bf
       1.3627164 -0.113251865 -1.0310799 -0.5772478
000090 14 c8 61 3f b2 dc f2 3f b5 9e 47 bf 77 1a 97 bf
       0.8819592 1.8973601 -0.7797654 -1.1804951
0000a0 1b e4 0a bf c4 c6 73 3c 90 28 ab be 0a 3c ec bd
       -0.5425431 0.014878932 -0.33429384 -0.11534889
0000b0 24 6a a4 bf bd 54 17 c0 e7 d1 32 c0 26 68 26 3f
       -1.2844892 -2.364547 -2.7940614 0.6500267
0000c0 ae 66 62 3f 7c 7e 1e bf 85 6a 20 c0 60 55 15 40
       0.88437927 -0.6191175 -2.5065014 2.3333359
0000d0 a0 5a 47 3e ed a2 9a bf 65 c9 97 bf a0 7d 1a bf
       0.19468164 -1.2080971 -1.1858336 -0.6034794
0000e0 42 a6 60 3f 21 15 8f c0 60 41 17 40 12 eb 16 c0
       0.8775369 -4.471329 2.3633652 -2.3580976
0000f0 99 5d 0f bf 7f ba 1c 40 8e 21 ec 3e 84 ee 81 c0
       -0.56002194 2.4488828 0.4611935 -4.0603657
000100 df a1 a1 bf 3f df e2 bf a8 af 0e bf ea 82 27 40
       -1.2627524 -1.7724379 -0.5573678 2.6173654
000110 70 3a 0e be 9a 82 95 3e 14 52 80 3f d4 78 3a 3e
       -0.1388948 0.29201204 1.0025048 0.18210155
000120 f9 9c bf bf 8f d2 c7 3e 48 58 9f 3e 3e 68 4a 3d
       -1.4969779 0.3902783 0.3112204 0.04941582
000130 27 40 9b 3f a1 ba 60 40 45 8f d7 3e bd c4 6b 3e
       1.2128953 3.511391 0.42101493 0.23024268
000140 37 82 83 be c6 93 06 c0 24 51 20 3f cc 68 ef be
       -0.25685284 -2.1027694 0.6262381 -0.4675964
000150 7e 7e e8 3e d9 9a e6 3f a5 fc 98 3e cc 9f 8d 3f
       0.45409006 1.8016006 0.29880252 1.1064391
000160 58 51 1f be 38 c8 a0 bd a4 d9 e3 3f 89 19 13 c0
       -0.15558374 -0.07850689 1.7800794 -2.2984335
000170 32 67 41 3e 92 05 17 c0 49 3a 00 be 2b 85 6b 3e
       0.18887022 -2.359715 -0.12522234 0.23000018
000180 c2 06 25 c0 b1 ed 98 bd d1 5e 55 bf d0 21 56 3f
       -2.5785375 -0.07467211 -0.83347803 0.83645344
000190 f4 96 62 bf 6c 68 93 3d 64 df d0 3f e7 7a b6 bd
       -0.88511586 0.07197651 1.6318173 -0.089101605
0001a0 d6 4d 14 be f9 2a 42 3f 0e b0 63 bf fc 11 ba 3e
       -0.14482817 0.7584682 -0.88940513 0.36341846
0001b0 12 af c6 3f 20 ea 18 40 88 ba ff 3f f0 23 bc 3e
       1.5522177 2.3892899 1.99788 0.36746168
0001c0 93 fc 68 3e bc b2 06 bf 1d 3c 58 3c 4b b6 af 3e
       0.227526 -0.52616477 0.013197926 0.34318766
0001d0 5b 8e 9d c0 f2 c4 95 be 12 8e ae bf c9 85 b1 3f
       -4.9236274 -0.2925182 -1.3637106 1.3868953
0001e0 6e ff b3 be c8 ea d1 3e 21 5d b1 3f 1e e2 f7 3e
       -0.35155815 0.40999436 1.3856546 0.484147
0001f0 c3 de bd bf 4e c6 33 c0 ec a8 96 c0 6e 84 15 c0
       -1.4833606 -2.8089786 -4.7081203 -2.3362079
000200 c5 a7 04 c0 da 8d ef be 4f aa bd 3f 2a 92 0f 3f
       -2.0727398 -0.46787912 1.4817599 0.56082404
000210 e0 b6 65 bf 49 31 41 bf f6 08 2b c0 b7 1e 80 3f
       -0.8973217 -0.7546583 -2.672422 1.0009373
000220 0f c1 aa 3e f7 22 aa 3e be bf c0 be 57 8b 44 3e
       0.33350417 0.332298 -0.37646288 0.19193779
000230 d9 8a 12 c0 d2 7c 83 40 73 00 97 bf 68 bf d5 c0
       -2.2897246 4.108987 -1.1797012 -6.679615
000240 f7 70 5d bf d2 10 86 be 0f 91 1d 3f c9 ef 1a c0
       -0.86500496 -0.26184708 0.61549467 -2.4208853
000250 5e 5b ff 3e 9d c7 10 be 5e 74 8b 3f e6 07 8d 3f
       0.49874395 -0.14138646 1.0894887 1.1018035
000260 10 f8 66 3e fc 7f dd 3e 94 a9 10 bf a2 12 e9 3d
       0.22555566 0.43261707 -0.56508756 0.11380507
000270 5d 6a a9 c0 5a df 0d bf 25 84 9d c0 47 0d 06 3d
       -5.294234 -0.5541893 -4.922381 0.032727506
000280 11 b6 f5 3e 83 c3 84 3e 5c 18 93 3e 9e cb 79 3e
       0.47990468 0.25930414 0.28729522 0.2439408
000290 27 70 b1 bf 68 f9 90 c0 be 0b 7d bf f2 c6 ef bf
       -1.3862351 -4.530445 -0.9884604 -1.8732588
0002a0 aa e3 d0 bf c0 cb 46 be ef 03 f6 3f d3 6c 14 be
       -1.6319478 -0.19413662 1.921995 -0.14494638
0002b0 de 40 c0 3f bd 0c a7 3f ac eb fb bf ee 99 08 bf
       1.5019796 1.3050762 -1.9681296 -0.5335988
0002c0 86 78 3b bf d9 32 4f 3f 58 2e c4 3f b6 85 17 bf
       -0.7323078 0.8093696 1.5326643 -0.591884
0002d0 2b ec f9 bd 89 cf af bf ff 76 a2 bf 71 37 0a bf
       -0.122032486 -1.373521 -1.2692565 -0.53990847
0002e0 6b 48 8f bf da cf 8b 3c 5e 89 e9 bf 36 db dd be
       -1.1193975 0.017066885 -1.8245046 -0.43331307
0002f0 9b 81 6c 3e fe fa e8 bf d9 5e 83 3e 0c 4b 69 3e
       0.23096316 -1.8201597 0.256583 0.22782534
000300 8d e2 90 c0 f3 1a 09 be 79 a7 13 c0 2f eb 86 bf
       -4.527655 -0.13389187 -2.3070967 -1.0540522
000310 09 94 de bf 43 37 dd be 37 ab d3 3e 96 cc 2f c0
       -1.7388927 -0.43206224 0.41341564 -2.746862
000320 ce 93 a9 3f f7 6b 88 c0 10 a7 40 3e 77 72 55 c0
       1.3248231 -4.2631793 0.1881373 -3.3351114
000330 79 39 41 bd 03 09 bc bd 42 bc ee bf f6 de 26 be
       -0.04717395 -0.09181406 -1.8651202 -0.1629599
000340 50 aa 79 3b a3 21 42 3b 24 f6 1f 3d 6c 0a 29 3c
       0.00380959 0.00296221 0.039053097 0.010317426
000350 1e b2 ad c0 3c 4c 30 3d bf e3 bb 3f d2 cf 4f 3e
       -5.427993 0.043041453 1.4678878 0.20294121
000360 0d 3a 01 3f 21 1c 8b be fe bb 3a 40 0d aa c9 bf
       0.50479203 -0.27169898 2.9177241 -1.575502
000370 93 96 9e be d7 9f ae 3e bf 62 b8 bf 3c d2 de bd
       -0.30974254 0.34106323 -1.4405135 -0.10879943
000380 ad ae ae be 03 05 6b c0 e9 b4 8d 40 24 9a 60 3f
       -0.34117642 -3.672181 4.4283338 0.877352
000390 ca 4f 9b be 1b 0e 72 c0 ff 1c 4b 3f 7a d4 68 be
       -0.30334312 -3.782111 0.7934112 -0.22737303
0003a0 78 db 4c be cc 87 8e 3e ab 77 94 3f d1 a5 16 c0
       -0.20005596 0.2783798 1.159902 -2.3538706
0003b0 0e 45 14 40 85 5f ed 3d 3a 99 f9 3e 65 82 9d bc
       2.3167148 0.115904845 0.48749715 -0.019227216
0003c0 7b 29 3d c0 56 15 8d 3d 4c 0b 33 be b5 51 67 3d
       -2.9556568 0.06888835 -0.17484778 0.056474406
0003d0 a1 78 92 3f 09 70 f8 be 82 6b 12 c0 88 a8 98 bd
       1.1443063 -0.48522976 -2.2878118 -0.0745402
0003e0 67 72 ca 3c 7f c8 66 3d e2 d5 95 3f 74 84 c9 bf
       0.024712754 0.05634355 1.1705897 -1.5743546
0003f0 37 de 12 c0 e3 fa e9 be a1 01 03 3d 98 83 b9 3f
       -2.294813 -0.45699224 0.031983975 1.4493284

fc1.bias f4 [256]
000000 6d 67 63 bf 0e 33 45 bf af fe 2c bf 97 bb 13 bf
       -0.8882969 -0.7703103 -0.67576116 -0.57708114
000010 39 03 95 bf 82 3f 77 3d 9f 39 83 3f 0b 91 da 3d
       -1.1641608 0.0603633 1.025196 0.10672196
000020 72 ee 96 3f 99 db 8a 3c fd 0a 48 bf 9c 69 71 3a
       1.1791518 0.016950415 -0.78141767 0.00092091574
000030 14 01 9f 3e 0c f8 4a 3d 89 1a 3e 3f d0 7b a7 3e
       0.3105551 0.049552962 0.7425924 0.3271165
000040 17 42 e4 bd 01 e7 1a 3f bf 31 81 3e de 76 b0 be
       -0.11145418 0.60508734 0.25233266 -0.34465688
000050 6c b1 a0 3f 54 ca d4 3c 13 57 49 3f 9b 37 07 bf
       1.2554145 0.025975384 0.7864849 -0.5281922
000060 ed b7 a0 be 83 61 60 bf fe 14 c4 bb 04 b5 a2 bf
       -0.31390324 -0.8764879 -0.005983948 -1.2711492
000070 2a 0d 20 bf f2 c5 52 3e 0b 59 05 bd 89 91 30 bd
       -0.62520087 0.20583323 -0.03255562 -0.043107543
000080 3c 53 dd bd 72 3a b1 be 6e d5 b8 bd f8 f9 c8 be
       -0.10806891 -0.34614903 -0.090250835 -0.3925321
000090 de fe 94 be 4f 3e b9 bf 29 3a 06 3f 0d 99 f5 bc
       -0.29100698 -1.447214 0.52432495 -0.029980207
0000a0 f9 06 4d be 7d 11 fc bd 6a b2 58 3c 0b af 79 bf
       -0.20022191 -0.12308023 0.013226131 -0.9753272
0000b0 22 63 c3 bd ae 70 a1 3e 18 06 c5 3d 74 c4 5a be
       -0.095403925 0.3153128 0.09620303 -0.21364003
0000c0 d0 c7 1e bf 0d 70 8f 3e 99 0f da be aa db 29 3f
       -0.6202364 0.28015175 -0.42590025 0.66350806
0000d0 03 93 82 3f b7 cc 70 3f 4e cc 45 3f 9f 7a 1f bf
       1.0201114 0.9406237 0.7726487 -0.6229648
0000e0 8b ff 3d bb c3 cf 17 3f 06 e5 bf bf 9d 25 35 be
       -0.0028991427 0.59301394 -1.4991767 -0.1769013
0000f0 d3 95 db bd 7e 12 43 bf 88 17 29 3f 01 99 6b be
       -0.10721936 -0.7620009 0.6605153 -0.23007585
000100 9e 7a e4 bd 0d 1f 17 be be 64 da bf 6d 87 0b 3f
       -0.111562 -0.14757939 -1.7061994 0.5450352
000110 62 02 7f bf 25 1d eb be 8e 37 60 be 90 dd 19 bf
       -0.9961301 -0.45920673 -0.21896192 -0.601037
000120 10 cb 04 c0 ae 70 68 be 0a d6 a8 bf 4a e9 18 bd
       -2.074894 -0.22699234 -1.319032 -0.037331857
000130 b1 8a 48 be 66 2c 08 3f 81 ba 06 bf 19 1b 5e be
       -0.19584157 0.53192747 -0.5262833 -0.21690024
000140 48 a0 1e 3e a1 3f bd 3e 75 74 c8 3e 0e 9f ad 3e
       0.1549083 0.36962608 0.3915135 0.33910412
000150 87 2a 9d 3f 19 13 62 3f f3 1d 2a 3f d0 ee 1d 3f
       1.2278603 0.8831039 0.6645195 0.61692524
000160 33 ba 19 3f 16 1e 36 3c ba da 4b 3e 25 8b 91 bf
       0.6004974 0.0111155715 0.19907656 -1.1370589
000170 10 57 51 bd 41 3c 20 bd eb 21 25 3e 7d 0c 47 3f
       -0.05110842 -0.039119963 0.1612622 0.7775343
000180 75 58 48 ba cb af 37 3f d2 28 8f bf ee a7 98 bd
       -0.00076425757 0.71752614 -1.1184332 -0.07453905
000190 83 6c 3a 3f 39 1e d5 bd 4e f0 df bd f0 54 78 bf
       0.72821826 -0.10406155 -0.10934506 -0.97004604
0001a0 25 b0 8c bd 47 0f df 3c 87 6d a0 bf aa f3 95 3d
       -0.068695344 0.027228964 -1.2533425 0.07321866
0001b0 46 9b 09 bf 78 df 2e 3f 66 7f 9c bf db bd 45 bf
       -0.53752553 0.68309736 -1.2226379 -0.7724282
0001c0 92 35 5b bf 2e b0 e0 be 75 76 a3 3e ca f7 18 3d
       -0.85628617 -0.43884414 0.31926313 0.037345685
0001d0 9f 08 3f 3e ff 9c be bf ff 76 db 3e e6 81 21 3e
       0.18655632 -1.4891661 0.42864224 0.15772209
0001e0 ea 89 26 bf f1 b2 64 3f dd 4f 5f 3d c2 20 b5 3c
       -0.6505419 0.8933554 0.054519523 0.022110347
0001f0 97 ef 8a 3f 74 9a 2f bf 39 e9 4d 3f ab 22 1f 3e
       1.0854367 -0.6859505 0.80433995 0.15540569
000200 41 ec 10 3e 0f ef a7 be c5 00 91 bd cd ae f5 be
       0.14152624 -0.32799575 -0.07080225 -0.47984925
000210 12 a3 6b be e8 54 66 be a0 89 a5 3f 0a e6 be 3d
       -0.23011425 -0.22493327 1.2932625 0.0932122
000220 5d 8a c0 3d 75 29 3d 3f da 28 20 3e cf b4 0a 3f
       0.09401391 0.73891383 0.15640584 0.5418214
000230 4d 8f b5 3d d7 c5 8f bc 9b 7b 5c bf 8a 63 21 3f
       0.08865223 -0.017550392 -0.86126107 0.6304251
000240 ec df 00 3f 38 79 e4 bf d3 49 9b bb 0c 8c 7e 3f
       0.5034168 -1.7849493 -0.004739025 0.99432445
000250 9c bf 29 be 4d 4a 0f 3e bf 49 80 3f 3e b6 04 3f
       -0.16577 0.13993187 1.0022506 0.5184058
000260 6b f0 e2 be de 8b 62 bf 81 d8 30 bd eb 7a 00 3f
       -0.4432405 -0.8849467 -0.043175224 0.5018756
000270 b9 ca 6c bf 65 68 50 3f cd 5b ce 3e 91 5f 09 3f
       -0.9249683 0.81409293 0.40304413 0.5366145
000280 79 37 86 bd a6 75 9e 3e 9d 61 1a 3d 30 6c 70 bf
       -0.06553549 0.30949134 0.037690748 -0.9391508
000290 b8 d6 60 bf 48 d0 42 3c 53 82 9b be 7b a5 f2 3d
       -0.87827635 0.011890478 -0.30372867 0.11847969
0002a0 2c 09 ac bd 2e 54 49 be ec 13 16 bf aa b9 31 3f
       -0.08400187 -0.19661018 -0.5862415 0.69423926
0002b0 49 63 10 bf 6c 0a 16 3c 8c 7a 44 3c af 76 d3 bd
       -0.564015 0.009157758 0.011992108 -0.103253715
0002c0 60 bb b9 3e c3 e1 47 bf dc c9 17 bf 83 8f 66 3e
       0.36275768 -0.7807886 -0.5929239 0.22515683
0002d0 5c 6d 66 be b5 77 1a 3c cb e4 67 3f f3 8d 3a 3f
       -0.22502655 0.009427954 0.90583485 0.7287285
0002e0 61 46 80 be 42 df 22 3f 15 58 9e bf 0a f7 ed 3e
       -0.25053695 0.63621914 -1.237063 0.46477538
0002f0 b5 77 c1 3d 51 c4 af bd dd 4d 9d bf eb f1 8b 3f
       0.094466604 -0.08582366 -1.2289387 1.0933203
000300 9f b3 39 3f 51 c7 0d 3f 4f ae 1d bf 96 49 f2 bf
       0.72539705 0.5538226 -0.615941 -1.8928707
000310 1f 0f 1c 3e 30 47 a3 3e a2 84 12 bf 7f df 09 be
       0.15240143 0.3189025 -0.5723363 -0.13464163
000320 40 aa 23 be 30 aa cb bf 98 49 c6 be d9 3b 96 3e
       -0.15982914 -1.5911312 -0.38728023 0.29342535
000330 00 73 3c bf 58 c5 36 3f a3 dc 22 3f 25 ea 9e be
       -0.73612976 0.7139487 0.63617915 -0.31038013
000340 15 e0 05 3f 1d ef 80 3f 68 b4 00 3f b9 8f a2 bf
       0.5229505 1.0072972 0.5027528 -1.2700111
000350 1d 01 a7 3d bc e6 8b bf 8b 6d 70 be 26 a3 81 bf
       0.08154509 -1.092979 -0.23479287 -1.0127914
000360 fc e6 9e 3f b5 19 a8 3e 1e 40 1c 3f 68 4a a2 3e
       1.2414241 0.32832113 0.61035335 0.31697392
000370 27 73 1c 3e 41 eb 39 be 5e 0f 27 3f 1a da bd 3e
       0.15278302 -0.18156148 0.65257823 0.3708046
000380 91 ec 28 3e 9f ad 15 3f 77 45 71 be f5 87 30 3e
       0.16496493 0.5846805 -0.23561655 0.17239363
000390 32 39 56 3e 83 68 19 bf df ae 5c 3f 25 a9 4b 3f
       0.20920256 -0.599251 0.8620433 0.7955497
0003a0 d5 43 9a 3c 20 aa d7 3c 8f 67 ba bd 65 e8 f3 be
       0.018831173 0.02632624 -0.091017835 -0.4763824
0003b0 29 9e 1a be 78 09 48 bd 9e 12 10 be ef 97 0b 3f
       -0.15099396 -0.048837155 -0.14069602 0.5452871
0003c0 fb ba 4f 3f da 75 6a 3f 91 c9 39 bf 37 8e bd be
       0.81144685 0.9158608 -0.7257319 -0.37022564
0003d0 43 85 8f 3c 58 1a b1 be ab 6f 8f be 66 3d bd 3e
       0.017519599 -0.3459041 -0.28014883 0.36960906
0003e0 30 aa 72 bf 75 1c 88 3e c8 83 d8 3e 6c b6 51 3f
       -0.94790936 0.2658421 0.4228804 0.8191898
0003f0 d0 66 dd 3e 50 ce 22 3e ce 36 64 be f4 06 ee bd
       0.43242502 0.15899014 -0.22286531 -0.1162242

fc_value.weight f4 [1, 256]
000000 6d 31 38 40 d0 0b 95 3e d5 da d9 bf 75 4f 54 3d
       2.8780167 0.29110575 -1.7019907 0.05183359
000010 2e d5 b1 3f 79 f3 58 3f 19 8b 74 40 ab 07 6c 40
       1.3893182 0.8474651 3.8209898 3.687968
000020 bc 74 35 c0 2f 82 e3 3f 87 db 4c 3f 6a 9f 0a 40
       -2.83525 1.7774104 0.8002247 2.1659799
000030 fd ff d4 bf 11 4e b6 bf 67 d9 24 c0 7f e8 e5 bf
       -1.6640621 -1.4242574 -2.5757692 -1.7961577
000040 e7 fb fb 3d d9 45 39 c0 47 db 00 40 45 60 3b 40
       0.12303906 -2.8948882 2.0133836 2.9277508
000050 c2 40 15 c0 4c 78 ef 3f 1a b8 ba 3f 7f 92 c7 3e
       -2.3320775 1.8708587 1.4587433 0.38978955
000060 3d a3 80 c0 85 9e cc c0 35 08 74 40 17 cd 61 c0
       -4.0199265 -6.3943505 3.813001 -3.5281427
000070 c5 46 3f 40 27 d9 1c 40 f4 a7 0f c0 fc 51 b9 3f
       2.9886944 2.450754 -2.244626 1.4478145
000080 5a 8f 1e 40 f3 83 e6 bf d8 ce ed 3f 4b cc 87 40
       2.4774995 -1.8009018 1.8578749 4.243688
000090 e2 fe c1 40 61 0c ad c0 63 1a ee 3f 29 26 39 40
       6.0623636 -5.407761 1.8601803 2.892954
0000a0 08 63 f1 3f 51 b4 60 bf 74 1a c1 3f d7 b7 9e bf
       1.8858347 -0.8777514 1.5086198 -1.2399853
0000b0 b2 83 e3 bf 4e 4e 61 3f d7 4e 42 c0 14 24 9b 40
       -1.7774565 0.8801011 -3.036062 4.848154
0000c0 91 08 20 3f b5 12 a1 40 87 d3 3e c0 ec 32 bb 3f
       0.6251307 5.0335336 -2.9816606 1.4624915
0000d0 28 46 8d 3f d8 03 aa bf d5 2e ae bf 6b ef fd bf
       1.1037035 -1.3282423 -1.3608042 -1.983869
0000e0 e7 f9 a9 40 7f 15 61 c0 94 8e 61 40 23 82 3e c0
       5.3117557 -3.516937 3.5243273 -2.976693
0000f0 10 64 f4 3f 78 f2 bb 40 fe be d1 bf 66 3f 8d 40
       1.9093037 5.873348 -1.6386411 4.413989
000100 40 f2 49 c0 1b b6 57 c0 04 c3 8d 40 0d a2 1c 40
       -3.1554108 -3.3704898 4.4300556 2.4473908
000110 48 15 98 c0 8b b3 45 bd 85 93 62 3f e9 80 0a c0
       -4.752598 -0.04826693 0.88506347 -2.164118
000120 a1 16 a5 40 5a fa ef bf 11 7b 4a c0 25 bb e5 3f
       5.1590123 -1.8748276 -3.1637614 1.7947737
000130 fc 1a 99 c0 d9 9d e3 bf cb c6 8b c0 53 88 c6 bf
       -4.784544 -1.7782546 -4.3680167 -1.5510353
000140 4c 62 f3 bf 20 f4 ce 3e 0b 0c f1 3f bc 8a 51 3e
       -1.9014373 0.40420628 1.88318 0.20463079
000150 6a 4b 0f c0 f7 b0 da 3f 69 0d b3 3f 8a 85 1e 3e
       -2.238978 1.7085255 1.3988467 0.15480629
000160 36 d0 96 3f 9e 4a 3b c0 a0 b1 03 c0 62 d7 58 c0
       1.1782291 -2.9264293 -2.0577164 -3.388146
000170 2d 17 65 40 9a c0 ac bf b5 5b a3 40 05 ff 11 c0
       3.5795395 -1.3496277 5.1049447 -2.2811902
000180 f0 f8 a5 40 bd 60 0d 40 f0 09 8e c0 0a 87 2c 40
       5.186638 2.2090294 -4.438713 2.6957421
000190 28 d5 7e 3f 94 76 78 3e ee f8 05 40 ec 9a 49 40
       0.99544 0.24263984 2.0933185 3.1500807
0001a0 2b b5 91 3e 8b 01 f0 3f bf 27 f2 c0 c1 e0 37 3f
       0.28458533 1.8750471 -7.567352 0.7182732
0001b0 02 3d 97 c0 ab a0 27 c0 e5 33 b0 c0 76 fb 55 40
       -4.7261972 -2.6191814 -5.506335 3.343473
0001c0 98 52 35 40 39 da 20 40 19 ac 80 40 18 02 fd 3f
       2.8331661 2.5133193 4.021008 1.9766264
0001d0 ae 40 43 40 1d 28 d4 bf 5d e2 b3 bf 0e 99 08 c0
       3.0508227 -1.6574742 -1.4053456 -2.1343417
0001e0 3d 48 b9 40 a7 a0 ad 40 b8 70 53 40 2a 73 53 bf
       5.790068 5.425861 3.3037548 -0.825976
0001f0 a8 a4 6b 40 a4 12 fa 40 29 15 c9 3f af 83 ec 3f
       3.6819248 7.8147755 1.5709583 1.8477687
000200 24 4c a1 bf 68 8b a8 be a7 86 68 c0 8a dc 34 c0
       -1.2601361 -0.3291886 -3.6332185 -2.8259606
000210 ba 77 16 40 c4 0f 4c c0 ba a5 43 c0 3f 7d a2 bf
       2.3510575 -3.1884623 -3.0569901 -1.2694472
000220 88 1f 67 c0 6c 9a eb 3f 32 ac 0b 3f d9 3d 5b 3f
       -3.6112995 1.8406501 0.54559624 0.8564125
000230 a0 4a 52 40 68 68 37 40 e4 8f 17 40 a1 f8 75 3f
       3.2858047 2.8657475 2.3681574 0.960825
000240 9a e1 a6 c0 9a 3d 0a 41 6c ea 6b 40 fc 7e 27 c0
       -5.2150393 8.640039 3.686183 -2.6171255
000250 63 7e 2d c0 aa 44 e2 3f 74 78 ca bf 58 18 5d 3f
       -2.710839 1.7677205 -1.5818009 0.8636527
000260 3d 8c a9 c0 1e dc b0 c0 35 3b 3c 40 97 1e 95 bf
       -5.298369 -5.52687 2.9411137 -1.164996
000270 5a 5d 54 c0 2f 9f b5 bf 2a d9 f3 3f cf 01 37 3f
       -3.3181977 -1.4189204 1.9050648 0.71487135
000280 2a d7 03 c0 21 12 df 3f 4b 72 f3 3f 3d 2a f5 3f
       -2.0600076 1.7427408 1.9019254 1.9153515
000290 01 7b 81 bd 21 a8 20 40 56 22 0e c0 69 96 37 c0
       -0.06322289 2.5102618 -2.2208457 -2.8685553
0002a0 4d 3e 98 bf 27 63 44 40 cd 60 71 3f ae 10 2c 3f
       -1.1894013 3.0685518 0.9428833 0.6721295
0002b0 a5 a5 0e c0 e6 59 26 40 1c aa 6f 3f 5d f6 a5 3e
       -2.2288601 2.599237 0.9361894 0.32414523
0002c0 3b 20 08 40 18 40 2e c0 3a b3 54 c0 62 9b 74 40
       2.1269672 -2.722662 -3.3234391 3.8219838
0002d0 cb 7d 04 c0 a1 1f 36 c0 83 7e 82 3f 79 e3 55 3f
       -2.0701778 -2.8456805 1.0194858 0.8355022
0002e0 d1 9b 95 3f eb 42 f8 bf eb b7 d5 3c 4e 2a ea 3f
       1.1688176 -1.9395422 0.026088675 1.829416
0002f0 3b 26 f4 bf 07 ad 44 c0 6a ed 3a bf a7 2a df 3f
       -1.9074167 -3.0730608 -0.73018515 1.7434891
000300 67 ef bd 3f 37 80 33 40 09 b8 53 c0 79 5a 1c c1
       1.4838685 2.8047006 -3.3081076 -9.772088
000310 c0 4b 1c 40 e9 0a 36 c0 f2 ef b0 3f 5e cf 97 3f
       2.4421234 -2.844416 1.3823225 1.1860158
000320 03 c3 41 c0 0b ec 15 c1 c5 26 68 40 a6 ec 94 40
       -3.0275276 -9.370128 3.6273663 4.6538877
000330 b0 5b ee 3f 84 a5 a8 3f 9a 7e 0a 40 3f 5d 68 3f
       1.8621731 1.3175511 2.1639771 0.9076728
000340 22 f0 b6 3e 78 8a 18 c0 c6 df e0 3f a0 bd 86 40
       0.35730082 -2.3834515 1.756829 4.2106476
000350 b6 6d 25 be 71 e9 35 c0 31 54 8f 3f 80 c9 a0 40
       -0.16155133 -2.8423731 1.1197568 5.024597
000360 5a 69 85 40 44 af e6 bf 4f 8b be 3e a5 94 08 40
       4.1691103 -1.8022237 0.3721566 2.1340725
000370 ee ff 35 3f 09 c2 2e 3c f5 d3 32 40 88 b0 45 3d
       0.7109364 0.010666379 2.7941868 0.048264056
000380 23 43 40 40 7d f9 96 3f b5 fc 9e c0 11 81 cd bf
       3.0040977 1.1794888 -4.968348 -1.6055013
000390 00 07 e0 bf 82 7f fa be fb 74 bc 3f 45 4a c6 3f
       -1.7502136 -0.48925406 1.47232 1.5491415
0003a0 6e 3f 37 c0 af a1 4c 3f 03 9f e6 3f a7 18 74 c0
       -2.8632464 0.7993421 1.8017277 -3.8140047
0003b0 9f b1 33 3f 15 b7 a5 bf 2b a1 9d 3f 32 20 11 c0
       0.70192903 -1.2946497 1.231481 -2.26759
0003c0 82 25 7c 3f 75 5a 12 c0 13 ac 25 c0 32 72 07 40
       0.9849473 -2.286771 -2.5886276 2.116345
0003d0 52 db 17 c0 4b 7a 35 40 84 33 f8 3f c7 65 7c 40
       -2.3727612 2.8355892 1.9390721 3.943712
0003e0 7c 1e f3 c0 7f 88 83 3e a4 fa a1 bf 63 10 65 40
       -7.597471 0.25690076 -1.2654614 3.5791252
0003f0 04 2f b2 bf ca 5d 22 40 46 3a 3a 40 81 91 45 c0
       -1.3920598 2.5369744 2.9098067 -3.0870059

fc_advantage.weight f4 [4, 256]
000000 0e 8a d5 3f 2f 09 c0 3e 55 02 f7 bb 81 73 85 be
       1.6682756 0.37507007 -0.00753812 -0.26064685
000010 03 70 a3 bf 17 5b f1 3e 65 85 d7 bc d4 74 b9 3f
       -1.2768558 0.4713981 -0.026308725 1.4488778
000020 06 62 52 3e 53 e2 e2 be 6a 3f d5 bd 01 1e e5 bd
       0.20545205 -0.44313297 -0.10412486 -0.111873634
000030 3b 58 83 be 2a b3 44 be 32 9a 09 3f 22 37 51 bf
       -0.25653252 -0.1920897 0.5375091 -0.8172475
000040 6f 79 8d bf 4c ae d4 3e 12 ce c2 3e 45 9b f6 bd
       -1.1052684 0.41539228 0.38047844 -0.12041334
000050 6f 70 23 bd 19 a3 e9 be 96 29 be 3d c4 8b 02 3e
       -0.039902147 -0.45632246 0.09285276 0.12748629
000060 4d ad 43 3e 4b bb d9 bf 05 46 11 bf 51 f6 c7 3d
       0.19109078 -1.7010282 -0.56747466 0.09763778
000070 32 36 32 3f a4 9b ad bd 49 cb da bd 89 40 60 be
       0.69613945 -0.08476952 -0.10683305 -0.21899618
000080 ff 42 de be 51 c8 d3 3e 62 46 07 3e 36 1e 92 3c
       -0.4341049 0.41363767 0.13210443 0.017836671
000090 74 c0 8e 3f b8 67 b7 be b0 bf 61 be 1f df ea be
       1.1152482 -0.3582132 -0.22045779 -0.45873353
0000a0 f3 f1 db be 4f 77 77 be 1b 8a 97 3c fd 57 af 3e
       -0.4295803 -0.24166606 0.018498471 0.34246817
0000b0 65 18 a2 be 20 d6 44 3e 7f 35 1b 3e 61 0e b3 be
       -0.31659237 0.19222307 0.15157126 -0.34971908
0000c0 e1 38 b4 be 48 25 84 3e c3 cc 67 be 98 9d f2 be
       -0.35199645 0.25809693 -0.22636704 -0.4738586
0000d0 bf 50 99 3e 8a 4d 13 3e 04 1d f7 3d 9c e9 f3 bd
       0.29944417 0.14385048 0.12066081 -0.11909792
0000e0 7d 4d 66 be f9 49 72 be 88 c5 67 bf 4d 41 12 bf
       -0.22490497 -0.23661031 -0.90535784 -0.5713089
0000f0 b5 3f 80 3f 2f ee 00 bf b6 90 f0 3d c8 be 5d 3e
       1.0019442 -0.5036344 0.117463514 0.21654809
000100 3a 55 c8 3e 07 16 03 3e 97 ed cf bf 73 ea 0f 3f
       0.39127523 0.12801372 -1.6244382 0.56217116
000110 38 c7 30 3e c1 75 a4 3d 6e 3f 23 be 2a fd 6a 3e
       0.17263496 0.08030272 -0.15942165 0.22948137
000120 f0 a8 e3 3f 81 2e 0e be 94 c3 4a be 39 49 03 bf
       1.7785931 -0.13884927 -0.1980117 -0.51283604
000130 32 df 24 3f 00 4b 08 3d f1 02 a5 3f 03 66 92 bd
       0.6440307 0.03327465 1.2891523 -0.071483634
000140 c1 9e 4f bc 5b 7a c6 be 99 d1 bf bd aa 58 96 bd
       -0.012672127 -0.38765225 -0.093661495 -0.0734113
000150 87 18 b8 be b6 55 10 3f 07 8c 80 be 52 fc 4d bd
       -0.35956213 0.56380785 -0.25106832 -0.05028946
000160 99 34 50 3f 68 28 8b bf e7 ac d3 3e 97 fd 91 3f
       0.8133026 -1.0871706 0.41342852 1.1405514
000170 15 da 00 be 68 c5 30 3e c8 57 5f bd 54 87 a3 3d
       -0.12583192 0.17262805 -0.054527074 0.07984796
000180 00 e4 a3 bd b2 3b d0 be da ee 52 3f f1 f6 5e 3e
       -0.08002472 -0.40670544 0.8239571 0.21773888
000190 10 fd 09 3e fe c7 96 3d 8f f7 f3 3e da 91 1c 3e
       0.13475442 0.07362364 0.4764981 0.15290013
0001a0 7b c1 8f bd 68 55 0e bf 8f 2c 39 40 1b b5 d7 3c
       -0.07019325 -0.5559907 2.8933446 0.026331475
0001b0 97 0e d8 3e 80 11 0d 3c 85 a7 78 bf 9a ce 52 bd
       0.4219863 0.008610129 -0.97130615 -0.05146656
0001c0 91 e7 28 be 89 a0 19 3e b9 f0 0a 3f 0a ed 0c be
       -0.16494586 0.15002646 0.54273564 -0.13762298
0001d0 39 81 cf bd b0 8d 17 c0 17 96 bf bd 6a 96 29 bd
       -0.10132069 -2.368023 -0.09354799 -0.04140321
0001e0 53 78 d8 3f 6f ec a4 3e 5e 2e e0 3e e2 71 04 3e
       1.691172 0.32211635 0.43785375 0.12934068
0001f0 dd 81 5b 3e 40 a8 6e 3e db 69 9b be 6b 64 aa bd
       0.21436258 0.2330637 -0.303542 -0.083199345
000200 25 5f d8 be 69 52 aa bf 90 c4 57 3c de 41 0b be
       -0.4226009 -1.33064 0.013169423 -0.13599345
000210 f2 84 ef 3d a7 0c 0c 3e a8 c5 5e bd 48 a9 58 3e
       0.11695279 0.13676701 -0.05438772 0.21158326
000220 c3 ef 9a 3e ef 46 72 bd 90 40 a1 3d e9 04 7d 3e
       0.3026105 -0.05914968 0.078736424 0.24708904
000230 a3 cf 71 be 4e 7e c9 bd 03 64 34 bf ee 83 eb 3e
       -0.23614363 -0.09838544 -0.70465106 0.45999092
000240 98 c9 29 bf 6a fd 2a 40 95 82 8c 3e 0b a4 25 be
       -0.6632323 2.6717172 0.27443376 -0.16175859
000250 5e 2b 6e 3f 69 83 00 3f 1b f6 a3 3d 38 76 69 be
       0.93034923 0.50200516 0.08005925 -0.22799003
000260 02 8e 20 3f ea 7c 40 3f a2 ac 2e bf be 85 4e be
       0.62716687 0.75190604 -0.68232167 -0.20168206
000270 74 87 87 3f 7e 7f c6 be 5e 2c e9 be a3 71 16 3f
       1.0588212 -0.38769144 -0.45541662 0.58767146
000280 14 7f 95 be 7f 3a aa be 5c 46 d5 bd 69 72 2f be
       -0.29198515 -0.33247754 -0.104138106 -0.17133488
000290 45 49 51 3f 68 e5 c5 3e 90 be 09 3e 72 94 32 be
       0.81752425 0.38651586 0.134516 -0.1743944
0002a0 4f bc 7e be 8f 19 37 3f 2c 5e 3d be 93 e9 33 be
       -0.24876522 0.71523374 -0.18492955 -0.1756957
0002b0 86 d0 2e bf 26 32 82 3f 8e a4 64 3e a8 7a b6 be
       -0.6828693 1.0171554 0.22328398 -0.35640454
0002c0 c4 aa e4 be 69 9a cd 3e 30 0b 65 3d f9 43 2f be
       -0.44661534 0.40156868 0.055918872 -0.17115773
0002d0 49 0f b4 bd cc 95 ae bd 63 c2 10 3e 0a c1 95 3d
       -0.08791978 -0.08524665 0.14136653 0.0731221
0002e0 00 12 55 3f 1b 15 7b be 7c 84 81 bf 73 ae a3 3d
       0.8323059 -0.2451977 -1.0118556 0.07992258
0002f0 fb 28 e5 be 95 0a 84 3e 50 c8 9e 3e 87 63 4e 3e
       -0.44757828 0.25789323 0.310122 0.20155154
000300 49 76 c2 bd 22 53 0b 3f 08 b7 55 bf 2d f2 b3 bf
       -0.09495217 0.54423726 -0.8348241 -1.4058281
000310 17 12 ba be a8 94 e6 be 2e 35 bc 3e d8 12 6a be
       -0.36341926 -0.4503529 0.36759323 -0.22858751
000320 fd 1b 4c be fe 2a cf 3f 8a fa 12 bf 9a 9a a3 3f
       -0.19932552 1.6184995 -0.5741354 1.2781556
000330 26 1a 0e be 16 0b 8e 3e 21 c2 b7 bc e7 d2 e9 3f
       -0.13877162 0.27742833 -0.022431435 1.8267487
000340 fa 6c 8b bd 07 bd 42 3f 80 0a 84 bc a1 fc 1c 3f
       -0.06807895 0.7606968 -0.016118288 0.6132298
000350 3b 69 ec bd 4e d4 f0 bd bd 29 86 3d 31 0e 99 3e
       -0.115435086 -0.11759244 0.0655093 0.2989364
000360 cf 32 e2 3e 78 29 a4 3d e2 37 97 3b 44 af 62 3f
       0.4417939 0.08015722 0.004614816 0.88548684
000370 66 19 53 3e ae 28 4b 3f 09 1c 2a 3d e2 de e2 3e
       0.20615157 0.7935895 0.041530643 0.4431067
000380 09 fc 94 bc 93 24 93 bd 65 f4 6b 3f 86 d9 4a be
       -0.018186586 -0.0718471 0.9216979 -0.19809541
000390 42 f0 d1 bc 75 39 d5 3e b5 c9 c7 3d 7b 56 06 bf
       -0.02562726 0.416454 0.097552694 -0.5247571
0003a0 e8 7d 38 bd 21 b1 8e be 1c 08 4a 3f 1e b5 0d 3f
       -0.04504195 -0.27869514 0.78918624 0.5535449
0003b0 f2 3f 8b be f5 14 f0 3e fd 44 f8 be 21 9f b3 be
       -0.27197224 0.4689099 -0.48490134 -0.35082343
0003c0 4f da 22 3e 62 45 b2 3e 42 0b 11 3f 02 3f 92 be
       0.1590359 0.3481856 0.56657803 -0.28563696
0003d0 1f c6 57 3e a3 a8 1e bf 54 0f e7 3d a1 74 ac be
       0.21071671 -0.6197607 0.112822205 -0.3368273
0003e0 1f ba cf 3f 46 d4 e4 3e e3 ed b8 3e 45 9a b6 be
       1.6228675 0.44693202 0.36118993 -0.35664573
0003f0 d4 cf fa bd 2d 10 43 3f 12 a4 11 3f 1f 19 89 bf
       -0.12246671 0.7619656 0.56890976 -1.0710791

fc_advantage.bias f4 [4]
000000 95 c0 f7 3d fe 7a c1 be ae ab cf 3e 8e 44 95 be
       0.12097279 -0.37789148 0.4056067 -0.29153866
