csv_and_models/ddq_per/trained_models/double_PER_lunar_600.pth (torch, 279396 bytes, 6 tensors)

fc1.weight f4 [256, 8]
000000 8e f2 a3 3e ad 0c ed be 5f 2f 38 3d 8e d9 d2 3e
       0.32020992 -0.46298733 0.04496705 0.41181606
000010 45 e6 e2 be 8c aa 52 3f f2 22 2b 3d 8c 89 ce bf
       -0.44316307 0.82291484 0.041781373 -1.6135726
000020 96 a2 d4 be 52 40 11 bd 70 c5 2c bf 80 b9 82 3f
       -0.41530293 -0.03546173 -0.67488766 1.021286
000030 a6 42 37 3f a0 37 72 3f d9 1e 3a be 39 c1 32 3f
       0.7158607 0.94616127 -0.1817583 0.69826084
000040 45 1c b1 be 54 85 13 c0 33 7b ae be 62 5e 87 bf
       -0.3459188 -2.3050127 -0.3407837 -1.0575678
000050 21 37 f1 be f7 65 3f 3f 7d b8 b0 bd 3d 22 77 bf
       -0.47112373 0.7476496 -0.08628938 -0.9653662
000060 97 7d b3 3e 99 4b 8f bd e5 2a 96 bd 23 c8 11 3f
       0.35056755 -0.06996841 -0.073324 0.5694601
000070 6e 40 e9 bf d8 e8 87 3f e2 3b 0d bd df 32 91 be
       -1.8222787 1.0617933 -0.034480937 -0.28359124
000080 72 89 47 3f 0a 5c 1e bf 7e 11 88 bf f8 64 b8 be
       0.779441 -0.6185919 -1.0630338 -0.36014533
000090 0e 3a 5a 3f b9 3b 19 3f ff 97 81 3e 0e c5 83 3d
       0.85244834 0.59856755 0.25311276 0.064340696
0000a0 cc 00 43 be 84 c0 22 c0 d5 77 0b bf ab f5 49 bf
       -0.19043273 -2.5430002 -0.54479724 -0.78890485
0000b0 7a 70 ab 3f 6f 63 01 3f fc 8a e1 be 2f da 8a 3e
       1.33937 0.5054235 -0.4405135 0.27119586
0000c0 7a 60 10 3f f3 4a d4 bd 91 59 da be 30 b5 bd 3f
       0.5639721 -0.10365858 -0.4264646 1.4820919
0000d0 5e d1 13 be 5c 95 42 bf 2b 42 63 bf 5d 9a 0b 3f
       -0.14435336 -0.76009154 -0.8877284 0.54532415
0000e0 c5 92 73 3e 95 77 91 c0 1d 75 4a 3e ae e3 16 3c
       0.23786457 -4.5458474 0.19771238 0.0092095565
0000f0 a3 dc 37 bf 6c ba 3f 3e fb a9 56 3f 23 54 7e be
       -0.7182104 0.18723458 0.8385312 -0.24836783
000100 86 b4 bc 3e c2 23 02 bf 4f 54 38 3d be b4 81 3e
       0.36856478 -0.5083581 0.045002278 0.25333208
000110 95 21 1b bf 44 5b 49 bf 5b db fb 3e 6f 82 e3 3e
       -0.6059812 -0.78654885 0.49190792 0.4443545
000120 cb c3 9c be 1b 58 c6 3d f6 7b 0f be 3d 02 28 bf
       -0.30618128 0.096847735 -0.14012131 -0.65628415
000130 c7 de 0f 3f 85 87 06 3f 77 35 62 3f e2 13 8a bf
       0.56199306 0.52550536 0.8836283 -1.0787318
000140 70 d5 f3 be 45 1e 81 3e a3 31 a0 be 2f f3 1a bf
       -0.47623777 0.25218406 -0.3128787 -0.6052732
000150 87 79 93 3f 3d 8c a0 bf 9e 48 ce bf c9 3e 28 3d
       1.1521462 -1.2542797 -1.6115911 0.0410755
000160 2e 27 36 3f 7a 50 20 bf fd 73 86 bd 67 b9 ac be
       0.71153533 -0.626228 -0.06565092 -0.337352
000170 7c bb 54 3f e1 17 be bf 5c e5 c5 bf ef 36 14 be
       0.8309858 -1.4851037 -1.546062 -0.1447408
000180 27 ca 2e 3f 3a 55 0d 3f 2c cd 9f 3e 09 f7 ab 3e
       0.6827721 0.5520817 0.3121122 0.3358691
000190 4c bd 7a 3f e5 60 5e 3e ab fc 45 3f d4 79 48 bf
       0.97945094 0.2171665 0.77338666 -0.78310895
0001a0 e9 29 1a bf 2e f5 1e bf 80 40 45 3f 29 b3 60 3f
       -0.602202 -0.62092865 0.77051544 0.87773377
0001b0 e4 0c 3f 3f 61 ae 93 be b5 fd fc 3d da 1f 4c 3d
       0.74629045 -0.28843978 0.12353078 0.049835064
0001c0 3c 72 04 3f 1f 6c b7 bd 47 7b d0 3e 83 d4 86 3f
       0.5173681 -0.08956169 0.40719053 1.0533603
0001d0 47 7f 45 bf 9f 54 08 3f ba 0b 0f 3f ab b9 18 bd
       -0.77147335 0.5325412 0.5587727 -0.03728644
0001e0 98 e1 d6 be c9 cb 4d 3f 62 7a 6b be ac c4 8c 3b
       -0.4196899 0.80389076 -0.22995904 0.004295906
0001f0 74 4a ad 3f dd 2c 39 bf ee b2 2f bf a0 50 b2 bf
       1.3538346 -0.7233408 -0.686324 -1.3930855
000200 ca 22 eb 3d 47 71 21 3e ba 47 95 be 58 0e d2 be
       0.11481245 0.15765868 -0.29156286 -0.41026568
000210 56 4e 96 bf c6 8a 94 be 0e 83 a8 bf a5 b8 08 3d
       -1.1742656 -0.29012126 -1.3164995 0.033379216
000220 44 16 66 bf 82 94 0c bf bc c2 16 bf e7 21 d2 3d
       -0.89877725 -0.54914105 -0.5889089 0.102603726
000230 11 f3 49 be 0a 8d 3f 3f 3b 11 df bc 08 53 8d bf
       -0.19721629 0.74824584 -0.027229896 -1.1040964
000240 f0 b4 3a 3c e0 76 24 bc 0a 87 b3 bc 57 c1 fa bc
       0.011395678 -0.010038108 -0.021914978 -0.03060977
000250 5a 76 4f 40 7c 53 5a bd c9 5b b0 bf 0b 11 cf bd
       3.2415986 -0.053302273 -1.3778011 -0.101106726
000260 fa 66 44 bf d9 4d 8f 3e c4 fe a8 bf 35 a3 39 bf
       -0.7671963 0.2798908 -1.3202748 -0.7251466
000270 ea ad 4b bf 96 4d e8 be 29 ff a3 3e 85 58 99 3e
       -0.79562247 -0.45371693 0.3203061 0.29950348
000280 a9 ca ae bf c1 b7 bf be 89 56 ab 3f c2 3b e8 be
       -1.3655597 -0.3744488 1.3385783 -0.45358092
000290 a8 69 80 3b cf 3f c0 bf 1c 91 0f 3c 99 37 10 be
       0.003918845 -1.5019473 0.008762624 -0.14083709
0002a0 7c a0 d3 bf 01 49 2d bf 37 5c 2b be 5e c4 34 bf
       -1.6533351 -0.6768952 -0.16734396 -0.7061213
0002b0 da 8f c6 bf f0 6c d5 3d 34 3c 16 be 20 e0 5b bf
       -1.551265 0.10421169 -0.14671403 -0.8588886
0002c0 69 96 89 bf fb 9d 82 bd 36 28 91 be 0e 6e c4 be
       -1.0749027 -0.06377789 -0.2835099 -0.38365215
0002d0 d9 4e 34 3f f6 c6 e6 be 91 93 24 3e e8 cd 0e 3f
       0.7043281 -0.4507367 0.16071917 0.5578294
0002e0 89 90 b8 be 65 e4 b0 be a5 ac 4d bf 6c db c5 3f
       -0.36047772 -0.3454925 -0.8034156 1.5457587
0002f0 ab 4b 36 40 bc ce 82 bf 9a 48 47 3f 83 d0 5f bf
       2.8483684 -1.021934 0.77845156 -0.8742754
000300 5c d3 8e bf 06 bb 16 3e 50 38 6e bf 0b 0c 19 be
       -1.1158252 0.14719781 -0.93054676 -0.14946
000310 6c e9 0b 3e e7 ef c3 bf 23 2a aa be 28 8a 59 bf
       0.13663262 -1.5307587 -0.33235273 -0.84976435
000320 62 4d 06 bf 89 2f 40 c0 fb 2a 11 3f 99 9b cb bf
       -0.52461827 -3.0029013 0.5670621 -1.590686
000330 85 37 d7 be 90 ec 41 3f ac 53 c3 3e d8 70 84 bf
       -0.42034546 0.7575159 0.38149774 -1.0346937
000340 8c d4 58 3e 03 94 3a bf c2 8e af bf 6d 1d ce 3e
       0.2117483 -0.728821 -1.3715441 0.40256825
000350 db 23 95 bc eb 22 ce 3e 65 05 c2 3e b3 e5 0a bf
       -0.018205574 0.40261015 0.3789474 -0.54256743
000360 54 47 19 3f db bb 14 be 92 cf 0a 3e 3a 58 09 bf
       0.59874463 -0.14524786 0.13555744 -0.5365025
000370 65 79 11 bf ff 81 05 bf 6c 09 77 bf 37 ea 56 be
       -0.5682586 -0.52151483 -0.9649875 -0.20987783
000380 5c ab a4 bf f4 5e ff be 3f d2 8d bf 8b f9 d6 be
       -1.2864795 -0.4987713 -1.1079787 -0.4198726
000390 c1 17 96 be 68 fa 22 bf 9f 91 3e bf 64 65 be 3d
       -0.29314998 -0.6366334 -0.7444095 0.092966825
0003a0 e7 10 c2 3e 90 a2 1e c0 0c b6 a3 3f c0 d4 b3 bf
       0.3790352 -2.478672 1.2789931 -1.4049301
0003b0 75 06 bc 3f 34 f7 83 3d 11 d5 49 3e 96 ff 54 3f
       1.468947 0.06443635 0.19710185 0.83202493
0003c0 3b 08 00 bf f0 99 1f 3e 41 60 3c 3f 27 71 d4 3f
       -0.5001256 0.15586066 0.7358437 1.6597031
0003d0 1b 36 39 be 37 f7 b2 3f 5d 7d f6 3e 5e 15 d4 3c
       -0.18087046 1.3981694 0.4814252 0.025889095
0003e0 2f 7a 34 bf cf 87 70 3c f7 ff 4a 3f 57 ad d1 be
       -0.7049894 0.014680817 0.7929682 -0.4095256
0003f0 6a 2d c8 bf c6 cc 4d bd 04 8f 08 3f 95 fa 31 be
       -1.5638859 -0.050244115 0.53343225 -0.17380746

fc1.bias f4 [256]
000000 ee a9 7e be e7 46 04 bf 2c 7d 84 3c 39 b0 da bd
       -0.2486951 -0.5167069 0.016172968 -0.10678143
000010 b8 49 55 be 72 6f 01 3f c4 5a 89 bd 11 80 da be
       -0.20828903 0.5056068 -0.06706765 -0.42675832
000020 6b 3c b7 be 8c 67 a0 be b5 7f 99 be bf 1c fd be
       -0.35788283 -0.31329 -0.29980245 -0.49435994
000030 4d f4 68 bf 80 56 9a 3e 65 08 39 3e 0d d4 80 3e
       -0.90997773 0.3014412 0.18069609 0.25161782
000040 94 b8 f0 bb 61 a6 7e 3e db 34 f4 ba b6 a9 c4 be
       -0.007346222 0.24868156 -0.0018631475 -0.3841073
000050 ba a6 08 bf 65 7d 06 bf 64 8d 9e be c6 6f d5 be
       -0.53379405 -0.52535087 -0.30967247 -0.4168684
000060 af 3a 90 be dd 68 9e bd bf ac a2 3e ba 78 19 be
       -0.28169772 -0.07734845 0.3177242 -0.1498746
000070 0a f5 28 3c 75 0c 8f bf b7 fd 5f be 32 54 23 be
       0.010312328 -1.1175677 -0.21874128 -0.15950087
000080 d3 f2 ca be 14 d0 b5 be f7 0f a2 be b7 f0 37 3d
       -0.39638385 -0.35510314 -0.31652805 0.044907298
000090 87 e6 0f be 83 f4 11 bf 75 9e fc bd 48 b6 14 bf
       -0.14052783 -0.5701372 -0.12334911 -0.5809064
0000a0 64 e4 14 bf e8 a1 2d bf 04 93 c7 bd fe 4b 5f bf
       -0.58160996 -0.67825174 -0.09744838 -0.8722533
0000b0 e4 60 82 bd b3 4a bf 3d 5d 03 22 bf 5d d0 c0 3e
       -0.06366137 0.093404196 -0.6328638 0.3765897
0000c0 43 bc fe bd d1 76 a6 be 5e 33 78 bf d0 bf 97 3d
       -0.12438252 -0.32512525 -0.9695338 0.07409632
0000d0 a3 02 3f 3d 72 5f 12 3e a0 4c b0 3e ca 87 7b be
       0.046633374 0.14294222 0.3443346 -0.24563518
0000e0 84 70 d0 bb 9a 7d 24 bf 0d f4 49 bf 79 df 95 be
       -0.006361069 -0.6425415 -0.78888017 -0.2927206
0000f0 b4 b9 c7 3d af 1f ce bd b2 d7 02 3f 0e 1e 64 bf
       0.09752217 -0.10064637 0.51110375 -0.8910836
000100 b7 0c b3 be 39 72 af bc 11 17 16 bd b0 33 ce bd
       -0.34970638 -0.02141677 -0.03664309 -0.10068452
000110 c0 79 c5 be 37 43 6d be 38 38 62 be cb 9f 87 3e
       -0.3856945 -0.23170172 -0.22091758 0.264891
000120 5a 6f 05 bf 3b cd 4b be 59 f3 4d be 95 02 3b be
       -0.52123034 -0.19902508 -0.20112361 -0.18262704
000130 af 29 92 be 93 55 56 3e 43 56 e8 ba e7 4a dc be
       -0.28547427 0.20931081 -0.0017725903 -0.43025896
000140 fb 01 4a bd fe 01 29 3c 0f 3d 45 bf 6d ab 80 bd
       -0.049318295 0.010315416 -0.77046293 -0.06282697
000150 6e c6 49 3e a1 a2 80 3b 3b 1b 7c 3b 8a a5 94 3e
       0.19704601 0.003925637 0.003846838 0.29032546
000160 15 b1 56 be 47 d8 21 be 04 ae 23 ba 0d c4 07 bf
       -0.20965989 -0.1580516 -0.0006243887 -0.53033525
000170 9c de f9 be 51 59 1c bf 48 b4 9c 3e 80 5f 2a 3e
       -0.4880265 -0.61073786 0.30606294 0.16637993
000180 d5 d3 15 3e 63 ac b6 3e f0 d0 8e 3e e7 af d6 be
       0.14631589 0.35678396 0.27893782 -0.41931078
000190 15 b5 47 bc dc bc b4 bb 02 c0 e3 be 40 4c b3 bf
       -0.012189169 -0.005515678 -0.44482428 -1.4007645
0001a0 d4 29 16 bc 65 49 58 3e 00 be 20 3e c5 e9 0f 3d
       -0.009165246 0.21121748 0.15697479 0.03513505
0001b0 15 87 4f be 91 9e a4 be 0f 4b 08 bf fd 41 e5 bb
       -0.20266373 -0.32152227 -0.5323953 -0.006996392
0001c0 89 c4 d6 be 1a b6 40 be ab f5 c8 bd 52 64 a9 3e
       -0.4194682 -0.18819466 -0.098124824 0.3308435
0001d0 f1 66 f3 be e5 1a 82 be bd 3c 80 3e 18 f8 29 bf
       -0.47539476 -0.25411144 0.2504634 -0.66394186
0001e0 bb e3 f5 bd f4 6f 18 3d cd fd dd 3e c8 a9 18 bf
       -0.12006327 0.03721614 0.43357697 -0.59634066
0001f0 82 28 90 bd 11 c3 1e be 62 a5 09 be c3 0e 39 be
       -0.07038976 -0.155041 -0.13441995 -0.18072037
000200 45 b5 0d bd e2 26 0a bf 2d 17 56 be 30 ec 19 bf
       -0.0345967 -0.5396558 -0.20907278 -0.6012602
000210 b2 98 0c bf 21 56 04 bf 0e 6f 5b bc a2 92 41 bc
       -0.54920495 -0.5169392 -0.013393177 -0.011814745
000220 1f 23 01 bf 99 51 3e 3e fd dc e1 bc 3b 4a 4b bc
       -0.50444216 0.18585815 -0.027571196 -0.012407835
000230 d7 38 47 be b0 0a d1 3d 6a 8d 08 bf 52 80 99 bd
       -0.19455276 0.102071166 -0.5334078 -0.07495178
000240 99 d2 72 be 27 3d 0f bf 47 f6 e9 3c fa 04 33 3e
       -0.23713149 -0.55952686 0.028559817 0.17482367
000250 6a 1d f5 3c db 5c 71 bd d2 60 c7 3e b4 71 61 be
       0.029921252 -0.058926445 0.38941056 -0.2201603
000260 f1 e1 27 be fb bb 39 be 6c 14 a9 3e 21 31 3c 3d
       -0.16394784 -0.18138115 0.33023393 0.04594529
000270 fe 50 33 bf 86 2e 5a be 21 a5 9c 3e a4 6a 73 bc
       -0.7004546 -0.2130681 0.30594733 -0.014856968
000280 e2 67 8f bc 92 4b ed bb 1f bd 43 bf e9 8b 7a be
       -0.01750559 -0.0072416747 -0.7646045 -0.24467434
000290 61 27 84 bf 63 16 17 3e 7c b7 cb bd 5e 07 e6 3b
       -1.0324517 0.14754634 -0.09947106 0.007019921
0002a0 af 9a 40 bc 93 d1 31 bd 8b ee 78 bf 7a c3 44 3e
       -0.011755629 -0.043412756 -0.9723899 0.19215193
0002b0 74 d7 39 be 58 8a c9 bd 80 1a a7 be bf f5 41 3d
       -0.18148595 -0.0984084 -0.32637405 0.047353502
0002c0 48 c1 d2 3c aa 44 f9 be 24 06 1c bc b0 3a b2 be
       0.02572693 -0.486852 -0.009522948 -0.348104
0002d0 61 d3 6a be 20 c2 0d 3d 66 bd 1d be 98 86 15 bf
       -0.22932197 0.03460896 -0.15404281 -0.584085
0002e0 a4 33 ab 3e 30 5a a5 3d db 45 22 bf e0 bd 1d be
       0.33437836 0.080738425 -0.6338784 -0.15404463
0002f0 bb 47 2a 3e ef 70 c8 be 21 b9 0d 3d ee 6e 3d 3e
       0.16628926 -0.39148661 0.03460038 0.18499348
000300 a3 06 85 bc be 27 a5 be 93 b8 9e 3e 1d c1 f4 3e
       -0.016238516 -0.32256883 0.31000194 0.47803584
000310 3f 82 f5 bc 13 8f 85 bd b1 06 46 3d 74 36 73 bc
       -0.029969333 -0.0652143 0.048346225 -0.014844526
000320 fb 02 19 bf 46 de dd bd 19 1c 10 bf 96 46 be 3d
       -0.5977017 -0.10833411 -0.56292874 0.09290807
000330 75 7a 0e bf 54 33 d7 be 28 f7 81 3b 81 90 f5 bd
       -0.55655605 -0.42031348 0.003966231 -0.119904526
000340 5a d4 05 bd ec 1d 1a be 37 ab 7d bc d6 6b 9b be
       -0.032673217 -0.15050477 -0.015482715 -0.3035571
000350 56 c6 61 be 56 9c 0d bd 72 f9 7b be e6 65 01 3e
       -0.22048315 -0.03457292 -0.24606875 0.12636527
000360 13 94 2e bf 27 df df bd 54 49 11 bf c8 fb 35 bd
       -0.68194693 -0.10931235 -0.56752515 -0.04442957
000370 4d ad 10 bf b1 bc fa be 9f 79 37 bf 8b 92 2e 3e
       -0.56514436 -0.48972085 -0.71669954 0.17048089
000380 5b 43 34 bf af c5 a2 3d f6 34 10 bf 6f fb 81 3d
       -0.70415276 0.079478614 -0.5633081 0.06346785
000390 3b cf fd be 44 57 c2 be ec 41 9d 3c 1d ad b0 be
       -0.49572167 -0.37957203 0.019196473 -0.34507075
0003a0 7e 08 88 3b 99 a7 d3 3d 44 95 89 bb 52 f4 1c 3e
       0.004151403 0.10334701 -0.004198702 0.15327576
0003b0 c7 e8 c6 ba 67 11 78 be 3d fd c2 bd 9d 10 f9 bd
       -0.0015175574 -0.24225388 -0.095209576 -0.12161372
0003c0 1d 3e b2 be bd 48 8e 3e 0d d2 0e bf b3 81 d0 bd
       -0.34813014 0.2778987 -0.5578926 -0.10180988
0003d0 d1 33 5c bd 2a 19 cf be c4 77 bb be eb 98 91 3c
       -0.053760353 -0.40448886 -0.3661481 0.017773112
0003e0 b6 03 0e 3c e7 ae ab 3e b7 94 9e bc 92 e5 39 3e
       0.008667877 0.33531877 -0.019358022 0.1815398
0003f0 3b db f0 bb 4b ae 39 be 38 40 3a 3e e0 40 c0 3e
       -0.007350353 -0.18132894 0.1818856 0.37549496

fc2.weight f4 [256, 256]
000000 6d c6 3a 3f e2 49 a7 3e fe 3b 13 bf 2b 15 89 3e
       0.72959024 0.32673556 -0.57513416 0.26773962
000010 9a 6d 1f be 91 f5 d8 bc d7 af e1 be 2f dd 4e 3f
       -0.15569153 -0.026484283 -0.44079468 0.8080625
000020 9f f5 1f 3e c1 58 70 3c 80 e4 e4 be bd fe 06 bf
       0.15621041 0.014669598 -0.44705582 -0.5273245
000030 e4 f7 7c bf 90 5c 5b be 36 33 93 bd 7a 50 cc bf
       -0.9881575 -0.21422029 -0.07187502 -1.596206
000040 25 4d 25 be 87 09 28 3f 23 01 79 3f b2 b3 85 be
       -0.1614271 0.6563954 0.9726736 -0.2611366
000050 bf 0a 03 bf e4 31 49 bf aa eb d2 bc da 08 a8 be
       -0.5118827 -0.7859175 -0.025747139 -0.32819253
000060 fe 08 7e be a7 c8 7b bf a6 11 ec 3d b3 d5 7c 3e
       -0.24808118 -0.98353046 0.11526804 0.24690895
000070 18 ac ab 3e 52 46 5f 3f a9 04 47 be 1f 37 19 bf
       0.33529735 0.87216675 -0.19435371 -0.59849733
000080 4a 8c b4 bf 2f c0 30 bf 96 d3 a6 bf ec 2b 51 be
       -1.4105313 -0.6904325 -1.3033321 -0.20426911
000090 04 ad f2 3e 9c 0f bd be cc b0 5a bf de 8b 3c c0
       0.47397625 -0.36925972 -0.8542602 -2.9460368
0000a0 ae 12 68 bf ea 94 ee 3c 50 1a e6 bd f4 86 8b bf
       -0.906535 0.029123742 -0.112354875 -1.090056
0000b0 cd 19 01 c0 41 22 24 3f 9e 00 da 3e 7b ad cf 3e
       -2.0171998 0.6411477 0.42578596 0.40562043
0000c0 6d 16 bb be cb 77 9e 3e 2b 24 c0 be 6d e4 35 bd
       -0.36540547 0.3095077 -0.37527594 -0.044407297
0000d0 b7 ad 0d bf 11 28 97 bf 34 5d bc 3e b9 17 76 bf
       -0.5534319 -1.1809102 0.36789858 -0.9612995
0000e0 7a 29 71 3e bf a5 ef bf 3e 55 63 3f 22 80 46 bd
       0.23550978 -1.8722457 0.88801944 -0.04846204
0000f0 64 5e 40 be 18 99 31 3e 02 6c a9 3e 50 5c 68 bf
       -0.18786007 0.17343557 0.33090216 -0.9076586
000100 56 77 a6 bf 96 24 1d 3e f1 06 18 be a7 f6 9a be
       -1.3005168 0.15345988 -0.14846398 -0.30266306
000110 50 2a 8c 3f 40 2c 26 bd 1d 7d 88 be 4c e1 bd 3b
       1.0950413 -0.040569544 -0.26657954 0.0057946797
000120 fd bb 0d 3f 1b ff 8e be df b9 12 bf b6 e9 24 bf
       0.5536497 -0.27929005 -0.57314867 -0.64419115
000130 12 22 22 3e b5 fc 45 be 9f 6b a1 3f 77 f0 9c bd
       0.1583331 -0.19334681 1.2610968 -0.076630525
000140 3f 29 40 bf 3b db fc 3d 18 43 5e bf 37 99 00 3f
       -0.75062937 0.123465024 -0.86821127 0.5023379
000150 bf cf d0 3c 63 5d ce bd cf d7 22 be 87 dc be 3d
       0.025489686 -0.10076406 -0.15902637 0.09319406
000160 c4 4d 85 bf 10 ab 9b 3e c5 e3 b0 bf 31 1b 95 3e
       -1.0414357 0.30403948 -1.381951 0.29122308
000170 26 b1 d9 be e1 9e d7 be 8f ce 4b 3f ae 04 b4 3e
       -0.42517966 -0.42113402 0.7961206 0.3515982
000180 0b c0 00 3e c7 28 20 bf 20 f1 a3 be 86 39 2d be
       0.12573259 -0.6256222 -0.320199 -0.16916475
000190 ec 07 01 be b7 e5 3b be e4 22 77 be b1 13 11 c0
       -0.12600678 -0.18349348 -0.24134403 -2.2668269
0001a0 70 a1 28 3f 6b cb ab 3e bc 97 fd 3e cc 01 c7 bd
       0.65871334 0.33553633 0.49529827 -0.097171396
0001b0 d9 43 59 be c9 db 1f 3e a2 fd 30 3e aa 69 2c 3f
       -0.21217288 0.15611185 0.17284253 0.6734873
0001c0 28 fc a4 bb 7e f6 ad 3e e5 c8 49 3e fc fb f9 3d
       -0.005034942 0.3397712 0.19705541 0.12206265
0001d0 96 2a a4 bf 3f eb 9d 3d 0f 1c 58 3e c9 48 aa 3e
       -1.2825496 0.07710885 0.21104454 0.33258656
0001e0 39 88 28 bf 0c a8 41 be d5 87 7f be 21 40 18 3e
       -0.6583286 -0.18911761 -0.2495416 0.14868213
0001f0 46 ea 55 be b6 19 97 3d c9 65 a0 be 07 ac 33 be
       -0.2089015 0.07377951 -0.31327656 -0.17546092
000200 0f 0f 17 bf 40 7e b4 be c5 64 90 bf 91 7d eb 3e
       -0.5900735 -0.3525257 -1.1280752 0.45994237
000210 55 28 1f c0 f3 b5 e8 3e 14 f2 8b be 60 c4 c3 be
       -2.4868367 0.45451316 -0.27333128 -0.3823576
000220 4a 97 9c 3e 54 08 35 3f 99 45 50 3d a1 78 b9 be
       0.30584174 0.7071583 0.050847623 -0.36224845
000230 a5 49 54 3e 31 49 41 bf 3e 7b 29 be c7 19 2a bf
       0.20731218 -0.75502306 -0.1655092 -0.66445583
000240 e3 59 8f bd c6 19 00 3d d0 66 a2 be f5 f8 0f 3d
       -0.069995664 0.03127458 -0.31719065 0.035149533
000250 34 3d bb be 50 35 4f be 13 ae e3 3e 31 2b 69 3b
       -0.36570132 -0.20235181 0.44468746 0.0035578723
000260 85 f1 e3 3e 33 9d 94 be 9b 55 2b be 84 ac 4a 3e
       0.44520202 -0.29026183 -0.16731875 0.19792372
000270 83 71 57 3e 0c 52 fa 3e 20 ee 6f bf 72 c8 a1 3e
       0.21039395 0.48890722 -0.93722725 0.3159824
000280 cd be b0 be f6 a9 a8 be 91 e9 d8 be 82 59 e5 3d
       -0.3452057 -0.3294217 -0.42365697 0.11198713
000290 5e b2 38 be 6e ac 7a bd 09 f0 8a be 4e 6d 8c bf
       -0.18036792 -0.061199598 -0.27136257 -1.0970857
0002a0 d3 ec 56 bf 71 81 a3 bf 08 ee 0f bf fa 8d 02 bf
       -0.83955115 -1.2773877 -0.5622258 -0.5099789
0002b0 a1 c7 f4 be b1 43 50 bf af f4 dc 3e a4 40 6e bf
       -0.47808555 -0.8135329 0.4315543 -0.93067384
0002c0 6d 21 8e be 4c be 96 be fe 28 e6 3e 71 43 e3 bc
       -0.27759877 -0.2944206 0.4495315 -0.02774212
0002d0 e0 20 55 bf 9e d2 4b be d5 f4 02 c0 fb af dd bd
       -0.8325329 -0.19904563 -2.0461934 -0.10824581
0002e0 70 56 a1 3e ef ca 92 3d ed 19 08 3f 6e e0 d1 bf
       0.3151126 0.07167613 0.5316456 -1.6396616
0002f0 05 86 d8 be 4d 70 6b 3e 26 4e 35 bf 2d e9 a6 be
       -0.4228975 0.22992058 -0.7082237 -0.32599774
000300 5c 1e 38 c0 b9 f9 54 bf ac 9d 60 3e 25 04 f1 3e
       -2.876853 -0.83193547 0.21935147 0.47073475
000310 f4 09 0e 3f 60 5e ee be 6b 17 be be df 5e 0d 3f
       0.5548394 -0.46556377 -0.37127241 0.55222887
000320 58 e0 c5 bd b0 c8 c4 bf fc 76 67 be e9 4e 14 3e
       -0.09661931 -1.5373745 -0.22603983 0.14483227
000330 3f bb 64 bf 68 46 ce 3b 6b ea 24 bf e1 f9 2c bf
       -0.89348215 0.006295014 -0.64420193 -0.67568785
000340 1f ba a1 bf e7 8e 28 bf 9d 9e a4 be bc b2 81 3e
       -1.2634925 -0.6584305 -0.32152262 0.25331676
000350 2f 4c 60 bd d8 ff 7f 3e b4 f6 7b bf 1a 78 35 bf
       -0.054760154 0.2499994 -0.98423314 -0.70886385
000360 3d e8 44 3f 3a a6 f2 be dc 85 5a be 6f 7c 63 bd
       0.7691687 -0.47392446 -0.21340126 -0.05553859
000370 16 18 55 bd cd 2d 6e bf 3e 1c 45 bf 27 bb e5 bf
       -0.052024923 -0.93038636 -0.7699622 -1.7947739
000380 3f 6f 52 3f 77 ab 83 bf 21 e3 1f bf 9f a6 ea bf
       0.82201 -1.0286702 -0.62455946 -1.8332099
000390 f2 b5 3e 3f 29 6f 10 3f 5a d8 2d c0 99 fb d6 bc
       0.74496377 0.56419617 -2.71633 -0.026243018
0003a0 80 38 bc bf f4 96 e3 be dc 30 d4 be df 8f 02 3e
       -1.4704742 -0.44451106 -0.41443527 0.12750195
0003b0 dc 5e 1e be 46 8c 35 bf 0f 1f 97 3d a0 49 33 3f
       -0.15465873 -0.70917165 0.07378971 0.7003422
0003c0 80 66 0f bf 6b 23 f0 be 2c 1a 0a be ed c5 09 3e
       -0.5601578 -0.46902022 -0.13486546 0.13454409
0003d0 ea 17 6f bf 72 b5 9b be f5 ce 0e 3d 5b 62 9d be
       -0.93395865 -0.3041187 0.03486534 -0.30739102
0003e0 9a e4 be 3e 56 de ad be e2 56 17 3f f1 e7 8c bd
       0.37283784 -0.3395869 0.5911695 -0.06880177
0003f0 d5 77 ea be d7 07 a8 3e 65 95 8c 3e e8 2b 1b bf
       -0.4579455 0.3281848 0.2745773 -0.6061387

fc2.bias f4 [256]
000000 49 5a db bd 0f fc 83 bd 06 07 a9 bd 33 bf f6 be
       -0.1071058 -0.06444561 -0.08253293 -0.48192748
000010 ff 90 72 3e 3b 9b 96 bc f0 96 55 3e ae 86 6a 3e
       0.23688124 -0.018384567 0.2085836 0.22902939
000020 4c 6b fb bb 5e 7c 11 be 8d 7d 92 3e 78 ce e1 3e
       -0.007672703 -0.14207599 0.28611413 0.44102836
000030 52 4f dc 3c 5c ee f6 be b3 45 88 3e 66 31 df b9
       0.026893292 -0.4822873 0.26615676 -0.0004257068
000040 b3 8e 46 be b3 ed 5c be 12 47 ed bc f5 ef 8e bd
       -0.19390373 -0.2157505 -0.028964553 -0.06979362
000050 41 88 90 3c 12 bb a0 be db a2 77 3b ee 16 c1 be
       0.017643096 -0.31392723 0.0037786278 -0.37712806
000060 ab 09 f1 3d c3 e5 ab 3e e7 6b 6d 3d 60 76 81 bd
       0.11769422 0.33573732 0.05796423 -0.06321406
000070 df e2 c3 bd 6e a1 a4 bd 17 9c 94 3d 97 11 c0 3d
       -0.095647566 -0.08038603 0.07256334 0.09378355
000080 fd ca 52 bd 64 15 9a bd 04 cd 77 3e bb 0c 67 be
       -0.051463116 -0.07523611 0.24199301 -0.2256345
000090 bc 36 cb bd ac ba cf be 01 06 0e be eb fa 90 3d
       -0.09922549 -0.40572107 -0.13869478 0.07079109
0000a0 a9 fe 86 bd 75 f8 93 3c f0 e6 98 be d6 01 88 bd
       -0.06591541 0.01806281 -0.2986369 -0.06640975
0000b0 2f 81 05 bd 47 a5 cb bd 22 19 8e bd e3 75 42 3e
       -0.032593902 -0.099436335 -0.069383875 0.18990283
0000c0 3c ab 72 bd e5 de b3 be 85 3f 98 bc 9f 88 ae 3e
       -0.059245333 -0.35130993 -0.018584976 0.3408861
0000d0 9f 6c 61 3c 30 92 17 bf 0e 20 33 3e 10 71 bc bb
       0.013758807 -0.5920744 0.17492697 -0.005750783
0000e0 ba 64 be be ad 4c 9f 3e a6 a7 47 3a 71 ed 00 bf
       -0.37186223 0.31113186 0.0007616229 -0.50362307
0000f0 bd 09 4a 3e a9 45 5a be f1 4e ad bc 7b 66 5f 3e
       0.19730277 -0.21315636 -0.021155806 0.21816437
000100 0f f3 7e 3e 88 d0 37 bf 2e 04 d4 bc aa 59 2f 3e
       0.24897407 -0.7180257 -0.0258809 0.17124048
000110 ea 7f c9 bc 3e 7f 81 bd ae a5 9f bd 36 63 3e be
       -0.024597127 -0.06323098 -0.07795273 -0.18592533
000120 cc e1 0d bd 83 c7 38 3e 70 31 9b 3e b9 d6 8f be
       -0.034639165 0.18044858 0.30311155 -0.28093508
000130 3c c1 c7 bb e3 bd e8 be 65 64 12 3c f5 c2 5a 3d
       -0.0060960334 -0.45457372 0.008935069 0.05340858
000140 2c 0b a5 bd d5 7e 84 be 12 ce e8 3d 1f cd d9 bc
       -0.080587715 -0.25878015 0.1136743 -0.026587067
000150 e8 8c 6a bc eb c2 c2 bd f0 46 99 bc d0 4e 30 3d
       -0.014315821 -0.09509834 -0.018710583 0.04304391
000160 70 1c 03 bf c0 6e 85 bb 4c 9f 8e be a4 34 b8 bd
       -0.5121527 -0.0040720403 -0.2785591 -0.089944154
000170 64 a7 2a 3d e8 9f d7 bc 38 61 20 bf 70 df 6f 3d
       0.041663542 -0.026321366 -0.62648344 0.058562696
000180 3b d0 07 bd cc 7f e0 be 09 85 f8 bd 2d 16 84 be
       -0.03315757 -0.438475 -0.121347494 -0.2579817
000190 f1 25 5f bd d9 60 1e bd 7a 4a 24 3e cc 7e 8d 3c
       -0.054479543 -0.03866658 0.16044036 0.017272376
0001a0 ab 82 96 bc a1 b5 66 3b ea 97 0e 3d 4f 1b e0 3d
       -0.018372854 0.0035203474 0.034812845 0.10942709
0001b0 bf ce 11 bd 1f 87 e5 bd f5 cf 1e bd b4 71 2e bd
       -0.03559756 -0.11207413 -0.038772542 -0.042588905
0001c0 a9 b9 b4 3d 7c 9a 37 3b 23 dc 9c bd 5d d9 9c be
       0.08824474 0.0028015664 -0.07659175 -0.30634585
0001d0 60 dd 0d bf 00 42 94 be 24 93 10 3c 17 43 ec be
       -0.55415916 -0.28956604 0.008824144 -0.46144935
0001e0 f2 aa dd 3a 66 a4 4c 3e 1d 58 4d 3e 1f e3 c9 bd
       0.0016911908 0.19984588 0.20053144 -0.09857773
0001f0 1a 26 b0 bd 3c 21 b2 3d cf 6f 84 bd df 99 92 be
       -0.08601017 0.08697745 -0.06466638 -0.2863302
000200 e7 6d b1 bd 86 c7 54 bf 5d 54 bf bc 6b eb 9f 3d
       -0.0866354 -0.8311695 -0.023355657 0.07808574
000210 fc 9f b0 3e b3 4c 44 be 86 dc 7b 3e 06 c0 db bd
       0.34497058 -0.19169883 0.24595842 -0.10729985
000220 56 36 b5 3e 2f 10 c2 bd a8 6d 7f bd 22 89 2e 3e
       0.35393018 -0.09475743 -0.062360436 0.170445
000230 de fa 5f 3e 15 f1 88 be de bc f1 bc 1f 3c ea be
       0.21873042 -0.2674643 -0.029509004 -0.45748994
000240 c3 d8 86 3e 1d d8 cb bc b0 fc 58 3c 6a 66 0d 3e
       0.2633725 -0.024883324 0.013243839 0.13808599
000250 5e ea 03 3e b4 ae 93 bd ca 4a 5d bf 93 23 be be
       0.12882373 -0.07211056 -0.86442244 -0.37136516
000260 3a 26 d1 be 7e 8b 2d 3b 71 00 00 3e 38 0d 72 38
       -0.40849477 0.002648085 0.12500168 5.7709607e-05
000270 ef 53 81 bd a8 5b 37 3e 05 8b fb bd c6 63 d0 bc
       -0.06314837 0.17906058 -0.12282375 -0.0254382
000280 c9 66 40 be 8a d3 98 bd d1 fd a7 3c 96 b5 c2 bd
       -0.1878921 -0.07462223 0.020506771 -0.09507291
000290 47 a2 04 3d 42 2d 86 bd d3 8e bc bd b8 d6 c8 bd
       0.032381322 -0.06551601 -0.09206929 -0.09806579
0002a0 8d 43 73 bd 9c 78 e5 3e ce 3e 03 be cf e4 c4 bd
       -0.059390593 0.4481858 -0.12816927 -0.09613954
0002b0 15 5f 60 bd c5 eb 31 3e cc 6e 91 3d 4a 8e 8d 3a
       -0.054778177 0.17375095 0.07101211 0.0010799852
0002c0 8e 3d 0d 3e 24 16 e7 bb 6a 2d 00 3d 2a dd c2 bd
       0.13793012 -0.0070522 0.03129331 -0.0951484
0002d0 f4 66 13 bd 13 25 b2 bd 4c d5 d0 bd 2d 7b 2f be
       -0.035986856 -0.086984776 -0.10196933 -0.17136832
0002e0 2e ec ba 3e 5f e2 33 bd 55 e1 43 bf 72 11 b2 3c
       0.36508316 -0.043917056 -0.76515704 0.021736834
0002f0 a9 f7 7e 3e 67 32 5f bd a8 65 52 bd eb 32 cb bc
       0.24899162 -0.054491427 -0.05136648 -0.024804553
000300 96 31 8b 3e 01 b1 8b bc 2b 41 72 be e5 09 05 bc
       0.2718627 -0.017052175 -0.23657672 -0.008120035
000310 01 52 4b bd 9d e5 17 bf 52 45 ce be e8 c4 b2 bd
       -0.049638752 -0.5933474 -0.40287262 -0.08728963
000320 91 39 40 3e 7d 39 8b 3a 99 63 76 be b0 2e be be
       0.1877196 0.0010621991 -0.24061431 -0.37144995
000330 20 44 c6 be 32 7c 80 3e a2 9d 03 bf 9f 04 cc 3e
       -0.3872385 0.25094754 -0.51412404 0.39847276
000340 9a 49 9f bc 8a 4f 45 be af 14 c4 3b e0 38 8d bc
       -0.019444276 -0.19268623 0.005983911 -0.017239034
000350 2e 3e 26 be c9 68 48 3d 36 90 94 be 0c 96 09 bb
       -0.16234657 0.048928056 -0.29016274 -0.0020993976
000360 a3 5c ba bd c1 52 20 3d 39 9e 9f bd 74 6a ae 3e
       -0.090997 0.03914142 -0.077938505 0.34065592
000370 cc 06 89 bd 84 65 27 3f 36 a5 69 3d 1c 23 ac bc
       -0.066907495 0.65389276 0.057042323 -0.021012835
000380 d2 84 60 3e e5 b1 9a 3c 14 6f e7 be 4a 69 59 be
       0.21925667 0.018883655 -0.45201933 -0.21231571
000390 25 8c 4b bd eb ff 01 3e c4 7f 59 be 68 2d 35 bd
       -0.0496942 0.12695281 -0.21240145 -0.044232756
0003a0 2a 95 83 bd cd b9 a4 be 03 a9 fe be 70 8d ee 3e
       -0.06424935 -0.32173005 -0.4973832 0.46592283
0003b0 ac e4 30 3e 32 f6 8b be 50 6a c5 bc 55 5e 4d bd
       0.17274731 -0.2733627 -0.024098545 -0.05013879
0003c0 11 8c cf bb f4 04 b2 bd e0 dc 8f be a1 f0 b6 bc
       -0.006333836 -0.08692351 -0.28098202 -0.022331538
0003d0 79 55 df be 40 86 26 3c a1 bc 41 bf f3 08 31 bd
       -0.43619898 0.010163844 -0.7567845 -0.043221425
0003e0 37 64 2a bd 09 e6 e4 bc ec 27 3f 3c 81 02 53 bb
       -0.04159948 -0.02794172 0.011667233 -0.0032197537
0003f0 af 7d 9b 3e a5 69 40 bf 5b f3 18 3d 12 51 c9 3d
       0.30369326 -0.751612 0.037341457 0.09829916

fc3.weight f4 [4, 256]
000000 89 f7 8f bd 85 18 ad bb 2e 16 59 bc d6 9c 49 3f
       -0.070296355 -0.005282464 -0.013249917 0.7875494
000010 8c 0f 44 be 80 a3 23 3c 9c b5 a1 3e c3 c6 05 bf
       -0.19146556 0.009987712 0.3158387 -0.5225641
000020 41 86 d4 3c 1e ee 59 be 40 a5 7b 3e 01 33 41 bf
       0.025942924 -0.21282241 0.24574757 -0.7546845
000030 5c b3 8f bc 5a 15 57 3d b0 27 fb be 2a fe 2c bf
       -0.01754158 0.052510597 -0.49053717 -0.67575324
000040 b9 64 2e be cf a9 28 be 7c 72 fa be 19 6e a1 bc
       -0.1703061 -0.16471027 -0.4891547 -0.019705819
000050 3c 37 36 3d b6 66 6e 3d 9b cf 77 bf c2 66 02 c0
       0.04448627 0.05820342 -0.96801156 -2.0375218
000060 0e 4d 06 bf 32 16 7b 3e b7 92 98 bf 8b 1e b8 3c
       -0.52461326 0.24520186 -1.1919774 0.022475502
000070 2e ad 86 bc 9e 10 68 bd 51 80 d3 be 40 b4 26 bf
       -0.01644 -0.056656472 -0.41308835 -0.6511879
000080 a2 7a e7 3c 50 17 df be 1b a7 13 bf bd 4f 5b bf
       0.028256718 -0.43572474 -0.5767686 -0.85668546
000090 6d 1e 89 3b 6b 3b 08 bf d4 99 43 3d e9 60 33 be
       0.0041845352 -0.53215665 0.047754124 -0.17517437
0000a0 d0 a6 2f bd 84 c1 43 bd 99 ce 82 3f 1a 2c 31 bd
       -0.042883694 -0.047791973 1.0219299 -0.04325495
0000b0 26 8d c9 3d f4 a1 99 bc 49 42 26 bd 06 36 0a 3d
       0.09841375 -0.018753983 -0.04059056 0.033742927
0000c0 2d 00 c6 bc ed f5 3f bd e1 89 c7 3c ed 2b d2 3e
       -0.024170006 -0.046865392 0.024357738 0.41049138
0000d0 0a 09 21 3c 0c 71 88 3f 41 c0 3c be d4 48 be bc
       0.009828815 1.0659499 -0.18432714 -0.023228087
0000e0 90 6f 70 bf 73 bf 99 3e 7d 05 fd be ab 39 c9 3f
       -0.9392023 0.30028877 -0.4941825 1.5720724
0000f0 04 8b 02 3f aa 35 a4 be 58 bb 20 3d 12 75 be 3e
       0.5099337 -0.32072192 0.039241165 0.37198693
000100 cd f8 c4 be 72 8d 92 3f 10 c3 84 bd ce a0 02 be
       -0.3847107 1.1449416 -0.06482518 -0.12756655
000110 70 28 c6 bc 8b 67 0c 3b 40 1b 3b bd af 24 a0 bf
       -0.024189204 0.002142402 -0.045680285 -1.2511195
000120 2a a6 e9 3c 7a 13 95 be 38 51 c0 3e 11 b3 7b bf
       0.028521616 -0.29116422 0.37561965 -0.9832011
000130 3d 80 0d 3d a0 6d e0 3c 2f e7 86 bd 59 e1 da be
       0.034546126 0.027396023 -0.065870635 -0.42750052
000140 3a 0a 99 bc 97 52 80 be b2 dd f2 be 10 f9 35 3c
       -0.018681634 -0.2506301 -0.47434765 0.011106744
000150 ed 82 98 bc 8c 36 c4 bc 18 96 13 bb 80 ef b3 3d
       -0.018617118 -0.023951791 -0.0022519883 0.087859154
000160 03 a8 a9 bf 3c 3e 85 bd 90 3d 23 be a5 98 85 bd
       -1.3254398 -0.06506011 -0.15941453 -0.06523255
000170 b0 59 81 3e 40 e8 25 bc fe 1c 9e 3d b9 82 f5 be
       0.2526374 -0.0101261735 0.077203736 -0.47951296
000180 97 ad 03 bd d7 12 6f 3f c8 8f 8f bd bf 23 83 be
       -0.03214797 0.9338812 -0.07009846 -0.2561321
000190 c7 47 1e bd ec 39 e8 bc c7 e8 9b bd 1d 71 5d bc
       -0.03864267 -0.028347932 -0.07612758 -0.013515738
0001a0 e7 48 bc 3e ba e1 12 3d de b6 af 3c 36 c1 30 be
       0.3677437 0.0358598 0.021449503 -0.17261204
0001b0 ef 74 27 3d e0 e8 f8 3c 55 e1 8c 3c ce 55 f6 bd
       0.040883 0.030384481 0.01719729 -0.12028085
0001c0 34 91 38 bc d2 8b ed bc 8c af 01 3c 60 4e 95 3f
       -0.011265088 -0.028997336 0.007915389 1.1664543
0001d0 7b e5 49 be 1f f3 25 3b 00 b3 a5 3b 40 09 27 bf
       -0.19716446 0.0025321913 0.005056739 -0.6524849
0001e0 16 8d 1d bd 26 8a f3 bd d9 cb 2e bf 49 76 57 bd
       -0.03846463 -0.11891584 -0.68279797 -0.05260304
0001f0 20 53 f4 bc d6 8d 8b 3e ca 0d 5c bd 40 f4 1b bd
       -0.029824793 0.2725665 -0.053724088 -0.03807473
000200 dd 2a 59 3b a1 33 c1 be e0 ab fe 3c bd 6d 4e bf
       0.003313712 -0.37734702 0.031087816 -0.806362
000210 d5 3e 88 be aa c2 b9 3d 66 8e 9c be 91 64 71 bf
       -0.26610437 0.09070332 -0.3057739 -0.9429408
000220 2e 47 44 3f bd 5a 6d 3d 42 cc 8d 3c c5 02 0b 3e
       0.7667111 0.057947863 0.017309312 0.13575275
000230 c2 75 13 bf db 99 18 be 38 42 d0 3b f2 c2 d3 3f
       -0.5760156 -0.14902441 0.00635555 1.6543868
000240 d1 fd ca 3e 25 96 29 bd be 41 c6 bd ef c0 42 bf
       0.39646772 -0.041402955 -0.09680508 -0.76075643
000250 34 2c 12 bd d1 f1 91 bc 65 14 93 3f 86 1d 8b 3f
       -0.035686687 -0.017815502 1.1490599 1.0868385
000260 60 b1 28 be b5 8e 0c bc ec 0d 1e bf 8b 6b 32 3d
       -0.16473913 -0.008578946 -0.61739993 0.043559592
000270 fa 70 50 b8 36 b2 bc 3e 34 9a 53 3f 0d b4 0c 3f
       -4.9696282e-05 0.36854714 0.8265717 0.54962236
000280 3b 76 88 3f 90 c0 66 bd e7 c0 9b 3f 64 fd 2d bf
       1.0661081 -0.056335986 1.2168244 -0.6796477
000290 3b a8 d8 bd 40 2f 1f bc f0 12 f0 bb 16 71 99 3c
       -0.105789624 -0.009715855 -0.0073264763 0.018730681
0002a0 e1 2d f6 b8 f7 75 e6 be 3c 1e 76 bd b8 0c f2 bb
       -0.0001173874 -0.45011875 -0.060087427 -0.00738677
0002b0 dd 74 5b bd 36 58 04 bf 99 b5 58 be 10 19 21 3c
       -0.053578246 -0.516971 -0.21163024 0.0098326355
0002c0 81 aa c5 bd 80 4c 14 c0 57 e0 39 3d 38 77 04 3d
       -0.09651662 -2.3171692 0.045379963 0.03234026
0002d0 68 2f 6d bc 45 23 76 3c 4c 0d d0 bc fc ae d9 bd
       -0.014476635 0.015023057 -0.025396965 -0.10629079
0002e0 84 16 26 3f 3f 46 4e 3c 95 55 0a bf 02 64 d1 3b
       0.64878106 0.01258999 -0.5403684 0.0063900957
0002f0 17 f7 c8 be 50 65 d8 3c ff 43 fd bc 41 dd 5e bd
       -0.39251015 0.026415497 -0.030916212 -0.054410223
000300 8a 39 4a 3f d5 b4 6c 3c 48 d3 42 3f 69 5a 44 3d
       0.7899405 0.014447411 0.7610364 0.047937784
000310 70 91 c0 bb c7 10 ce bc 0b 4c 88 bf 20 68 6e be
       -0.0058767125 -0.025154484 -1.0648206 -0.23281908
000320 87 ab af 3e 3f 67 83 3c 3a c0 0e bf 38 a6 7d 3f
       0.34310552 0.016040443 -0.55762064 0.99081755
000330 b6 2b 8a bf 66 7e c3 3f 7d 08 aa bf cd 61 3d bf
       -1.079459 1.5272949 -1.328384 -0.7397736
000340 4f d6 4f bd 4b 6a 4a bf 0a 4d 3b 3d f1 55 83 3c
       -0.05074149 -0.7906844 0.045727767 0.016032191
000350 d6 c3 0b bf 00 07 8c bf 6c bd 25 bf 04 56 ad 3c
       -0.54595697 -1.0939636 -0.6474216 0.02115918
000360 3d 86 61 bd ae e3 12 bf a7 24 3c 3d 36 c8 da be
       -0.05505966 -0.5737866 0.045933392 -0.42730874
000370 c4 de 1d bf 8c 4a dc be 53 d2 26 bf 3a 63 39 3d
       -0.6166804 -0.43025625 -0.6516468 0.045260645
000380 3b 7a 44 3d e4 2e 74 be 19 c2 81 3f c4 08 ad be
       0.04796813 -0.23846012 1.0137359 -0.3379575
000390 f4 14 bb bc ab fc 53 bf 47 bb 0d 3d 26 68 d4 3c
       -0.02283714 -0.82807416 0.03460243 0.025928568
0003a0 7a 49 30 3d 3c dc c8 bf c7 c5 77 bf 27 b8 56 3f
       0.043038823 -1.569221 -0.9678616 0.83874744
0003b0 ad 48 45 be 1a 6c 03 bc 9c c9 e3 bc 33 98 8a 3c
       -0.19266005 -0.008021379 -0.027806096 0.016918277
0003c0 c4 60 f2 bc 52 bd 6d bd 64 fb 6f bf e1 a6 2e 3e
       -0.029587157 -0.058041878 -0.93742967 0.17055847
0003d0 a5 9f 25 bf 67 03 2a 3c ce 92 05 bf b8 b3 1c bf
       -0.64696723 0.010376788 -0.5217713 -0.6121173
0003e0 9c 87 02 3d bb bc 06 bd 8c 72 1e bf 75 7c df 3c
       0.03186761 -0.03289483 -0.61893535 0.027281025
0003f0 72 5a f0 be f3 3e bd 3f 41 a4 53 bf bb 67 8f be
       -0.46944004 1.4784836 -0.82672507 -0.28008828

fc3.bias f4 [4]
000000 8f 62 ba 3e 84 ff b0 3e 83 1f 0b 3e 0d b1 93 3e
       0.3640332 0.34569943 0.1358624 0.28846017
