csv_and_models/ddq_per/trained_models/double_PER_lunar_700.pth (torch, 279396 bytes, 6 tensors)

fc1.weight f4 [256, 8]
0.510114 -0.6706121 0.24145262 1.3161421 -1.1523945 0.8073371 0.23287053 -1.64266
-0.604341 -0.0062472583 -0.6305231 0.7385969 0.47095048 1.1350291 -0.84650093 0.7989711
-0.57727903 -3.118801 0.014415782 -0.9250795 -0.08919726 0.6116791 -0.02431139 -0.89667445
0.064002 -0.19830036 -0.11804353 0.42037782 -2.1105194 1.1717217 -0.10344563 -0.21772972
1.132122 -0.5799329 -0.79164916 -0.37528628 0.8011133 0.53811824 0.3009959 0.100319564
-0.10448029 -2.514238 -0.45056266 -0.7887035 1.5340317 0.51217926 -0.6572834 0.1718343
0.53498507 -0.39854681 -0.118454054 1.6684347 0.21400185 -1.1727964 -0.6990339 0.5722454
0.20430431 -5.483841 -0.28188857 0.04670222 -0.52393854 -0.038796183 0.81521 -0.19558017
0.6366102 -1.4092221 0.14259578 -0.6692736 -0.67221344 -0.95819706 0.28404686 0.3660521
-0.1257946 0.15520136 -0.16723119 -0.70160025 0.43787947 0.57511 0.772838 -1.1201923
-0.36224097 0.2533511 -0.25492078 -0.5655143 1.6287158 -1.2456073 -1.2693408 0.15962084
1.2330964 -1.488505 -0.67255574 -0.3220198 0.6938783 -1.6586075 -0.9580535 -0.14756915
0.63227206 0.6011606 0.3542252 0.40386733 1.8249213 0.39990583 0.91437936 -0.8084535
-0.91477066 -0.6600161 1.2108439 0.4086329 0.39330053 0.057286777 0.07764314 -0.17855763
0.4619731 -0.21220449 0.37431458 1.5003726 -1.2145842 0.5330814 0.6267116 -0.07841609
-0.48662972 0.83692944 -0.088011436 -0.087290704 1.4268786 -0.20969923 -0.4035984 -1.5676448
0.30738792 0.16520461 -0.47979927 -0.37219864 -0.9982745 -0.17490382 -1.2615834 -0.3668441
-0.8442071 -0.45234707 -0.68436164 0.04773681 -0.12587088 1.1464252 -0.23617204 -0.9935855
0.009744636 0.005273234 -0.022636384 -0.013935499 3.535961 -0.028579958 -1.7483147 -0.037327394
-0.6633868 0.53056955 -1.188666 -0.60810417 -0.7377258 -0.6877424 0.21349637 0.20182383
-1.72992 -0.28245124 1.4127818 -0.4677278 -0.21361764 -1.2303612 -0.024048215 -0.17810261
-1.7126 -0.58747095 -0.16490526 -0.6947042 -1.5472564 -0.20385614 0.101123795 -1.0321956
-1.034282 -0.06460245 -0.4610151 -0.38427952 0.68681335 -0.40263754 0.34787816 0.48637974
-0.37751156 -0.6376893 -0.43040055 1.4644234 3.2503371 -1.1705259 0.7163888 -0.4332803
-1.1650331 0.090258345 -0.99028736 0.025212111 0.43938738 -1.5373943 -0.1674242 -0.1940517
-0.47778806 -2.8834903 0.88473105 -1.6566181 -0.58373797 0.6462588 0.24413447 -1.130108
0.19705527 -0.67455506 -1.5524313 0.38535953 0.067798585 0.43922496 0.5971185 -0.41581407
0.8061448 -0.47585413 0.19513573 -0.78106993 -0.4799734 -0.27159184 -0.6736829 0.109273426
-1.1374773 -0.43778563 -1.2495114 -0.46498513 -0.15081944 -0.80277437 -0.7696125 -0.006440169
0.32021475 -2.7462428 1.4723663 -1.5956011 1.7976294 0.31839773 -0.22685887 0.6786103
-0.528487 -0.042641018 0.6090536 1.9740202 -0.09340722 1.807754 0.2918914 -0.26616263
-0.7272984 -0.045314588 1.051754 -0.53040355 -1.6746485 -0.6133447 0.2574589 0.07641907
00000000: d596 023f 3cad 2bbf 5b3f 773e 5877 a83f
00000010: aa81 93bf a5ad 4e3f 9d75 6e3e af42 d2bf
00000020: 17b6 1abf cdb5 ccbb f669 21bf b014 3d3f
00000030: 6c20 f13e a248 913f 49b4 58bf 5f89 4c3f
00000040: 8fc8 13bf 709a 47c0 2c30 6c3c 03d2 6cbf
00000050: 0ead b6bd 0097 1c3f ae28 c7bc 758c 65bf
00000060: 7b13 833d 400f 4bbe cec0 f1bd c33b d73e
00000070: c012 07c0 fafa 953f 4ddb d3bd 8af4 5ebe
00000080: 60e9 903f 7c76 14bf 85a9 4abf 8625 c0be
00000090: c315 4d3f 1ec2 093f 221c 9a3e 5874 cd3d
000000a0: c3f9 d5bd 47e9 20c0 26b0 e6be 79e8 49bf
000000b0: 275b c43f 2e1e 033f ba43 28bf 55f5 2f3e
000000c0: c8f4 083f 540e ccbe 0a98 f2bd 458f d53f
000000d0: 4d23 5b3e 311e 96bf e3f3 32bf ad7e 123f
000000e0: 2635 513e a07b afc0 b353 90be d44a 3f3d
000000f0: d620 06bf bfe8 1ebd 9ab1 503f 2b46 48be
00000100: e3f8 223f 6461 b4bf a104 123e 8455 2bbf
00000110: 2e16 2cbf 674c 75bf 976e 913e 2e6b bb3e
00000120: 4dd0 00be 1bed 1e3e a73e 2bbe 139c 33bf
00000130: bd31 e03e 693a 133f b6d8 453f 7662 8fbf
00000140: a677 b9be 3cb7 813e fa84 82be 8cc5 10bf
00000150: c279 d03f 0f70 9fbf c279 a2bf a573 233e
00000160: 1ad6 9d3f 5587 bebf 9d2c 2cbf c7df a4be
00000170: 02a2 313f 404d d4bf ff42 75bf 5e1c 17be
00000180: 95dc 213f a9e5 193f 015d b53e b3c7 ce3e
00000190: 0597 e93f 75c0 cc3e c414 6a3f cff6 4ebf
000001a0: 692e 6abf d1f6 28bf effc 9a3f 5538 d13e
000001b0: b05e c93e 8aa5 6a3d 5e03 9f3d d0d7 36be
000001c0: bd87 ec3e 224c 59be 29a6 bf3e 360c c03f
000001d0: 7f77 9bbf 0678 083f 2c70 203f 9d98 a0bd
000001e0: 8827 f9be 0241 563f 573f b4bd 78c5 b2bd
000001f0: f5a3 b63f 65bb 56be 73a4 cebe 96a8 c8bf
00000200: f361 9d3e 662b 293e 40a8 f5be d290 bebe
00000210: eb8e 7fbf fd19 33be 917b a1bf fdd2 bbbe
00000220: f51d 58bf 099a e7be 5332 2fbf ac87 433d
00000230: 4ce4 00be 10be 923f 15d7 71be 9f5b 7ebf
00000240: f7a7 1f3c 18cb ac3b f06f b9bc b851 64bc
00000250: 2f4d 6240 8420 eabc c7c8 dfbf 9ce4 18bd
00000260: b8d3 29bf 68d3 073f 3526 98bf b7ac 1bbf
00000270: 99db 3cbf e30f 30bf cb9e 5a3e e8aa 4e3e
00000280: 056e ddbf 739d 90be 09d6 b43f 057a efbe
00000290: 95be 5abe 7a7c 9dbf c300 c5bc 8860 36be
000002a0: 7a36 dbbf 7f64 16bf eddc 28be 22d8 31bf
000002b0: 7f0c c6bf aabf 50be fe19 cf3d fc1e 84bf
000002c0: 5a63 84bf 4a4e 84bd 2c0a ecbe 49c0 c4be
000002d0: 00d3 2f3f 8226 cebe 161d b23e c406 f93e
000002e0: 3249 c1be 9b3f 23bf 765d dcbe 3a72 bb3f
000002f0: 8605 5040 cbd3 95bf 4265 373f ead6 ddbe
00000300: ce1f 95bf 5ed9 b83d 7983 7dbf a189 ce3c
00000310: 62f7 e03e 56c9 c4bf 4071 2bbe 7db5 46be
00000320: a3a0 f4be 1b8b 38c0 bc7d 623f 100c d4bf
00000330: da6f 15bf 3771 253f 63fe 793e 61a7 90bf
00000340: dbc8 493e a4af 2cbf 12b6 c6bf d84d c53e
00000350: fcd9 8a3d 18e2 e03e c2dc 183f 95e5 d4be
00000360: 815f 4e3f 27a3 f3be a9d1 473e 33f4 47bf
00000370: 13bf f5be 160e 8bbe 7c76 2cbf bfca df3d
00000380: db98 91bf 7025 e0be fdef 9fbf 8812 eebe
00000390: 6970 1abe 9f82 4dbf 5305 45bf 0e08 d3bb
000003a0: 30f3 a33e 71c2 2fc0 8076 bc3f a83c ccbf
000003b0: b818 e63f 0705 a33e b14d 68be 68b9 2d3f
000003c0: ed4a 07bf 59a8 2ebd f0ea 1b3f b2ac fc3f
000003d0: 494c bfbd 7c64 e73f ca72 953e 7846 88be
000003e0: 3a30 3abf ca9b 39bd e09f 863f 87c8 07bf
000003f0: e25a d6bf 2904 1dbf a7d1 833e 9a81 9c3d

fc1.bias f4 [256]
-0.27768505 -0.5947516 0.108034275 -0.06678202 -0.30793098 0.39106596 -0.119472146 -0.437403
-0.38181698 -0.44049564 -0.34516963 -0.5749436 -0.8968908 0.2765256 0.06191441 0.273631
-0.015681103 0.10851448 -0.001848648 -0.43990225 -0.48517644 -0.49863392 -0.39610428 -0.526851
-0.42662278 0.0040752143 0.41319653 -0.25493783 0.012223988 -1.081405 -0.2095428 -0.15905821
-0.3281237 -0.48336813 -0.52243155 0.025346655 -0.051891837 -0.5130909 -0.38060105 -0.5746482
-0.65807486 -0.78689325 -0.07904985 -1.0428486 -0.15632941 0.14746888 -0.6393424 0.27682328
-0.25894588 -0.21011695 -0.95276177 -0.061767045 -0.029249676 0.15790834 0.31148526 -0.3322649
-0.0007436668 -0.7947878 -0.82087445 -0.2927206 0.18034418 -0.11920414 0.51195663 -0.67477834
-0.46380216 0.035784654 0.012533495 -0.15802847 -0.5129783 -0.25325567 -0.25143066 0.21776064
-0.49294147 -0.2503632 -0.33002496 -0.41909826 -0.20865266 0.2650388 -0.010458914 -0.47543037
-0.10898159 0.07531161 -0.7175509 -0.06478733 0.21155623 0.0006821683 0.022525262 0.3531544
-0.31664228 -0.0010173584 0.004878004 -0.46983445 -0.50572944 -0.63221025 0.20516758 0.11593489
0.0074419654 0.3451019 0.12708817 -0.46122354 -0.13984995 -0.008474829 -0.45353577 -1.5288403
0.041114878 0.17533235 0.062184084 0.07256651 -0.36582658 -0.47588533 -0.6947345 -0.10031823
-0.560863 -0.1928978 -0.21281235 0.43612215 -0.5928732 -0.29286653 0.24840224 -0.65757406
-0.15282056 0.011126636 0.36526376 -0.7191396 -0.24473868 -0.20763896 -0.22158255 -0.2747443
0.00804511 -0.5396558 -0.3289325 -0.8767951 -0.586043 -0.44149843 -0.09584606 -0.027291037
-0.4672418 0.0900785 -0.011186238 -0.0036836485 -0.21334442 0.031525385 -0.71403545 -0.0036786054
-0.3398542 -0.65242374 -0.027805896 0.0671102 -0.031592846 -0.11938167 0.450516 -0.16998348
-0.29481563 -0.6457626 0.34045935 0.012638777 -0.9009401 -0.142351 0.3716058 -0.045041896
-0.07743666 -0.092501596 -0.7646045 -0.28406233 -1.015101 0.29058236 -0.090259515 0.067489594
0.048411515 -0.10285745 -1.0178486 0.06984416 -0.08515868 -0.17098719 -0.42356908 0.056775022
-0.031734582 -0.47725213 -0.0063508856 -0.56575 -0.42334127 0.09014 -0.30300653 -0.59274787
0.4386048 0.17083481 -0.5694232 -0.14401537 0.17757368 -0.5528903 0.04152502 0.1701299
-0.0018213381 -0.37483168 0.28035632 0.39080757 -0.05598924 -0.12593484 0.038392514 -0.0033350242
-0.8123509 0.1106359 -0.57280546 0.0832054 -0.5363137 -0.5359605 -0.25639033 -0.19593966
-0.09115051 -0.25575846 0.020414347 -0.39756322 -0.2756366 -0.0856549 -0.3879837 0.15400185
-0.6404861 -0.061897002 -0.5820821 -0.26087058 -0.5334824 -0.4538987 -0.7053635 0.058478557
-0.7523788 0.061253082 -0.50936216 -0.08787544 -0.43528768 -0.30485764 -0.1301555 -0.41878006
0.0059384187 0.058115333 -0.0036138305 0.23617445 -0.029909026 -0.21596143 -0.109860934 -0.032267064
-0.43819332 0.22048531 -0.50810575 -0.14627577 -0.17198879 -0.5054879 -0.40201348 -0.09336822
0.01694595 0.25268343 0.058734655 0.2140951 -0.08230859 -0.22466204 0.19122514 0.15882885
00000000: bc2c 8ebe a441 18bf 1341 dd3d 03c5 88bd
00000010: 21a9 9dbe cc39 c83e d0ad f4bd 49f3 dfbe
00000020: 847d c3be a588 e1be 13ba b0be 812f 13bf
00000030: a39a 65bf c394 8d3e f799 7d3d 5d19 8c3e
00000040: a875 80bc d73c de3d 554e f2ba de3a e1be
00000050: 0c69 f8be f24c ffbe 2ece cabe b5df 06bf
00000060: 4d6e dabe 6089 853b 7f8e d33e 3687 82be
00000070: 1f47 483c 7b6b 8abf 6392 56be 28e0 22be
00000080: d4ff a7be 077c f7be 13be 05bf caa3 cf3c
00000090: 898c 54bd ed59 03bf 24de c2be 251c 13bf
000000a0: 9877 28bf d671 49bf e3e4 a1bd 107c 85bf
000000b0: d114 20be 1502 173e f2ab 23bf c8bb 8d3e
000000c0: 8e94 84be e628 57be 32e8 73bf 71ff 7cbd
000000d0: 049d efbc b9b2 213e ff7a 9f3e a01e aabe
000000e0: a2f2 42ba 3777 4bbf d424 52bf 79df 95be
000000f0: 25ac 383e 4d21 f4bd 970f 033f 46be 2cbf
00000100: 7a77 edbe ee92 123d 4a59 4d3c 37d2 21be
00000110: 8c52 03bf baaa 81be 85bb 80be a5fc 5e3e
00000120: d362 fcbe 9b2f 80be 08f9 a8be 0c94 d6be
00000130: 0ba9 55be 2ab3 873e dd5b 2bbc 9c6b f3be
00000140: bd31 dfbd f93c 9a3d 6ab1 37bf 38af 84bd
00000150: 32a2 583e 8ad3 323a e686 b83c a7d0 b43e
00000160: f01e a2be e258 85ba aad7 9f3b 248e f0be
00000170: 7c77 01bf 88d8 21bf 7317 523e 466f ed3d
00000180: bbdb f33b 32b1 b03e 6723 023e 7e25 ecbe
00000190: d334 0fbe 02da 0abc d735 e8be 0ab1 c3bf
000001a0: 1368 283d 538a 333e bdb4 7e3d c09d 943d
000001b0: 9f4d bbbe 3ea7 f3be 1fda 31bf a573 cdbd
000001c0: b894 0fbf 0087 45be 7beb 59be 674b df3e
000001d0: 8ac6 17bf 9af2 95be 285d 7e3e c656 28bf
000001e0: fe7c 1cbe 7e4c 363c da03 bb3e 8819 38bf
000001f0: c79c 7abe 4f9f 54be 89e6 62be 49ab 8cbe
00000200: a3cf 033c e226 0abf d769 a8be a575 60bf
00000210: ea06 16bf 150c e2be f04a c4bd 7491 dfbc
00000220: 513a efbe 147b b83d 7c46 37bc 5e69 71bb
00000230: f676 5abe c320 013d 07cb 36bf c214 71bb
00000240: 5f01 aebe 3e05 27bf 31c9 e3bc 1371 893d
00000250: 8067 01bd 617e f4bd 08aa e63e 2610 2ebe
00000260: 13f2 96be b350 25bf b050 ae3e df12 4f3c
00000270: 03a4 66bf 76c4 11be 1e43 be3e da7d 38bd
00000280: 1d97 9ebd 7a71 bdbd 1fbd 43bf 9e70 91be
00000290: d4ee 81bf 36c7 943e fbd9 b8bd fc37 8a3d
000002a0: 274b 463d eda6 d2bd dd48 82bf 740a 8f3d
000002b0: ad67 aebd 4417 2fbe 0cde d8be ed8c 683d
000002c0: 1ffc 01bd 645a f4be 171b d0bb fed4 10bf
000002d0: 30c0 d8be 529b b83d ac23 9bbe 53be 17bf
000002e0: cf90 e03e 52ef 2e3e b8c5 11bf c478 13be
000002f0: e0d5 353e 388a 0dbf 2416 2a3d 8836 2e3e
00000300: f7b9 eeba f0e9 bfbe dd8a 8f3e ee17 c83e
00000310: f954 65bd 10f5 00be 7841 1d3d 6c90 5abb
00000320: 3bf6 4fbf 1395 e23d 61a3 12bf 9867 aa3d
00000330: db4b 09bf b534 09bf 9845 83be 68a4 48be
00000340: 1ead babd c6f2 82be fd3b a73c 688d cbbe
00000350: 3e20 8dbe d66b afbd cda5 c6be a9b2 1d3e
00000360: e6f6 23bf b687 7dbd 5503 15bf d490 85be
00000370: 4d92 08bf 6965 e8be b492 34bf 3687 6f3d
00000380: e69b 40bf 83e4 7a3d 8f65 02bf 0af8 b3bd
00000390: 07de debe 4d16 9cbe 7c47 05be 576a d6be
000003a0: 1197 c23b 580a 6e3d 04d6 6cbb b7d7 713e
000003b0: c603 f5bc fe24 5dbe c5fe e0bd 782a 04bd
000003c0: e05a e0be e7c6 613e 3813 02bf 51c9 15be
000003d0: d41d 30be a867 01bf b6d4 cdbe d637 bfbd
000003e0: 3cd2 8a3c b95f 813e c093 703d bf3b 5b3e
000003f0: 6891 a8bd ce0d 66be 86d0 433e 08a4 223e

fc2.weight f4 [256, 256]
0.32865876 1.115947 -0.9364956 -0.0008748207 0.5026663 0.3754347 -0.24758668 0.8997839
0.079469845 -0.48776767 -0.06259968 -0.5273245 -1.4689112 -0.38243237 -0.14406343 -1.9520947
-0.1697388 0.34753343 1.3286743 1.6784624 -0.65239817 -1.122077 0.01587843 -0.13280872
-0.8092018 -1.3731301 0.4220043 -0.10199426 0.5896506 1.5856596 -0.71685743 -0.22352196
-1.673511 -0.9897753 -1.380642 -0.07649234 0.3461805 -0.8046465 -0.1229993 -3.4692996
-0.906535 -0.18655486 -1.2859527 -1.090056 -1.8948224 0.8182902 0.2599777 0.38993666
-0.88071346 0.24384712 0.10950845 -0.10799615 -1.2163485 -1.6455942 0.28607732 -0.45782652
0.013633844 -1.8722457 2.0800233 -0.04846204 0.08616613 0.25541747 0.5773254 -0.7525722
-0.7012478 0.05754696 -0.2227192 -0.4722091 1.9233611 0.13529517 -0.14175895 0.30673704
0.5536497 -0.0990909 -0.5754867 -0.64419115 0.45793176 -0.3419654 1.7458726 0.25277817
-1.0189627 0.036111046 -0.6671465 0.89550835 0.04870739 -0.9267579 -0.22981797 0.05735806
-1.0414352 0.87285835 -2.391144 0.18238895 -0.19875993 0.24844728 0.43274423 0.1751193
0.29534787 -0.300929 -0.106027156 -0.33560464 -0.21739252 -0.32321632 -0.24134403 -2.2668269
0.7795831 0.47760183 0.4877617 -0.14079523 -0.2517676 2.7883425 0.42630076 0.58007085
0.09589931 0.7843927 -0.20029905 0.17350806 -1.1835806 -0.0061985254 0.19507924 0.06916496
-0.6217091 -0.2147466 -0.34785223 0.20810083 -0.039881665 0.050763406 0.35988483 0.106347606
-1.0786587 -0.3525257 -0.7127926 1.107987 -2.4868367 0.5212885 -0.0957142 -0.52635777
0.67762756 0.032483496 0.08613076 -0.46840551 0.123369545 -0.9524171 0.30374676 0.16417845
-0.23680443 0.559203 -0.36573598 -0.23526716 -0.50904685 -0.51636606 0.6067213 0.027756115
0.47696558 -0.35962492 -0.0403534 -0.068334974 0.21039395 0.2121622 -0.9551229 0.5923772
-0.55932474 -1.0176197 -0.42365697 0.13252077 0.4008843 -0.12930438 -0.5848545 -1.0214416
-0.3717635 -1.9334738 0.34718248 0.16965619 -0.11128397 -0.8670614 0.15657839 -1.1632001
-0.09771414 -0.27631813 0.3950417 -0.13469996 -1.0087858 -0.7100478 -1.6167606 -0.6561295
0.29131347 0.46891034 0.34305596 -2.053718 0.1371426 0.26848227 -0.7880713 -0.4268842
-4.602793 -0.5679097 0.09796951 0.4543252 0.38435242 -0.67803496 -0.67660606 0.43448797
-0.017932383 -1.2099653 -0.50448126 -0.14842713 -1.2202578 -0.2546779 -0.45617643 -0.897318
-1.6976072 -0.6141508 -0.12876435 0.11857064 0.759774 0.24742317 -0.937687 -0.77079135
2.551601 -1.1443706 -0.1249764 -0.29836193 -0.15029323 -0.68781734 -1.1115147 -2.2854168
1.1458597 -0.96908164 -0.5014946 -1.8154855 0.74843365 0.5198816 -3.1222327 -0.14486614
-0.85027695 -0.29162282 -0.839377 0.08768392 -0.16719392 -1.6860175 0.43120733 0.91194993
-0.53605044 -0.51613337 0.3546135 0.19777794 -0.3973031 0.12477387 0.03486534 0.28714648
0.019396901 -0.23739599 0.51249236 -0.13520269 -0.57822984 0.30181563 0.20639737 -0.43204868
00000000: f645 a83e 5ad7 8e3f 2dbe 6fbf 3954 65ba
00000010: bdae 003f fa38 c03e 5d87 7dbe 3d58 663f
00000020: 16c1 a23d afbc f9be 4334 80bd bdfe 06bf
00000030: 4805 bcbf 2dce c3be 5d85 13be 3dde f9bf
00000040: 02d0 2dbe e7ef b13e 0012 aa3f dbd7 d63f
00000050: 9103 27bf 38a0 8fbf 7b13 823c 02ff 07be
00000060: d927 4fbf bac2 afbf f310 d83e 5ee2 d0bd
00000070: 57f3 163f e5f6 ca3f f883 37bf f1e2 64be
00000080: 9c35 d6bf ea61 7dbf e1b8 b0bf 04a8 9cbd
00000090: 923e b13e 50fd 4dbf 0fe7 fbbd 0109 5ec0
000000a0: ae12 68bf 3d08 3fbe 199a a4bf f486 8bbf
000000b0: 8a89 f2bf 777b 513f cc1b 853e c7a5 c73e
000000c0: 7076 61bf 0fb3 793e f745 e03d 162d ddbd
000000d0: 4fb1 9bbf d5a2 d2bf ba78 923e 3d68 eabe
000000e0: 7d60 5f3c bfa5 efbf 1a1f 0540 2280 46bd
000000f0: de77 b03d 14c6 823e 99cb 133f 92a8 40bf
00000100: fa84 33bf 5cb6 6b3d 8110 64be 64c5 f1be
00000110: b230 f63f d18a 0a3e 4229 11be a30c 9d3e
00000120: fdbb 0d3f 2bf0 cabd 1953 13bf b6e9 24bf
00000130: 0876 ea3e 1716 afbe c178 df3f 246c 813e
00000140: 5f6d 82bf 2de9 133d 1dca 2abf 0940 653f
00000150: 6681 473d 0140 6dbf 6755 6bbe 49f0 6a3d
00000160: c04d 85bf a573 5f3f 8108 19c0 2bc4 3a3e
00000170: b987 4bbe f768 7e3e a790 dd3e 7952 333e
00000180: d637 973e 5e13 9abe c424 d9bd 5fd4 abbe
00000190: 259c 5ebe 9c7c a5be e422 77be b113 11c0
000001a0: c292 473f 3a88 f43e e7bb f93e a02c 10be
000001b0: afe7 80be 3474 3240 1844 da3e 867f 143f
000001c0: dc66 c43d f6cd 483f 321b 4dbe 19ac 313e
000001d0: 927f 97bf 001d cbbb dac2 473e 5ca6 8d3d
000001e0: 5428 1fbf 88e6 5bbe b019 b2be 6218 553e
000001f0: f55a 23bd 4aed 4f3d d342 b83e c6cc d93d
00000200: 7d11 8abf 407e b4be 9379 36bf 85d2 8d3f
00000210: 5528 1fc0 2a73 053f ce05 c4bd 62bf 06bf
00000220: 0079 2d3f 6a0d 053d 5365 b03d d9d2 efbe
00000230: 2ca9 fc3d 9bd1 73bf b284 9b3e 651e 283e
00000240: dc7c 72be ee27 0f3f bf41 bbbe e0e9 70be
00000250: e550 02bf 9130 04bf 1652 1b3f cb60 e33c
00000260: d534 f43e c220 b8be 9b49 25bd 35f3 8bbd
00000270: 8371 573e 0c41 593e ef82 74bf 08a6 173f
00000280: e82f 0fbf 5d41 82bf 91e9 d8be 86b3 073e
00000290: b540 cd3e 5e68 04be 06b9 15bf 99be 82bf
000002a0: c957 bebe 127c f7bf e7c1 b13e 5aba 2d3e
000002b0: dae8 e3bd bcf7 5dbf 1656 203e bee3 94bf
000002c0: 5a1e c8bd 9279 8dbe e842 ca3e c9ee 09be
000002d0: e51f 81bf b1c5 35bf 03f2 cebf 1af8 27bf
000002e0: 0a27 953e 0415 f03e 08a5 af3e 1e70 03c0
000002f0: 1c6f 0c3e 8276 893e 0abf 49bf 9190 dabe
00000300: 154a 93c0 8862 11bf 3da4 c83d 509d e83e
00000310: d7c9 c43e b393 2dbf 0e36 2dbf 3575 de3e
00000320: efe6 92bc 25e0 9abf af25 01bf 48fd 17be
00000330: 6831 9cbf 2465 82be f58f e9be a2b6 65bf
00000340: 314b d9bf fd38 1dbf cdda 03be 2ad5 f23d
00000350: 8d80 423f 805c 7d3e 410c 70bf 9552 45bf
00000360: 6e4d 2340 bc7a 92bf a0f3 ffbd e5c2 98be
00000370: 78e6 19be cc14 30bf 1d46 8ebf 4544 12c0
00000380: 88ab 923f bc15 78bf f361 00bf d461 e8bf
00000390: 5999 3f3f f616 053f a9d2 47c0 ca57 14be
000003a0: c0ab 59bf 964f 95be 69e1 56bf a193 b33d
000003b0: e234 2bbe 6ccf d7bf 35c7 dc3e 8d75 693f
000003c0: 9a3a 09bf 5121 04bf e78f b53e 4d86 4a3e
000003d0: 506b cbbe 7189 ff3d f5ce 0e3d dd04 933e
000003e0: 40e6 9e3c ef17 73be b332 033f 9372 0abe
000003f0: df06 14bf 9487 9a3e d559 533e 7c35 ddbe

fc2.bias f4 [256]
-0.13857806 -0.06444561 -0.08253293 -0.55711824 0.21740414 -0.018384567 0.16930808 0.32392538
-0.007672703 -0.045046743 0.30308723 0.32953805 0.026893292 -0.582335 0.36855322 -0.02479523
-0.17953119 -0.4046201 -0.0043212585 -0.06979362 0.017643096 -0.170658 0.0037786278 -0.3276763
0.031308934 0.30819193 0.1775031 -0.06321406 -0.045061894 -0.08038603 0.22490686 0.1758882
-0.051463116 -0.1715873 0.33053577 -0.24507521 -0.09922549 -0.44041246 -0.13869478 0.02153936
-0.06591541 0.01806281 -0.2986369 -0.06640975 -0.064343534 -0.099436335 -0.069383875 0.11326992
-0.059245333 -0.26165533 -0.018584976 0.33631298 0.013758807 -0.5674048 0.2834297 -0.005750783
-0.36401385 0.41928366 0.02207451 -0.4331794 0.29419732 -0.25308675 -0.021155806 0.21825297
0.15476838 -0.6425702 -0.0258809 0.14540179 -0.024597127 -0.06323098 -0.07795273 -0.38133064
-0.034639165 0.29599807 0.32690215 -0.3840338 -0.0060960334 -0.46534708 0.008935069 0.093918465
-0.080587715 -0.39121982 -0.007699731 -0.026587067 -0.014315821 -0.09509834 -0.018710583 0.08836017
-0.5121527 -0.0040720403 -0.3405594 -0.10031966 0.1570746 -0.026321366 -0.7658295 0.14360952
-0.03315757 -0.4588281 -0.09922307 -0.42825097 -0.054479543 -0.03866658 0.008867545 0.017272376
-0.08149137 0.0035203474 0.034812845 0.10021295 -0.03559756 -0.11207413 -0.038772542 -0.042588905
0.08394418 0.0028015664 -0.07659175 -0.32331467 -0.5147585 -0.30738232 -0.018711904 -0.6235829
0.0016911908 0.1341698 0.2518804 -0.18015726 -0.08601017 0.12328042 -0.06466638 -0.2863302
-0.0866354 -0.7636388 -0.023355657 -0.114139535 0.30573052 -0.37255397 0.28032187 -0.27028194
0.3213479 -0.09475743 -0.062360436 0.26028562 0.29613286 -0.45403737 -0.029509004 -0.515938
0.3110134 -0.024883324 0.013243839 0.31581214 -0.10670474 -0.07211056 -0.86442244 -0.29393464
-0.5707731 0.002648085 0.058781054 5.7709607e-05 -0.06314837 0.21579549 -0.091930985 -0.07681827
-0.3846128 -0.07462223 -0.011247269 -0.09507291 0.04793598 -0.06551601 -0.09206929 -0.09806579
-0.059390593 0.51294327 -0.12816927 -0.09613954 -0.054778177 0.2797492 -0.03147334 0.0010799852
0.22009836 0.11833873 0.03129331 -0.0951484 -0.035986856 -0.086984776 -0.10196933 -0.20311303
0.35827821 -0.043917056 -0.76515704 0.021736834 0.3236105 -0.054491427 -0.05136648 -0.024804553
0.28442705 -0.017052175 -0.26148573 -0.008120035 -0.081186965 -0.86058044 -0.16538051 -0.13957594
0.16091453 0.0010621991 -0.45263898 -0.57684505 -0.33112395 0.2351264 -0.51412404 0.5011995
0.062728785 -0.27124518 0.005983911 -0.017239034 -0.3271099 -0.031718574 -0.40421438 -0.0020993976
-0.090997 0.08806852 -0.077938505 0.4372612 -0.3295187 0.78202367 -0.012509172 -0.021012835
0.2881792 -0.09851715 -0.41220376 -0.3179232 -0.0496942 0.16335557 -0.21240145 -0.044232756
-0.06424935 -0.41252202 -0.6636663 0.42572108 0.27428263 -0.3387897 -0.024098545 -0.05013879
-0.006333836 -0.08692351 -0.3705135 0.088366434 -0.517783 0.010163844 -0.85722786 0.09170006
-0.04159948 -0.02794172 0.08022784 -0.0032197537 0.3993859 -0.751612 0.0031259619 0.086667456
00000000: 68e7 0dbe 0ffc 83bd 0607 a9bd 4d9f 0ebf
00000010: 319f 5e3e 3b9b 96bc 195f 2d3e 8cd9 a53e
00000020: 4c6b fbbb ef82 38bd 402e 9b3e 36b9 a83e
00000030: 524f dc3c e813 15bf 02b3 bc3e 5e1f cbbc
00000040: 06d7 37be 5e2a cfbe 5899 8dbb f5ef 8ebd
00000050: 4188 903c f9c0 2ebe dba2 773b 30c5 a7be
00000060: cc3d 003d 55cb 9d3e 5fc3 353e 6076 81bd
00000070: d292 38bd 6ea1 a4bd fc4d 663e 091c 343e
00000080: fdca 52bd 95b4 2fbe fc3b a93e fff4 7abe
00000090: bc36 cbbd be7d e1be 0106 0ebe 5073 b03c
000000a0: a9fe 86bd 75f8 933c f0e6 98be d601 88bd
000000b0: 8bc6 83bd 47a5 cbbd 2219 8ebd 0ffa e73d
000000c0: 3cab 72bd b0f7 85be 853f 98bc 3731 ac3e
000000d0: 9f6c 613c 7141 11bf b31d 913e 1071 bcbb
000000e0: 0660 babe 59ac d63e 9ad5 b43c b1c9 ddbe
000000f0: 08a1 963e 9694 81be f14e adbc b57d 5f3e
00000100: 9a7b 1e3e 7b7f 24bf 2e04 d4bc 35e4 143e
00000110: ea7f c9bc 3e7f 81bd aea5 9fbd c53d c3be
00000120: cce1 0dbd 0f8d 973e b85f a73e 14a0 c4be
00000130: 3cc1 c7bb f941 eebe 6564 123c 5358 c03d
00000140: 2c0b a5bd f74d c8be 064e fcbb 1fcd d9bc
00000150: e88c 6abc ebc2 c2bd f046 99bc 2df6 b43d
00000160: 701c 03bf c06e 85bb cd5d aebe 6574 cdbd
00000170: 2ad8 203e e89f d7bc 670d 44bf 600e 133e
00000180: 3bd0 07bd 84eb eabe 7735 cbbd b643 dbbe
00000190: f125 5fbd d960 1ebd 2e49 113c cc7e 8d3c
000001a0: f3e4 a6bd a1b5 663b ea97 0e3d 723c cd3d
000001b0: bfce 11bd 1f87 e5bd f5cf 1ebd b471 2ebd
000001c0: edea ab3d 7c9a 373b 23dc 9cbd 8089 a5be
000001d0: 37c7 03bf 3761 9dbe b549 99bc 21a3 1fbf
000001e0: f2aa dd3a cf63 093e 78f6 803e 257b 38be
000001f0: 1a26 b0bd 727a fc3d cf6f 84bd df99 92be
00000200: e76d b1bd d57d 43bf 5d54 bfbc fdc1 e9bd
00000210: b688 9c3e 65bf bebe 5986 8f3e 6562 8abe
00000220: b687 a43e 2f10 c2bd a86d 7fbd 2844 853e
00000230: ba9e 973e 9677 e8be debc f1bc 8314 04bf
00000240: 263d 9f3e 1dd8 cbbc b0fc 583c 21b2 a13e
00000250: 0488 dabd b4ae 93bd ca4a 5dbf 9a7e 96be
00000260: 301e 12bf 7e8b 2d3b 67c4 703d 380d 7238
00000270: ef53 81bd 7ef9 5c3e 5046 bcbd e652 9dbd
00000280: f8eb c4be 8ad3 98bd 7746 38bc 96b5 c2bd
00000290: 8558 443d 422d 86bd d38e bcbd b8d6 c8bd
000002a0: 8d43 73bd 4050 033f ce3e 03be cfe4 c4bd
000002b0: 155f 60bd 4a3b 8f3e 30ea 00bd 4a8e 8d3a
000002c0: 7761 613e 935b f23d 6a2d 003d 2add c2bd
000002d0: f466 13bd 1325 b2bd 4cd5 d0bd ddfc 4fbe
000002e0: 3e70 b73e 5fe2 33bd 55e1 43bf 7211 b23c
000002f0: 47b0 a53e 6732 5fbd a865 52bd eb32 cbbc
00000300: 6ca0 913e 01b1 8bbc 75e1 85be e509 05bc
00000310: 5a45 a6bd 004f 5cbf 8259 29be ffec 0ebe
00000320: c7c6 243e 7d39 8b3a 4cc0 e7be 1eac 13bf
00000330: 1489 a9be fac4 703e a29d 03bf 9c4e 003f
00000340: f377 803d a6e0 8abe af14 c43b e038 8dbc
00000350: f37a a7be 56eb 01bd 30f5 cebe 0c96 09bb
00000360: a35c babd 455d b43d 399e 9fbd b3e0 df3e
00000370: adb6 a8be b432 483f 45f3 4cbc 1c23 acbc
00000380: 398c 933e 5cc3 c9bd 5f0c d3be d4c6 a2be
00000390: 258c 4bbd af46 273e c47f 59be 682d 35bd
000003a0: 2a95 83bd 1636 d3be 09e6 29bf 1df8 d93e
000003b0: c66e 8c3e d875 adbe 506a c5bc 555e 4dbd
000003c0: 118c cfbb f404 b2bd f2b3 bdbe 76f9 b43d
000003d0: 6d8d 04bf 4086 263c 4973 5bbf 3ecd bb3d
000003e0: 3764 2abd 09e6 e4bc 7e4e a43d 8102 53bb
000003f0: 4f7c cc3e a569 40bf f0dc 4c3b b57e b13d

fc3.weight f4 [4, 256]
-0.09652091 -0.005282464 -0.013249917 1.644838 -0.32190216 0.009987712 0.36560032 -0.38361555
0.025942924 -0.21812597 0.2905471 -0.2698672 -0.01754158 0.04573289 -0.4567456 -0.5956398
-0.3761805 -0.18711698 -0.32098782 -0.019705819 0.04448627 -0.081963934 -0.96801156 -1.1990143
-0.26759067 0.25519434 -1.7944152 0.022475502 -0.5430419 -0.056656472 -0.94056046 -0.81111366
0.028256718 -0.9633711 -0.6615626 -0.6821426 0.0041845352 -0.6931144 0.047754124 -0.3217737
-0.042883694 -0.047791973 1.0219299 -0.04325495 0.06683788 -0.018753983 -0.04059056 -0.0025461363
-0.024170006 0.33856916 0.024357738 0.4784961 0.009828815 2.2872667 -0.2917768 -0.023228087
-0.82018644 0.2605177 -0.5413422 1.7337694 0.52480596 -0.37423876 0.039241165 0.60856366
-0.3841415 1.3518354 -0.06482518 0.2119065 -0.024189204 0.002142402 -0.045680285 -1.2511195
0.028521616 -0.27648398 0.42270133 -0.8105314 0.034546126 -0.2535079 -0.065870635 -0.42826763
-0.018681634 0.22602712 -1.0181031 0.011106744 -0.018617118 -0.023951791 -0.0022519883 0.15884827
-1.3254398 -0.06506011 -0.41209808 -0.5174769 0.3177042 -0.0101261735 0.34524298 -0.3444353
-0.03214797 2.261681 -0.2791877 -0.6050813 -0.03864267 -0.028347932 0.20010005 -0.013515738
0.37499133 0.0358598 0.021449503 -0.18836021 0.040883 0.030384481 0.01719729 -0.12028085
0.19979632 -0.028997336 0.007915389 1.4899789 0.40480176 0.4132471 0.020888817 -0.8490111
-0.03846463 -0.01584075 -0.56769603 0.06970538 -0.029824793 0.3294944 -0.053724088 -0.03807473
0.003313712 -0.6643371 0.031087816 -0.7592379 -0.4741714 0.07261312 -0.12638159 -0.61414343
0.77399874 0.057947863 0.017309312 0.21356261 -0.5976885 -0.13501339 0.00635555 1.2090201
0.4572368 -0.041402955 -0.09680508 -0.8712476 0.67702436 -0.017815502 1.1490599 2.0307765
-0.29777032 -0.008578946 -0.39942276 0.043559592 -4.9696282e-05 0.40676802 0.15137495 0.32994872
1.1190109 -0.056335986 1.2168244 -0.6796477 -0.08061613 -0.009715855 -0.0073264763 0.018730681
-0.0001173874 -0.42232302 -0.060087427 -0.00738677 -0.053578246 -0.5982627 -0.37874806 0.0098326355
-0.21473768 -1.6509541 0.045379963 0.03234026 -0.014476635 0.015023057 -0.025396965 -0.074631035
0.6529091 0.01258999 -0.5403684 0.0063900957 -0.3441764 0.026415497 -0.030916212 -0.054410223
0.79161817 0.014447411 1.0797297 0.047937784 -0.0058767125 -0.16891585 -0.9386203 -0.13483801
0.37592444 0.016040443 -0.2941625 1.1479558 -1.0562911 1.4337234 -1.328384 -0.5179181
-0.8112627 -0.5198599 0.045727767 0.016032191 -0.79866916 -1.177986 -0.10272272 0.02115918
-0.05505966 -0.6197595 0.045933392 -0.44904345 -1.1925154 -0.32825282 -0.6689859 0.045260645
-0.15937157 -0.99178666 2.1628268 -0.3379575 -0.02283714 -0.4561845 0.03460243 0.025928568
0.043038823 -1.2982893 -1.5172188 0.82770205 -0.37117884 0.008007649 -0.027806096 0.016918277
-0.029587157 -0.058041878 -1.0835632 -0.11400771 -0.71622825 0.010376788 -0.50169545 -0.68482137
0.03186761 -0.03289483 -0.80660945 0.027281025 -0.5498403 1.4784836 -0.61614597 -0.3360882
00000000: c1ac c5bd 8518 adbb 2e16 59bc 0d8a d23f
00000010: 5cd0 a4be 80a3 233c f72f bb3e 4269 c4be
00000020: 4186 d43c 6a5c 5fbe 97c2 943e 092c 8abe
00000030: 5cb3 8fbc 6952 3b3d 8fda e9be da7b 18bf
00000040: bb9a c0be 989b 3fbe 8458 a4be 196e a1bc
00000050: 3c37 363d b5dc a7bd 9bcf 77bf 4d79 99bf
00000060: a501 89be d5a8 823e 66af e5bf 8b1e b83c
00000070: cb04 0bbf 9e10 68bd 92c8 70bf 25a5 4fbf
00000080: a27a e73c 7d9f 76bf 2b5c 29bf e6a0 2ebf
00000090: 6d1e 893b f26f 31bf d499 433d 86bf a4be
000000a0: d0a6 2fbd 84c1 43bd 99ce 823f 1a2c 31bd
000000b0: 4ce2 883d f4a1 99bc 4942 26bd 14dd 26bb
000000c0: 2d00 c6bc f058 ad3e e189 c73c 71fd f43e
000000d0: 0a09 213c 9462 1240 c563 95be d448 bebc
000000e0: bdf7 51bf 9362 853e 6795 0abf 28ec dd3f
000000f0: af59 063f 399c bfbe 58bb 203d d4ca 1b3f
00000100: 32ae c4be f108 ad3f 10c3 84bd 04fe 583e
00000110: 7028 c6bc 8b67 0c3b 401b 3bbd af24 a0bf
00000120: 2aa6 e93c 4f8f 8dbe 4f6c d83e fc7e 4fbf
00000130: 3d80 0d3d cacb 81be 2fe7 86bd e545 dbbe
00000140: 3a0a 99bc a773 673e 3451 82bf 10f9 353c
00000150: ed82 98bc 8c36 c4bc 1896 13bb 1fa9 223e
00000160: 03a8 a9bf 3c3e 85bd 85fe d2be 5e79 04bf
00000170: 20aa a23e 40e8 25bc b0c3 b03e d359 b0be
00000180: 97ad 03bd 62bf 1040 b1f1 8ebe 9ce6 1abf
00000190: c747 1ebd ec39 e8bc 07e7 4c3e 1d71 5dbc
000001a0: ddfe bf3e bae1 123d deb6 af3c 80e1 40be
000001b0: ef74 273d e0e8 f83c 55e1 8c3c ce55 f6bd
000001c0: 6897 4c3e d28b edbc 8caf 013c a1b7 be3f
000001d0: 2d42 cf3e 2095 d33e 061f ab3c cb58 59bf
000001e0: 168d 1dbd 76c4 81bc 8754 11bf b2c1 8e3d
000001f0: 2053 f4bc 7db3 a83e ca0d 5cbd 40f4 1bbd
00000200: dd2a 593b ff11 2abf e0ab fe3c 6a5d 42bf
00000210: 98c6 f2be 30b6 943d 2d6a 01be 8138 1dbf
00000220: c824 463f bd5a 6d3d 42cc 8d3c 28b0 5a3e
00000230: 1d02 19bf f340 0abe 3842 d03b 2cc1 9a3f
00000240: f11a ea3e 2596 29bd be41 c6bd 150a 5fbf
00000250: 7851 2d3f d1f1 91bc 6514 933f 3ef8 0140
00000260: 5a75 98be b58e 0cbc 2481 ccbe 8b6b 323d
00000270: fa70 50b8 e643 d03e 0902 1b3e 0aef a83e
00000280: c03b 8f3f 90c0 66bd e7c0 9b3f 64fd 2dbf
00000290: 121a a5bd 402f 1fbc f012 f0bb 1671 993c
000002a0: e12d f6b8 b93a d8be 3c1e 76bd b80c f2bb
000002b0: dd74 5bbd bf27 19bf 44eb c1be 1019 213c
000002c0: 32e4 5bbe 7752 d3bf 57e0 393d 3877 043d
000002d0: 682f 6dbc 4523 763c 4c0d d0bc 28d8 98bd
000002e0: 0d25 273f 3f46 4e3c 9555 0abf 0264 d13b
000002f0: e437 b0be 5065 d83c ff43 fdbc 41dd 5ebd
00000300: 7da7 4a3f d5b4 6c3c 9534 8a3f 695a 443d
00000310: 7091 c0bb 47f8 2cbe 6c49 70bf fa12 0abe
00000320: 2b79 c03e 3f67 833c 789c 96be 37f0 923f
00000330: 8c34 87bf 4084 b73f 7d08 aabf 4896 04bf
00000340: eaae 4fbf 8a15 05bf 0a4d 3b3d f155 833c
00000350: 9575 4cbf 3fc8 96bf 4a60 d2bd 0456 ad3c
00000360: 3d86 61bd 8fa8 1ebf a724 3c3d 06e9 e5be
00000370: 58a4 98bf c110 a8be a942 2bbf 3a63 393d
00000380: 4d32 23be bbe5 7dbf c16b 0a40 c408 adbe
00000390: f414 bbbc 0491 e9be 47bb 0d3d 2668 d43c
000003a0: 7a49 303d 582e a6bf 3a34 c2bf 48e4 533f
000003b0: 270b bebe 8432 033c 9cc9 e3bc 3398 8a3c
000003c0: c460 f2bc 52bd 6dbd 33b2 8abf e07c e9bd
000003d0: bc5a 37bf 6703 2a3c 1d6f 00bf 7450 2fbf
000003e0: 9c87 023d bbbc 06bd f57d 4ebf 757c df3c
000003f0: 55c2 0cbf f33e bd3f bebb 1dbf c113 acbe

fc3.bias f4 [4]
0.2725188 0.48208228 0.08189703 0.37514
00000000: 9687 8b3e 7dd3 f63e a1b9 a73d 5a12 c03e
