csv_and_models/ddq_per/trained_models/double_PER_lunar_1300.pth (torch, 279406 bytes, 6 tensors)

fc1.weight f4 [256, 8]
0	0x3f3216dc	0.6956613
1	0xbfcc2c41	-1.5951005
2	0x3e5c89c4	0.21536928
3	0x400aef8b	2.1708705
4	0xbff1fc95	-1.8905207
5	0x3f18cabf	0.59684366
6	0x3eb91fe3	0.3615714
7	0xbfd69568	-1.6764345
8	0xbf4f42b8	-0.8096118
9	0xbfb8e5b3	-1.4445099
10	0xbf44d467	-0.768866
11	0x3f30f6ff	0.69126886
12	0x3e43e23e	0.19129273
13	0x3fb4e697	1.413287
14	0xbf9e8b57	-1.2386273
15	0x3f6a06cf	0.9141664
16	0xbf91eed3	-1.1401008
17	0xc07555e1	-3.8333666
18	0x3e97f110	0.29676104
19	0xbf9ca298	-1.223712
20	0x3f4444c1	0.7666741
21	0x3e692d6c	0.22771233
22	0xbe3f6725	-0.1869169
23	0xbfcc0c9b	-1.5941347
24	0x3efcd753	0.4938303
25	0xbf9644e0	-1.1739769
26	0xbe8f0eca	-0.2794097
27	0xbd7d35aa	-0.061818756
28	0xc02c4cbb	-2.6921833
29	0x3f738d2b	0.9513728
30	0x3dcad5b2	0.099040404
31	0x3e23153f	0.15926073
32	0x3f3b6bdd	0.7321146
33	0xbf820c2c	-1.0159965
34	0xbf6ed6b8	-0.93296385
35	0xbeeb305e	-0.4593534
36	0x3f51f009	0.8200689
37	0x3fc9dbe0	1.5770226
38	0x3f45a5e5	0.7720626
39	0x3ec60786	0.38677615
40	0xbe46c905	-0.1941262
41	0xc0065106	-2.0986953
42	0xbe396f56	-0.18108878
43	0xbf9d0529	-1.22672
44	0x3fd62782	1.6730807
45	0x3f56fbda	0.83978045
46	0xbec54ed5	-0.38536707
47	0xbf92f706	-1.1481636
48	0x3f16161d	0.5862749
49	0xbf570dc1	-0.8400536
50	0x3e400e95	0.18755563
51	0x3f524bfc	0.8214719
52	0xbb3b0b69	-0.0028540737
53	0xbfda617d	-1.7061001
54	0xbf84e99b	-1.0383791
55	0x3f3bc7ca	0.7335173
56	0xbf31b553	-0.69417304
57	0xc0be620f	-5.94947
58	0xbf5229c9	-0.8209501
59	0xc00a4a5c	-2.1607885
60	0xc035f815	-2.8432667
61	0xbe023c3c	-0.1271829
62	0x3e1d8d81	0.1538601
63	0xbe9e24cb	-0.30887446
64	0x3f2f85a8	0.6856332
65	0xbf2b10e0	-0.66822624
66	0x3e97e650	0.29667902
67	0xbf768aa1	-0.9630528
68	0xbf059ee5	-0.5219558
69	0xbfbb7aa9	-1.4646808
70	0xbda42acb	-0.080159746
71	0x3eae9b1d	0.34102717
72	0x3d471c21	0.04861081
73	0xbd89866c	-0.06715092
74	0xbe6a41fb	-0.22876732
75	0xbf2615af	-0.64876837
76	0x3efe7ae7	0.49703142
77	0x3f750def	0.95724386
78	0x3f5889c7	0.8458523
79	0xbf03fce8	-0.5155778
80	0xbf0886d1	-0.53330714
81	0x3d506520	0.05087769
82	0xbecd0ce5	-0.400489
83	0xbea7d6f4	-0.32781184
84	0x4025369d	2.5814583
85	0xbf598b57	-0.8497824
86	0xbf759492	-0.95929825
87	0x3f56ff7a	0.83983576
88	0x3f16de6e	0.5893315
89	0xbfd85210	-1.6900043
90	0xbf9846ac	-1.1896567
91	0xbed1e367	-0.40993807
92	0x3f806e1e	1.0033605
93	0xbfc6c4c2	-1.5528796
94	0xbfa4b87d	-1.2868801
95	0xbe6990f2	-0.22809198
96	0x3ef54881	0.4790688
97	0x3ecaab4b	0.3958381
98	0x3e452fb7	0.19256483
99	0x3eb71b39	0.35762957
100	0x3f9d6424	1.2296185
101	0x3f6a792c	0.91591144
102	0x3fa29e56	1.270457
103	0xbfe5f166	-1.7964294
104	0xbf7f4573	-0.99715346
105	0xbf6ed179	-0.9328838
106	0x3fab9566	1.3404968
107	0xbed59cdb	-0.41721234
108	0xbe395853	-0.181001
109	0xbe96ff52	-0.2949167
110	0xbe8d3914	-0.2758261
111	0xbe9a903b	-0.30188164
112	0x3fe5eb40	1.7962418
113	0xbf149346	-0.5803722
114	0x3ef0b490	0.47012758
115	0x3ff7700f	1.9331073
116	0x3e0f0d4f	0.1396992
117	0x3f24da0b	0.6439521
118	0x3f102660	0.56308556
119	0x3e9ef3fb	0.31045517
120	0xbedacc36	-0.42733926
121	0x3f5f9288	0.87332964
122	0x3dbc7ec9	0.0920387
123	0x3dea071b	0.114271365
124	0x3f871838	1.0554266
125	0x3f1f7528	0.6228814
126	0xbeaeb529	-0.3412259
127	0xbfaf7c2c	-1.3709769
128	0x3ee49935	0.44648138
129	0xbf0dcb26	-0.55388105
130	0xbef273ce	-0.47353977
131	0x3e836eed	0.25670567
132	0xbf485aec	-0.78263736
133	0xbfc3ecc6	-1.5306633
134	0xbf559e84	-0.83445
135	0x3da0de67	0.0785492
136	0xbfd5b191	-1.6694814
137	0xbe55903e	-0.20855805
138	0xbcfc051c	-0.030764155
139	0xbdf0d48f	-0.11759292
140	0xbe85e12e	-0.2614836
141	0x3fbd2bec	1.4779029
142	0xbe4d06a4	-0.20022064
143	0xc004321f	-2.0655591
144	0xbb3a0c84	-0.0028388808
145	0xbb410a25	-0.002945551
146	0xbccd015e	-0.025025066
147	0x3c00f4d1	0.007870869
148	0x408429a4	4.130083
149	0xbd6743e1	-0.05646122
150	0xbf19a508	-0.6001744
151	0x3e05a9e8	0.13053095
152	0x3e8045f4	0.2505337
153	0x3f4168fb	0.7555081
154	0xbf82d991	-1.0222646
155	0xbd02cba2	-0.03193248
156	0x3f345a97	0.7045073
157	0xbf832262	-1.0244868
158	0xbebed77d	-0.3727378
159	0xbe54173e	-0.20711991
160	0xc01aa59b	-2.4163578
161	0xbf382c91	-0.71943
162	0x3efa0921	0.4883509
163	0xbf18e7a8	-0.5972848
164	0xbe05dd89	-0.1307279
165	0xbfa4674e	-1.2844026
166	0xc002a205	-2.041139
167	0x3e9e6359	0.3093517
168	0xc012e7b9	-2.2953932
169	0x3d3a2043	0.045440923
170	0xbf0b7779	-0.54479176
171	0xbf2f96ca	-0.6858946
172	0xbf8fe908	-1.124299
173	0xbec65b8f	-0.3874173
174	0x3eb42fe9	0.35192803
175	0xbf8d4b51	-1.103861
176	0xbfd77346	-1.6832054
177	0x3e4df64b	0.20113485
178	0xbe97f4ef	-0.29679057
179	0xbef677f1	-0.48138383
180	0x3f134d4f	0.5753984
181	0xbe112099	-0.14172591
182	0x3f42562e	0.7591275
183	0xbdc50d9a	-0.09621735
184	0xbefaac35	-0.4895951
185	0xc0199810	-2.3999062
186	0xbc865975	-0.016400078
187	0x3f9432d2	1.1578009
188	0x409d9564	4.924486
189	0xbf14161c	-0.57846236
190	0x3f40d5b6	0.75326097
191	0xbeda097d	-0.42585364
192	0xbf92399f	-1.1423835
193	0xbeac65f6	-0.3367154
194	0xbf797c7c	-0.97455573
195	0x3f2508d6	0.6446661
196	0x3fad105a	1.3520615
197	0xbfbc7098	-1.4721861
198	0x3ba66080	0.0050774217
199	0xbed87ea2	-0.42284113
200	0xbe93ca65	-0.28865352
201	0xc003c32e	-2.0587878
202	0x3dd3565a	0.10319205
203	0xbfe5fd0c	-1.7967849
204	0xbff1fd89	-1.8905498
205	0x3e746a7f	0.2386875
206	0xbebb452c	-0.3657621
207	0xbfee3efe	-1.8612974
208	0x3f00f0ed	0.50367624
209	0xbf0dbc8d	-0.5536583
210	0xbf729e8e	-0.94773185
211	0x3e05e7ac	0.13076657
212	0x3f0e44d0	0.5557375
213	0x3ec33402	0.38125616
214	0x3f118d1a	0.5685593
215	0xbf4b2c62	-0.793646
216	0x3f88aadf	1.0677146
217	0xbe88c2a1	-0.2671099
218	0x3f249298	0.64286184
219	0xbf17272d	-0.5904415
220	0xbfa4b663	-1.286816
221	0x3e85e504	0.26151288
222	0xbf0867c0	-0.5328331
223	0xbc85375e	-0.016261753
224	0xbfae6e1f	-1.3627356
225	0xbd873043	-0.06601002
226	0xbfa770c7	-1.3081292
227	0xbe41026e	-0.18848583
228	0x3e300ddc	0.17192787
229	0xbf0bb5c4	-0.5457423
230	0xbfeac2b8	-1.8340673
231	0x3e72b421	0.23701526
232	0xbdaf25a9	-0.08552105
233	0xc08522a0	-4.1604767
234	0x3fe317e2	1.7741663
235	0xc01a9d0b	-2.4158351
236	0x4006fd53	2.1092117
237	0x3f00bed4	0.5029118
238	0xbd1090c2	-0.0352943
239	0x3ea6671c	0.3250054
240	0xbeb42533	-0.3518463
241	0xbeac6355	-0.33669534
242	0x3fddaa53	1.7317604
243	0x3eea7832	0.45794827
244	0xbf9efad1	-1.2420293
245	0x4000571b	2.0053165
246	0xbe840eca	-0.25792533
247	0xbf8c807f	-1.0976714
248	0xbf844bf0	-1.0335674
249	0x3e380661	0.17971183
250	0x3f35e616	0.7105421
251	0xbf324562	-0.6963712
252	0xbf7d291e	-0.98890865
253	0xbf67c366	-0.9053253
254	0xbef64c8f	-0.48105285
255	0xbeea7e56	-0.45799512

fc1.bias f4 [256]
0	0xbf1a8460	-0.6035824
1	0xbf025501	-0.50910956
2	0x3f414542	0.75496304
3	0x3a01ea28	0.00049558515
4	0xbf25a80c	-0.64709544
5	0x3ec1a749	0.3782294
6	0xbe9421a7	-0.28931925
7	0x3e9a9a37	0.30195782
8	0xbf373887	-0.7157063
9	0xbf4e7cd9	-0.8065925
10	0xbf3dc1b6	-0.74123704
11	0xbed7ee54	-0.42174017
12	0xbf8e8f78	-1.1137533
13	0x3ebcfa7c	0.36909854
14	0x3dc36fdd	0.095428206
15	0x3eb77bd1	0.35836652
16	0xbd863eb1	-0.06554926
17	0x3bf2ada4	0.0074059535
18	0xba2af71f	-0.0006521809
19	0xbf2386db	-0.6387765
20	0xbeca4639	-0.395067
21	0xbf0a3e4f	-0.54001325
22	0xbf3d87ed	-0.7403553
23	0xbeb12848	-0.34601045
24	0xbf000276	-0.50003755
25	0xbe6dbd2b	-0.23216693
26	0x3f1b632f	0.6069822
27	0xbf2ea670	-0.68222713
28	0xbeade1bd	-0.33961287
29	0xbf4f9c3c	-0.8109777
30	0xbe052908	-0.13003933
31	0xbe92ce36	-0.2867295
32	0xbec792a2	-0.3897906
33	0xbf3898e4	-0.7210829
34	0xbf78e02d	-0.97217065
35	0x3c2fad17	0.01072242
36	0xbe5d6795	-0.21621545
37	0xbe94c48b	-0.290562
38	0x3c78f7c6	0.015195793
39	0xbf5a8172	-0.8535377
40	0xbf9a004e	-1.2031343
41	0xbf828407	-1.0196542
42	0xbdd84d00	-0.105615616
43	0xbf9090bf	-1.1294173
44	0xbdb0dcf7	-0.08635896
45	0x3f0bd8a6	0.54627454
46	0xbf389135	-0.7209657
47	0x3ece53f9	0.4029844
48	0xbf680206	-0.9062809
49	0xbef17eff	-0.47167203
50	0xbe1f4155	-0.15552266
51	0xbc73a239	-0.01487022
52	0xbe94154e	-0.28922504
53	0x3e5d420b	0.21607225
54	0x3e7da977	0.24771677
55	0xbf500940	-0.81264114
56	0xbe77bfb1	-0.24194218
57	0xbf800e52	-1.000437
58	0xbf4f087e	-0.80872333
59	0xbea596fe	-0.3234176
60	0x3f426ddf	0.759489
61	0xbe9f52a9	-0.31117752
62	0x3f04b4c4	0.51838326
63	0xbf7cb98e	-0.98720634
64	0xbce2413f	-0.027619002
65	0x3dcd71a6	0.10031442
66	0x3c281cbb	0.010260756
67	0xbf8ec77c	-1.1154628
68	0xbf5342f2	-0.82524025
69	0xbf1d9f69	-0.61571366
70	0xbeb78679	-0.35844782
71	0x3e4ce4aa	0.20009103
72	0xbeada05a	-0.339114
73	0xbebe0138	-0.37110305
74	0xbf07c30f	-0.5303201
75	0xbf48dc9b	-0.7846162
76	0xbf0256c1	-0.50913626
77	0x3e8c4e13	0.27403316
78	0xbd2e1513	-0.042500567
79	0xbf5e36ac	-0.8680217
80	0x3e24eaa7	0.16105138
81	0xbea411a3	-0.32044706
82	0xbf5ce58a	-0.8628775
83	0x3e06db5f	0.13169621
84	0x3ed19430	0.4093337
85	0xbad2006e	-0.0016021857
86	0x3d407247	0.046983983
87	0x3f01ce56	0.5070547
88	0xbed6c6cb	-0.41948542
89	0x3d20c3c3	0.039249193
90	0xbd0415e9	-0.032247458
91	0xbe231779	-0.15926923
92	0xbf56b5af	-0.8387098
93	0xbeea99a7	-0.45820352
94	0x3e6c42ef	0.23072408
95	0x3e26172c	0.16219777
96	0xbe4772aa	-0.19477335
97	0x3e2ef568	0.17085803
98	0x3e1a2c05	0.15055855
99	0xbec1da94	-0.37862074
100	0x3f0a327e	0.53983295
101	0xbdc80c72	-0.09767999
102	0xbf404fd6	-0.7512182
103	0xbfb787d4	-1.4338326
104	0x3c313e02	0.0108180065
105	0x3d5f281a	0.054481603
106	0x3ed53c0f	0.41647384
107	0x3dfad209	0.12247092
108	0xbf1196d7	-0.5687079
109	0xbf1a014c	-0.6015823
110	0xbf57c122	-0.8427907
111	0xbd2dfc7f	-0.042477127
112	0xbf36e254	-0.714391
113	0xbe4323c0	-0.19056606
114	0x3d1e5070	0.03865093
115	0x3f3642b4	0.7119553
116	0xbf3a7407	-0.72833294
117	0xbf0506c9	-0.5196348
118	0x3e1e4319	0.15455283
119	0xbeb82faa	-0.35973865
120	0xbebc07ad	-0.36724606
121	0xbe02cad5	-0.12772687
122	0x3ef72658	0.4827144
123	0xbe8e30d8	-0.2777164
124	0xbe1bb7e1	-0.15206863
125	0xbe5a20aa	-0.21301523
126	0x3d75e5cb	0.0600336
127	0xbe826c37	-0.25473186
128	0x3d329c73	0.043606233
129	0xbf351050	-0.70728016
130	0xbf697db9	-0.9120746
131	0xbf5a7422	-0.85333455
132	0xbf60ab71	-0.877616
133	0xbea88763	-0.32915792
134	0xbe621887	-0.22079669
135	0x3d68e289	0.056856666
136	0xbf085b92	-0.53264725
137	0x3b76db85	0.0037667465
138	0x3b9ee8b7	0.004849519
139	0xbefa38c5	-0.48871437
140	0xbe7e715d	-0.24847932
141	0x3e6ed22b	0.2332236
142	0xbf4ae7a1	-0.7925969
143	0x3e8c9f2d	0.2746519
144	0xbef8e1a3	-0.48609647
145	0xbf805bba	-1.0027993
146	0xbe499b75	-0.19688208
147	0x3d4940e2	0.049134143
148	0xbe64d667	-0.22347413
149	0xbed11431	-0.40835717
150	0x3f00ff0a	0.5038916
151	0xbeb58415	-0.35452333
152	0xbe548d7a	-0.20757094
153	0xbefa2354	-0.48855078
154	0x3e7cfe22	0.24706319
155	0xbe838d92	-0.25693947
156	0xbf96e585	-1.1788794
157	0x3d9d0221	0.07666422
158	0x3ee0f021	0.43933204
159	0x3e3a06f7	0.1816672
160	0xbcbd1e63	-0.023085779
161	0xbf29ee69	-0.6637941
162	0xbf43bd1f	-0.7646045
163	0xbd870469	-0.06592638
164	0xbfb9749f	-1.4488715
165	0x3f481f51	0.78172785
166	0xbe9696d2	-0.29411942
167	0x3dd220b2	0.102601424
168	0x3e830202	0.2558747
169	0x3d273bc3	0.040828478
170	0xbf23a63a	-0.63925517
171	0xbe2612d4	-0.1621812
172	0xbcac137b	-0.021005383
173	0xbf3c75a5	-0.7361701
174	0xbf34b530	-0.7058897
175	0xbe12fcab	-0.14354198
176	0xbed8d67e	-0.42351145
177	0xbf5f9696	-0.8733915
178	0xbeb3f4b9	-0.35147646
179	0xbea420cc	-0.32056272
180	0xbf1196ec	-0.56870914
181	0x3dd5eaf4	0.104452044
182	0xbebb536a	-0.36587077
183	0xbf3bc450	-0.73346424
184	0x3f312802	0.6920167
185	0xbd37ce9f	-0.044874784
186	0xbf27b559	-0.6551109
187	0xbe316bbc	-0.17326254
188	0x3e829c08	0.25509667
189	0xbf5b2206	-0.8559879
190	0xbe42373e	-0.18966386
191	0x3f109231	0.5647307
192	0xbcbcf73c	-0.02306711
193	0xbee1b83f	-0.4408588
194	0x3ef2e2da	0.474387
195	0x3ea62b6f	0.32455012
196	0x38211330	3.840326e-05
197	0xbe881840	-0.26581
198	0x3d7e09b2	0.062020965
199	0x3b7e6468	0.003881717
200	0xbf9eeca6	-1.2415969
201	0x3efb14d9	0.49039343
202	0xbf11c281	-0.56937414
203	0xbd28ace6	-0.041180514
204	0xbf8bf6dd	-1.0934712
205	0xbf39bf6d	-0.7255772
206	0xbf26ebef	-0.65203756
207	0xbe5bc782	-0.21462825
208	0xbe8e04dc	-0.27738082
209	0xbf21cb58	-0.632009
210	0xbd7b463e	-0.061346285
211	0xbf53aba5	-0.82683784
212	0xbf29ecd9	-0.66377026
213	0xbe0397ed	-0.12850924
214	0xbf615544	-0.8802073
215	0xbd365c02	-0.04452134
216	0xbf331e3e	-0.6996802
217	0xbf0596f8	-0.52183485
218	0xbf967f96	-1.1757686
219	0xbef60ac9	-0.48055103
220	0xbe34fdb5	-0.17674907
221	0xbf42bdce	-0.7607087
222	0xbee1750b	-0.4403461
223	0x3f0bfde8	0.54684305
224	0xbf25305c	-0.64526916
225	0x3e01b44a	0.12666431
226	0xbf78511c	-0.96998763
227	0xbf456f25	-0.7712272
228	0xbf149811	-0.58044535
229	0xbf18150f	-0.5940713
230	0xbef12de9	-0.4710534
231	0xbf5acafb	-0.85465974
232	0xbc44049a	-0.011963988
233	0xbe342b51	-0.17594649
234	0xbbb51e39	-0.0055272845
235	0x3f0f0325	0.55864173
236	0xbe9799fa	-0.29609662
237	0xbf04c8cd	-0.518689
238	0xbd1437ba	-0.036185957
239	0x3d28b6f7	0.041190114
240	0xbef95a46	-0.48701686
241	0x3e65fc71	0.2245958
242	0xbee45944	-0.44599354
243	0xbe8400fe	-0.25782007
244	0xbf40d811	-0.7532969
245	0xbf748733	-0.955188
246	0xbecdd4b6	-0.40201348
247	0x3e068ec5	0.131404
248	0xbd23a92c	-0.039956257
249	0x3b3fcbf4	0.0029265853
250	0xbe9361b4	-0.2878548
251	0x3e2d5c59	0.16929759
252	0x3d91cc56	0.07119052
253	0xbd7a6fc3	-0.06114174
254	0xbd8b7e02	-0.068111435
255	0x3e491ac9	0.19639124

fc2.weight f4 [256, 256]
0	0xbec17fdc	-0.3779286
1	0x3ecff834	0.4061905
2	0x3c8231ca	0.015892882
3	0xc006fe22	-2.109261
4	0x3fba9d0d	1.4579178
5	0x3ea081ae	0.31348938
6	0xbf7695c4	-0.96322274
7	0xbedf9d4c	-0.43674695
8	0x3f82845b	1.0196642
9	0xc04cfda7	-3.2029817
10	0x3dad8d9b	0.08474275
11	0xbfb305f4	-1.3986192
12	0xc008a265	-2.1349118
13	0xbea73dbe	-0.32664293
14	0xbf09f6d0	-0.5389223
15	0xc024f9f9	-2.5777571
16	0xbf08688d	-0.5328453
17	0xbe87765a	-0.26457483
18	0x3f8dc8b4	1.1076875
19	0x4031a2e4	2.775567
20	0xbd46e14b	-0.0485547
21	0xc04caef2	-3.1981778
22	0x3f02498e	0.50893486
23	0xbf5cbfd4	-0.86230206
24	0xbee18efd	-0.44054404
25	0xbf212bc1	-0.6295739
26	0x3ed58db4	0.41709673
27	0x3f3d2ce9	0.7389665
28	0xbf85c88d	-1.0451828
29	0x3f647464	0.892401
30	0xbebca9e8	-0.36848378
31	0x3d887d69	0.06664545
32	0xbf931d13	-1.1493248
33	0xbeea09ce	-0.45710605
34	0xbfd2bb5d	-1.6463429
35	0x3e7790d6	0.24176344
36	0x3ee4e23f	0.44703862
37	0xbfaf321a	-1.3687165
38	0xbd8a28c2	-0.06746055
39	0xc0537988	-3.3042927
40	0xbf35f0ed	-0.7107075
41	0x3e9b87f2	0.30377156
42	0xbfd36c70	-1.6517467
43	0x3eaa5f5b	0.33275875
44	0xbffaafe0	-1.9584923
45	0x3f1cb305	0.6121066
46	0x3f0b1753	0.54332465
47	0x3eb8d5b7	0.3610055
48	0xbf6d4533	-0.92683715
49	0x3f3edf7d	0.74559766
50	0x3eb697f1	0.35662797
51	0x3e32901a	0.17437783
52	0xbfabfa62	-1.3435786
53	0xbf9acf37	-1.2094487
54	0x3ead4443	0.33841142
55	0xbf7f7a13	-0.99795645
56	0xbf7544c2	-0.9580804
57	0xc00253e4	-2.0363703
58	0x4036382b	2.8471782
59	0xbd468022	-0.04846204
60	0xbfe85b42	-1.815285
61	0xbe0f6923	-0.1400495
62	0x3ea1d4bb	0.31607613
63	0xc026f230	-2.608532
64	0xbf00cfb8	-0.50316954
65	0x3fb55b3c	1.4168468
66	0x3c47de7f	0.012199043
67	0x3dfe07da	0.12403841
68	0x4056ed90	3.3582497
69	0x3f1cad04	0.612015
70	0x3f49a12d	0.7876156
71	0xbdb57c05	-0.088615455
72	0x3f39352f	0.72346777
73	0x3f513e52	0.8173572
74	0xc000a3a0	-2.0099869
75	0xbf04c662	-0.5186521
76	0x3fe0f2de	1.7574117
77	0xbf377982	-0.7166978
78	0x3fe7ca49	1.8108608
79	0x3f396039	0.7241245
80	0xbf7c1311	-0.98466593
81	0xbfeb4474	-1.8380265
82	0xbf3597af	-0.70934576
83	0x3f6189c4	0.8810084
84	0xbf8eb320	-1.1148415
85	0xbf06c400	-0.5264282
86	0xbe72a3c8	-0.2369529
87	0xbfa854f5	-1.3150927
88	0xbf73d80d	-0.9525154
89	0xbe7ff847	-0.24997054
90	0xc0850b8e	-4.1576605
91	0x3e5aa686	0.21352586
92	0xbe52efea	-0.20599332
93	0xbf0a9047	-0.541264
94	0xbe069e55	-0.13146336
95	0xbf3ca517	-0.7368941
96	0x3df11489	0.11771495
97	0x3eaed043	0.34143266
98	0x3f27d9ec	0.655669
99	0xc01d5e54	-2.4588823
100	0xbe1af7b2	-0.15133551
101	0xbea5f4f7	-0.32413456
102	0xbf58bb96	-0.84661233
103	0xc0101325	-2.2511685
104	0x3d36ecf8	0.044659585
105	0x3eff24f6	0.49832886
106	0x3f6a161c	0.91439986
107	0x3ee35f03	0.44408426
108	0xbf305711	-0.6888285
109	0x4062a9f6	3.5416236
110	0x3ed02cf4	0.40659297
111	0x3f6bdda1	0.92135054
112	0x3e04ee4b	0.12981527
113	0x3f32d7a0	0.6986027
114	0x3f113007	0.5671391
115	0x3c830bc5	0.015996823
116	0xbe9d78a6	-0.3075611
117	0x3e399bd3	0.18125848
118	0xbedb5c93	-0.42844066
119	0x3e8276a6	0.25481147
120	0xbec5be75	-0.3862187
121	0x3e955999	0.2916992
122	0x3ecd621a	0.40113908
123	0x3f202203	0.625519
124	0xbede5e4f	-0.43431327
125	0xbd6c198a	-0.057641543
126	0x3f0ca24e	0.5493516
127	0x3f3a8173	0.72853774
128	0xbfac6c77	-1.3470601
129	0xbeb47e40	-0.3525257
130	0xbf5a5c19	-0.8529678
131	0x3fb8540a	1.4400647
132	0xc07af4ad	-3.9211838
133	0xbefe3991	-0.49653295
134	0x3c206665	0.009790038
135	0xbf83a647	-1.0285119
136	0x3d2dc590	0.04242474
137	0xbf157c5f	-0.583929
138	0xbc43bd53	-0.011946994
139	0x3f4518e5	0.7699111
140	0x3e9746a6	0.29546088
141	0xbf3cd95d	-0.7376917
142	0x3f301f67	0.68797916
143	0x3f9b29b4	1.2122102
144	0x3e4779a7	0.1948
145	0x3fba5833	1.4558166
146	0xbf29897f	-0.6622543
147	0x3e78e8bf	0.24307536
148	0xbfe933d9	-1.8218948
149	0xbf853e7f	-1.0409697
150	0x3f525322	0.821581
151	0x3f039056	0.51392114
152	0x3e126806	0.14297494
153	0xbf3075e0	-0.6892986
154	0x3f00560d	0.50131303
155	0x3e085a40	0.13315678
156	0x3f9710e9	1.1802036
157	0x3f8df54b	1.1090482
158	0xbf857e98	-1.0429258
159	0xbf51b733	-0.81920165
160	0xbe460c2a	-0.19340578
161	0xbf9606ce	-1.1720827
162	0xbed8e991	-0.42365697
163	0x3f04d73e	0.51890934
164	0x3ed37e03	0.41307077
165	0xbdef8773	-0.11695757
166	0xbfddd951	-1.7331945
167	0xbf87185e	-1.0554311
168	0xbe4f360d	-0.20235462
169	0xbfb59c3b	-1.4188303
170	0x3fe2a423	1.770634
171	0x3e3d7c58	0.18504465
172	0x3e938cd9	0.28818396
173	0xbf3b4001	-0.7314454
174	0xbe64bb14	-0.2233699
175	0xbfcc9e42	-1.5985796
176	0x3fbc2d8b	1.4701399
177	0xbfbd5e09	-1.4794322
178	0x3ee0b245	0.4388601
179	0xbeb7e0fa	-0.3591383
180	0xbf45504f	-0.77075666
181	0xbf2c000e	-0.67187583
182	0xbf31243b	-0.6919591
183	0xbe30ccdd	-0.17265649
184	0x3e9f7b52	0.31148773
185	0x3f428d2e	0.75996673
186	0x3ef5f98b	0.4804195
187	0xc08796a6	-4.2371397
188	0x3f4af925	0.79286414
189	0x3f5fe71c	0.8746202
190	0xbf476e93	-0.779031
191	0xbf2849cf	-0.6573762
192	0xc04de91c	-3.2173529
193	0xbf025c8b	-0.5092246
194	0x3e444c8a	0.19169822
195	0x3faa5dac	1.3309836
196	0x3e7a071c	0.24416775
197	0xbf3e5874	-0.7435372
198	0x3f134765	0.57530814
199	0xbf687cb2	-0.9081527
200	0xbeed3882	-0.46332175
201	0xbf9425aa	-1.1573994
202	0xbf69b462	-0.9129087
203	0xbdca4f04	-0.09878352
204	0xbfbec3ea	-1.4903538
205	0x3e464ebd	0.19365974
206	0xbe6336c5	-0.22188862
207	0xbf2b256b	-0.6685397
208	0xbfc75860	-1.5573845
209	0x3cc129e6	0.023579549
210	0xbf92142b	-1.1412405
211	0x3f92d43c	1.1471019
212	0x402b5631	2.6771357
213	0x3b99e225	0.004696148
214	0xbfaf1428	-1.3678026
215	0xbf56505d	-0.83716375
216	0x3eb46cb1	0.35239175
217	0xbf13cfcf	-0.57738966
218	0x3ea1b634	0.31584322
219	0xbd901f94	-0.07037273
220	0xbeb98845	-0.36236778
221	0xbf3d7180	-0.7400131
222	0xbf921cd6	-1.141505
223	0xc006256d	-2.0960343
224	0x3fc1d8ef	1.5144328
225	0xbf5dd07d	-0.8664625
226	0xbf3af085	-0.73023254
227	0xc014955f	-2.321617
228	0x3f0cf6be	0.55064
229	0x4001c035	2.0273564
230	0xc08ed6de	-4.463729
231	0x3cf0c2d7	0.029389782
232	0x3ee558b1	0.4479423
233	0x3d6ba8a5	0.05753388
234	0xbf9299c9	-1.1453182
235	0xbd44fcc2	-0.04809261
236	0xbf85f95a	-1.0466721
237	0xbffd2035	-1.9775454
238	0x3ec5c1b0	0.38624334
239	0x3fab41c6	1.3379447
240	0xbfccc9c3	-1.5999073
241	0xbf92f2d1	-1.1480352
242	0x3f47be1b	0.7802445
243	0x3ec1277d	0.3772544
244	0xbf7dd9bd	-0.9916037
245	0x3ed2c1b8	0.4116342
246	0x3d0ecef5	0.03486534
247	0x3f103b7f	0.56340784
248	0xbfbd0f90	-1.4770374
249	0xbca7b8bf	-0.020473836
250	0x3f46808c	0.77539897
251	0xbe32cdf5	-0.17461379
252	0xbf706e8d	-0.9391869
253	0xbf824b41	-1.0179216
254	0xbee113f5	-0.43960539
255	0x3e884467	0.26614687

fc2.bias f4 [256]
0	0xbe086853	-0.13321047
1	0xbdb0ea1d	-0.086384036
2	0xbda90706	-0.08253293
3	0xbf236194	-0.6382077
4	0xbdf6c523	-0.120493196
5	0xbd41b0ab	-0.047287624
6	0x3f16348f	0.5867395
7	0x3eb25f82	0.34838492
8	0xbbfb6b4c	-0.007672703
9	0xbe60718a	-0.21918312
10	0x3eb338b7	0.35004207
11	0x3f34a730	0.7056761
12	0x3cdc4f52	0.026893292
13	0xbf1513e8	-0.582335
14	0x3f1cd828	0.6126733
15	0xbe8a2105	-0.26978317
16	0xbf135b7a	-0.5756146
17	0xbf687e79	-0.9081798
18	0xbcfc599c	-0.030804448
19	0xbd8eeff5	-0.06979362
20	0x3c908841	0.017643096
21	0xbf135f49	-0.5756727
22	0xbce53f97	-0.027984424
23	0xbf24ce21	-0.6437703
24	0x3e1b5232	0.15168074
25	0x3e9fbd9c	0.31199348
26	0xbe0378d1	-0.12839057
27	0xbd817660	-0.06321406
28	0x3e1bce59	0.15215434
29	0xbda4a16e	-0.08038603
30	0x3f049106	0.5178379
31	0xbe39febc	-0.1816358
32	0xbd831d34	-0.064020544
33	0xbeba461e	-0.3638162
34	0x3f18b455	0.59650165
35	0xbf046521	-0.5171681
36	0xbdcb36bc	-0.09922549
37	0xbedeb001	-0.43493655
38	0xbe0e0601	-0.13869478
39	0x3e1fe8b9	0.1561612
40	0xbd86fea9	-0.06591541
41	0x3c93f875	0.01806281
42	0xbea01187	-0.31263372
43	0xbd8801d6	-0.06640975
44	0xbd83c68b	-0.064343534
45	0xbdcba547	-0.099436335
46	0xbd8e1922	-0.069383875
47	0x3e737b8f	0.23777603
48	0xbda5ee42	-0.08102085
49	0xbdcd8d5a	-0.10036726
50	0xbc983f85	-0.018584976
51	0x3e9e611a	0.30933458
52	0x3c616c9f	0.013758807
53	0xbf869691	-1.0514699
54	0x3f189b4d	0.5961197
55	0xbbbc7110	-0.005750783
56	0xbf5c1165	-0.8596404
57	0x3f0d4117	0.55177444
58	0xbca53613	-0.020167386
59	0xbef19b06	-0.47188586
60	0x3e54c010	0.20776391
61	0xbed18ac5	-0.40926185
62	0xbcad4ef1	-0.021155806
63	0x3da681d1	0.08130229
64	0xbf18688e	-0.5953454
65	0xbf502bcf	-0.81316847
66	0xbcd4042e	-0.0258809
67	0x3e8d1f22	0.27562815
68	0xbd6121c4	-0.054963842
69	0xbd817f3e	-0.06323098
70	0xbd9fa5ae	-0.07795273
71	0xbed9f5c8	-0.4257033
72	0xbd0de1cc	-0.034639165
73	0x3ea325c1	0.3186474
74	0x3f2805e4	0.6563399
75	0xbec4a014	-0.3840338
76	0xbbc7c13c	-0.0060960334
77	0xbee7d841	-0.45282176
78	0x3c126465	0.008935069
79	0xbce80531	-0.028322788
80	0xbda50b2c	-0.080587715
81	0xbf1a2f38	-0.602283
82	0x3d97108f	0.07376205
83	0xbcd9cd1f	-0.026587067
84	0xbc6a8ce8	-0.014315821
85	0xbdc2c2eb	-0.09509834
86	0xbc9946f0	-0.018710583
87	0xbd9ef555	-0.07761637
88	0xbf031c70	-0.5121527
89	0xbd0ed5f2	-0.034872003
90	0xbe9d1992	-0.3068357
91	0xbe87eae9	-0.2654641
92	0x3e80a803	0.25128183
93	0xbcd79fe8	-0.026321366
94	0xbf3b04cf	-0.7305421
95	0x3ecb37ea	0.39691097
96	0xbd07d03b	-0.03315757
97	0xbed8c2d9	-0.42336157
98	0xbde30c0d	-0.11086283
99	0xbf240b30	-0.6407957
100	0xbd5f25f1	-0.054479543
101	0xbd1e60d9	-0.03866658
102	0xbdefb471	-0.11704338
103	0x3c8d7ecc	0.017272376
104	0xbdcc5d84	-0.09978774
105	0x3b66b5a1	0.0035203474
106	0x3d0e97ea	0.034812845
107	0xbdf9a9ba	-0.12190576
108	0xbd11cebf	-0.03559756
109	0xbde5871f	-0.11207413
110	0xbd1ecff5	-0.038772542
111	0xbd2e71b4	-0.042588905
112	0xbd854434	-0.06507149
113	0x3b379a7c	0.0028015664
114	0xbd9cdc23	-0.07659175
115	0xbee14b92	-0.44002968
116	0xbf949968	-1.1609316
117	0xbea8bd2f	-0.32956836
118	0xbc9949b5	-0.018711904
119	0xbf1c735a	-0.6111351
120	0x3addaaf2	0.0016911908
121	0x3b8166a4	0.0039490033
122	0x3e85cdae	0.26133484
123	0xbe387b25	-0.18015726
124	0xbdb0261a	-0.08601017
125	0xbe8231a1	-0.2542849
126	0xbd846fcf	-0.06466638
127	0xbe2f7241	-0.17133428
128	0xbdb16de7	-0.0866354
129	0xbf8881db	-1.0664629
130	0xbcbf545d	-0.023355657
131	0x3cc66512	0.024218116
132	0x3e9edb3b	0.31026635
133	0xbf1411bf	-0.5783958
134	0x3e0ea2ed	0.13929339
135	0xbf12c668	-0.57333994
136	0x3e339282	0.17536357
137	0xbdc2102f	-0.09475743
138	0xbd7f6da8	-0.062360436
139	0x3e536614	0.20644408
140	0x3e2a5585	0.16634186
141	0xbf1a82a8	-0.60355616
142	0xbcf1bcde	-0.029509004
143	0xbf1b6a3d	-0.6070898
144	0x3eed341b	0.46328816
145	0xbccbd81d	-0.024883324
146	0x3c58fcb0	0.013243839
147	0x3ee24ba2	0.44198328
148	0xbec57f61	-0.38573745
149	0xbd93aeb4	-0.07211056
150	0xbf5d4aca	-0.86442244
151	0xbefa8c33	-0.4893509
152	0xbec81f48	-0.39086366
153	0x3b2d8b7e	0.002648085
154	0x3e5233e5	0.20527609
155	0x38720d38	5.7709607e-05
156	0xbd8153ef	-0.06314837
157	0x3f10e99d	0.56606466
158	0xbea0c097	-0.31396934
159	0xbf51b715	-0.81919986
160	0xbea9ace9	-0.33139732
161	0xbd98d38a	-0.07462223
162	0xbc384677	-0.011247269
163	0xbdcf380a	-0.101181105
164	0xbed7f2ac	-0.4217733
165	0xbd862d42	-0.06551601
166	0xbdbc8ed3	-0.09206929
167	0xbdc8d6b8	-0.09806579
168	0xbd73438d	-0.059390593
169	0x3e5a1f34	0.21300966
170	0xbe033ece	-0.12816927
171	0xbdc4e4cf	-0.09613954
172	0xbdb0c177	-0.086306505
173	0x3f351324	0.7073233
174	0xbde3d7df	-0.111251585
175	0x3a8d8e4a	0.0010799852
176	0x3ee928c6	0.4553892
177	0x3de3c0c7	0.11120754
178	0x3d002d6a	0.03129331
179	0xbdc2dd2a	-0.0951484
180	0xbd1366f4	-0.035986856
181	0xbe929482	-0.28628927
182	0xbdd0d54c	-0.10196933
183	0xbe4ffcdd	-0.20311303
184	0x3f11fe56	0.5702871
185	0xbd33e25f	-0.043917056
186	0xbf43e155	-0.76515704
187	0x3cb21172	0.021736834
188	0x3ed232ee	0.4105448
189	0xbd5f3267	-0.054491427
190	0xbda60ef6	-0.08108322
191	0xbccb32eb	-0.024804553
192	0x3e82dfc4	0.25561345
193	0xbd4681c1	-0.048463587
194	0x3d7901ac	0.06079261
195	0xbc0509e5	-0.008120035
196	0xbda6455a	-0.081186965
197	0xbf6470a4	-0.89234376
198	0xbe9c7e40	-0.3056507
199	0xbf0b3267	-0.5437378
200	0x3dff8101	0.124757774
201	0x3a8b397d	0.0010621991
202	0xbf0c9a06	-0.5492252
203	0xbece73ec	-0.40322816
204	0xbf0fbcff	-0.5614776
205	0x3e569d62	0.20958474
206	0xbf039da2	-0.51412404
207	0x3f489cfe	0.7836455
208	0xbe30ec9b	-0.17277758
209	0xbf1f1dbf	-0.62154764
210	0x3bc414af	0.005983911
211	0xbc8d38e0	-0.017239034
212	0xbf037bb3	-0.51360625
213	0xbe689953	-0.22714739
214	0xbee264ae	-0.44217438
215	0xbb09960c	-0.0020993976
216	0xbdba5ca3	-0.090997
217	0x3db37916	0.0876333
218	0xbd9f9e39	-0.077938505
219	0x3f07f910	0.53114414
220	0xbef7aba1	-0.4837313
221	0x3f657d47	0.89644283
222	0xbe90fefb	-0.28319535
223	0xbcac231c	-0.021012835
224	0x3e4ff718	0.20309103
225	0x3dfb3e99	0.12267799
226	0xbf414ea3	-0.75510615
227	0xbef5962a	-0.4796613
228	0xbd4b8c25	-0.0496942
229	0x3e593de6	0.21215019
230	0xbe597fc4	-0.21240145
231	0xbd352d68	-0.044232756
232	0xbd83952a	-0.06424935
233	0xbf09f3ee	-0.5388783
234	0xbf52c9d6	-0.8233923
235	0x3ef08244	0.46974385
236	0x3e4600d9	0.19336261
237	0xbe80eef8	-0.2518232
238	0xbde8412d	-0.11340556
239	0xbd4d5e55	-0.05013879
240	0xbbcf8c11	-0.006333836
241	0xbdb204f4	-0.08692351
242	0xbede4f0f	-0.43419692
243	0x3e810169	0.25196388
244	0xbf749e9f	-0.95554537
245	0x3c268640	0.010163844
246	0xbf0e9846	-0.557011
247	0xbe9b5433	-0.30337676
248	0xbd957844	-0.072983295
249	0xbce4e609	-0.02794172
250	0x3e960113	0.29297695
251	0xbb530281	-0.0032197537
252	0x3e58ffc1	0.21191312
253	0xbf4996cb	-0.78745717
254	0xbd846489	-0.06464488
255	0xbd142a67	-0.03617325

fc3.weight f4 [4, 256]
0	0x3d6afb42	0.057368524
1	0xbbad1885	-0.005282464
2	0xbc59162e	-0.013249917
3	0x4001497c	2.0201101
4	0x3d511341	0.051043753
5	0x3c23a380	0.009987712
6	0x3eeecc85	0.4664041
7	0xbeddcb99	-0.43319395
8	0x3cd48641	0.025942924
9	0xbf23f771	-0.6404944
10	0x3e8d0b85	0.2754785
11	0xbeb15a12	-0.3463903
12	0xbc8fb35c	-0.01754158
13	0x3d3b5269	0.04573289
14	0xbf5de2fa	-0.86674464
15	0xbe5a4ca0	-0.21318293
16	0xbf526bdb	-0.82195824
17	0x3fba901e	1.4575231
18	0xbf06ecdc	-0.5270517
19	0xbca16e19	-0.019705819
20	0x3d36373c	0.04448627
21	0x3f9f9480	1.2467194
22	0xbf77cf9b	-0.96801156
23	0xbf419228	-0.7561364
24	0x3f749326	0.9553703
25	0x3eaec8a4	0.34137452
26	0xbfacea87	-1.3509072
27	0x3cb81e8b	0.022475502
28	0xbfabefff	-1.3432616
29	0xbd68109e	-0.056656472
30	0xc0782019	-3.876959
31	0xbf3d48e8	-0.7393937
32	0xbbdcaab3	-0.006734216
33	0xbfa9d1d3	-1.3267158
34	0xbf9a260f	-1.2042865
35	0xbf574b06	-0.8409885
36	0x3b891e6d	0.0041845352
37	0xbecd668d	-0.40117303
38	0x3d4399d4	0.047754124
39	0xbd565300	-0.05232525
40	0xbd2fa6d0	-0.042883694
41	0xbd43c184	-0.047791973
42	0x3f82ce99	1.0219299
43	0xbd312c1a	-0.04325495
44	0x3d88e24c	0.06683788
45	0xbc99a1f4	-0.018753983
46	0xbd264249	-0.04059056
47	0x3ecda1f7	0.40162632
48	0x3c1609e0	0.009157628
49	0x3fb68af4	1.4261155
50	0x3cc789e1	0.024357738
51	0x3f1b5ab5	0.6068528
52	0x3c21090a	0.009828815
53	0x3fdbf83f	1.7185134
54	0x3e61e81e	0.22061202
55	0xbcbe48d4	-0.023228087
56	0xc0021f70	-2.0331688
57	0x3eec854b	0.46195444
58	0xbf8032ec	-1.001554
59	0x3fd283d2	1.6446478
60	0x3f00733b	0.5017583
61	0x3f4c2e4e	0.79758155
62	0x3d20bb58	0.039241165
63	0x3e7ead5e	0.24870822
64	0x3f648171	0.8926001
65	0x3fa33373	1.2750076
66	0xbd84c310	-0.06482518
67	0x3ecafbe9	0.39645317
68	0xbcc62870	-0.024189204
69	0x3b0c678b	0.002142402
70	0xbd3b1b40	-0.045680285
71	0xbfa024af	-1.2511195
72	0x3ce9a62a	0.028521616
73	0xbe74b574	-0.23897344
74	0x3f064dec	0.5246265
75	0xbf4f7efc	-0.8105314
76	0x3d0d803d	0.034546126
77	0xbe87e76b	-0.26543745
78	0xbd86e72f	-0.065870635
79	0xbef88099	-0.48535612
80	0xbc990a3a	-0.018681634
81	0x3e1d46de	0.15359065
82	0xbf1c38e7	-0.61024326
83	0x3c35f910	0.011106744
84	0xbc9882ed	-0.018617118
85	0xbcc4368c	-0.023951791
86	0xbb139618	-0.0022519883
87	0x3e39b40b	0.18135087
88	0xbfa9a803	-1.3254398
89	0xbd853e3c	-0.06506011
90	0xbeafbbd6	-0.34322995
91	0xbfff54b9	-1.994773
92	0x3f0f123c	0.558872
93	0xbc25e840	-0.0101261735
94	0xbf188331	-0.5957518
95	0xc01f293e	-2.4868922
96	0xbd03ad97	-0.03214797
97	0x3fdc6805	1.7219244
98	0x3f013561	0.50472075
99	0xbe7deeac	-0.24798077
100	0xbd1e47c7	-0.03864267
101	0xbce839ec	-0.028347932
102	0xbfa0d780	-1.2565765
103	0xbc5d711d	-0.013515738
104	0x3fbb498f	1.4631823
105	0x3d12e1ba	0.0358598
106	0x3cafb6de	0.021449503
107	0xbd28e831	-0.04123706
108	0x3d2774ef	0.040883
109	0x3cf8e8e0	0.030384481
110	0x3c8ce155	0.01719729
111	0xbdf655ce	-0.12028085
112	0x3f408a61	0.7521115
113	0xbced8bd2	-0.028997336
114	0x3c01af8c	0.007915389
115	0x3fbaa7af	1.4582423
116	0x3e03f047	0.12884627
117	0x3fbbc30c	1.4668899
118	0x3cab1f06	0.020888817
119	0xbf58b792	-0.84655106
120	0xbd1d8d16	-0.03846463
121	0x3f8be976	1.0930622
122	0xbeccb0cf	-0.39978644
123	0x3d8ec1b2	0.06970538
124	0xbcf45320	-0.029824793
125	0x3ffbdf19	1.9677459
126	0xbd5c0dca	-0.053724088
127	0xbcf058fb	-0.029339304
128	0x3b592add	0.003313712
129	0xbec9df63	-0.39428243
130	0x3cfeabe0	0.031087816
131	0xbf00fb5e	-0.50383556
132	0xbf19f038	-0.6013217
133	0xc03aab7f	-2.9167173
134	0xbf3e981a	-0.7445084
135	0xbf86a619	-1.0519439
136	0x3f3067b3	0.6890823
137	0x3d6d5abd	0.057947863
138	0x3c8dcc42	0.017309312
139	0x3ebcad50	0.36850977
140	0xbf36af36	-0.713611
141	0xbe1a13c3	-0.15046601
142	0x3bd04238	0.00635555
143	0x3fc4570a	1.5339062
144	0x3f1255d3	0.5716221
145	0xbd299625	-0.041402955
146	0xbdc641be	-0.09680508
147	0xbf94efde	-1.1635702
148	0xbf8f0495	-1.1173273
149	0xbc91f1d1	-0.017815502
150	0x3f931465	1.1490599
151	0x402c2865	2.6899655
152	0xbe98237f	-0.2971458
153	0xbc0c8eb5	-0.008578946
154	0xbe6eef05	-0.23333366
155	0x3d326b8b	0.043559592
156	0xb85070fa	-4.9696282e-05
157	0x3f0528db	0.52015465
158	0xbf822e7a	-1.0170434
159	0x3ee14b73	0.44002876
160	0x3f408eb0	0.75217724
161	0xbd66c090	-0.056335986
162	0x3f9bc0e7	1.2168244
163	0xbf2bd31d	-0.6711901
164	0x3ee9745e	0.45596594
165	0xbc1f2f40	-0.009715855
166	0xbbf012f0	-0.0073264763
167	0x3c997116	0.018730681
168	0xb8f62de1	-0.0001173874
169	0xbed790e4	-0.4210273
170	0xbd761e3c	-0.060087427
171	0xbbf20cb8	-0.00738677
172	0xbd5b74dd	-0.053578246
173	0xbf34e628	-0.7066369
174	0xbfa488d8	-1.2854261
175	0x3c211910	0.0098326355
176	0x3d8b078d	0.067885496
177	0xbfb8af48	-1.4428492
178	0x3d39e057	0.045379963
179	0x3d047738	0.03234026
180	0xbc6d2f68	-0.014476635
181	0x3f5c141c	0.85968184
182	0xbcd00d4c	-0.025396965
183	0xbd98d828	-0.074631035
184	0x3f3b8d4e	0.7326249
185	0x3c4e463f	0.01258999
186	0xbf0a5595	-0.5403684
187	0x3bd16402	0.0063900957
188	0x3e893f52	0.26806122
189	0x3cd86550	0.026415497
190	0xbcfd43ff	-0.030916212
191	0xbd5edd41	-0.054410223
192	0x3f6aed05	0.91767913
193	0x3c6cb4d5	0.014447411
194	0x3fa45649	1.2838832
195	0x3d445a69	0.047937784
196	0xbbc09170	-0.0058767125
197	0xbe2cf847	-0.16891585
198	0x3f032950	0.5123491
199	0x3f0bcb45	0.5460704
200	0x3edb0f0a	0.4278491
201	0x3c83673f	0.016040443
202	0xbf354d12	-0.70820725
203	0x3f486880	0.78284454
204	0xbf71c954	-0.9444783
205	0x3f472420	0.777895
206	0xbfaa087d	-1.328384
207	0xbf70c6e3	-0.9405348
208	0xbf84eb0c	-1.0384231
209	0xbf7a8b4c	-0.978688
210	0x3d3b4d0a	0.045727767
211	0x3c8355f1	0.016032191
212	0xbf8b31e3	-1.0874599
213	0xbf27227d	-0.65287
214	0x3f462b6f	0.77410024
215	0x3cad5604	0.02115918
216	0xbd61863d	-0.05505966
217	0xbf116ebf	-0.5680961
218	0x3d3c24a7	0.045933392
219	0xbf49796c	-0.787009
220	0xbff2641c	-1.8936801
221	0xbe82cc9d	-0.25546733
222	0xbf03addc	-0.51437163
223	0x3d39633a	0.045260645
224	0xbf039e48	-0.51413393
225	0xbea31f0f	-0.31859633
226	0x40059992	2.0874982
227	0xbf1e9b5d	-0.61955816
228	0xbcbb14f4	-0.02283714
229	0xbfb7f995	-1.4373041
230	0x3d0dbb47	0.03460243
231	0x3cd46826	0.025928568
232	0x3d30497a	0.043038823
233	0xbf85b708	-1.0446482
234	0xbf7796c7	-0.9671444
235	0x3f15b77c	0.584831
236	0xbd81dc53	-0.06340852
237	0xbdebd9a9	-0.11516125
238	0xbdbacfba	-0.09121652
239	0x3c8a9833	0.016918277
240	0xbcf260c4	-0.029587157
241	0xbd6dbd52	-0.058041878
242	0xbf86a15d	-1.0517994
243	0x3e7cfa67	0.24704896
244	0xbfc011d7	-1.5005444
245	0x3c2a0367	0.010376788
246	0xbf1fd423	-0.6243307
247	0xbf106327	-0.56401294
248	0x3d02879c	0.03186761
249	0xbd06bcbb	-0.03289483
250	0xbf32a333	-0.6978027
251	0x3cdf7c75	0.027281025
252	0xbf202c4e	-0.62567604
253	0x3fb171ac	1.3862815
254	0xbee2f0e5	-0.44324413
255	0xbf8cb659	-1.0993148

fc3.bias f4 [4]
0	0x3f2d0133	0.67579955
1	0x3f946c93	1.1595634
2	0x3ee1df83	0.44115838
3	0x3f5803b5	0.84380656
