csv_and_models/ddq_per/trained_models/double_PER_lunar_100.pth (torch, 279396 bytes, 6 tensors)

fc1.weight f4 [256, 8]
00000000: 0d2e 0cbe f291 673e 4cec b0bd ae18 9dbe
00000010: 9a0d 113e 8345 4f3f b84f d73e c9f7 02bf
00000020: 0416 2ebf 8550 a7be 877b 23bf 7992 143f
00000030: d064 893e 98bc 0d3e 3d35 a0bd 414a d23e
00000040: 9296 d03e 6a60 a8bd 4c86 89be afcf 1fbe
00000050: c07b 0dbe c1b9 0a3f f315 073f e471 c93e
00000060: b42c 283e fb7f b03e eb60 743e ac53 63be
00000070: 3044 7fbe a97d 823e 7bf3 513e 8ded 02bc
00000080: 7e66 2e3e 07b8 67be 8fc4 bdbe 9d7a 4bbe
00000090: c682 df3e 133a 7f3e 701b ce3e f5ee 883e
000000a0: a1e0 11be 55ac 1ec0 558c a0be b9c5 83be
000000b0: 45b6 9b3e 8c5c 413e 9ce6 88be 9d5a 0b3f
000000c0: 1976 013f 71bd 523e 9256 163e c05b 5e3e
000000d0: 323c 85be 5afd 29bf 5691 3abe 0c65 f63e
000000e0: 1067 a73c 402a 48bf 8b9c df3e aa8c a43e
000000f0: 9840 22bf b243 8e3e c369 073f 87c8 16be
00000100: fb86 973e c2c9 0a3e 85e6 bf3d 298a e13d
00000110: 8490 f9be 692d 01bf 7373 333f 370a 1b3f
00000120: ad78 bcbe 48ff 733d 4714 5abe bfc6 c6be
00000130: 8bfa 163f 7616 523f 1cfe ab3f 6aef 96be
00000140: 7f33 1fbe dc8f 973e 99fe 50bd ea63 c2be
00000150: 8761 e63e 392d 58be 5095 31bf 831f cd3d
00000160: e5b1 343f 7d95 58be a7f2 b0bd 62ef b4be
00000170: fc0e d43e a4a9 09bf a2e2 09bf 66f0 a43e
00000180: 198a 5c3d 086e 9a3e 1c12 693d d05e 4ebe
00000190: 8a86 bbbd 443e 9a3e ca59 b43f f70b e8be
000001a0: 42e0 04bf e8f6 da3e aca4 05be 87e7 443e
000001b0: 6cb2 153f 7f03 303d 91f7 d7bd da49 c63d
000001c0: e5de cc3e a827 a33d ebe7 0c3f cd60 933e
000001d0: 0af7 cd3d 3944 073f ce11 ea3d 3e53 2fbf
000001e0: 581d 1bbf 50d0 473f 913a 6bbe 009a f5bd
000001f0: 430f 093e 8e3f 1ebf 8f9b 9fbe a5da a9bf
00000200: 5c77 27be a212 843e 587b c8bd 4b7d a8be
00000210: 028e f9be 123f 963e e181 85bf 3259 21be
00000220: e42e 42be 8f50 d13d f0c3 81bf 90cb a13e
00000230: 8944 5a3f 9556 3a3f 5d81 953e 9fcf 80be
00000240: 1c5b 863e ce35 573d ab23 87bd 5eee 36bd
00000250: aa02 113f 72fe 02bf 46bf 95bf 3cdb b73e
00000260: b511 00bf 4535 abbc cd97 f8be eca5 0cbf
00000270: e780 7fbe 4193 04be 38ce 163f 81b7 9c3e
00000280: f900 1bbf ed97 203e 78b1 29bd 611e 1ebe
00000290: 9004 15bd c912 15bf 7322 ee3e 46da d63e
000002a0: 433f 8bbf 980c f3be 4b59 503e a4e5 89be
000002b0: a856 07bf c421 a63e 19dc 113e deed 05bf
000002c0: c4b0 d3be d281 fc3d 3d6e 96be 85ff 16be
000002d0: feb5 e53d 0d9f f5be e5e5 043f 8b94 8a3f
000002e0: 87a4 93be 7e4a 4d3e 8a2a 8bbe 1591 c83d
000002f0: 1bfd 373f 4173 38bf 53e9 653f 2672 fdbe
00000300: 1430 2ebf 4571 27bd 1485 31bf 5e21 203c
00000310: 6531 aabe d611 eabe f675 ea3e aed9 9bbe
00000320: ab98 89be a0fb 01c0 70b6 813e 628e b8be
00000330: e266 94be d379 193f 6c7b 023f 3cd3 2a3e
00000340: d614 96bd 8117 10be 3388 3bbf 14e5 6cbc
00000350: 34b3 403e 8b3c 0a3f 4727 733f 7681 72be
00000360: 1cdb 893f 38d6 483e 70bd 093f a3d4 87be
00000370: 97ed 843e 9be3 653c 8044 84bf c1ca bb3e
00000380: f21d f8be a4cf 8bbe 32f8 ccbe c6bf 8bbe
00000390: 80a2 45bf 312b 02bd 4dfa 55bf e234 47bf
000003a0: a101 083e e1a0 c6be b40c 18bd 1ae4 38bd
000003b0: 86c6 de3e 4cba e4be 0181 98be 6a42 563f
000003c0: 98ce f1be 6370 953d a1fa 3dbe 9a8f 3f3e
000003d0: fe8f 5c3e 71ad e83e 7615 583f 32a7 c13c
000003e0: cbd8 bcbe 8644 37bc 2d9e c23e c5a6 82be
000003f0: b6b0 10bf 39f4 723e 156d 263f 3ecb 0d3f
-0.13689442 0.22614267 -0.0863882 -0.30682892 0.14165345 0.8096544 0.42053008 -0.5115934
-0.68002343 -0.3267862 -0.6386036 0.58036 0.26834726 0.13841474 -0.078226544 0.41072276
0.40739876 -0.082215145 -0.26860273 -0.15606569 -0.13816738 0.5418969 0.52767867 0.39344704
0.16423303 0.3447264 0.23865096 -0.22199887 -0.24928355 0.25486496 0.20503037 -0.007991207
0.17031285 -0.22628795 -0.37064025 -0.19870992 0.4365446 0.24924497 0.40255308 0.2674481
-0.14245845 -2.4792683 -0.31357065 -0.25736788 0.30412498 0.1888296 -0.2673844 0.5443514
0.5057083 0.20580079 0.14681461 0.21714687 -0.26022488 -0.6640221 -0.18219504 0.48123968
0.020434886 -0.7818947 0.4367412 0.32138568 -0.6337981 0.27786022 0.52895755 -0.14724933
0.2959517 0.13553527 0.0937014 0.1101268 -0.4874307 -0.50459915 0.70098037 0.6056246
-0.36810818 0.059569627 -0.21296798 -0.38823506 0.5897605 0.8206552 1.3436923 -0.29479533
-0.15546988 0.29601943 -0.051024053 -0.37966853 0.44996282 -0.21111001 -0.6936846 0.10015776
0.70583946 -0.21150775 -0.08640032 -0.35338885 0.41417682 -0.53774476 -0.5386144 0.3221466
0.053842638 0.30162072 0.056902036 -0.20153356 -0.09156521 0.3012563 1.4089901 -0.45321628
-0.5190469 0.427665 -0.13051099 0.19228946 0.58475375 0.042972084 -0.105452664 0.09682055
0.40013805 0.07966548 0.5504138 0.2878479 0.100568846 0.52838475 0.11429177 -0.6848639
-0.6059165 0.78052235 -0.2297156 -0.11992264 0.13384728 -0.61815727 -0.3117337 -1.326985
-0.16354126 0.25795466 -0.09789151 -0.3290809 -0.48741156 0.29344994 -1.0430261 -0.15756682
-0.189632 0.102204435 -1.013792 0.31600618 0.85260826 0.72788364 0.2920026 -0.25158402
0.26241386 0.052541547 -0.065986 -0.04466092 0.5664469 -0.511695 -1.1698997 0.3590945
-0.5002702 -0.020899424 -0.48553315 -0.54940677 -0.24951516 -0.12946798 0.58908415 0.30608752
-0.6054836 0.15682955 -0.041429013 -0.15441276 -0.036381304 -0.5823179 0.46510658 0.41963404
-1.0878681 -0.47470546 0.20346563 -0.26933014 -0.528666 0.32447636 0.14244117 -0.5231608
-0.413458 0.12329449 -0.2938098 -0.1474591 0.11216353 -0.4797291 0.5191329 1.0826582
-0.28836462 0.20047948 -0.27180892 0.09793297 0.71870583 -0.72050864 0.8980915 -0.4950115
-0.6804211 -0.040879507 -0.69343686 0.00977358 -0.3324081 -0.45716733 0.45793122 -0.30439514
-0.2687429 -2.030983 0.253345 -0.3604613 -0.28984743 0.59951514 0.50969577 0.16682142
-0.07328193 -0.14071466 -0.732547 -0.014458913 0.1881836 0.5399863 0.9498181 -0.23682198
1.0769992 0.19612968 0.53804684 -0.26529416 0.25962517 0.014031316 -1.0333405 0.36678126
-0.48460346 -0.27306855 -0.40033108 -0.2729475 -0.7720108 -0.03177947 -0.83585054 -0.7781507
0.13281871 -0.38794616 -0.03712149 -0.04513941 0.43510836 -0.44673383 -0.29785922 0.8369509
-0.4722793 0.07296827 -0.18552639 0.18707123 0.21539304 0.45444825 0.84407747 0.023639295
-0.3688415 -0.011185771 0.38011304 -0.2551786 -0.5651964 0.23725976 0.65010196 0.5538825

fc1.bias f4 [256]
00000000: d469 9b3e 0346 bbbe 10b0 99be 633b 9e3e
00000010: 5552 38bd 626b b33e 9f6c 063c 83e5 c4be
00000020: c707 f8bd f65b c4bc 53f6 49be 9268 c33e
00000030: 7e4d 53bd 69ba 4a3e 3262 c03e 7ca9 173f
00000040: 42e9 693e 193f 8a3e b362 e93b 720e 57be
00000050: 429e b1bc f2fb 06bf 3abc 323e e3c9 8abe
00000060: 5b47 34be d88a 2dbf e46b 8f3e 203b 313e
00000070: 8adf a2bd 9a0f 22bf 986f 6dbc 1ff0 2f3e
00000080: bedb a13e 97be dfbd 43fd 2fbe 1af3 c23d
00000090: f38e 753c 18a0 e0be 2568 2a3e 8cf2 d4be
000000a0: beeb 60be e3c2 9abc f586 2b3d 87a7 e4be
000000b0: 7f2f b83e 3f90 c13e beb2 e1be b493 96bd
000000c0: b862 913e cb83 53be dcfd cdbe 9ba2 9c3e
000000d0: f15a 7b3e 0d15 063f 6181 c83e 2e64 16bd
000000e0: 111f 623e e09f 00bf 14ac abbe 79df 95be
000000f0: c349 0f3e 2972 9d3e ef94 3a3d b3f2 a4be
00000100: c06d 81bd 74b7 e33c cc49 863b a884 273e
00000110: a6d9 afbd 9eb6 debd 59b8 653e 77e5 583e
00000120: a471 aebd 1f73 c63e 2d20 4ebe f1c1 a43e
00000130: 338a 1dbe d549 aa3e cc87 e83d 54f3 343e
00000140: 6282 8a3e 3656 9a3e 6a28 25be aac6 2e3d
00000150: aacd 503d fdb8 f6bc 7d4e 273e 41c7 e63e
00000160: c7be 473e 03e9 3dbe 2e26 d93d 4b54 18bd
00000170: 6b31 74be 236a 9cbd 5120 c53e b5f9 fd3c
00000180: e385 783e 0c14 483e c4ea eb3d cd0e 2bbe
00000190: bb07 853e 527a bdbd b2da 50be 8360 49bf
000001a0: da2e 913e 3c25 2b3e a1f0 4dbe ac89 223e
000001b0: 518b b5be 1dc3 dcbd 254e 84be 3d1a c8be
000001c0: d99f 683e 5a02 aabe 1b95 d93c 667d d43e
000001d0: c522 20be de5b 18be 1c45 e23e f9e3 1cbe
000001e0: a275 0dbe 7ecb cf3c 591c 023f a5fb 0b3d
000001f0: cab8 313e 6788 a6be c783 ba3e a1fd ddbb
00000200: 7d3e ce3e 446c eb3e a06b b63c 77bb 32be
00000210: c179 97be af1a fabe 09e7 70be 1b4f edbc
00000220: 378b d9bd 3ca9 4f3e 3661 b73d ee03 ae3e
00000230: 361f 143e afc4 993e ac78 f73c 20a3 8a3e
00000240: 4000 41be aaf7 8abe 268c 95bc d53e c73e
00000250: 04d9 983e 58bd de3d 106e a83e 31ee 063e
00000260: c855 883e 460a 90bd 8f1e b33e 9fd7 9c3e
00000270: 8787 efbe 6916 c0be fe2a 853e f6d9 c63d
00000280: 1151 e13d 0aae 123d 002c 18bf 7797 e7bd
00000290: 85bb 55be 0310 9a3e ce7f 213e 5439 bf3e
000002a0: 38ef c33e f697 f93e 277c 69be a8d9 043f
000002b0: 7c0d 26bd c7e8 c1bd 6548 83bd 79a8 ad3e
000002c0: 43a1 d23e fbf2 1bbf 5d2c 5cbd 2a9f b0bd
000002d0: 5da6 ccbe 649c d63e 411a 883e c83a e03e
000002e0: 9a8e 263e 2846 9e3e b510 96be a86f 443e
000002f0: bf4c efbe 071c 17bf 2a64 a53e 0dca 393e
00000300: 4f96 f8bc d74b 2abe 6c9e e83e c150 b03e
00000310: d8a2 6bbc e405 823e cfcd 9abc 887e 9fbd
00000320: 619f 7cbe a40e f7be 37a3 b6be 779d 01be
00000330: a576 c3be 29a9 cf3d 25fd ee3e 3882 bb3d
00000340: 3e9c 9f3e 3a2f f23e 5b08 853e a2f9 2d3d
00000350: d524 313e 2046 1dbe f6c5 b93e 611f 68be
00000360: a789 9fbe 11bc aa3e 062e 323e bb66 083e
00000370: 8037 523e 254d 6d3d 25d9 41bf bbec eb3e
00000380: 4f62 c7be 393d 903e bda8 aabe 8ca4 4e3e
00000390: 732c 91bc 750d 203e b8d9 733d b936 2eba
000003a0: a67d 81bc d458 423d 0962 0cbe 116c 16be
000003b0: f6f7 ca3e a8f8 6fbd 5242 853d f9d1 3abe
000003c0: 53e3 723e 46f4 a33e 80bb 69bd 6cfb 10bd
000003d0: 86b2 aa3e d70a 8bbc b080 b5be 3ad7 a53e
000003e0: 9534 c83d 5d4f f63e 430b b0bc 0ab6 f03d
000003f0: 1d9c aa3e b925 8a3e 4c49 323e 4738 b43e
0.30354178 -0.36576852 -0.30017138 0.30904683 -0.045000393 0.35042864 0.008204608 -0.38456354
-0.121108584 -0.023969632 -0.19722871 0.38165718 -0.051587574 0.19797672 0.37574917 0.5924299
0.22842887 0.27001265 0.0071223616 -0.21001604 -0.021681909 -0.5272819 0.17454615 -0.27107152
-0.17605345 -0.67789984 0.28012002 0.1730771 -0.07952793 -0.63305056 -0.014491938 0.17181443
0.31612962 -0.10925024 -0.17186455 0.09519024 0.014987695 -0.43872142 0.1664129 -0.415913
-0.21964929 -0.018891757 0.041876752 -0.44659063 0.35973737 0.37805364 -0.44081682 -0.07352391
0.2839563 -0.20655744 -0.40232742 0.30592808 0.2454641 0.5237587 0.39161208 -0.036716633
0.22082163 -0.5024395 -0.33529723 -0.2927206 0.13992982 0.3075116 0.04555219 -0.32216415
-0.06319761 0.027797438 0.0040981527 0.16359198 -0.08586435 -0.10874675 0.22433604 0.21181284
-0.08517769 0.38759705 -0.20129462 0.32179216 -0.1538475 0.33259454 0.11354026 0.17670947
0.270526 0.301439 -0.16128698 0.04266993 0.050977387 -0.030117506 0.16338535 0.45073894
0.1950637 -0.18545918 0.10602985 -0.037189763 -0.23846976 -0.076374315 0.38501218 0.031002859
0.24269824 0.19538897 0.11519387 -0.16704865 0.2598246 -0.092518464 -0.20395926 -0.7866289
0.28356057 0.16713423 -0.20111324 0.1587283 -0.35457852 -0.107794024 -0.2584087 -0.39082518
0.22717227 -0.3320492 0.026560357 0.4150192 -0.15638264 -0.14878795 0.4419335 -0.1532134
-0.13814405 0.025365587 0.50824505 0.034175534 0.17355648 -0.32525942 0.36428663 -0.0067746197
0.4028205 0.45981038 0.022268116 -0.17454325 -0.29585078 -0.48848483 -0.23525633 -0.028968384
-0.10622256 0.20279402 0.089540884 0.33987373 0.14465031 0.3003287 0.030208908 0.2707758
-0.18847752 -0.27142078 -0.018255305 0.38915125 0.2985307 0.10875958 0.3289647 0.131768
0.26627946 -0.070332095 0.34984252 0.30633256 -0.46783087 -0.37517098 0.26009363 0.097095415
0.1100179 0.035810508 -0.5944214 -0.113081865 -0.20872314 0.3009034 0.1577141 0.37348425
0.38268447 0.4874875 -0.22801267 0.5189462 -0.040540203 -0.09468227 -0.064102925 0.33917597
0.41138658 -0.60917634 -0.053753246 -0.08624108 -0.39970675 0.41916192 0.2658253 0.43794847
0.16265336 0.309129 -0.2930962 0.19183218 -0.4673824 -0.5902714 0.32302982 0.18143483
-0.03034511 -0.16630493 0.45433366 0.3443661 -0.014382087 0.2539512 -0.018896965 -0.07787806
-0.24670173 -0.48253357 -0.35671398 -0.12657724 -0.38176456 0.101396866 0.4667751 0.09155697
0.3117389 0.47301656 0.25982937 0.042474397 0.17299207 -0.15358782 0.36283845 -0.2266822
-0.31159708 0.33346608 0.17400369 0.13320439 0.20528984 0.0579349 -0.7572196 0.4607905
-0.3894219 0.2817171 -0.33331862 0.20179957 -0.01772139 0.15630133 0.059533805 -0.00066457276
-0.015806984 0.047447994 -0.13709272 -0.14689662 0.39642304 -0.058586746 0.0650679 -0.1824416
0.2371953 0.32022303 -0.05706358 -0.035396025 0.33339328 -0.016972942 -0.35449743 0.32390767
0.09775654 0.48107424 -0.021489745 0.11753471 0.3332223 0.26981905 0.17410773 0.35199186

fc2.weight f4 [256, 256]
00000000: f61f 12be 913b 213e 7995 063e 28b5 68bc
00000010: 58e6 fb3d add6 1a3e 50bb 1dbe 91d6 7d3e
00000020: 5c19 bd3e 83fe 203c 665c 07bd 3d7f 3b3c
00000030: 4bac 09be 7cd5 4cbd 68a4 f03d bbc2 5bbf
00000040: 5293 0e3e 811c df3d 8afb 9d3d 7745 9f3e
00000050: 5f9e 983e 0c46 c8be 3422 d03e 0da8 6bbe
00000060: 35f0 e3bc 4a42 fdbe ab42 333d f417 d53d
00000070: 93a3 353f 0137 473f 0b03 6cbd b621 6d3d
00000080: 47f9 dcbe 3a6d 97be c560 c6be 61f8 28be
00000090: b227 e5be 2aba 84bd 642b 023e 613d 47bf
000000a0: f6dd ecbc 415f cd3e 74bc 983d 8b44 62be
000000b0: 466d 31bf f8f7 85be 2923 183f d201 0e3f
000000c0: b7a2 2f3e dd3d 083f b73f 563e bfb9 7dbd
000000d0: 3a65 333d 4bde 2ebf 50ad cd3e ac8d b93e
000000e0: f08b 11bd 1e56 8fbe 0c23 bdbb 2280 46bd
000000f0: 3282 803e ccdd b13d 26f7 563e 2fd7 193e
00000100: 2b9b 4ebe 0e19 ac3d 22ed 18bd bcb1 7fbe
00000110: e4bc ae3e bb68 b93e 49c1 013e 9e48 b03d
00000120: d19e ba3c fb7e 3cbf 64e2 b7be 19a5 023e
00000130: 9042 9e3e 6bbe 723e 7f6d 1b3e 360b 4a3c
00000140: 2c2b e0bc b37c 26be 2547 403e 989a db3d
00000150: 4cc5 43bd 7dd0 a4bd b531 3c3d 1331 5b3e
00000160: 6bea 4b3d eaba 0d3d 562d a73d 8d5b e5bd
00000170: 4764 213c 6190 143d 0406 3e3f b29b ef3e
00000180: 3c3d dd3e 683b bc3d e03e 0cbe a97d 0a3d
00000190: a2c1 783e d9ec 5abe b781 ecbd ec1c 98be
000001a0: 7ab7 4a3d 0837 803f e78e 223f 1368 793d
000001b0: 7e40 02bf 1112 8f3e a779 34be bca0 763f
000001c0: 530a 0c3f c5b1 0c3f ab4c 063f 01a8 983e
000001d0: a54c 0c3f 8d49 8e3e d56d f0bd 7277 71bc
000001e0: 7896 033b 85e9 353c 7b02 773e 0649 d43d
000001f0: 30b2 96bc 9508 12be 2653 b6be 9add 513e
00000200: f2e1 133e d434 c43d 046f f0bd 9c8f d43e
00000210: f5df babe 36b1 2e3d de21 f03e 631d 5bbe
00000220: 7a46 95be b731 b2be 4d45 adbd 3034 27b9
00000230: ef14 c33e 1f0e cb3c d379 5c3d a862 a6be
00000240: 68ba afbc a6f6 9c3e 992d d4bc e261 7b3d
00000250: ba9e eebd ab66 a63d 2583 bd3e 778d dc3d
00000260: 7d27 283f b551 21bd 7d84 7d3d 38c5 983d
00000270: 1078 64bd 58f9 debe 0fef 25be e92f e13d
00000280: 175a 8abe 9e74 293e 886f e4be 4b3c af3e
00000290: ba3a 873e 06f0 0d3e 7b9c 403e 33ac 11bf
000002a0: 71c5 81be 0f4f 1c3c 28bb 293e 904e 3cbf
000002b0: 903b 163d 6c2e 873d 339b 823d 8437 623d
000002c0: 1f32 2f3e 7c1e babe fe6d a63e 5fa1 3b3e
000002d0: f791 40bf 8185 8cbe 2ce2 03be b0b5 9dbb
000002e0: 81f2 aa3e f0dc 19be 3ed7 233f 03ac 493e
000002f0: e824 543d 6f58 ce3e 0d87 02bf 9313 39bd
00000300: 7942 1cbe 98de 363e 2d73 7c3e 9feb 1f3f
00000310: 5b63 d33e 3170 6fbe 2ca8 6b3e f150 133d
00000320: a86e 883d 2261 f33d 4e65 b93d 730e 883e
00000330: 6354 babd 0338 253e e04c 0e3e 70cb 77bd
00000340: 0fbe cdbd 1dd4 a2be 8595 183e 96c8 043e
00000350: 1578 293e 0a1f b43d cd76 813e 07b1 66bf
00000360: f2c3 293f 00b0 4fbe 71fe f83d b9f3 003e
00000370: 7b77 993e 2a99 a93d a6ea 27bf c85a 25bf
00000380: a5e0 a03e 18eb 14bf 14d5 8abf bcbb 6dbe
00000390: 4e1c 833d 63f9 bd3e bee5 3b3d 451c 253e
000003a0: fef2 5e3d 8bf7 f8bc 1504 163d 2f28 a03e
000003b0: b9db 303d dca9 733d beda 013e 30d5 133e
000003c0: 3991 1c3e 275b 8fbe b5c1 3b3d 1ce9 523d
000003d0: 0c4c 19be 31a0 d63c f5ce 0e3d 3827 08be
000003e0: 9d85 833e 6d07 60bf 7f26 1f3f af69 2d3d
000003f0: 59d0 86be b744 2e3f 8e5c 603e 80c6 823d
-0.14270005 0.15745379 0.13142957 -0.014203347 0.12299794 0.15120955 -0.15403485 0.24788882
0.3693341 0.009826305 -0.033047102 0.01144391 -0.13444631 -0.050008282 0.11750108 -0.8584401
0.13923386 0.108941086 0.07713993 0.31107685 0.29808328 -0.39115942 0.40651095 -0.23013325
-0.0278245 -0.49464637 0.04376475 0.10404959 0.7095272 0.77818304 -0.05762009 0.057893477
-0.43158934 -0.2957552 -0.38745704 -0.16500999 -0.44756848 -0.064808205 0.12711865 -0.7782803
-0.028914433 0.40111735 0.074578196 -0.2209646 -0.69307363 -0.26165748 0.5942865 0.5547153
0.17151915 0.53219396 0.20922743 -0.06194472 0.04379771 -0.6830794 0.4017129 0.362409
-0.035533845 -0.2799539 -0.005772 -0.04846204 0.2509933 0.086848825 0.20992717 0.15023492
-0.2017638 0.08403216 -0.037335522 -0.24970144 0.34128487 0.36212716 0.12671389 0.08607601
0.022780808 -0.73631257 -0.3591491 0.12758292 0.30910158 0.23705451 0.15178488 0.012331774
-0.027364336 -0.16258506 0.1877714 0.10722846 -0.04779558 -0.080475785 0.04594584 0.21405439
0.049784105 0.034602083 0.08162944 -0.111991026 0.009850568 0.036270503 0.7422793 0.46798474
0.4321078 0.09191018 -0.1369586 0.033811245 0.24292615 -0.21379413 -0.11548179 -0.29709566
0.049491383 1.0016794 0.634993 0.06089027 -0.5087966 0.2794347 -0.17624532 0.9633901
0.54703254 0.54958755 0.52460736 0.29815677 0.5480445 0.2779049 -0.11739699 -0.014737951
0.00200787 0.011103039 0.2412204 0.103654906 -0.018395513 -0.14261086 -0.35610312 0.2049469
0.1444166 0.09580389 -0.117399246 0.41515815 -0.3649899 0.04264947 0.4690084 -0.21397929
-0.29155332 -0.34803554 -0.08460484 -0.00015945802 0.3810191 0.024787007 0.053827118 -0.32497144
-0.02145119 0.30656928 -0.025900649 0.061372645 -0.116513684 0.08125051 0.37014118 0.1076917
0.65685254 -0.039384563 0.06189393 0.074594915 -0.055778563 -0.4354961 -0.16204475 0.10995466
-0.27021858 0.16548392 -0.44616342 0.34225687 0.26411992 0.13861093 0.18809693 -0.5690338
-0.25345948 0.009540333 0.165753 -0.73557377 0.036677897 0.06600651 0.06377258 0.055228725
0.17108963 -0.36351383 0.32505792 0.18323277 -0.75222725 -0.27445605 -0.12879246 -0.0048129186
0.3338814 -0.15025687 0.6400031 0.19694524 0.05179301 0.40301844 -0.5098732 -0.045184683
-0.15259732 0.1785835 0.24653311 0.62468904 0.4128674 -0.23382641 0.23013371 0.035965864
0.06661731 0.11883761 0.090525255 0.26573524 -0.09098127 0.16134648 0.13896513 -0.060496747
-0.100460164 -0.31802455 0.14900787 0.12967142 0.16549714 0.08794983 0.2528595 -0.9011387
0.66314614 -0.20281982 0.12157906 0.12592973 0.2997397 0.08281167 -0.6559242 -0.64591646
0.3142139 -0.58171225 -1.0846276 -0.23216146 0.06401883 0.3710433 0.045873396 0.16124065
0.054430954 -0.030391475 0.036624987 0.31280658 0.043178294 0.059488162 0.126811 0.14436793
0.15289773 -0.2799923 0.04583903 0.05149184 -0.14970416 0.026199432 0.03486534 -0.13296211
0.25687876 -0.8751133 0.62168115 0.042337116 -0.26330832 0.680736 0.21910307 0.06385517

fc2.bias f4 [256]
00000000: 6468 e63d 0ffc 83bd 3a63 23bd 0b9c efbd
00000010: 6514 033e af6b 5a3c f3c6 0b3e a6a9 c73d
00000020: d063 a43c 7cc7 c73d fb5d 073e 0be9 973d
00000030: 524f dc3c 0da7 52be 5476 e93d 0794 373d
00000040: 6229 8b3d 9f60 19be e831 eb3c b96a 1ebd
00000050: fed5 453d 20c8 f8bd 96fc 223d 569f d73d
00000060: cade 163e 0422 133e 6f3b 4b3d 2b94 01bd
00000070: cd35 9ebc ba7f 47bd e0c5 be3c 2df6 083d
00000080: be1c 1cbd 0dae a73c 9c84 d33c eaae 353d
00000090: a52d 8bbd a708 363c 0106 0ebe be97 cc3d
000000a0: 1204 0dbd 4390 383d bd61 c4bd eedf 0ebd
000000b0: bb5d 863b 47a5 cbbd 0536 1dbd 54b9 b13c
000000c0: 3cab 72bd 3b88 0fbe 853f 98bc 3647 493e
000000d0: 375d 2c3d 230d 74bd b591 4f3d f401 ba3c
000000e0: dd00 98bd 9e71 e53d 9108 fbbc fce4 afbb
000000f0: 0cb2 053d 1677 973d f14e adbc ef88 2d3e
00000100: f759 aa3d c634 4fbe 2e04 d4bc 4cdf a43d
00000110: ea7f c9bc 3e7f 81bd aea5 9fbd e183 0cbe
00000120: e209 2abc 5c9c a33c 9608 173e 85bb 6a3d
00000130: 2221 d13c c76e 32bd 6564 123c e3a5 db3d
00000140: 6a40 d8bc 7e5d 2c3e 5555 76be 1486 513c
00000150: 1cbf 613c 9135 82bd f046 99bc f61a 24be
00000160: 13ca e4bd c06e 85bb 4c9f 8ebe 858d 4dbb
00000170: 3975 023e 3b70 a93b 09b5 3cbc 829b 123e
00000180: 0834 e9ba 6118 a03d 9c6d 463c 0cb5 323d
00000190: f125 5fbd 2c1f e5bb b8df 0f3d 4b2d 483d
000001a0: 67ff 893d 5f30 bd3c ea97 0e3d 8ce8 153d
000001b0: 009c 7ebb 93a5 a4bd 0de2 a93b c5ff ed3c
000001c0: 4f50 e73d bdb4 0c3d 2bfe 46bd dc5b 9abd
000001d0: 071e 893d da11 ff3c 2493 103c b44d ea3c
000001e0: 672f 083d 20a8 2b3d 2a0f 453d 6764 76bd
000001f0: 6e22 5fbd 8d0d cabb 1060 25bc a41c 39be
00000200: 9403 61bd 07bd 523c e781 093c a912 bb3d
00000210: 0d78 a23d 9aa6 8fbd bc95 323e eddd 993d
00000220: 2dac 3bbd 1127 6bbd 778d fdbc 0032 e63d
00000230: aa14 fe3c 15f1 88be e52c 103b e3b7 1bbc
00000240: 5ab5 193e ae39 533c f91b 373d 2fb8 a13d
00000250: 3b66 ba3d b4ae 93bd c845 a3be 7876 b3bc
00000260: a637 dfbc a23f 0b3d 7a41 223e 63c8 a73c
00000270: 0157 1bbd 3d33 863d bb8b 86bd feba 0ebe
00000280: 9638 593d 8ad3 98bd d324 af3d d6aa a53d
00000290: 2272 9c3d 4025 b7ba 2b5a 81bd 2889 8bbd
000002a0: 93dd e3bc 9464 5c3e 3304 8fbd a3fa 83bd
000002b0: e0e7 89bc 93ed b33c 8eb1 c53c 4a8e 8d3a
000002c0: f84c b03d ba2e 383d ac47 3f3d fb13 82bd
000002d0: 8895 8fbb 1e6e 8ebd d2f6 8fbd 2d7b 2fbe
000002e0: 3207 0a3e 5fe2 33bd 887f 1b3d e385 303d
000002f0: 04e1 9d3d 8892 d1bc a865 52bd 01ba e23b
00000300: 24f1 b73c 01b1 8bbc f7a3 f13c f263 623c
00000310: 0152 4bbd 4fe4 a4be 7005 0a3e c27f 57bd
00000320: 1cae d43d cc47 063d a449 9f3d 24de f4bd
00000330: 1b06 fa3d 5684 ca3d 8b43 1c3d 56fd df3d
00000340: a79c d43d 2233 5f3d 0bcd 183d 070f 6a3c
00000350: a973 bdbd cb8a b73d 3c08 bfbd bd87 fc3c
00000360: d342 73bd 3f2e be3d 9336 3ebd 887d f43d
00000370: a0bc 8c3d be6f 173e e912 e63b 7b45 923c
00000380: b037 3f3e e842 f13d b535 883d 59cc bf3d
00000390: 258c 4bbd e50c 373e 65a7 2abe 7209 ac3b
000003a0: 178f 05bd 8230 3a3d 0b50 f63d e005 483e
000003b0: 8104 053e cd0d 45bc 8be3 d23c 66a5 98bc
000003c0: 69a8 ea3c f559 62bd 3dbd b43d ab4a c43d
000003d0: 7e11 acbd 0c29 2b3d 4041 23be 1561 d23d
000003e0: 3764 2abd 1f13 d73b 11e4 a73d 544b cc3c
000003f0: aaa6 123e 9dbb 6bbe 9051 ca3c f8c3 a33d
0.1125038 -0.06444561 -0.03988955 -0.11699685 0.12800749 0.013331338 0.13650112 0.09749155
0.020067126 0.097548455 0.13219444 0.07417496 0.026893292 -0.20571537 0.113995224 0.044818904
0.067950025 -0.14978264 0.02871032 -0.038675997 0.048299782 -0.12147546 0.039791666 0.10528438
0.14733425 0.14368445 0.049617227 -0.031635445 -0.019312764 -0.048705794 0.023287714 0.033437897
-0.03811335 0.020468736 0.025820069 0.044356264 -0.067958154 0.011110461 -0.13869478 0.0998988
-0.03442771 0.045059454 -0.095889546 -0.034881525 0.004100529 -0.099436335 -0.038381595 0.021694817
-0.059245333 -0.14016812 -0.018584976 0.19656071 0.042081084 -0.05958284 0.050676066 0.02270601
-0.0742204 0.112033114 -0.030643733 -0.0053678732 0.0326405 0.07395761 -0.021155806 0.16946767
0.08317941 -0.20234975 -0.0258809 0.08050403 -0.024597127 -0.06323098 -0.07795273 -0.13722183
-0.010378333 0.019972019 0.14749369 0.05730774 0.025528494 -0.043562677 0.008935069 0.10725
-0.026397903 0.1683254 -0.24055989 0.012788314 0.013778474 -0.06357873 -0.018710583 -0.1602591
-0.11171355 -0.0040720403 -0.2785591 -0.003136487 0.1274003 0.0051708496 -0.0115177715 0.14317134
-0.0017791996 0.0781715 0.012111094 0.04362969 -0.054479543 -0.0069922414 0.035125464 0.04887132
0.06738167 0.023094354 0.034812845 0.036598727 -0.0038850307 -0.08039393 0.005184418 0.029052624
0.112946145 0.034352053 -0.048582237 -0.07537052 0.066951804 0.031136442 0.008824144 0.028601505
0.03324833 0.041908383 0.048110165 -0.060154345 -0.054476194 -0.006166166 -0.010093704 -0.18077332
-0.054935053 0.01286245 0.008392788 0.091344185 0.07933054 -0.070141986 0.17439932 0.07513032
-0.045818496 -0.057410304 -0.030951245 0.112400055 0.031015713 -0.2674643 0.0021999415 -0.009504291
0.15010586 0.01289217 0.04470441 0.07896458 0.0910153 -0.07211056 -0.31889176 -0.021907076
-0.027248215 0.03399623 0.1584529 0.020481294 -0.03792477 0.06552742 -0.0656962 -0.1393852
0.05303248 -0.07462223 0.085519455 0.08089225 0.076389566 -0.0013972893 -0.06316026 -0.0681327
-0.027815616 0.21522743 -0.06983223 -0.064442895 -0.0168342 0.02196387 0.024132516 0.0010799852
0.086084306 0.044966437 0.04669921 -0.06351467 -0.004381839 -0.06954597 -0.07029499 -0.17136832
0.13479307 -0.043917056 0.03796342 0.043096434 0.07708934 -0.025582567 -0.05136648 0.006919146
0.022453852 -0.017052175 0.02949713 0.013817774 -0.049638752 -0.32205436 0.13478637 -0.052612074
0.10384771 0.032783315 0.07777718 -0.119564325 0.12208196 0.09888522 0.03815035 0.10936992
0.103814416 0.054492123 0.03730492 0.014285809 -0.09250576 0.089620195 -0.093277425 0.030826444
-0.0593899 0.092861645 -0.046438765 0.11938006 0.06871915 0.1478872 0.0070212972 0.017855396
0.18673587 0.117803395 0.06650869 0.09365148 -0.0496942 0.17876013 -0.16665418 0.0052501494
-0.032607164 0.045456417 0.12026986 0.19533491 0.1299 -0.012027216 0.025743267 -0.018633556
0.028644757 -0.05526157 0.08825157 0.09584554 -0.08401774 0.041787192 -0.1594286 0.10272423
-0.04159948 0.0065635587 0.08197797 0.024938263 0.1432139 -0.23020788 0.024697095 0.079963624

fc3.weight f4 [4, 256]
00000000: 37f4 13bf 8518 adbb f98a 873c a28e c73d
00000010: f4e3 07be e892 1e3d 7d6f 783e f781 1dbe
00000020: c0af 753d 664b 8cbe 53cc 3a3e 62df b3be
00000030: 5cb3 8fbc 1418 08bf 9e77 35be 2b97 a4be
00000040: a6fa bdbe c1a5 0dbd 6a24 7cbd 2d3c 103c
00000050: 3c37 363d 3cc8 41be aa2d 76bc 50e4 263e
00000060: 291e 9cbe f16d 273e a1e9 2ebe 8b1e b83c
00000070: 6ad6 983d 9e10 68bd e29b afbd 01fb 7cbe
00000080: d957 12bc 2fe9 e0be e24c 3fbe 3ad5 05be
00000090: 6d1e 893b 762b a8be d499 433d 9a21 f7be
000000a0: d0a6 2fbd 84c1 43bd 2cea 8fbd 1a2c 31bd
000000b0: e12c 1b3d f4a1 99bc dc01 85bc 3f72 643e
000000c0: 2d00 c6bc fcb5 2b3f e189 c73c eda8 793e
000000d0: 5890 0f3c f9e4 a93e b6e8 92bd d2ef 063c
000000e0: e07e 58be c337 213e 28d5 efbe 9528 333f
000000f0: 063b 693e ab6f c5be 58bb 203d a777 f63e
00000100: c8b8 ccbd 2c62 f6bd 10c3 84bd d91c 77be
00000110: 7028 c6bc 8b67 0c3b 401b 3bbd c0d1 8cbe
00000120: 2aa6 e93c 623d 1bbe f2b1 8d3e f174 92be
00000130: 3d80 0d3d e8ff 47be 2fe7 86bd 8e99 f1be
00000140: b710 553c fc8d 42be c9ba b7bc 8809 313d
00000150: e1ed 033d 8c36 c4bc 1896 13bb bed7 113f
00000160: ac8e 15bf 3c3e 85bd 903d 23be 32c9 ccbe
00000170: c5b8 2b3e 40e8 25bc 61f0 acbe bfb1 c6be
00000180: 97ad 03bd 1e34 5a3f 858b 4b3e f808 b4be
00000190: c747 1ebd ec39 e8bc eef3 4ebe 1d71 5dbc
000001a0: 845a 76be 6543 ef3c deb6 af3c 56e9 47be
000001b0: ef74 273d 6650 633d fd25 613d 1907 7fbd
000001c0: 53d8 84be d28b edbc 4e35 e83c 4e3a 8a3e
000001d0: c7f4 a6be 7ea6 86bd 00b3 a53b 44c9 1ebe
000001e0: 168d 1dbd c6ed 10be 2465 56be d070 6cbd
000001f0: 2053 f4bc 6fff 503e b5d2 cfbc 9690 babe
00000200: dd2a 593b bf17 753e e0ab fe3c 0837 2abe
00000210: a165 f1bd 4f35 643e d377 e3be 187a 9ebe
00000220: c23a be3e 8676 1a3d 42cc 8d3c 91fa 0b3e
00000230: e23d c83e db99 18be 3842 d03b f131 213d
00000240: 0173 843e ca10 30bc ce06 81bd 9c16 0dbe
00000250: 434d 54be d1f1 91bc 6ffe 353e 9239 fa3b
00000260: 43e9 1bbf b58e 0cbc 6c24 32be 8b6b 323d
00000270: 651c 84bc 8afc 623e ed5b 093d ef27 493f
00000280: 938c 7abe 90c0 66bd fc5b 103f ceec 89be
00000290: 55d8 9abe 402f 1fbc e68a 293d 5454 d93c
000002a0: e12d f6b8 4a42 c2be dc9b ebbc b80c f2bb
000002b0: 30f8 91bc 594a 64be 825e f7bd 1019 213c
000002c0: 4ee2 3cbe 2ee1 92bf 19bd cf3c 3877 043d
000002d0: 682f 6dbc 4073 533b 4c0d d0bc fcae d9bd
000002e0: c669 943e 3f46 4e3c a3b8 64be 0264 d13b
000002f0: 45f7 b8be 5065 d83c ff43 fdbc 41dd 5ebd
00000300: 865c f13e d5b4 6c3c 21a3 7f3d 8bb2 e23c
00000310: 7091 c0bb f53b 253e 51c5 27be 8443 bbbe
00000320: 9696 823e 3f67 833c 9032 01be 2468 683e
00000330: 7c13 453c 52c9 ce3e 9379 27bf 98df 68be
00000340: 21a4 46be 4d7d b2be 0a4d 3b3d f155 833c
00000350: 2c11 35be 1e80 78be a927 95be d795 a23c
00000360: 3d86 61bd 35c6 1ebf a724 3c3d 44c5 01be
00000370: 3fd8 febe 10be bbbe f7bf 4cbf 832e 653c
00000380: d1a0 90be 7029 4bbe 7299 843e 2992 73be
00000390: f414 bbbc 013b 84be 47bb 0d3d 09b7 26bc
000003a0: 7a49 303d f3f6 21bf f6e9 d0bd cf06 163f
000003b0: 22ab 9dbe 3c7b 14bd 4af8 43bc 7ae2 2f3d
000003c0: ecd5 1cbd 52bd 6dbd 1b3c eebd c2fa c4be
000003d0: 2698 6d3c 395b 7fbc 43d4 863e 40cd d0be
000003e0: 9c87 023d 797e 133d 3ba3 a3be 7fda 083b
000003f0: b5a3 c4bd 8311 783c 3a6a cebe ecc8 4ebe
-0.5779452 -0.005282464 0.01654576 0.09744002 -0.13270551 0.03871432 0.2426128 -0.15381609
0.05998206 -0.27401274 0.18242006 -0.35131365 -0.01754158 -0.5316174 -0.17721412 -0.32146582
-0.37105292 -0.034581903 -0.061558165 0.0088034095 0.04448627 -0.1892404 -0.015025536 0.16298032
-0.3049176 0.16350533 -0.1708131 0.022475502 0.07462771 -0.056656472 -0.08574654 -0.24705125
-0.008932077 -0.43927905 -0.18681672 -0.1306962 0.0041845352 -0.32845658 0.047754124 -0.48267823
-0.042883694 -0.047791973 -0.070270866 -0.04325495 0.037884597 -0.018753983 -0.016236238 0.22309206
-0.024170006 0.6707456 0.024357738 0.24380846 0.008762442 0.33182505 -0.07173292 0.008235889
-0.21142149 0.15743928 -0.46842313 0.699838 0.22776422 -0.38561758 0.039241165 0.48138162
-0.09996182 -0.120304435 -0.06482518 -0.24132098 -0.024189204 0.002142402 -0.045680285 -0.27503777
0.028521616 -0.15160134 0.27674824 -0.28604844 0.034546126 -0.19531214 -0.065870635 -0.47187465
0.013004473 -0.18999475 -0.022427933 0.04322198 0.03220928 -0.023951791 -0.0022519883 0.5696982
-0.58420825 -0.06506011 -0.15941453 -0.3999725 0.16769703 -0.0101261735 -0.33777145 -0.38807485
-0.03214797 0.85235775 0.19877441 -0.35163093 -0.03864267 -0.028347932 -0.2021024 -0.013515738
-0.24057966 0.02920694 0.021449503 -0.19522604 0.040883 0.055496596 0.05496787 -0.06226263
-0.25946292 -0.028997336 0.02834573 0.26997608 -0.32608625 -0.065747246 0.005056739 -0.15506464
-0.03846463 -0.14153203 -0.2093702 -0.057724774 -0.029824793 0.2040994 -0.025369028 -0.36438435
0.003313712 0.2393484 0.031087816 -0.16622555 -0.11786962 0.2228596 -0.44427356 -0.30952525
0.37154204 0.03771069 0.017309312 0.13669802 0.39109713 -0.14902441 0.00635555 0.03935427
0.2586899 -0.01074619 -0.06300126 -0.13778156 -0.20732598 -0.017815502 0.1777284 0.0076362574
-0.60902804 -0.008578946 -0.17396706 0.043559592 -0.01612682 0.22166649 0.033534933 0.7857656
-0.24467687 -0.056335986 0.56390357 -0.2693848 -0.30243173 -0.009715855 0.04139223 0.026529469
-0.0001173874 -0.379412 -0.028760843 -0.00738677 -0.01781854 -0.22293986 -0.12078573 0.0098326355
-0.18445703 -1.1474969 0.025358723 0.03234026 -0.014476635 0.003226474 -0.025396965 -0.10629079
0.2898695 0.01258999 -0.22336058 0.0063900957 -0.36126152 0.026415497 -0.030916212 -0.054410223
0.47140902 0.014447411 0.06241143 0.027673027 -0.0058767125 0.16136153 -0.16383864 -0.36574948
0.25505513 0.016040443 -0.12616944 0.22695976 0.012028571 0.4038797 -0.6541988 -0.22741544
-0.19398548 -0.34861222 0.045727767 0.016032191 -0.17682332 -0.24267623 -0.2913182 0.01984684
-0.05505966 -0.6202119 0.045933392 -0.12672907 -0.49774358 -0.36668444 -0.79980415 0.01398814
-0.28247693 -0.19840026 0.2589832 -0.23786224 -0.02283714 -0.25826266 0.03460243 -0.010175475
0.043038823 -0.6326744 -0.102008745 0.5860414 -0.30794626 -0.036250338 -0.011961052 0.042940594
-0.03828995 -0.058041878 -0.11632558 -0.38472563 0.014501607 -0.015585714 0.26333818 -0.40781593
0.03186761 0.036009286 -0.31960472 0.0020882187 -0.09601537 0.015140894 -0.4031542 -0.20193833

fc3.bias f4 [4]
00000000: 5681 7c3c 61d9 803d 711e e53d 3f92 053e
0.015411695 0.06291462 0.11187447 0.1304407
