csv_and_models/ddq_per/trained_models/double_PER_lunar_0.pth (torch, 279376 bytes, 6 tensors)

fc1.weight f4 [256, 8]
0	0xbe8ecaf9	-0.2788923
1	0x3e67170b	0.22567384
2	0xbe2fa1b7	-0.17151533
3	0xbc7bb5c0	-0.015363157
4	0x3e045294	0.12922126
5	0x3e3b2d86	0.18279085
6	0xbe2bd495	-0.16780312
7	0xbea691c2	-0.3253308
8	0xbe5272cb	-0.20551603
9	0xbe875691	-0.26433232
10	0xbe89062e	-0.26762527
11	0x3e2cde8d	0.16881771
12	0x3e18da63	0.14927058
13	0x3e52164d	0.2051632
14	0xbd6c9cfa	-0.057766892
15	0x3e8f84b2	0.28030926
16	0x3eac5622	0.33659464
17	0x3e48da1a	0.19614449
18	0xbe572675	-0.21010764
19	0xbe1e29b5	-0.15445597
20	0xbe59c0fb	-0.21265022
21	0x3e7998ff	0.2437477
22	0x3d2173a1	0.039416913
23	0x3ead62de	0.33864492
24	0xbd178e48	-0.037000924
25	0x3ea0fa3b	0.3144091
26	0x3e337e31	0.17528607
27	0xbba4f3aa	-0.00503393
28	0xbe3d1eba	-0.18468753
29	0x3e0e82cc	0.13917083
30	0x3ca063d5	0.019578854
31	0xbe370f04	-0.17876822
32	0x3e434a1e	0.19071242
33	0xbd2174ed	-0.03941815
34	0xbeb68e67	-0.3565552
35	0xbe595096	-0.21222147
36	0x3eabe119	0.33570173
37	0x3e24fb40	0.1611147
38	0xbe741a2a	-0.23838106
39	0x3e8cfa6b	0.27534804
40	0xbb620c26	-0.0034492104
41	0xbea0778b	-0.31341204
42	0x3db71ef5	0.089414515
43	0xbe00dea0	-0.12584925
44	0xbde89069	-0.11355669
45	0x3d089811	0.033348147
46	0xbea4d9e5	-0.3219749
47	0x3c47ed03	0.012202504
48	0x3e92a734	0.2864319
49	0x3d8f2925	0.069902696
50	0xbd1f4920	-0.038888097
51	0x3e24f730	0.1610992
52	0xbcfd61bb	-0.03093039
53	0xbde95856	-0.11393802
54	0x3daf7070	0.085663676
55	0x3d198c77	0.037487473
56	0x3e0949a9	0.13407005
57	0xbdbe16ab	-0.09281667
58	0x3e92b959	0.28657034
59	0x3e72fb77	0.23728739
60	0xbe0dfcf2	-0.13866022
61	0x3df9fc96	0.1220638
62	0x3d563805	0.05229952
63	0x3e993f99	0.29931334
64	0x3e974335	0.29543462
65	0x3e3b8e4c	0.18316
66	0x3e48f28c	0.19623774
67	0x3daab43d	0.08335159
68	0xbdeaca0b	-0.11464318
69	0xbe4ce3fa	-0.20008841
70	0x3ea13cdc	0.31491745
71	0x3e192f37	0.14959417
72	0xbe89b6e8	-0.2689736
73	0x3dd73d5a	0.10509749
74	0xbdd8073e	-0.10548256
75	0xbea2d835	-0.31805578
76	0x3eac64c5	0.3367063
77	0x3d104b89	0.035228286
78	0x3e073ef7	0.13207613
79	0xbbc5287b	-0.0060167885
80	0xbe9cd864	-0.30633843
81	0x3ea8b4d0	0.3295045
82	0xbe02694f	-0.12735485
83	0xbeb40efb	-0.3516768
84	0x3ea67141	0.3250828
85	0xbe16649f	-0.14686821
86	0xbe41c029	-0.1892096
87	0x3e956660	0.29179668
88	0x3e3b4233	0.18286972
89	0xbe70f729	-0.23531784
90	0xbd40a443	-0.047031652
91	0xbe4cc090	-0.19995332
92	0x3e91911a	0.28431016
93	0xbea0a293	-0.31374034
94	0xbe692afb	-0.22770302
95	0xbe1488e8	-0.1450535
96	0xbe703d20	-0.23460817
97	0x3e9f4168	0.31104589
98	0xbe5f1cd4	-0.21788341
99	0xbdb5a11c	-0.0886862
100	0x3db1bce9	0.0867861
101	0xbd20486c	-0.039131567
102	0x3c820099	0.015869426
103	0xbd71c320	-0.059023976
104	0xbeb064a6	-0.3445179
105	0x3e9e3e19	0.30906752
106	0xbe1a99fd	-0.15097804
107	0x3d990afb	0.074727975
108	0x3e7c9b15	0.24668534
109	0x3e02b2a6	0.12763461
110	0xbe94e891	-0.29083684
111	0xbc1c69cb	-0.009546707
112	0x3d62de9c	0.055388078
113	0x3e2f9c67	0.17149507
114	0x3e7649b6	0.24051556
115	0x3e9139db	0.28364453
116	0xbb5a9820	-0.0033354834
117	0x3ea4383a	0.32074147
118	0xbd9ea623	-0.07746532
119	0xbe30bfdb	-0.17260687
120	0xbe0bb0c3	-0.13641648
121	0x3eafe885	0.34357086
122	0x3e3220cb	0.17395322
123	0x3de1f330	0.110327125
124	0xbe1defee	-0.15423557
125	0xbe375cbc	-0.17906469
126	0x3b83a077	0.0040169316
127	0x3d475d99	0.048673246
128	0xbea5b6ee	-0.32366127
129	0x3e98444d	0.2973961
130	0xbe33bf6d	-0.17553492
131	0xbe038202	-0.12842563
132	0xbe52cc14	-0.20585662
133	0x3d581e3d	0.052763212
134	0xbe27dd19	-0.16392936
135	0x3ea47c2c	0.32125986
136	0x3ea705d5	0.32621637
137	0x3da54aa8	0.0807088
138	0xbe14163f	-0.14461611
139	0x3e9ac864	0.3023101
140	0x3e849006	0.2589113
141	0x3eb419c5	0.3517591
142	0xbe8c0ad4	-0.2735201
143	0xbc6c9b6c	-0.014441352
144	0xbd1e9493	-0.03871591
145	0xbda5c1a9	-0.08093578
146	0xbd07421f	-0.033022042
147	0x3d28f27f	0.041246887
148	0x3eb2bbb3	0.34908828
149	0xbeb50c89	-0.35361126
150	0xbe979942	-0.29609114
151	0xbc433cdd	-0.011916366
152	0xbe4843fc	-0.19557184
153	0xbceced3e	-0.02892172
154	0xbe7ee1d1	-0.2489083
155	0xbea777af	-0.327085
156	0x3d21c5e3	0.03949536
157	0xbde74943	-0.112932704
158	0x3de12db5	0.10995046
159	0x3e3e1b15	0.18565018
160	0xbe549ed1	-0.20763709
161	0x3e484876	0.19558892
162	0x3db4c3f7	0.0882644
163	0xbdde4777	-0.108534746
164	0xbe5b25ac	-0.2140109
165	0xbe04420c	-0.1291582
166	0x3eb249ed	0.34822026
167	0xbe51bbd8	-0.20481813
168	0xbe863e8e	-0.262196
169	0xbe6d9682	-0.23201945
170	0x3e9568ac	0.2918142
171	0x3e039d35	0.12852938
172	0xbe5c994b	-0.21542852
173	0x3eb4aee0	0.3528967
174	0xbe8bfc15	-0.2734076
175	0xbeb01fe4	-0.3439933
176	0xbe87e80b	-0.26544222
177	0x3e5b30da	0.21405354
178	0xbe15fb9a	-0.1464676
179	0xbe20e43a	-0.15712062
180	0xbdc4fe2d	-0.09618793
181	0xbe484dab	-0.19560878
182	0x3ead7d32	0.3388458
183	0xbc16e48a	-0.009209761
184	0xbde77f03	-0.113035224
185	0x3eb16df4	0.346542
186	0xbeafd4d1	-0.34342054
187	0xbe1d6685	-0.1537114
188	0x3eb7fd59	0.35935476
189	0xbe7d33a7	-0.24726735
190	0x3e089a8d	0.13340206
191	0xbe718526	-0.23585948
192	0xbe96dd78	-0.29465842
193	0xbe0adeb2	-0.13561514
194	0xbe8b3997	-0.27192375
195	0xbde07ce4	-0.10961321
196	0xbe3d869c	-0.1850838
197	0xbe172d0c	-0.14763278
198	0xbdd665a6	-0.10468607
199	0xbe1d4c51	-0.15361144
200	0xbe3c0381	-0.18360712
201	0xbbb971f8	-0.005659338
202	0x3d579a0e	0.052637152
203	0xbdaece56	-0.08535449
204	0xbe38511c	-0.17999691
205	0x3e91e25d	0.28493014
206	0xbe8f55dd	-0.27995196
207	0x3e9877da	0.2977894
208	0x3da49429	0.08036072
209	0xbdba78ff	-0.091051094
210	0xbe9ff27b	-0.31239685
211	0x3d8244c9	0.06360776
212	0xbe949c71	-0.29025605
213	0x3e6bd609	0.23030867
214	0xbb26aa1e	-0.0025430988
215	0xbe9d9f34	-0.30785525
216	0x3ea9c6a6	0.3315937
217	0x3d8e1c33	0.06938972
218	0x3de599b4	0.11210957
219	0xbced114a	-0.028938908
220	0x3ea27269	0.31727913
221	0xbe267c3a	-0.16258326
222	0xbe7cfd0f	-0.24705909
223	0x3e4c096c	0.19925469
224	0xbd75a4af	-0.059971508
225	0x3d6a3094	0.057175234
226	0xbe8da4b0	-0.2766471
227	0x3e157ef0	0.14599204
228	0xbeb13a0e	-0.34614605
229	0xbce6b490	-0.02816227
230	0xbe14d2e4	-0.14533573
231	0xbea3d0bd	-0.31995192
232	0x3dc312eb	0.09525093
233	0xbda1cc00	-0.07900238
234	0x3d6e8e66	0.05824127
235	0xbe9d245e	-0.30691808
236	0x3e97d1af	0.29652163
237	0xbeafa115	-0.34302583
238	0xbe4ca705	-0.19985588
239	0xbe66b402	-0.22529605
240	0xbe9bb2a8	-0.3040974
241	0x3de09bbb	0.10967203
242	0xbe15d83a	-0.14633265
243	0x3e05633f	0.1302614
244	0x3df04946	0.11732726
245	0x3eab339c	0.33437812
246	0xbdcd6c21	-0.100303896
247	0xbde4765c	-0.11155388
248	0xbeab1572	-0.334148
249	0xbd0713f9	-0.03297803
250	0x3ead5410	0.33853197
251	0xbe76d686	-0.24105272
252	0xbe7b2937	-0.24527441
253	0x3e64fa66	0.22361144
254	0x3e11145a	0.1416792
255	0x3e8ab2b6	0.2708947

fc1.bias f4 [256]
0	0x3e62c33b	0.22144787
1	0xbe6004bb	-0.21876805
2	0xbe4ec971	-0.20194031
3	0x3e773b87	0.24143802
4	0xbd515333	-0.051104736
5	0x3ebb285e	0.36554235
6	0xbddf0c65	-0.10891036
7	0xbe345251	-0.17609526
8	0xbe5f4349	-0.21803011
9	0x3d2b3f4d	0.041808415
10	0x3b86df7c	0.004115997
11	0x3e9c0001	0.30468753
12	0xbd27c815	-0.040962297
13	0x3d9c86ee	0.07642923
14	0x3eb15bcb	0.34640345
15	0x3e8fe3b1	0.28103402
16	0x3eb1873c	0.34673488
17	0x3ea3bd85	0.3198053
18	0xbdc1eb67	-0.094687276
19	0xbe84eccf	-0.2596192
20	0xbce0630c	-0.02739098
21	0xbe7df14f	-0.24799083
22	0x3e1de673	0.1541994
23	0xbd301bf0	-0.042995393
24	0xbe3ae6a6	-0.18252048
25	0xbe4e0cdc	-0.20122093
26	0x3eb35f07	0.35033438
27	0x3d3f3e7b	0.046690445
28	0xbea343bd	-0.31887618
29	0xbe114674	-0.14187032
30	0xbd9121c1	-0.07086516
31	0x3d71762a	0.05895058
32	0x3ea4919d	0.32142344
33	0xbe50d44d	-0.20393486
34	0xbe23ea16	-0.16007265
35	0x3d5092bb	0.050921183
36	0xbdc8d175	-0.09805576
37	0xbe8c344c	-0.2738365
38	0x3d9f2d3a	0.07772298
39	0xbd65cda6	-0.056104325
40	0xbe286390	-0.1644423
41	0xbd39bf14	-0.045348242
42	0x3d956c1b	0.0729601
43	0xbea43229	-0.3206952
44	0x3e0c7090	0.13714814
45	0x3e9ff7d4	0.31243765
46	0xbea78be7	-0.32723925
47	0xbe44947b	-0.19197266
48	0x3e6a629e	0.22889182
49	0xbdef5cc0	-0.116876125
50	0xbe88694a	-0.2664283
51	0x3e96b0e0	0.2943182
52	0x3eb49fe2	0.3527823
53	0x3e6921e5	0.22766836
54	0x3e0c44bd	0.13698097
55	0x3d247589	0.040151153
56	0x3e7343f5	0.23756392
57	0xbe903e3f	-0.2817249
58	0xbea20cef	-0.31650493
59	0xbe88408f	-0.26611754
60	0x3daf04de	0.0854585
61	0x3e8307e5	0.2559196
62	0xbdd04123	-0.10168674
63	0xbe2ed506	-0.1707345
64	0x3d0f802a	0.035034336
65	0x3e1e54d1	0.15462042
66	0xbe42015e	-0.18945834
67	0x3dbcbfbd	0.09216259
68	0xbcbca90e	-0.02302983
69	0xbe9fc751	-0.31206754
70	0x3e978806	0.29595965
71	0x3e229c0b	0.15879838
72	0xbd53a625	-0.05167212
73	0x3e14f399	0.1454605
74	0xbe818ffe	-0.2530517
75	0x3ea018b4	0.31268847
76	0xbe26d981	-0.16293909
77	0x3e8f62f8	0.28005195
78	0xbd820b49	-0.06349809
79	0x3e6e5141	0.23273183
80	0x3d939ac4	0.072072536
81	0x3ea9b8c8	0.3314879
82	0xbeab7d45	-0.3349401
83	0x3e2b4227	0.16724454
84	0x3dbb7899	0.091538616
85	0xbca3f7a0	-0.020015538
86	0x3e47842c	0.19484013
87	0x3ea43961	0.32075027
88	0x3e77eb15	0.2421077
89	0xbda4502b	-0.08023103
90	0x3e11549d	0.14192434
91	0xbead6b4b	-0.3387092
92	0xbe792548	-0.24330628
93	0xbe2f38e0	-0.1711154
94	0x3ea3e721	0.32012275
95	0x3d1970b6	0.037461005
96	0x3e8e31a1	0.2777224
97	0xbdabb7fa	-0.083847
98	0xbe7676e0	-0.24068785
99	0xbe36add8	-0.17839754
100	0x3e814e3f	0.2525501
101	0xbde84c04	-0.11342624
102	0xbe40d24f	-0.18830226
103	0xbe52f782	-0.20602229
104	0x3eaf8dec	0.34287965
105	0x3ea132e9	0.31484154
106	0xbe971bfa	-0.29513532
107	0x3ea0d3d2	0.31411606
108	0xbdf729b1	-0.12068499
109	0xbe3b4818	-0.1828922
110	0xbe620ff2	-0.22076395
111	0xbe93a700	-0.28838348
112	0x3e898cd1	0.26865247
113	0xbe5878d7	-0.21139847
114	0xbe1e9ed2	-0.15490273
115	0x3eb3bb82	0.35103995
116	0xbd59f6a4	-0.05321373
117	0xbe970fa1	-0.2950411
118	0x3eb14380	0.3462181
119	0xbe014997	-0.12625729
120	0xbe8aecae	-0.27133697
121	0xbd681140	-0.056657076
122	0x3e658500	0.22414017
123	0x3dcf8692	0.10133089
124	0x3d4d3c9e	0.050106637
125	0xbe8d6fec	-0.27624452
126	0x3e9665c8	0.29374528
127	0xbd4bf5eb	-0.049795073
128	0x3eae5bbe	0.3405437
129	0x3e9d4dd4	0.3072344
130	0xbd5470bd	-0.051865328
131	0xbe460148	-0.19336426
132	0xbea93237	-0.33046123
133	0xbe8c74ee	-0.2743296
134	0xbdb1d2d6	-0.08682792
135	0xbd4f84fd	-0.050663937
136	0xbcf0e8f0	-0.029407948
137	0x3ea78911	0.3272176
138	0x3e4eb637	0.20186697
139	0x3ea6b396	0.32558888
140	0xbd1ab4e0	-0.037770152
141	0x3e6f9210	0.23395562
142	0x3e1e9b1e	0.1548886
143	0x3e9553bc	0.29165447
144	0xbe375ae7	-0.1790577
145	0xbe9f1f74	-0.31078684
146	0x3ced61ab	0.028977236
147	0x3e78e19f	0.24304818
148	0x3e598c59	0.21244945
149	0x3dddf0b5	0.10836927
150	0x3e92060d	0.2852024
151	0x3e7cb6bb	0.24679081
152	0x3d06aa81	0.03287745
153	0xbdd6bf44	-0.104857
154	0x3e3c01cb	0.18360059
155	0x3e99d7ab	0.30047354
156	0xbe9dd98d	-0.3083004
157	0x3c8d1828	0.017223433
158	0x3eaaade9	0.33335808
159	0x3ba77f18	0.0051115863
160	0x3d991fb9	0.07476754
161	0x3dfb5b14	0.12273231
162	0xbe95c127	-0.29248926
163	0xbdada5a1	-0.08478857
164	0xbde15321	-0.11002184
165	0x3e84499e	0.25837415
166	0x3dc19f12	0.094541684
167	0x3ea73cba	0.32663518
168	0x3ea4481c	0.32086265
169	0x3eb42752	0.3518625
170	0xbe5cda88	-0.21567738
171	0x3eb474f6	0.35245484
172	0xbe9a78d3	-0.30170307
173	0xbd422553	-0.047398876
174	0xbda5fd9f	-0.08105015
175	0x3eb81377	0.3595235
176	0x3e9da64f	0.30790946
177	0xbe8db09a	-0.276738
178	0xbdeea06f	-0.11651694
179	0xbe06c0eb	-0.1315953
180	0xbe115307	-0.14191829
181	0x3e6ef376	0.2333506
182	0x3d882e1e	0.06649421
183	0x3eb8201d	0.35962
184	0x3de815a5	0.11332253
185	0x3e40a492	0.18812779
186	0xbe561860	-0.20907736
187	0x3e0e97bb	0.13925068
188	0xbe9fae16	-0.31187505
189	0xbe9c71bb	-0.3055552
190	0x3e4382f6	0.19092926
191	0x3e89e3e2	0.26931673
192	0x3d9a8f21	0.07546831
193	0x3c7fe599	0.015618705
194	0x3d98fa5b	0.074696265
195	0x3e238fd3	0.15972833
196	0xbdb6afff	-0.08920287
197	0x3e5f71b4	0.21820718
198	0x3c9a4e47	0.018836154
199	0xbe0945ed	-0.13405581
200	0xbe65d124	-0.22443062
201	0xbeb2324b	-0.34803995
202	0xbea5f7c8	-0.32415605
203	0xbd43695a	-0.047707893
204	0xbeb26d1d	-0.34848872
205	0x3da5570c	0.080732435
206	0x3eb20b12	0.3477407
207	0x3db05ee2	0.086118475
208	0x3ea8558d	0.3287777
209	0x3e94ff23	0.29100904
210	0x3e5a7798	0.21334684
211	0x3ca0c53f	0.019625304
212	0x3e1a091f	0.15042542
213	0x3af772de	0.0018878838
214	0x3e8f6fee	0.28015083
215	0xbdce0bd8	-0.10060853
216	0xbe828100	-0.25489044
217	0x3e98aae4	0.2981788
218	0x3e62c8d3	0.22146921
219	0x3e3e205f	0.18567036
220	0x3e046b78	0.12931621
221	0x3d00e3b1	0.031467143
222	0xbe380d82	-0.17973903
223	0x3e98d9c5	0.29853645
224	0xbe53c109	-0.20679106
225	0x3e6f22e8	0.2335316
226	0xbd4c7d8b	-0.049924415
227	0x3ddba846	0.10725455
228	0x3d704027	0.05865493
229	0x3d598bbc	0.053111777
230	0x3de6e1aa	0.11273511
231	0x3d53237a	0.051547505
232	0xbe68c988	-0.22733128
233	0x3c377db5	0.0111994045
234	0xbcac9d49	-0.021071093
235	0xbd65e871	-0.056129877
236	0x3e92120e	0.285294
237	0xbe241f63	-0.16027598
238	0xba5d8d3a	-0.00084515254
239	0x3b37f412	0.0028069061
240	0x3e11a2b9	0.1422223
241	0x3e8b3e97	0.2719619
242	0xbe07bf33	-0.1325653
243	0xbe1ead0f	-0.15495704
244	0x3e9ae0e7	0.30249712
245	0xbde9c82c	-0.11415133
246	0xbe93013c	-0.2871188
247	0x3e3be487	0.18348895
248	0xbe585308	-0.21125424
249	0x3e6e0cba	0.23247042
250	0xbd0dfe1b	-0.034666162
251	0xbd6b6bba	-0.057475783
252	0x3da5cceb	0.080957256
253	0x3e3c239e	0.18372962
254	0xbdada793	-0.08479228
255	0x3e334a1f	0.17508744

fc2.weight f4 [256, 256]
0	0xbce6d86e	-0.028179374
1	0x3d3e1a13	0.046411585
2	0xbd5561bf	-0.05209517
3	0xb7e6eca0	-2.7528324e-05
4	0xbd25fef3	-0.04052634
5	0x3d583c7a	0.05279205
6	0xbd05e976	-0.03269335
7	0xbb31e720	-0.0027145818
8	0x3c3dbf20	0.011581212
9	0x3c82c630	0.015963644
10	0xbab825bc	-0.0014049332
11	0xbcdcbc99	-0.0269454
12	0xbc2655c6	-0.010152286
13	0xbd4e1b57	-0.050319042
14	0x3d273bf6	0.040828668
15	0xbd1d0153	-0.03833134
16	0x3cb9dd20	0.022688448
17	0xbc0c331b	-0.008557106
18	0x3c8c4b0f	0.017125634
19	0x3cea4c3b	0.028600803
20	0x3c915e24	0.017745085
21	0xb8de2000	-0.000105917454
22	0x3d83f839	0.06443829
23	0x3b59d962	0.0033241143
24	0x3c686f65	0.014186715
25	0x3ba12bfd	0.004918574
26	0xbcf471e7	-0.02983947
27	0x3d171a35	0.036890227
28	0x3d796538	0.060887545
29	0x3cd9492a	0.026524145
30	0xbc399d2e	-0.011328978
31	0x3d41e664	0.04733886
32	0xbccfe232	-0.025376413
33	0x3d16deee	0.036833696
34	0xbd1a8fd3	-0.037734818
35	0x3c3af458	0.011410795
36	0x3d516d39	0.051129553
37	0xbd47b1ae	-0.048753433
38	0x3d500aac	0.050791427
39	0x3d1e1604	0.038595214
40	0xbb6e7126	-0.003638336
41	0x3cbebb07	0.023282541
42	0x3cfaf96d	0.030636514
43	0x3c158f84	0.009128455
44	0x3d8109e4	0.063007146
45	0xbbd47858	-0.0064840727
46	0xbd42863a	-0.04749129
47	0x3ca2660c	0.01982405
48	0xbc3b6688	-0.01143802
49	0xbcf0d9a1	-0.029400649
50	0xbd2c3eb4	-0.042051986
51	0x3d01be43	0.03167559
52	0x3d3bb946	0.045830987
53	0x3d205ba3	0.03914989
54	0xbc4b0128	-0.012390412
55	0xbc1eaf0f	-0.009685292
56	0x3d75f36e	0.060046606
57	0xbd5712b2	-0.052508064
58	0x3d54eb3c	0.05198215
59	0xbcb4afac	-0.022056423
60	0xbc97faf5	-0.018552283
61	0xbc328d47	-0.010897941
62	0x3c6a03fa	0.014283175
63	0x3d68c2fa	0.05682657
64	0xbcf6af8a	-0.030113
65	0xbd392e6e	-0.045210294
66	0x3bd37e60	0.006454274
67	0x3d4ec10e	0.05047708
68	0xbd22cd2c	-0.03974645
69	0xbcefe884	-0.029285677
70	0x3cd730d5	0.026268402
71	0xbc6473c4	-0.013943616
72	0x3c728748	0.014802761
73	0x3c15cb1d	0.009142664
74	0xbd1d5da2	-0.038419373
75	0x3d3d84c2	0.046269186
76	0xbd4e7ee2	-0.050413974
77	0xbca3c929	-0.019993382
78	0xbc8b2536	-0.016985517
79	0xbd2da2a6	-0.04239144
80	0xbc1bb4b0	-0.0095035285
81	0xbcf5e60c	-0.030016921
82	0x3d96603b	0.07342573
83	0x3d8b7404	0.068092376
84	0xbd477e03	-0.04870416
85	0xbd3620ae	-0.04446476
86	0x3d5e31c7	0.05424669
87	0xbd3d7ed2	-0.046263523
88	0x3d86372e	0.065534934
89	0x3c867d33	0.016417122
90	0xbc1a52c1	-0.009419144
91	0xbd21967d	-0.039450157
92	0x3d7a0bf4	0.061046556
93	0x3c4bff80	0.012451053
94	0x3a6c7880	0.00090206414
95	0x3b8cdc50	0.0042987242
96	0xbd3d05dd	-0.04614817
97	0x3d3c1438	0.04591772
98	0xbd05c0e9	-0.032654677
99	0x3c2a5dcf	0.010398342
100	0x3d95a351	0.07306541
101	0xbd0b1ba7	-0.03396192
102	0x3c768cbf	0.015048205
103	0x3d372609	0.044714008
104	0x3c3d89c0	0.011568487
105	0x3d2b4ee2	0.041823275
106	0x3c988cec	0.018621884
107	0x3b6ffa78	0.0036617797
108	0x3d20a126	0.039216183
109	0xbd22a280	-0.039705753
110	0xbd4f1166	-0.0505537
111	0x3d1ef272	0.038805433
112	0x3d89a7b9	0.06721444
113	0x3d4f49fa	0.05060766
114	0x3d5a20de	0.053254
115	0x3c3f05b3	0.011659074
116	0x3be5e7c9	0.0070161563
117	0xbd01720a	-0.031602897
118	0xbd3b9fcb	-0.045806687
119	0xbd55bb4e	-0.05218058
120	0x3ccdc952	0.025120411
121	0x399dd4d6	0.0003010395
122	0xbcd7b80b	-0.026332876
123	0xbce55a33	-0.027997112
124	0x3ca1f455	0.019769827
125	0xbbb47a34	-0.005507732
126	0x3cbb5e52	0.022872124
127	0x3d80ac82	0.06282903
128	0xbd48e7b0	-0.04904908
129	0xbc441213	-0.0119672
130	0xbd43b01f	-0.047775384
131	0x3c3e643f	0.01162058
132	0xbce7c350	-0.028291374
133	0xbc2e2ef0	-0.010631308
134	0xbd2caf88	-0.042159587
135	0xbcafa0a0	-0.021438897
136	0xbcbde2b6	-0.023179393
137	0x3d917b37	0.071035795
138	0x3c631216	0.0138592925
139	0x3c57a44a	0.013161728
140	0xbb5ed4c0	-0.003400132
141	0x3cb344cd	0.021883393
142	0xbc198a5e	-0.009371368
143	0xbd1d31dd	-0.03837763
144	0xbbb8bac7	-0.0056375
145	0x3cdf0400	0.027223587
146	0xbcb7b6d4	-0.022426046
147	0x3cc46562	0.023974124
148	0x3b6dc436	0.003628028
149	0x3d11ede8	0.035627276
150	0x3c481400	0.0122118
151	0x3bef2cc3	0.007299037
152	0xbd4a1d78	-0.04934451
153	0xbbeea5f9	-0.007282969
154	0x3c0eea60	0.008722872
155	0x3d25888c	0.040413424
156	0x3d06308c	0.03276114
157	0x3d19c4a5	0.03754105
158	0xbc18a730	-0.009317204
159	0x3d63c542	0.05560804
160	0xbd0d82b6	-0.034548484
161	0x3cc64cfe	0.024206635
162	0x3d3c8c12	0.04603202
163	0x3d5367cf	0.05161267
164	0x3c353617	0.011060259
165	0x3d401a46	0.046900056
166	0xbd25229d	-0.040316213
167	0xbceb087d	-0.028690571
168	0xbce1ddb1	-0.027571531
169	0xbcf1acc5	-0.029501328
170	0x3ca75203	0.020424848
171	0xbd46960c	-0.04848294
172	0xbcdb0aa8	-0.02673848
173	0x3d28f48c	0.041248843
174	0x3d1f5535	0.03889962
175	0x3b0a6be4	0.0021121437
176	0x3d936f80	0.07199001
177	0xbb934559	-0.004494351
178	0xbd1e32d2	-0.038622685
179	0x3d1efa01	0.03881264
180	0xbd89c226	-0.06726484
181	0x3b8f4d5c	0.0043732356
182	0x3bc24db5	0.0059296736
183	0xbd3f1f33	-0.046660613
184	0xbd2d9716	-0.042380415
185	0xbd4c675d	-0.049903262
186	0x3d5ead8c	0.054364726
187	0xbc13c3ba	-0.009018833
188	0xbd79887e	-0.060921185
189	0xbcefc1c5	-0.029267201
190	0xbd0edc4e	-0.034878068
191	0x3d4b32d4	0.04960902
192	0x3d0d011c	0.034424886
193	0x3d3293db	0.043598037
194	0x3cb3ab04	0.021932133
195	0x3d71fe12	0.05908019
196	0x3cfce010	0.03086856
197	0x3c93cc9c	0.018041901
198	0xbcfbddf5	-0.030745486
199	0xbcb4fd78	-0.02209352
200	0xbd3f94f3	-0.04677291
201	0xbc272f30	-0.0102041215
202	0xbcc43fea	-0.023956258
203	0x3a190beb	0.0005838263
204	0x3c36db00	0.011160612
205	0x3d398421	0.045292024
206	0xbc3026d7	-0.010751448
207	0x3d8a5d63	0.06756093
208	0xbd2c6cea	-0.042096056
209	0x3c739cf4	0.0148689635
210	0x3ce62848	0.02809538
211	0x3d9188eb	0.07106193
212	0xbc34255c	-0.010995235
213	0x3d2a5052	0.041580506
214	0x3c267e68	0.010161974
215	0xbc80f7f0	-0.015743226
216	0xbcb6fa30	-0.022336096
217	0xbd4924e8	-0.049107462
218	0x3ca4484a	0.020054001
219	0x3d80ed5b	0.06295272
220	0x3d60a62b	0.05484597
221	0xbbfb611a	-0.0076714875
222	0x3d0b66dc	0.03403364
223	0xbcb24f58	-0.02176635
224	0xbcf95c3c	-0.030439489
225	0x3bffc063	0.0078049167
226	0xbcf7c260	-0.030244052
227	0xbd2388e4	-0.03992547
228	0x3c87c705	0.016574392
229	0xbc4c2d89	-0.012462028
230	0x3cac586a	0.021038253
231	0x3d7768d2	0.0604027
232	0x3d30cff2	0.043167062
233	0x3bdb85fa	0.006699321
234	0x3d71dd39	0.059048865
235	0x3d1d94dd	0.038472045
236	0xbc6b96e0	-0.014379233
237	0xbd1d9659	-0.03847346
238	0xbd1af151	-0.037827794
239	0x3d00b371	0.03142113
240	0xbc422a31	-0.0118508795
241	0xbcee5966	-0.029095363
242	0x3d762ff8	0.06010434
243	0x3d6e2762	0.058143027
244	0xb9620844	-0.00021556119
245	0x3d676b3a	0.056498744
246	0x3d6619da	0.056176998
247	0x3d47f70b	0.048819583
248	0xbccd24a2	-0.025041882
249	0xbc77bb7d	-0.015120384
250	0x3d76cfc6	0.060256742
251	0x3c3545c8	0.011064
252	0xbc76f616	-0.01507332
253	0x3d84d216	0.06485383
254	0x3d366388	0.044528514
255	0xbcd8fbf0	-0.02648732

fc2.bias f4 [256]
0	0x3d8dd636	0.06925623
1	0xbd4c9374	-0.04994531
2	0xbd1941d2	-0.037416287
3	0x3ce0d6e2	0.027446214
4	0x3d7a9a04	0.061182037
5	0x3d076242	0.03305269
6	0xbc5c5f28	-0.013450421
7	0x3d0c29bf	0.0342195
8	0x3d0792c6	0.03309896
9	0x3c88fc18	0.01672177
10	0x3cb9c460	0.022676647
11	0x3c35feb6	0.011108091
12	0x3d705c10	0.058681548
13	0xbc58c851	-0.013231353
14	0x3d8e781c	0.06956503
15	0xbd45f108	-0.04832557
16	0xbbdfed00	-0.0068336725
17	0x3d52edd4	0.05149634
18	0x3b793b65	0.0038029787
19	0xbd19cfc1	-0.037551645
20	0x3d50102d	0.050796676
21	0xbd2320ab	-0.039826076
22	0xbd3a564e	-0.045492463
23	0x3d8fa8e0	0.07014632
24	0x3d985945	0.07438902
25	0x3d911ba6	0.07085352
26	0xbced22f4	-0.028947331
27	0xbccef25f	-0.025262056
28	0x3c4ca882	0.012491347
29	0xbd3d918b	-0.04628138
30	0xbc2396d3	-0.00998469
31	0xbd18f211	-0.037340228
32	0xbc394518	-0.011307977
33	0xbd5bcbea	-0.053661264
34	0xbcbcb655	-0.023036161
35	0x399a3a28	0.000294165
36	0xbd63bd2a	-0.055600323
37	0xbcf945f8	-0.030428872
38	0xbd7d86e0	-0.061896205
39	0xbd198a1e	-0.037485234
40	0xbd0d0412	-0.03442771
41	0x3d435dea	0.047696985
42	0x3b445490	0.002995763
43	0xbd0edfee	-0.034881525
44	0x3bcbb50d	0.0062166513
45	0xbd3bdb52	-0.045863457
46	0xbd0374c7	-0.03209379
47	0x3ca98874	0.020694949
48	0xbd68d193	-0.05684049
49	0x3ca4fe87	0.0201409
50	0xbc0eda61	-0.008719058
51	0x3d055c54	0.032558754
52	0x3d377686	0.044790767
53	0xbcace72f	-0.02110633
54	0x3a2c61c2	0.00065758463
55	0x3cc56bc6	0.024099242
56	0x388bc912	6.665489e-05
57	0x3d2c05a8	0.04199758
58	0xbb8fe059	-0.004390758
59	0x3c54bcbf	0.012984454
60	0xbd56b9c9	-0.052423272
61	0xbb0ce020	-0.0021495894
62	0x3b5f7800	0.0034098625
63	0x3d8835b3	0.06650867
64	0x3be9632e	0.007122419
65	0x3c4c8b33	0.01248436
66	0x3abfab00	0.0014623106
67	0x3cbcd0de	0.023048814
68	0x3a151300	0.000568673
69	0xbd1def60	-0.038558364
70	0xbd569bce	-0.05239468
71	0x3bf53eee	0.0074843084
72	0xbbfec97b	-0.007775483
73	0xbd3a9ce2	-0.04555977
74	0x3c4859f8	0.0122284815
75	0xbc02338b	-0.007946859
76	0x3cedcef7	0.029029353
77	0x3d6ccd74	0.057813123
78	0x3d29a9f8	0.04142186
79	0xbc081979	-0.008306854
80	0xbcc2ec17	-0.023794217
81	0x3d993d25	0.074823655
82	0xbbaa1fa0	-0.0051917583
83	0x3ccec0f8	0.025238499
84	0x3c8869db	0.016652038
85	0xbd785405	-0.060627002
86	0x3a9e28ca	0.00120666
87	0xbd306eef	-0.043074545
88	0xbd0fc47a	-0.035099484
89	0x3b6e5b5d	0.0036370375
90	0xbd6dafc8	-0.058028966
91	0xbd32e5cd	-0.043676186
92	0x3c19af1b	0.009380127
93	0x3c316eec	0.0108296685
94	0xbd7462ba	-0.059664465
95	0x3d36a654	0.044592217
96	0x3af8f12e	0.0018992776
97	0x3d7ce758	0.061744064
98	0x3d03a9cd	0.032144357
99	0xbd2c948e	-0.04213386
100	0xbd38403f	-0.044983145
101	0xbb9a0c7d	-0.0047011958
102	0xbd4b7f1e	-0.049681775
103	0x3d53dfd5	0.051727135
104	0x3cccb0f8	0.024986729
105	0x3cd3d894	0.025860108
106	0x3d313a1c	0.043268308
107	0xba4d40fe	-0.0007829814
108	0xbaa64c3a	-0.0012687512
109	0xbd7aa3c4	-0.061191335
110	0x3bde0fb3	0.006776774
111	0x3d0067f4	0.031349137
112	0x3d8be05f	0.06829905
113	0x3d2d866b	0.04236452
114	0xbd3dbfbd	-0.046325434
115	0x3ce5eae9	0.028066115
116	0xbc219238	-0.009861521
117	0x3bb5ac8d	0.0055442513
118	0x3c39c9a6	0.011339581
119	0xbc850ecc	-0.016242407
120	0x3d3a5486	0.045490764
121	0x3c8c5fae	0.017135467
122	0xbd20aad0	-0.0392254
123	0xbd554fde	-0.05207812
124	0xbd1fac70	-0.03898281
125	0xbc949432	-0.018137071
126	0xbbe41c40	-0.0069613755
127	0x3c5a48c7	0.0133230155
128	0xbb5f1040	-0.0034036785
129	0x3d1a0a9e	0.03760778
130	0x3c44026f	0.011963471
131	0x3d1e73e0	0.038684726
132	0xbc38cb39	-0.011278921
133	0xbd3e18e0	-0.04641044
134	0x3d615da4	0.055020943
135	0xbbb1bc18	-0.005424034
136	0xbd82fb42	-0.0639558
137	0xbd59277e	-0.05301618
138	0xbcf35318	-0.029702708
139	0x3d440ab9	0.04786179
140	0x3d6facc8	0.058514386
141	0xbcb0c640	-0.021578908
142	0x3ba50646	0.0050361482
143	0x3d5b9ce0	0.053616405
144	0x3c4304c8	0.011902995
145	0x3c8d86f7	0.01727627
146	0x3d45609e	0.048187844
147	0x3d0193f1	0.03163523
148	0x3d38eb4f	0.045146283
149	0xbc666ed4	-0.014064509
150	0xbc411d3d	-0.011786756
151	0xbd0cca27	-0.034372475
152	0xbc0310d3	-0.007999617
153	0x3d133c47	0.035946157
154	0x3d9db341	0.077002056
155	0x3cc6c2ea	0.024262864
156	0xbd1126cf	-0.0354374
157	0xbd652080	-0.055939198
158	0xbd828bca	-0.06374319
159	0x3c587208	0.013210781
160	0x3d9565ae	0.072947845
161	0xbd4e9b8a	-0.050441302
162	0x3d9936a7	0.07481127
163	0xbce1004a	-0.027465958
164	0x3ba92806	0.005162242
165	0xbab72540	-0.0013972893
166	0xbd28ddc1	-0.041227106
167	0xbd871725	-0.06596211
168	0xbcd5b538	-0.026087388
169	0x3d7431ce	0.05961781
170	0xbd7b18f6	-0.0613031
171	0xbd6c67da	-0.057716228
172	0xbc7c5b99	-0.015402698
173	0xbc9b2cf0	-0.018942326
174	0xbd3d1cc2	-0.046170004
175	0x3d1ff680	0.03905344
176	0x3d0921ee	0.033479623
177	0xbc881b3c	-0.016614549
178	0x3d496d36	0.049176417
179	0xbd7b5409	-0.06135944
180	0x3bcdf340	0.006285101
181	0xbd6913e7	-0.056903746
182	0xbd49f5fc	-0.049306855
183	0x3d0ad1ba	0.033891417
184	0x3c119cb1	0.008887456
185	0x398ff800	0.0002745986
186	0xbd22597c	-0.03963612
187	0x3d53a546	0.05167129
188	0xbcb93727	-0.022609306
189	0xbcd19288	-0.025582567
190	0xbcf1acac	-0.029501282
191	0x3c926954	0.01787249
192	0x3cbe0941	0.023197772
193	0xbc6e986a	-0.0145627055
194	0xbca9130a	-0.020638961
195	0x3c8a9e82	0.016921286
196	0xbc9ecba4	-0.019384213
197	0xbd507f96	-0.050902925
198	0xbd3ed9c2	-0.04659439
199	0x3d0afc1f	0.033931848
200	0xbca8e2f6	-0.020616036
201	0x3d1cf8f8	0.038323373
202	0x3d261a4a	0.040552415
203	0xbccfcbd3	-0.025365746
204	0x3d3ab2a8	0.045580536
205	0xbcfdd722	-0.030986372
206	0x3d182180	0.037141323
207	0x3d3d7eee	0.046263628
208	0x3d1ade87	0.037809875
209	0xbc91a75e	-0.017780002
210	0x3d28d1c7	0.041215684
211	0x3c8a77ed	0.016902888
212	0x3c811edd	0.015761787
213	0xbcf6b3b8	-0.030114993
214	0x3d41fdac	0.04736106
215	0x3d1244b6	0.03571006
216	0xbd689745	-0.056784887
217	0x3d066e63	0.032820117
218	0xbd2f7704	-0.04283811
219	0x3d2b6879	0.04184768
220	0x3919e600	0.00014676899
221	0xbcd24d61	-0.025671663
222	0xbbfcd6b5	-0.0077160248
223	0x3ca882c2	0.020570163
224	0x3d634f1f	0.055495378
225	0x3d9491ff	0.07254409
226	0x3c9c1e2a	0.019057352
227	0xbc86a22a	-0.016434748
228	0xbcb33488	-0.021875635
229	0x3d95f438	0.07321972
230	0x3d6dd6c8	0.05806616
231	0x3c1dbb64	0.009627197
232	0xbcbf8abe	-0.023381587
233	0x3d39f22e	0.045396976
234	0x3d90c940	0.070696354
235	0x3d2e0bb4	0.04249163
236	0x3d243b1c	0.040095434
237	0xbbadd2e0	-0.0053046793
238	0x3cf43487	0.029810203
239	0xbc7a6d89	-0.015284904
240	0x3cfaffc7	0.030639542
241	0xbd5a55e8	-0.053304583
242	0x3c783556	0.015149435
243	0xbc4ac91a	-0.012377048
244	0x3d9a7aa7	0.07542925
245	0x3d6347d2	0.055488415
246	0x3b3eb2bc	0.0029098233
247	0xbc490b90	-0.012270823
248	0xbd02a40b	-0.031894725
249	0x3c1c9b82	0.00955856
250	0x3b81d1e0	0.0039617866
251	0x3d56e2d9	0.052462433
252	0x3d989bdd	0.074516036
253	0xbd35a00a	-0.04434208
254	0xbcea1139	-0.028572666
255	0x3d162db0	0.036664665

fc3.weight f4 [4, 256]
0	0xbd947ab7	-0.072499685
1	0x3cbfcf7c	0.023414366
2	0x3ca1b01b	0.019737294
3	0xbd96ff95	-0.07372967
4	0xbd995d69	-0.0748852
5	0x3d6f63e8	0.058444887
6	0x3c035ec0	0.008018196
7	0xbd2f67aa	-0.04282347
8	0x3d75afc0	0.05998206
9	0xbbc2b720	-0.0059422404
10	0x3b7ea2a0	0.0038854256
11	0xbd7bcff0	-0.0614776
12	0x3c6507b0	0.013978884
13	0xbd36de97	-0.044645872
14	0xbd9255f2	-0.07145299
15	0xbcc97e28	-0.024596289
16	0xbbda4f30	-0.006662272
17	0xbd32940a	-0.043598212
18	0xbd8527f2	-0.065017596
19	0x3c22a746	0.009927576
20	0x3d3e8c2e	0.046520405
21	0xbc84e11a	-0.016220618
22	0xbc2ab020	-0.010417968
23	0xbbab344e	-0.005224741
24	0xbcc83114	-0.024437465
25	0x39e45094	0.00043547584
26	0xbd60bbcc	-0.054866597
27	0x3cdebb19	0.027188824
28	0x3d3318fc	0.043725
29	0xbd5efda3	-0.054441106
30	0xbd17e496	-0.03708323
31	0xbd67cd43	-0.056592237
32	0xbd7e8f52	-0.0621484
33	0x3c8da9ec	0.01729294
34	0xbd32371c	-0.043509588
35	0x3c8bf774	0.017085768
36	0xbc3cff78	-0.011535518
37	0xbd35e0d4	-0.044403866
38	0x3d30d62c	0.043173
39	0xbd16c8ea	-0.0368127
40	0xbd2fa6d0	-0.042883694
41	0xbd3b3dc4	-0.0457132
42	0xbd783c1e	-0.060604207
43	0xbd312c1a	-0.04325495
44	0x3d2286c8	0.03967932
45	0x3cd5be38	0.02609168
46	0xbc8501dc	-0.016236238
47	0xbce2599b	-0.027630618
48	0xbc82202e	-0.015884485
49	0x3d061c06	0.03274157
50	0x3d152d6d	0.036420275
51	0x3cd888ab	0.026432356
52	0x3c36e251	0.0111623565
53	0xbd999acd	-0.07500229
54	0x3cac6ed9	0.02104895
55	0x3c1b4f4f	0.009479358
56	0xbcec5582	-0.028849367
57	0x3a0e7214	0.0005433869
58	0xbccc12f7	-0.024911387
59	0xbd60b55d	-0.05486046
60	0x3d181c54	0.03713639
61	0xbd4be68a	-0.049780406
62	0x3d20bb58	0.039241165
63	0x3ccd35c8	0.025050059
64	0x3d46171f	0.048361894
65	0xbd51ba5d	-0.05120312
66	0xbd386e20	-0.0450269
67	0xbd4d4166	-0.050111197
68	0xbcc62870	-0.024189204
69	0x3cd3a36c	0.025834762
70	0xbd3b1b40	-0.045680285
71	0xbcbfee04	-0.023428924
72	0x3cfb0578	0.030642256
73	0xbd862fce	-0.06552087
74	0x3d2e3c42	0.042537935
75	0xbd97b196	-0.07406919
76	0x3d19d5d9	0.037557457
77	0xbd637bb6	-0.0555379
78	0xbd7d30b4	-0.061814025
79	0xbce3733e	-0.027764913
80	0x3c797393	0.015225309
81	0x3bee5085	0.0072727823
82	0xbb0b37bd	-0.002124294
83	0x3d310988	0.04322198
84	0x3d0d18fc	0.034447655
85	0xbcaf7731	-0.02141914
86	0x3a3d55c6	0.0007222559
87	0x3bccaca2	0.0062461654
88	0xbd70be93	-0.058775496
89	0xbd84fa11	-0.06493009
90	0x3d4156ce	0.047201924
91	0xbc85b05a	-0.016319443
92	0xbb0a72e8	-0.0021125618
93	0xbc25e840	-0.0101261735
94	0xbcaf7f98	-0.021423146
95	0xbd16e5ec	-0.036840364
96	0xbcfc397f	-0.030789135
97	0xbd5dd01a	-0.05415354
98	0xbcea1570	-0.028574675
99	0xbc30ad6b	-0.010783534
100	0xbd0def75	-0.034652192
101	0xbcd3330a	-0.025781173
102	0x3bd02cc4	0.0063529927
103	0xbc35afb0	-0.01108925
104	0xbd5bffe8	-0.053710848
105	0x3cfe1ba4	0.03101904
106	0x3cc937e6	0.024562787
107	0xbd183804	-0.037162796
108	0x3d2feefd	0.042952526
109	0x3d635066	0.055496596
110	0x3d665345	0.056231756
111	0xbd783d8d	-0.060605574
112	0xbbd16b8d	-0.006390995
113	0x3b5eb0fe	0.0033980007
114	0x3cfc32ab	0.03078588
115	0xbd827f90	-0.06371987
116	0xbd89a451	-0.06720794
117	0xbd1fac77	-0.038982835
118	0x3be85a03	0.0070908084
119	0xbd377cda	-0.044796802
120	0xbd1d8d16	-0.03846463
121	0x3aef76be	0.0018269641
122	0xbc820139	-0.015869724
123	0xbd6c70d0	-0.057724774
124	0xbcb28324	-0.021791048
125	0xbd4e58ed	-0.050377775
126	0xbcc06d58	-0.02348964
127	0xbd87cd37	-0.066309385
128	0xbd322cf0	-0.043499887
129	0x3b59373d	0.0033144497
130	0x3d08cf1b	0.033400636
131	0xbcc01001	-0.023445131
132	0x3cebe072	0.028793547
133	0x3d22f9b0	0.0397889
134	0xbd0e54be	-0.034748785
135	0xbd125372	-0.03572411
136	0x3b64f2ab	0.003493468
137	0x3d1a7686	0.03771069
138	0x3c98058b	0.01855733
139	0xbd0a0eb8	-0.033705443
140	0x3b8cac2c	0.0042929854
141	0x3d4109fa	0.047128655
142	0x3c0f1e8d	0.008735311
143	0x3b64e020	0.0034923628
144	0x3d315e2c	0.0433027
145	0xbbda43db	-0.006660921
146	0xbd73a8ea	-0.05948726
147	0xbd218e73	-0.03944249
148	0xbd8a005e	-0.06738351
149	0x3d2acfa2	0.04170192
150	0x37a97f60	2.0205684e-05
151	0xbd4efcae	-0.050533943
152	0xbc07c7dd	-0.008287397
153	0xbbf03508	-0.0073305406
154	0xbd88652f	-0.06659924
155	0x3d3f8a87	0.04676297
156	0xbc647f44	-0.013946358
157	0x3ce8674c	0.028369568
158	0x3d0df69c	0.034659013
159	0x3cc9f894	0.024654664
160	0xbd8c7784	-0.06858733
161	0xbd66c090	-0.056335986
162	0xbd952fdd	-0.0728452
163	0xbd109980	-0.03530264
164	0xbc82ee04	-0.015982635
165	0xbc1f2f40	-0.009715855
166	0x3d29b41b	0.041431528
167	0x3ce7d5e7	0.028300239
168	0x3ad55cf8	0.0016278317
169	0xbcf0fdd8	-0.029417917
170	0xbceb9bdc	-0.028760843
171	0xbbcd3501	-0.006262422
172	0xbc8821c5	-0.016617665
173	0xbd9490fe	-0.072542176
174	0x3c481828	0.012212791
175	0x3c211910	0.0098326355
176	0x3c694187	0.014236814
177	0xbd5bd956	-0.053674065
178	0x3ce63b69	0.0281045
179	0x3d0e2a28	0.034708172
180	0xbc6d2f68	-0.014476635
181	0x3b537340	0.003226474
182	0xbcd00d4c	-0.025396965
183	0x3d3fde59	0.046842907
184	0x3d2dc392	0.04242284
185	0x3cd0a110	0.025467426
186	0xbd1c073a	-0.03809283
187	0x3c7483c8	0.014923997
188	0xbca911c2	-0.02063835
189	0x3cd86550	0.026415497
190	0xbd48e362	-0.049044974
191	0xbd4f215e	-0.05056893
192	0xbd7e8be0	-0.062145114
193	0x3c7f20bb	0.015571768
194	0xbd8f7f6c	-0.07006726
195	0x3cf6b06c	0.030113421
196	0xbbc09170	-0.0058767125
197	0xbce2a8d8	-0.027668402
198	0xbd89ab76	-0.06722157
199	0xbca6c5b2	-0.02035794
200	0x3d3cd858	0.04610476
201	0x3c8c9d37	0.01716481
202	0xbc85ed58	-0.016348526
203	0x3d54339e	0.05180704
204	0x3b0a3473	0.002108839
205	0x3cf7133d	0.03016054
206	0xbd45e927	-0.048318055
207	0xbd88be99	-0.066769786
208	0x3cb49e72	0.022048209
209	0xbce47155	-0.027886072
210	0x3d480ba7	0.048839238
211	0x3c94a14c	0.018143319
212	0x3d235ebb	0.039885264
213	0x3c3f8010	0.011688247
214	0xbd502866	-0.050819777
215	0x3cc37f98	0.023864552
216	0xbd59143f	-0.052997824
217	0x3ce94c00	0.028478622
218	0x3d42d123	0.04756273
219	0xbd10c5ab	-0.03534476
220	0xbcdf47b0	-0.027255863
221	0xbd4eab49	-0.05045632
222	0xbd1ffd1c	-0.039059743
223	0x3c89bce3	0.016813701
224	0xbd23b244	-0.03996493
225	0xbd82ec93	-0.06392779
226	0x3c3adf97	0.011405847
227	0xbbf0a455	-0.0073438087
228	0xbcbb14f4	-0.02283714
229	0x3c1ba760	0.0095003545
230	0xbd705150	-0.058671296
231	0xbbe1fb48	-0.00689641
232	0x3d5f596e	0.054528646
233	0xbc69a89c	-0.014261391
234	0x3d0c5c97	0.034267988
235	0x3d444ada	0.047922947
236	0x3c96afdc	0.018394403
237	0xbce332cf	-0.027734188
238	0xbc0b49e1	-0.008501501
239	0x3d3c5fe5	0.04598989
240	0xbd158187	-0.03650048
241	0xbd681185	-0.056657333
242	0xbd36ac3b	-0.044597846
243	0xbd5e576a	-0.054282583
244	0xbd907e9d	-0.070553996
245	0x3bf1a870	0.0073748156
246	0x3d3ccfb4	0.04609652
247	0xbcf92160	-0.030411422
248	0x3d02879c	0.03186761
249	0x3d1ebab0	0.038752258
250	0xbcef7a15	-0.029233018
251	0x3bae8f60	0.00532715
252	0xbd87dc88	-0.0663386
253	0xbd67dee6	-0.056609057
254	0xbc3d705f	-0.011562436
255	0x3d43dbca	0.04781703

fc3.bias f4 [4]
0	0xbc84bd08	-0.016203418
1	0x3bb60dbe	0.0055558374
2	0xbb991f0e	-0.0046728915
3	0x3d0787e0	0.033088565
